TrainedModels/0035-sample/scale_factor=0.750000,alpha=10/1/netD.pth (torch, 127382 bytes, 25 tensors)

head.conv.weight f4 [32, 4, 3, 3]
00000000: 579f 743c 9668 c3bb 0f07 403c 05d5 0a3d
00000010: 9c7a 81bc d7d8 83bc 8054 8dbb 5a5b 1dbb
00000020: 08ff 42bb d1b7 af3c 2a68 c33a 7f39 8dbb
00000030: e3a8 783c b514 35bc 5119 b03b d059 08bb
00000040: e926 15bc c774 24bc b7b1 8e3c d3e1 49bc
00000050: c609 423c cc71 e1bc 021b 8c3c cf3b c6bb
00000060: 7e71 54b9 bd6b 44ba 23be 2ebc fef9 c0bc
00000070: cd3c aa3c e0be 143e 17d7 8ebd 1237 c5bd
00000080: 3af5 953d 1545 5bbd c18a 973d 12ea 1a3e
00000090: d4f3 22bd 2d51 49bc 7ef6 6ebc eb8b e43b
000000a0: 021f 40bb e5d9 333a 3f3e d73b 085c 6d3c
000000b0: b9bb 4a3d 3d30 48bd cb14 8abc bf66 e3bc
000000c0: 0c77 5f3c 947c 283b 5e30 29bb 49d4 573c
000000d0: 437f 5f3c 5bb5 4f3d 377c 69bd 81f8 8ebc
000000e0: 0a80 5ebd 3d54 903c e33e 29bc 8b65 833b
000000f0: 2c5f 683c e451 e23c 7c9b 883d 56e7 d8bd
00000100: bb1f 2cbd fab0 6cbc 5985 02bd 899d 1dbc
00000110: 61ef 853c a1f3 8d3d 3d21 8f3d 039b bf3d
00000120: dbba 9cbc 02c9 7dbc 5152 0fbd 7421 efbb
00000130: 0992 033c 5cff 3ebb ca84 5cbd 869b dcbc
00000140: 7a3c c1bd 8d92 e5bc c704 23bd bd34 1bbd
00000150: 568f 0b3c 467d 083d 3609 1e3c 955c 65bd
00000160: 744f 3abd c158 dfbd ca66 41bc 072b 12bd
00000170: 3f43 9dbc 36cc d13c 91e2 013d d2e1 3a3c
00000180: 4852 71bd 63b0 5abd 0a45 0cbe e66d 543d
00000190: 4b33 a43d 3b4f 583d 7155 413c bb91 203d
000001a0: aebc 623c 6aae 22bd e4a6 1ebd c7da c7bd
000001b0: 1b68 453c 4b5f 8c3c d06a 0c3d e48e 30bc
000001c0: 50a7 a6bb 000f b33c c64f 32bd f72d 0dbd
000001d0: 356e 0e3c adb3 6b3c c5a9 cf3c 4638 703d
000001e0: 39b0 043c 1eac d5bb 5831 e73c 856e 3dbd
000001f0: ff98 c7bc b47a 0e38 9ed4 aa3c ddf1 023d
00000200: f141 c63d 8a8c e63b 1638 b53c 7671 203d
00000210: 73e1 3abd bfbd 2abd 67d7 fdbb f7e1 7abd
00000220: 3c0d 12bd 97c4 b3bd cf12 223d 7eea dd3c
00000230: 60a3 fd3c 741f 163d 5c8e 423d ebaa 953d
00000240: 12fb c6bd 3129 f1bb 7198 a83d dfae 12bd
00000250: 2792 f83b b7ce 513d bb2e 06bd ce51 be3c
00000260: 2c2c 7a3d e92a d8bd 6929 b1bc f058 a83d
00000270: c70d 2cbd 6539 9aba e53a 5e3d 3b33 05bd
00000280: 3bee f03c 843c a63d 281e 0ebe a784 a0bc
00000290: a13d a63d bcbf 53bd 4cd7 f339 fe28 953d
000002a0: 96f9 26bd 32ff 363d a508 da3d d309 73bc
000002b0: 37cc 863c 5b79 e3bc fb23 2ebc 89e6 053d
000002c0: 292c 5f3c 7d49 3d3d e268 993c ca83 57bd
000002d0: 2141 18bd 01d0 9dbd fdf2 bdbc cc6a c4bc
000002e0: d185 f33c 9af9 ba3d dd84 74bd 8a6a eb3b
000002f0: 1c97 663c e576 20bd cf3e 43bd d0ec bd3c
00000300: bc75 d6b9 af31 693b 5b5d 3d3d 083b 27bd
00000310: d827 fd3b 671a bebb d73f 3abd 5bf6 22bd
00000320: 5611 1d3d 923a f83c 23f4 7b39 9a6d 843d
00000330: bedf c7bc 8040 1fbb 9e8e 853b 70c5 133d
00000340: 411f d2bc bbd7 b7bd 6926 06bc a6b0 a83d
00000350: 2deb 6bbd 9140 f6bd 5030 30bd d771 67bd
00000360: e3bf fd3b 4ad1 c3ba 6b87 89bd 6f54 f0bc
00000370: 516b 663c 1252 8c3c b81b 9a3a 8faa 573b
00000380: 6a47 4fbc d394 c83c 2c30 94bb 1ff9 b2bd
00000390: 7285 d9bc 78ad 103c ab05 c0bb f365 343b
000003a0: 1681 e33c d4e1 a8bc 7730 b63c fb6a 143c
000003b0: c316 debd 6cf7 bb3c f900 733c 4d41 dcbb
000003c0: 8c4c d9b9 7f03 123d f3b5 83bc 7570 16bc
000003d0: 07bc bbbc 0b1c 15bd 4565 31bd 93b8 a03c
000003e0: 969b fd3d c93a 093d 00e1 0a3d 567e 033e
000003f0: e2d2 083b ef52 afbb e5ec 08bc 1e4a e13c
0.014930568 -0.0059633953 0.011720433 0.033894558 -0.015805535 -0.016094608 -0.0043130517 -0.0024010749
-0.0029754061 0.021449955 0.0014908363 -0.0043098326 0.0151769845 -0.0110523 0.0053741117 -0.0020805486
-0.009103515 -0.0100376075 0.017418725 -0.012321907 0.0118431505 -0.027520083 0.017102722 -0.00604961
-0.00020260175 -0.0007492861 -0.010665449 -0.023556706 0.020780945 0.14525938 -0.06974619 -0.096296445
0.07322164 -0.05353268 0.07399512 0.15128353 -0.039783314 -0.01228742 -0.0145851355 0.0069746873
-0.0029315357 0.0006860777 0.0065686996 0.014487274 0.049495433 -0.04887413 -0.016855618 -0.027758954
0.013639223 0.002570902 -0.0025816183 0.013173171 0.013641181 0.050710063 -0.057003226 -0.01745248
-0.054321326 0.017618293 -0.010329935 0.0040099076 0.014182847 0.02762694 0.06670281 -0.10590999
-0.042022448 -0.014446491 -0.03186545 -0.009620079 0.016349496 0.06931234 0.069887616 0.09355738
-0.019132068 -0.0154898185 -0.034990612 -0.007297689 0.008030423 -0.0029143905 -0.053837575 -0.026929628
-0.09435363 -0.028023982 -0.039799478 -0.037892092 0.008518061 0.033322595 0.009645751 -0.055996496
-0.04548593 -0.109056 -0.011804292 -0.035685565 -0.019197104 0.02561007 0.03171021 0.011406379
-0.05891636 -0.05339087 -0.13698211 0.05186262 0.08017596 0.052809935 0.011800156 0.03920148
0.01383893 -0.039717115 -0.038733378 -0.09758525 0.012048746 0.017135283 0.03428155 -0.010776255
-0.005085863 0.021857738 -0.04353311 -0.034467664 0.008693268 0.0143861 0.025349507 0.058647417
0.008098655 -0.006520762 0.028221771 -0.046247978 -0.024364946 3.3969714e-05 0.020853337 0.03196894
0.09680546 0.0070357965 0.02212147 0.039170705 -0.04562516 -0.041684862 -0.007746625 -0.061250653
-0.035657153 -0.08777731 0.03956872 0.027089354 0.030961692 0.03665109 0.047499046 0.07307991
-0.097158566 -0.0073596467 0.08232201 -0.0358113 0.007585782 0.05122253 -0.03275941 0.023232367
0.06107728 -0.105550595 -0.021626191 0.082200885 -0.042005327 -0.0011766372 0.054255385 -0.03251956
0.029410472 0.08117011 -0.13878691 -0.019594504 0.081172235 -0.051696524 0.0004650898 0.07283209
-0.040765367 0.044676967 0.1064618 -0.014833885 0.0164548 -0.027767828 -0.010628696 0.03269056
0.013621368 0.046212662 0.01872677 -0.05261592 -0.037171487 -0.07705689 -0.023187155 -0.023976706
0.029726895 0.09129639 -0.05969702 0.0071843313 0.014074113 -0.039175887 -0.04766732 0.02318421
-0.0004090498 0.0035582592 0.04623161 -0.04082778 0.007725697 -0.0058014872 -0.04547104 -0.039785724
0.03834661 0.030301366 0.00024028173 0.06466217 -0.02439868 -0.002429992 0.004075839 0.036076963
-0.025649669 -0.08976694 -0.008187869 0.08236818 -0.057597328 -0.12024034 -0.043014824 -0.05650505
0.007743822 -0.0014939692 -0.06715282 -0.029337136 0.014063672 0.017128978 0.0011757528 0.0032908057
-0.012651304 0.024485027 -0.004522344 -0.08738922 -0.02655289 0.008830421 -0.0058600507 0.0027526587
0.027771514 -0.020615496 0.022239907 0.009058709 -0.10844185 0.022945128 0.014831775 -0.0067216516
-0.00041446497 0.035647865 -0.016077971 -0.009182085 -0.022916807 -0.036403697 -0.04330947 0.019619262
0.12383191 0.033503328 0.033905983 0.12841162 0.002087765 -0.0053504626 -0.008357261 0.027501162

head.conv.bias f4 [32]
00000000: 2a4d 87bd 677f af3c 8e0d 013e 7ef7 f2bc
00000010: 3f29 b93c 486b 0cbe c821 a3bc e518 7e3e
00000020: ba51 b7be a462 a43d 2490 dbbe afcf c03c
00000030: e6c9 c0bd a9ce 113d 1e2d 35be 67f6 183c
00000040: 899a 95be 018c 1fbe 0f05 b5bd a89f 65bd
00000050: d9eb 17bf 50c5 703d 5d2b 293c 02bb 07be
00000060: 826a 08bc 847b d23e 772b aa3d da89 1f3d
00000070: babb 1b3d dd4a c6bc 07b8 2cbc fd4d 183b
-0.06606515 0.021423055 0.12602827 -0.02965903 0.022602675 -0.137128 -0.01991357 0.24814184
-0.3580454 0.08026627 -0.42883408 0.023536531 -0.09413509 0.035597477 -0.17692992 0.009336091
-0.29219463 -0.15580751 -0.088388555 -0.056060463 -0.5934425 0.058781922 0.01032528 -0.13254932
-0.008326175 0.4110986 0.083090715 0.038949825 0.038020827 -0.02420562 -0.010541922 0.0023239844

head.norm.weight f4 [32]
00000000: 7c36 653f f8f6 843f 4fb9 7f3f 9ad7 373f
00000010: 1409 6a3f f4a8 413f bf69 3e3f 56d6 143f
00000020: b217 323f ce75 1c3f 59fe 593f 184b 813f
00000030: 763a 4c3f 8ac3 353f d19f 3d3f 73d3 793f
00000040: ef31 3a3f 9988 603f 49ae 403f e25f 5a3f
00000050: 85fb 683f 306f 5f3f b350 593f 721a 753f
00000060: 0601 493f 1a05 7b3f 2740 5c3f 0599 663f
00000070: 0f1f 523f 6517 373f 39b6 323f b1d7 593f
0.8953626 1.0387869 0.99892133 0.71813357 0.914201 0.75648427 0.74380106 0.5813955
0.69567406 0.61117256 0.8515373 1.0101042 0.79776704 0.71001494 0.74071985 0.9758827
0.7273244 0.8770843 0.7526594 0.85302556 0.9100879 0.87279034 0.8488876 0.9574348
0.78517187 0.9805466 0.8603539 0.9007724 0.8207864 0.7152007 0.698093 0.85094744

head.norm.bias f4 [32]
00000000: efc7 363f 9718 b13e 5067 f03e af55 9d3f
00000010: b073 573e 20f6 5a3f 5b9b 5a3f 632c 763f
00000020: af4a 943f f6c7 cb3f e34f 583f a4f7 60be
00000030: 0802 8b3e ecd9 563f 97e8 9a3f e60f b83c
00000040: e41f a33f 8927 543f 0b06 723f a906 4e3f
00000050: d64e 483f c71f 31bf 0aa7 9e3e 4b03 7a3e
00000060: b30e 853f 3751 28be 9549 70bb ad54 78be
00000070: 651f 2e3f 252d 163f e8b4 193f 1cff 413f
0.71398824 0.34589073 0.4695382 1.2291774 0.21040225 0.85531807 0.85393304 0.9616148
1.1585292 1.5920398 0.844969 -0.21969467 0.27149987 0.8392627 1.2102231 0.022468518
1.2744107 0.82872826 0.9454047 0.8047891 0.78245294 -0.69189113 0.30986816 0.24415319
1.0395111 -0.16437231 -0.0036664952 -0.24251051 0.68016654 0.58662635 0.60041666 0.7577989

head.norm.running_mean f4 [32]
00000000: 6b7e 98bd 6cf0 3a3c a04f df3e f606 96bd
00000010: e994 26bd 09ee b2bd f8b4 713d 4781 573e
00000020: 805c 04bf a9c4 4cbc 3f09 edbe 6c7c b03d
00000030: 712a 83bd 83ee 29bd d2f0 31bd 415e a23c
00000040: d970 ebbe 9226 b4be 4059 24be b1e4 a7bd
00000050: 92fd 1cbf 7974 523e 578a 3fbc efb0 babe
00000060: f4fc a4bd 1a96 d23e 033d b13d 7d78 a93d
00000070: ff5a 4bbd 4e5d 3fbe c59f 82bd 20d0 183d
-0.07445987 0.01140986 0.43615437 -0.073255464 -0.040669356 -0.08736808 0.059010476 0.21045409
-0.51703644 -0.012498059 -0.46296117 0.086174816 -0.064045794 -0.041487228 -0.043442555 0.019820334
-0.45984533 -0.35185677 -0.16049671 -0.08197916 -0.6132442 0.20552243 -0.011690698 -0.36463115
-0.080560595 0.41130143 0.08654215 0.082749344 -0.049647328 -0.18687937 -0.0637813 0.03730786

head.norm.running_var f4 [32]
00000000: 1eba 313d d2f2 733c 6e05 073d e9a7 3d3c
00000010: 7529 973c 0796 7d3d 6eb8 2d3d e074 183c
00000020: 1115 6b3c 7c0d 273c fe5c cb3c 7335 ee3c
00000030: d2e2 a63c 719d c03c 4a37 603c 1f51 0e3c
00000040: 589e 073d 801f f93c 40bb ea3b 025c b23c
00000050: f850 753d 74ad c43c d122 b83b 9a9e 613d
00000060: f3f6 823c c1fa 5a3c 6501 4d3c 08c7 133d
00000070: 2d47 b33d cc78 793c 99ca d13c 5287 8f3d
0.043390386 0.014889436 0.032964163 0.011575677 0.018452385 0.061910655 0.042412214 0.009305209
0.014348284 0.010196086 0.024824616 0.029078221 0.020371828 0.023512574 0.013685057 0.008686333
0.033109993 0.030410528 0.007163435 0.021772388 0.05989167 0.02400849 0.005619385 0.055082895
0.015986895 0.013365448 0.0125125395 0.036078483 0.0875381 0.015226554 0.025609301 0.07008232

body.block1.conv.weight f4 [32, 32, 3, 3]
00000000: 1dc9 dbbc 5613 40bd b593 b0bb a18a 96bd
00000010: 18fb 90bb 17a7 e1bc 4462 f1bc ed4b 0abd
00000020: 23ab b93c 5b53 89bc 3f66 50bc b6a4 4bbd
00000030: 5a7b 423d a7ca 1c3d e5d4 01bd 7c05 343c
00000040: 663a 343d ce9b 3bbc 0706 adbc 0b39 aabd
00000050: c023 f7bd d981 01bd cb50 b9bd 94d5 4abe
00000060: a55e 8e3d fd93 abbd 0ac3 02be 1cfc 58bd
00000070: 0032 14bd 7856 fbbc 13ff 8a3c 97c7 8d3c
00000080: 354a 673d 86c5 85bc 674f 553d 5038 35bc
00000090: 2d0d babb 9367 333d b2f9 093d 718f a5bb
000000a0: 0b1d eeb9 b64a 22bd 707f 9bbd 5e02 a1bd
000000b0: f142 ddbd ff93 2dbd e04c bfbb ebcc a1bd
000000c0: 4611 24bd 5b2f 88bc d938 87bd 8529 dcbc
000000d0: 355d 86bc 6b19 babd 89a1 163d 1f39 51bd
000000e0: 27e6 a3bd 91a2 98bc 26b2 aabc 5068 90bc
000000f0: 5d22 f33c cecc dc3c 0a64 543d 1eef 79bd
00000100: 9340 113d 9eb7 a6bc 5af6 fdbc ce40 8bbc
00000110: 70e3 963c 3a56 763c fb76 163c b930 a8bd
00000120: 7cae 373c 1478 dc3c 8605 64bc c57e 81bc
00000130: b0bf 86bc e471 a3bc 75e8 1dbd 190b 4dbc
00000140: 91c8 38bd 805f 8cbc cbf6 3fbd c0bf a73d
00000150: d949 4fbd c72d f9bc ae65 f9bb f30b 53bd
00000160: 91aa c43c 3e29 8d3c 9b25 1abd 1d70 1bbd
00000170: 5fef ddbd 4907 3abd 19ac dcbb 464f c4bd
00000180: 14b4 90bd 970b ddbd ba42 5fbd f1f9 9f3c
00000190: e578 2a3c 7004 793d a835 5dbb 42f0 b1bc
000001a0: 9f83 1b3d 17a6 d23c 9b91 47bb 4612 efbc
000001b0: c606 edbc 4b1d 2a3d 872b 523d 5707 44bc
000001c0: a135 c2bb 7ff3 f23c 2b52 9f3d b263 0f3c
000001d0: ecde 123d 6dd1 8fbc 8283 9d3c df18 003d
000001e0: ff32 5c3c f661 f73b c4d8 6c3c 5abe 34bd
000001f0: 28b3 723d 457c 3cbc fe12 933a 9302 debc
00000200: eb10 4b3a eb24 3d3d 2efd 6a3d fd22 35bc
00000210: 3be6 8c3d bf15 a23d 5e2f 9c3d a806 813b
00000220: fcb2 253d f5cb 08bc ab8a 01bd f511 36bd
00000230: c216 31bd 85bf 703c 6af2 fb3c 3c81 c03c
00000240: 3716 923c a0a6 6cbd aef0 cb3d d0f0 56bd
00000250: c8d3 81bd f39b 72bd 6978 3b3d 8145 ce3c
00000260: b3b6 4e3c 250a 843d 8ae3 813c 99ad 99bd
00000270: 6f63 0e3c cbc2 4bbd 487d 81bd 1b57 d93b
00000280: 2043 e3bc 1a71 6cbd bbb0 b5bc 2119 b23a
00000290: bd1c 8b3c 7470 edbb 13c5 f13c 7e4e 15bd
000002a0: c815 9fbd b808 b0bc dd52 fbbc 3601 8bbd
000002b0: 180d 59bd 1f73 55bd 147e 2dbd 3f08 3cbd
000002c0: a04d 28bd 2987 70bd d5b0 c7bc 0b96 23bd
000002d0: c34e 0cbc ada8 13bc 5169 fbbd e556 3bbd
000002e0: 66b3 a7bd 900b 82bd ac64 11bd 3a17 21bd
000002f0: ebbf a0bd 5f2c 29bd 9464 29bd ce28 b43c
00000300: 63a9 8eba 183e eabc 502a a3b8 a1c0 83bd
00000310: 878f 03be d551 9ebd ea60 6d3d cd78 253d
00000320: 52fc 823c 4a36 953c 3d07 5c3d 0237 64bc
00000330: 96b3 083d e83c 923d c01a 08bd 6ed4 f13b
00000340: 3600 a53c 1643 c13c 0424 673b 3198 d8ba
00000350: 4bfa 963d a8fe 79bd 0017 d33c 18ce abba
00000360: f76d 31bc b328 863d 9b3d e23d 4ffb abbc
00000370: 809c f1bc 1e75 293c 54db bd3b 578d 25bc
00000380: d20a 363d fcab 67bd 4482 08bc 3236 893c
00000390: 9361 123d 9982 893c 8826 153d 8cca e53c
000003a0: 9f39 2f3c bce5 a53b 9495 8c3d fd0a c23b
000003b0: ce4e 2abd a228 ad3c ae7e 41bd f866 53bb
000003c0: 560d 03bc a05c 73bd f4e2 c73a a374 813d
000003d0: 3246 b23d 65b5 b43d 05b2 443d 319f 563c
000003e0: e7f1 a33c ec73 e6bc e05b 91bd 3982 0d3d
000003f0: 0164 61bd 6273 153c d247 443d 60d1 09bd
-0.026829297 -0.04689344 -0.005388702 -0.0735066 -0.004424464 -0.027545495 -0.029465802 -0.033763815
0.022664612 -0.01676338 -0.01271969 -0.049717627 0.04748092 0.0382792 -0.031697173 0.010987636
0.044001006 -0.011450721 -0.021121038 -0.08311661 -0.12067366 -0.031617973 -0.09048613 -0.19808036
0.06951646 -0.08377836 -0.12769714 -0.052974805 -0.036180496 -0.03068088 0.016967332 0.017307086
0.056467254 -0.016329538 0.052077677 -0.011060789 -0.00567784 0.043799948 0.033685394 -0.0050525
-0.00045416536 -0.03962203 -0.07592666 -0.0786178 -0.10803784 -0.04237747 -0.0058380216 -0.07900413
-0.040055536 -0.016624143 -0.0660264 -0.026875267 -0.016401866 -0.09086879 0.036775146 -0.051079866
-0.080028825 -0.018632205 -0.0208369 -0.017627865 0.029679472 0.026953127 0.051853217 -0.061019056
0.035461973 -0.020351227 -0.031001259 -0.016998675 0.018418998 0.015035206 0.009183641 -0.08212418
0.011211034 0.026912726 -0.0139173325 -0.015807519 -0.016448826 -0.019951768 -0.038551766 -0.012514853
-0.04511315 -0.017135382 -0.04686622 0.0819087 -0.050607536 -0.030417336 -0.007610998 -0.051525068
0.024007114 0.01723158 -0.03763352 -0.037948716 -0.10836672 -0.045417104 -0.006734383 -0.09585433
-0.07065597 -0.10793226 -0.054506995 0.019528361 0.0104048 0.060795248 -0.0033753905 -0.02172101
0.03796732 0.025713963 -0.0030451778 -0.029183518 -0.028933894 0.041531842 0.051311042 -0.011964641
-0.005926803 0.029657124 0.07779344 0.008751797 0.035857126 -0.017555917 0.019227747 0.03127372
0.013439893 0.0075495197 0.014455978 -0.044126846 0.059252888 -0.011504238 0.001122087 -0.027100837
0.00077463564 0.046177786 0.057370357 -0.011055705 0.068798505 0.07914304 0.07626222 0.003937561
0.040453896 -0.008349408 -0.031626385 -0.04445072 -0.043234594 0.014694099 0.03075524 0.023499124
0.017832858 -0.057776093 0.099580154 -0.05247575 -0.06339222 -0.059230756 0.04576913 0.025179626
0.012616801 0.064472474 0.01585557 -0.07503814 0.008690699 -0.049746316 -0.063227236 0.0066326982
-0.027741969 -0.05772505 -0.022178998 0.0013587811 0.016981477 -0.0072460715 0.029512918 -0.03645181
-0.07767826 -0.021488532 -0.03067916 -0.0678734 -0.052991003 -0.05211174 -0.042356566 -0.0459063
-0.041089654 -0.05872265 -0.024376312 -0.039938014 -0.0085637 -0.009012383 -0.12275947 -0.045737166
-0.081885144 -0.063498616 -0.0354964 -0.03932879 -0.078491054 -0.04130208 -0.041355684 0.021992113
-0.0010884221 -0.028594062 -7.780327e-05 -0.064332254 -0.1284772 -0.07730452 0.057953753 0.040398408
0.015989456 0.018214364 0.05371784 -0.0139291305 0.03337439 0.07140523 -0.033228636 0.00738006
0.020141702 0.02359156 0.003526927 -0.0016524849 0.07371958 -0.061033875 0.025767803 -0.0013107685
-0.01082944 0.065507315 0.110469066 -0.020993857 -0.02949357 0.010342864 0.005793968 -0.010104499
0.044443913 -0.0565605 -0.008331839 0.016749475 0.035737585 0.016785907 0.0364137 0.028050683
0.01069489 0.005062787 0.06864467 0.00592172 -0.04157906 0.02113754 -0.04723995 -0.003225742
-0.007998785 -0.059414506 0.0015250132 0.06321075 0.08704795 0.08823661 0.048021335 0.013099478
0.020012809 -0.028131448 -0.07097602 0.034548018 -0.05502701 0.009121748 0.047920056 -0.03364694

body.block1.conv.bias f4 [32]
00000000: c676 953d c312 5d3d 30ea 653c 32f2 453c
00000010: e0f0 863d 43b7 5a3d 8026 bcbc 6f9d 263e
00000020: 4259 c73d 556d b33d 7393 3cbd 2730 123d
00000030: 30ab 8e3d 7ea6 503c 9c60 d83d 7b65 853d
00000040: c6cd 8bbc 2109 5b3d 0bed f93d dbc7 163d
00000050: d87c 103e fa54 0b3d 53ff 323d d431 603d
00000060: ce4d 233d 480a c63d 71e9 d63c 8d84 a33d
00000070: d8c6 883c 098a 853d b67a 16bd 81ba 403e
0.07298045 0.05397297 0.014032885 0.01208167 0.06588912 0.05339743 -0.022967577 0.16270994
0.097338215 0.08761088 -0.046039056 0.035690453 0.06966245 0.012735007 0.10565302 0.065134965
-0.017065894 0.053475503 0.122034155 0.03681169 0.14110124 0.034016587 0.043700527 0.05473502
0.039869122 0.0966993 0.02623436 0.079842664 0.016696379 0.06520469 -0.03673812 0.18821146

body.block1.norm.weight f4 [32]
00000000: 1600 2a3f 2db5 7c3f 1dec 513f 4d60 3c3f
00000010: 0d61 5d3f 1888 4f3f 0127 863f 13f4 4c3f
00000020: 17aa 783f b26a 4c3f 85a9 4c3f 7e22 5e3f
00000030: 9795 7a3f c342 6c3f 6dea 5a3f 01fe 2c3f
00000040: dc8c 4e3f b7b9 643f ceea 3a3f d699 563f
00000050: c2f1 5a3f 5097 5a3f d53f 483f a323 793f
00000060: cf34 4a3f 082e 513f 37b9 683f 250d 633f
00000070: 3792 443f 3b76 703f 323d 883f 4847 483f
0.6640638 0.9871395 0.82000905 0.73584443 0.8647621 0.8106704 1.0480653 0.8005993
0.97134537 0.79850304 0.79946166 0.8677138 0.97884506 0.9228937 0.85513955 0.6757508
0.80683684 0.8934588 0.73014534 0.83828485 0.85525143 0.85387135 0.782224 0.9732
0.7898683 0.81710863 0.90907615 0.8869193 0.76785606 0.93930405 1.0643675 0.78233767

body.block1.norm.bias f4 [32]
00000000: a451 103f f40e 9a3e 002b 483f ff6b 373f
00000010: bb7c 5e3f 3cd2 1f3f 95ee e43d 5bf5 7e3f
00000020: 1429 cabc 8a26 4b3f 7138 593f 0efa b93e
00000030: eb35 873e 40b4 a03e d7d5 533f c3ad 9e3f
00000040: 489c 1f3f 5beb e43e 17c1 073f dca4 373f
00000050: dc75 3f3f 510b 053f 5a6c 6f3f 673a 053e
00000060: a4be 8d3f 2b31 4c3f c581 663f e8a4 fd3e
00000070: 426f 0e3f f059 393f 911c 783d 094b 4a3f
0.56374574 0.30089533 0.7819061 0.71649164 0.86909074 0.6243017 0.111783184 0.9959313
-0.02467779 0.7935568 0.8485175 0.3632359 0.26408324 0.3138752 0.8274817 1.2396778
0.6234784 0.44710812 0.53029007 0.7173593 0.74789214 0.5197039 0.93524706 0.1301056
1.1073804 0.79762524 0.9004176 0.49539876 0.55638516 0.7240286 0.060574118 0.79020745

body.block1.norm.running_mean f4 [32]
00000000: fd9e 29c0 89a9 a7bf 4a55 3fbf fca2 9fc0
00000010: 8a16 e03e 3a13 b9bf f819 03c0 ef8e 3f40
00000020: 9a81 ecbf 6526 babf 988b 1dbf f018 c8bf
00000030: 83d0 07c0 079b 7fbe e503 d9be 0505 b7be
00000040: 0c6c efbf 9adc 5a3e 96b6 38bf 5ff9 0bc0
00000050: 46e5 a83f b5bc 22c0 84f5 d0bf fded 02bf
00000060: d925 523e 3c79 18c0 250d 4ec0 7f1e e6be
00000070: bfac c23f 9048 2cc0 64c7 0a3e a7bf e63f
-2.6503289 -1.3098613 -0.74739516 -4.9886456 0.43767196 -1.4458992 -2.04846 2.993099
-1.8477051 -1.4542967 -0.6154113 -1.563261 -2.1221015 -0.24961482 -0.42385784 -0.35746017
-1.8704848 0.21373215 -0.72153604 -2.1870954 1.3194969 -2.5427678 -1.6324925 -0.5114439
0.2052225 -2.3823996 -3.2195523 -0.44945142 1.5208968 -2.6919289 0.13552624 1.8027238

body.block1.norm.running_var f4 [32]
00000000: 9766 b43e 69a6 ec3e 39aa 8f3f 9aa6 da3e
00000010: e0b4 043f 7906 463f 879e 303f f7a2 243f
00000020: f098 ee3e 0455 4840 094d 8a3f ba42 8f3e
00000030: d783 993e bf23 493f 33b3 5840 cb77 1a3e
00000040: 5a92 d53e 4a45 fb3e 18ad c13f 64d2 a83f
00000050: dffa 023f ed2e ff3e c70e 7f3f f8a7 fd3e
00000060: 5866 593f 231c 833f 9986 2e3f 5a9f 783f
00000070: 7729 2d3f 7fd9 b13f 4e19 0040 edc8 b23e
0.3523452 0.4622071 1.1223823 0.42705232 0.51838493 0.77353626 0.68991894 0.64311165
0.46601057 3.130189 1.0804759 0.27980596 0.29983398 0.7857017 3.3859375 0.1508476
0.4171322 0.490763 1.5130949 1.3189206 0.5116405 0.4984049 0.99631923 0.49542212
0.8492179 1.0242962 0.6817413 0.9711815 0.67641395 1.38945 2.0015445 0.3491892

body.block2.conv.weight f4 [32, 32, 3, 3]
00000000: 51a7 073d 7314 d5bc 6458 3abd e55e d43c
00000010: 5f59 59bd 538a 183d 3ff7 6b3d 20a4 493d
00000020: 1466 8d3d 8e88 8cbd fcad 8ebd 1624 cbbd
00000030: 297c 913d c5f7 803b 8a31 3bbd be47 b93d
00000040: 77e3 993b 4011 2b3c c884 283c 5105 1cbc
00000050: 7e2c 93bc 2f59 713d e750 793c 81fc 17bd
00000060: 16db 143e eb85 b23d eca9 603d 7102 b13a
00000070: 664e 153d 86ad a9bc a871 70bd 44ba 1b3c
00000080: f9eb da3c 59a6 d8bd 7a1a 05bd df82 0fbd
00000090: 1026 223e e3d7 fb3c f6e3 b23d abce 943c
000000a0: 2e28 22bd 6744 b5bd 3588 dd3d 76c5 6c3b
000000b0: 88b0 27bd a061 2b3c 222c 9c3d dcb6 743d
000000c0: 39cc 6dbd 84b5 26bc 711a fe3c 307b 91bd
000000d0: 083f 99bd ab8c c4bc fa08 f839 66f4 1dbd
000000e0: 14d5 1a3c 82a5 d33c 5fc9 78bd d855 17bc
000000f0: 9cf6 383a 3d6d e7ba 2124 a33d 10d2 8cbd
00000100: c7ba 8b3b 2d8b 393d 9ae9 cdbd efde 58bd
00000110: 8569 6dbb 4931 46bd f528 be3c 5d77 943d
00000120: c2c8 d8bc 2f26 c9bc 1b01 9abd 06ec 833b
00000130: 9975 013c 268e a2bc b82b bc3b b2ab 95bc
00000140: 1d6e c5bd e95b 25bd f731 53bc dad9 ba3d
00000150: 3dde a3bd c424 cbbc 9760 603b 64e7 8cbd
00000160: 3368 5fbd 777d a4bd a5e4 22bd 86a6 e13c
00000170: 92ec 8abc e04a 54bc e9bb eabc d8f5 85bd
00000180: 172a cf3d 39df a93d cab0 2e3c 6219 1f3c
00000190: a6cb 87bd f233 38bd 0487 2c3c 08a7 003c
000001a0: c523 c83c dd47 913d 25b2 383c 357d c13c
000001b0: 82a7 c6bc b6d3 1abc 350d a7bc cf8b 8bbd
000001c0: b304 81bd dc79 efbb bfc0 b6bd ccb9 a4bd
000001d0: b547 acbd 9c23 ffbc 5c77 3c3c 28ef 5fbd
000001e0: e374 c43b 80ce 013c f25c fabc efed d03b
000001f0: 39c3 bcbb bfc4 27bc d16b 6dbc bab8 f03c
00000200: d326 243d b968 8e3d 2fb5 0b3d bcc6 873d
00000210: c88f f33d d2d1 893d 73f0 563d 0350 5e3d
00000220: 1cd5 abbc fb3c 47bd bbc0 cc3c a43c afbc
00000230: 37dd d239 ac05 f2bd 9480 32bd 6156 d83d
00000240: f8db 123b 5dd9 a1bd 8304 7cbd aabe 58bc
00000250: ba75 8bbc 3e67 a93b bb41 8f3d 42ea c93d
00000260: 47a5 c63d d1b4 73bd c052 6c3d b373 943d
00000270: 7c16 5eb9 cb7a 303c 9314 29bd 44ce 81bd
00000280: 11f8 0b3d 8c3e 91bd c037 9dbc d843 41bc
00000290: b919 493c 8397 5b3c f4b5 d6bc f984 9c3c
000002a0: 05aa adbc ab70 063d 6cae de3d 7227 943d
000002b0: 1897 9a3d 0e60 1f3e 8d2e 533c f6b4 703d
000002c0: 7c0c 893d 8e99 2b3c 97fe ecbc fa54 a9bc
000002d0: 3ce9 6f3d 563d 933c 7fa8 1a3d 537a 67bb
000002e0: 18e9 e6bc 788d adbb 04b4 7e3d 4b4f 32bd
000002f0: 93e8 9dbd 4e05 0cbd 67a2 173d 2261 09bc
00000300: 5b1b 2dbd 977f 413d f600 263c 930d 6bbd
00000310: 6370 833c e50a f73c e44b 3cbd ecd4 44bd
00000320: de65 1bbd d672 efbd 007c bfbc 89f5 4abd
00000330: 2323 98bc 548b 2e3c 34a0 303d 0122 8cbd
00000340: 4837 553d eca4 52bc 4295 f3bb 6fcd 663d
00000350: a22b efbc 7fdb 98bd a1dc 24bd 2648 93bd
00000360: 1405 c03d bbec 9e3d 07e5 da3d d85c af3b
00000370: 84d8 29bd d624 ffbb 5eb5 103e a7a3 b23d
00000380: a372 6f3d 3c89 963c d9e3 6bbb e545 55bd
00000390: f943 233d 512c 8ebc 3fad e73b f5f0 973c
000003a0: c889 88bc 6c32 e23b c55f d73c c11f d43b
000003b0: 39fa 6c3d 1eaf bc3d 3259 483c 21cd 2c3c
000003c0: e324 da3d 95fe 373d 81a7 713c f7e9 513d
000003d0: 4149 c23d 6e73 213e 352e 20bd 5487 a83c
000003e0: 920b 0cbc ad62 a8bc 7355 09bd 9fb8 efbb
000003f0: fe9f 343c 5c8a e8bc 65ab 3cbd 5f5a 563d
0.03311855 -0.026010728 -0.045494452 0.025924155 -0.053063747 0.03724129 0.05760884 0.049228787
0.069042355 -0.06861983 -0.06966779 -0.09918992 0.0710376 0.0039357864 -0.04570154 0.09046887
0.0046963054 0.010441124 0.010285564 -0.009522752 -0.017965551 0.058922943 0.0152170425 -0.03710604
0.145367 0.08716949 0.05484955 0.0013504756 0.03645172 -0.020712625 -0.05870214 0.009504858
0.026723849 -0.10578603 -0.032495953 -0.035036918 0.15834832 0.030742591 0.08734886 0.018164953
-0.0395891 -0.08850937 0.10816995 0.0036128438 -0.040939838 0.010460287 0.07625605 0.0597447
-0.05805609 -0.010175113 0.031018468 -0.07103574 -0.074827254 -0.023992857 0.00047308934 -0.038563155
0.009450216 0.025835756 -0.060738917 -0.009236775 0.00070557906 -0.0017656457 0.079658754 -0.06876004
0.004264209 0.045298744 -0.100543216 -0.05294698 -0.0036226225 -0.048386846 0.02321289 0.07249329
-0.026462916 -0.02455434 -0.07519742 0.004025939 0.007901573 -0.019843172 0.0057425164 -0.018270347
-0.09640143 -0.040370855 -0.0128903305 0.09123583 -0.08001373 -0.024797805 0.003423726 -0.06880072
-0.05454273 -0.08031743 -0.039768834 0.027545225 -0.016958509 -0.012957305 -0.028654056 -0.065410316
0.1011545 0.082945295 0.010662267 0.009710642 -0.0663064 -0.044971414 0.010530237 0.007852323
0.024431119 0.07093785 0.011272942 0.023619274 -0.024249796 -0.00944989 -0.02039204 -0.06813776
-0.062997244 -0.007308228 -0.08923482 -0.080432504 -0.084121145 -0.03114491 0.011503067 -0.054671437
0.0059953793 0.007922769 -0.030561898 0.00637602 -0.005760577 -0.010239779 -0.014491037 0.02938496
0.04007609 0.06953568 0.034108337 0.066297024 0.118926585 0.06729473 0.052475404 0.054275524
-0.020975642 -0.04864214 0.024994245 -0.02139122 0.0004021914 -0.11817488 -0.043579653 0.105633505
0.0022408944 -0.07902787 -0.06152774 -0.013229052 -0.01702391 0.005169778 0.06994959 0.09859134
0.09699493 -0.05949861 0.057696104 0.072486304 -0.00021179946 0.010771464 -0.041279387 -0.0633817
0.03417212 -0.07092008 -0.019191623 -0.01179596 0.012274199 0.013402822 -0.026209809 0.019106375
-0.021199236 0.032822292 0.10873112 0.07234086 0.0754835 0.15563986 0.012889517 0.058766328
0.06691834 0.010473622 -0.028929992 -0.020670403 0.05857204 0.017973583 0.037758347 -0.0035320714
-0.02818732 -0.0052964054 0.062183395 -0.04353265 -0.07710376 -0.034184746 0.037020113 -0.008384975
-0.042262416 0.04724082 0.010132065 -0.057385992 0.016044801 0.030156562 -0.045970812 -0.04805462
-0.037938945 -0.11691825 -0.023374557 -0.049550567 -0.018571442 0.010653336 0.04312153 -0.06842423
0.052054673 -0.012856703 -0.0074335644 0.05634826 -0.02919561 -0.074637406 -0.04024947 -0.071914956
0.093759686 0.077599965 0.10688215 0.005351644 -0.04146625 -0.0077863736 0.14131686 0.087226205
0.058458935 0.018375985 -0.0035993962 -0.05206861 0.039859746 -0.017355116 0.007070213 0.018547514
-0.016667262 0.0069029834 0.026290784 0.006473512 0.05785582 0.092130885 0.012228297 0.010546953
0.10651567 0.044920523 0.014749409 0.051248517 0.09486628 0.15766689 -0.039106566 0.020572342
-0.00854768 -0.020554865 -0.033528756 -0.0073157097 0.011024473 -0.028386287 -0.046061892 0.05233228

body.block2.conv.bias f4 [32]
00000000: 0d1c 183d cb7b 9e3d e00d 3b3d c9f2 ce3c
00000010: c6fd 563d 968c 56bd d820 aabd ce26 ffbb
00000020: d738 c53d 0eb4 8abd fb94 bc3c 9b81 8c3d
00000030: ad32 63bd a604 9c3c 9bfd 7d3d 65f5 9a3d
00000040: 4b84 b53d ac3b f23c 2767 003e 7195 113e
00000050: 682b 99bd 0b9b ab3d ad8f 07bd a7be c9bb
00000060: 6581 72bb d44a c13d 6654 e13d 7f18 c03d
00000070: 70dd 033e ee3d d53d cdc3 0a3c 60e2 d73c
0.037136126 0.077384554 0.04566753 0.025262253 0.05248811 -0.052380167 -0.08307046 -0.0077866083
0.09629982 -0.06772624 0.023020258 0.06860658 -0.05546825 0.019045185 0.062009435 0.075663365
0.088631235 0.02956947 0.1253935 0.14217164 -0.07478982 0.083791815 -0.033096004 -0.0061567607
-0.0037003395 0.094381005 0.11002426 0.09379672 0.1287744 0.10412203 0.008469534 0.026353061

body.block2.norm.weight f4 [32]
00000000: 15d5 6f3f 21c6 553f 2f4e 673f e33e 653f
00000010: 47e3 863f 1d30 743f e0f1 713f 4b32 5b3f
00000020: 6a59 5a3f 79c8 7b3f ede9 4f3f 59f5 3c3f
00000030: 93ae 573f 7e3d 6a3f d45a 683f 4f94 3d3f
00000040: efd9 673f ed65 3a3f 8f74 4c3f b02c 7e3f
00000050: 1ae0 803f 32e0 5d3f 8895 773f c611 633f
00000060: 110c 6c3f c384 803f 7910 463f ff8b 623f
00000070: 52a3 563f 9099 3f3f 5057 5d3f 15f0 733f
0.9368451 0.83505446 0.90353674 0.8954908 1.053811 0.95385915 0.94509697 0.85623616
0.85292685 0.9835277 0.8121632 0.7381187 0.84250754 0.9150008 0.9076359 0.74054426
0.90566915 0.72811776 0.79865354 0.9928694 1.006839 0.8667022 0.9671254 0.88698995
0.9220591 1.0040516 0.77368885 0.8849487 0.8384296 0.7484369 0.86461353 0.9528821

body.block2.norm.bias f4 [32]
00000000: 39cf f03e 9c4b 073f 227e 153f 7402 0dbe
00000010: 860e b73d 22dd 8a3e 24e9 1b3f 8b22 383f
00000020: 0645 1e3f c6fa 1dbe 3a25 293f 3de6 543f
00000030: 2372 123f e08b 053f fcb4 b93e 4417 7d3f
00000040: 9df3 153f a11d 533f 31f9 cf3e 5f60 1e3f
00000050: 1adb af3e 3b2e 4f3f d2ff d13e ad6d 8a3e
00000060: f700 013f 224c 983e 9695 763f 4714 f03e
00000070: 7386 553f 32bf 753f 6c0a 113f a7d7 453f
0.47033098 0.52849746 0.5839559 -0.13770467 0.08938317 0.27121836 0.6090262 0.7192771
0.6182407 -0.15427694 0.6607243 0.83163816 0.5720541 0.5216656 0.36270893 0.98863626
0.5857485 0.82467085 0.40619805 0.618658 0.3434685 0.8092992 0.41015488 0.270368
0.503921 0.29745585 0.96322 0.4689047 0.8340828 0.95994866 0.5665653 0.77282184

body.block2.norm.running_mean f4 [32]
00000000: d9b7 cd3f f0ce a13e e005 ab3f 36d3 7bbf
00000010: 09ed c9bf ca25 0340 60b6 8fbf 1676 8fbf
00000020: 6150 44bf 9cf8 99bf 5276 6a3f 5118 c7be
00000030: 726e 9fbe d49c 5cbe 4c70 2b3e 27b2 44bf
00000040: 80b6 1740 e6b4 3a3f 10fc 3dbe 9180 16bf
00000050: 65ef fbbd 30fb e2bf 0bb4 ffbf bcab 00c0
00000060: 7430 edbc 326e 86bd b9fa 8f3f 4a29 273c
00000070: f250 15be a7df ea3e 1e74 14bf cf65 b5bf
1.6071731 0.31603193 1.3361168 -0.9836916 -1.5775462 2.0491815 -1.1227531 -1.1207912
-0.7668515 -1.2028995 0.9158679 -0.3888574 -0.3113895 -0.215442 0.16742057 -0.7683434
2.370514 0.7293228 -0.18553185 -0.58789927 -0.1230152 -1.7732906 -1.997682 -2.0104818
-0.028953768 -0.06563987 1.124839 0.010202715 -0.1458166 0.45873758 -0.5798968 -1.4171695

body.block2.norm.running_var f4 [32]
00000000: e8db 173f 2431 213f e309 433f 1e31 0f3f
00000010: 1268 4340 25fc dd3e 82db 753f 2c5e 483f
00000020: 0df8 3e3f f844 f53f 75b5 093f 5c05 9b3f
00000030: 640f 3e3f fb0d 343f ca1a e63e 03de 9c3f
00000040: cd2f cc3e ba65 423f f7ad cb3e 88e3 e33f
00000050: cb5a 6b3f 2698 c23f 9b45 1a3f 901c 1a3f
00000060: d9be c93e 2f84 aa3f 930e 573f 7922 c43e
00000070: 0cd4 ec3f 2288 1c3f 6932 463f 2d54 c03e
0.59319925 0.6296561 0.7618696 0.5593432 3.053227 0.43356434 0.9603807 0.78268695
0.74597245 1.9161673 0.53792506 1.211101 0.74242234 0.7033383 0.44942313 1.2255253
0.3988022 0.7593647 0.39781162 1.7803812 0.91935414 1.5202682 0.6026246 0.6019983
0.39403418 1.3321589 0.84006613 0.3830755 1.8502212 0.6114522 0.7742067 0.3756422

body.block3.conv.weight f4 [32, 32, 3, 3]
00000000: 164d 23bc 7ae7 b03d ed22 c13d be21 9dbd
00000010: 4426 7fbd bc8e c33c 9386 bd3a c800 c6bd
00000020: f055 16bc 377e be3d 5dde f1bc 463f 003c
00000030: a765 64bb 1ed8 a9bd 24ff 8abc ac6e 81bd
00000040: bcf5 a7bd a7db 86bd 248c e7bb 0183 383c
00000050: 0f8e 11bd 2578 f6bc f6f2 923a 8760 a6ba
00000060: efd8 423d b66e 103d 62b0 743c e396 09bc
00000070: 3f88 80bb d667 493a 99e9 4e3c 6692 813b
00000080: 9707 6bbb ecba 5fbd 640e 55bd 2b7c 543c
00000090: 32ef ca3c 4d24 143d c84b b93c b0cb d13a
000000a0: e8d7 4bbd d2ae 57bd 14b3 7fbb edf8 2fbd
000000b0: 8d48 33bd 1cb4 3bbd 95e5 723c 19da b4bc
000000c0: 0297 35bd 5517 aa3c d845 8bbc 5338 7638
000000d0: 2294 163c 50bb 44bd 9955 663d f32e 8bbd
000000e0: 9f04 18bc fc6e 293d b3a3 83bd 4ec2 4c3c
000000f0: 7118 95bc 3117 c5bc 319a d03b b05d a4bc
00000100: 1948 d03b 58a5 87bc 215c 4c3c 7d58 113c
00000110: 53a1 693b afa3 273d 5115 2e3d 95de b8bc
00000120: 8909 8f3d 7570 4cbd 2ff0 ecbc ad4e b4bc
00000130: 0aa6 ec3b 5a2c 62bc c509 cdbd f441 febc
00000140: a297 9e3d 47a9 8dbd 2606 98bd 23c0 b9bd
00000150: 7937 90bd fb26 1bbd 822a c5bb f7d0 bebd
00000160: 2f59 b5bd f748 4bbd a0de 53bd a5b0 34bd
00000170: d2ea e6bd 217d 6abb e7a6 843c 4da8 03bc
00000180: 0c7a fbbc e714 2bbd d1cd 4d3c 908d 2abc
00000190: 41e8 2abd d7c0 22bd 3c8d 89bc c5db 953c
000001a0: 73dc 0abd 61c0 88bc ffb8 893d 75d6 133e
000001b0: 16e6 4bbd 8f01 6c3d b668 df3a 28e4 f7bc
000001c0: 13a1 853d 8aea b3bb 7797 5dbc dd19 bd3d
000001d0: d009 ab3c a5f0 a6bd 290c 97bc 7106 063d
000001e0: 3bfd 44bc 571d 22bc 6407 773d 3395 713c
000001f0: c60a a9bc a0ff 993d ff7c 1cbb a0ce 94bb
00000200: 0600 29bd fe0c 1dbd 5ab3 553c 09f1 0a3d
00000210: 811d 60bc 363a 003d 857d 263b 8a1c df3d
00000220: 7eb4 163d 56dc 9f3c 142f 613d 9391 323d
00000230: befb 463d 67ec ca3b f624 a0bb 6d42 c73c
00000240: 31bb 8abb d3a8 00bd 9c61 11bd ec76 d13c
00000250: 186d 113d f59d 803c 683f b43c eb32 8a3d
00000260: 98a4 28bc bfd9 70bd 2058 1bbc 2d25 963d
00000270: 6ef6 3cbc 99bd 333d 40d5 ff3c 8021 203d
00000280: ae0e 563d 423a 223d e6a4 1c3d d1ca a7bc
00000290: 84e9 33bd dfd9 603d c7ce d3ba 909b 323d
000002a0: 6533 6d3d 592a 1b3c 44c0 073e c41d 9ebd
000002b0: 0d85 79bd ab5f 11bd b784 adbd fd36 f1bc
000002c0: df69 4bbc 60da 22bb a6c8 ca3c 2f77 4a3c
000002d0: e64c d538 7109 f83c b884 e93b 1648 70bd
000002e0: 2bea 00bb b7ea 313d 9fc5 bd3c 0b97 cbbb
000002f0: 38fa 753c 6358 cbbd 3ea5 b7bd 53ef 873d
00000300: c5a7 67bb e5a7 80bb e3a7 e33d 4412 26bd
00000310: 8b9d c33c 3735 1e3e 2873 7c3d 57a0 87bd
00000320: 0705 97bc c311 c43d 79bf ecbb 1926 5b3d
00000330: 9b78 633d 47c8 eabc a93a 823d 5046 76bd
00000340: 2949 acbc 09d5 f73c e63b 533d 4ede c43d
00000350: 1387 d83d 97eb 873d 7dec be3d 49d6 2a3d
00000360: 1c14 9cbd cb47 2fbd 548a cbba 0a8d bbbb
00000370: eb1f 093b f911 0fbd 3b69 373b e02f 273c
00000380: de22 8bbc 0ec6 8cbc 1970 543d 9c96 07bd
00000390: b046 dd3c fc01 783c f30d 38bd 9893 813d
000003a0: 797e 66bb 5f1b f7bc 7a51 403d 939c 05be
000003b0: a7d9 edbd 4658 5aba a8c2 01be e9db 11be
000003c0: 55f1 a13c 9611 f0bd 1710 af3c 046c 993c
000003d0: c015 31bd 54a4 15bd ff3a 323d 98f8 d53c
000003e0: 86a7 a1bc b8b7 9ebb 4ec5 00bd 7a8f a3bd
000003f0: 55a1 b2bd 4ab4 07bd 0056 d1bc 0cd5 45bd
-0.009967109 0.08637901 0.0943049 -0.076724514 -0.062292352 0.023871772 0.0014459662 -0.09668118
-0.0091757625 0.09301417 -0.029524976 0.007827586 -0.0034850629 -0.08293174 -0.016967364 -0.06319937
-0.08201167 -0.06584864 -0.0070662666 0.0112617025 -0.03553587 -0.030086586 0.0011211324 -0.0012693562
0.047570165 0.035261832 0.014934631 -0.008397791 -0.003922492 0.0007683014 0.012628936 0.0039542196
-0.0035862678 -0.054621622 -0.052015677 0.012969057 0.02477226 0.03616743 0.022619143 0.0016006138
-0.04976645 -0.052656956 -0.003901665 -0.042962003 -0.04377036 -0.045826063 0.014825244 -0.022076653
-0.044333465 0.020763079 -0.017001078 5.8703426e-05 0.009190591 -0.048030198 0.056233976 -0.06796064
-0.0092784455 0.04136561 -0.064277075 0.012497498 -0.018200131 -0.02405891 0.0063660373 -0.020064205
0.006356251 -0.016558334 0.012473137 0.008871195 0.0035649135 0.040927585 0.042500798 -0.022567073
0.069842406 -0.049911935 -0.028923122 -0.022010172 0.007221942 -0.01380452 -0.10011629 -0.031037308
0.077437654 -0.06917053 -0.07423048 -0.0906985 -0.070418306 -0.03787897 -0.00601703 -0.09317201
-0.08854901 -0.04963013 -0.051725984 -0.044113774 -0.11275257 -0.003578015 0.016192866 -0.0080357315
-0.030697845 -0.04176798 0.0125612775 -0.010409728 -0.0417254 -0.039734688 -0.016790979 0.01829327
-0.033901643 -0.016693296 0.06724738 0.14437278 -0.049779974 0.057618674 0.0017044756 -0.03026016
0.06524863 -0.0054906057 -0.013524882 0.09233449 0.020878702 -0.08151368 -0.018438416 0.032720987
-0.0120232655 -0.0098946905 0.060309783 0.0147450445 -0.02063502 0.0751946 -0.0023878214 -0.004541233
-0.041259788 -0.03834247 0.013043249 0.033921275 -0.013678909 0.031305514 0.0025404405 0.10894115
0.036793225 0.019514244 0.054976538 0.04359586 0.048579924 0.006192732 -0.0048872186 0.024323666
-0.0042337407 -0.031411003 -0.03549348 0.025569402 0.03550443 0.01570032 0.02200289 0.06747993
-0.010293148 -0.05880141 -0.00948146 0.073313095 -0.011533363 0.043881986 0.031229615 0.039094448
0.052260093 0.03960634 0.038243197 -0.020482453 -0.04392387 0.054895278 -0.0016159647 0.043605387
0.05791034 0.009470546 0.13256937 -0.07720521 -0.060917903 -0.035491627 -0.08472579 -0.029445166
-0.012415378 -0.00248494 0.02475388 0.012357517 0.00010170955 0.03027794 0.007126417 -0.058662497
-0.0019670825 0.043436732 0.023165522 -0.006213074 0.01501327 -0.09928968 -0.08967064 0.06637444
-0.0035347801 -0.0039262646 0.11116006 -0.040544763 0.023878833 0.15449987 0.06163326 -0.06622379
-0.018435014 0.095737 -0.0072249738 0.05350313 0.05553494 -0.028659953 0.06358845 -0.06012565
-0.02103098 0.03025295 0.051570795 0.09612714 0.10572638 0.06636732 0.0932245 0.041708264
-0.07621023 -0.042793076 -0.0015528896 -0.0057236003 0.0020923566 -0.03492925 0.0027986306 0.010204285
-0.0169844 -0.017184284 0.051864717 -0.033102617 0.027011245 0.015137192 -0.044935178 0.063269794
-0.0035170598 -0.030164419 0.046952702 -0.1304801 -0.116137795 -0.0008329194 -0.12671912 -0.14244045
0.019768396 -0.11722104 0.021369977 0.018728264 -0.043233633 -0.03653367 0.043513294 0.026119515
-0.019733202 -0.0048436783 -0.031438164 -0.0798635 -0.08722178 -0.03313092 -0.025553703 -0.04829888

body.block3.conv.bias f4 [32]
00000000: 5e04 8bbd c634 a3bd 3a73 02bc d223 483d
00000010: 337f 783d e7e5 51bd 37e0 bb3c 1d95 c73d
00000020: 97ab d73c 37cb 733c 640d 323d 398b 58bc
00000030: f21b 8ebd 4466 1cbd 3192 a1bb 75ac a5bb
00000040: 165d 523d afea 163d ac80 c93d c668 13bd
00000050: 979b d03d e875 00bd 83e5 423d c0e0 a1bd
00000060: 2e97 e43c 90d5 b73c 31cd cdbc e15f b53a
00000070: f0cd 9fbd e9df 7039 a3ef 3fbc 339f 573d
-0.06787942 -0.0796905 -0.0079620425 0.048862286 0.06066818 -0.051244643 0.022934062 0.09745238
0.026326938 0.014879993 0.0434698 -0.013216787 -0.06938924 -0.038183466 -0.0049307575 -0.005055959
0.051358305 0.036844905 0.09838995 -0.03598859 0.101859264 -0.031362444 0.04758216 -0.07904196
0.02790412 0.022440702 -0.025122257 0.0013837778 -0.07802951 0.00022971597 -0.011714849 0.05264206

body.block3.norm.weight f4 [32]
00000000: 0fcf 8c3f 7eb9 9a3f b88e 953f 594c 983f
00000010: 9994 933f ef06 7d3f e9e8 973f f7ff 923f
00000020: 9cd2 aa3f 08c4 a03f b416 903f 318c 853f
00000030: d1a1 933f 6d30 ac3f 2c54 973f 52f5 aa3f
00000040: ce3f c13f 2834 af3f 318c 933f 1c85 923f
00000050: 84f2 983f 214c a33f 5615 953f 64e7 893f
00000060: df48 943f ce71 b03f 0a2c 893f 8022 903f
00000070: 1c95 8b3f b411 8e3f 41ae a33f dfc0 a93f
1.1000689 1.2087858 1.1684179 1.18983 1.1529723 0.98838705 1.1867954 1.1484364
1.3345523 1.2559824 1.1256928 1.0433408 1.1533757 1.3452278 1.1822562 1.3356116
1.5097597 1.3687792 1.1527158 1.1446872 1.194901 1.2757608 1.1647136 1.077374
1.1584738 1.378473 1.0716565 1.1260529 1.090488 1.1099153 1.2787553 1.3261985

body.block3.norm.bias f4 [32]
00000000: 81ff 9c3e c0c8 133f 20bb ee3e 3261 d3be
00000010: fbba 113f e163 803f 855f 2e3f 3653 eabe
00000020: 6a1b 7f3f fc34 b9be 9f15 cdbe 7228 7cbe
00000030: 629f 413f 289b 5f3d 8137 7d3f 6e37 393f
00000040: 1e24 8a3f df84 e7be ded3 e2be 2a4b bdbe
00000050: 0e86 9ebe 7d29 873f c6cf ccbe cdfd 353f
00000060: 1f09 2e3f 418f 3b3f de4f 4f3f 59f9 343f
00000070: ae89 113f 82b6 7a3f d2f2 1cbf bf8b 8d3f
0.30663684 0.57728195 0.4662714 -0.41285092 0.56925935 1.0030481 0.681145 -0.4576661
0.99651206 -0.36173236 -0.40055558 -0.24624804 0.75633824 0.054591328 0.9891282 0.72350204
1.0792272 -0.4521856 -0.44302267 -0.36971408 -0.3096165 1.0559536 -0.4000227 0.71090394
0.6798267 0.73265463 0.8098124 0.70692974 0.5685071 0.97934735 -0.61308014 1.1058272

body.block3.norm.running_mean f4 [32]
00000000: 669d b8be 1c98 073f f30e 123f 45be 8f3e
00000010: b573 f73e c64b 02bf 72e5 a03e 1a17 063f
00000020: 5ff4 89bf 2486 8f3f 4db3 af3d 5e6a 91bf
00000030: 5d53 33bf a2a6 13bf ddb8 96bf 9282 d53e
00000040: 38a7 233e f719 3dbf 4a90 b33e ac97 adbe
00000050: 49ba 8abf b4a7 95bf f637 aa3e dcdd 8abf
00000060: d7ae 083f e7dd 27be 672b 6ebe 5255 cbbf
00000070: bca1 553f fea8 8bbf 82ae 1340 98cc 73bf
-0.36057585 0.52966475 0.5705406 0.28074852 0.48330465 -0.5089687 0.31425053 0.52379
-1.0777701 1.1212811 0.08579121 -1.1360586 -0.7004908 -0.57676136 -1.1775166 0.4170118
0.15981758 -0.73867744 0.3507102 -0.3390478 -1.08381 -1.1691804 0.3324582 -1.0848956
0.53391784 -0.16393243 -0.23258744 -1.5885413 0.8344991 -1.0910947 2.307526 -0.9523406

body.block3.norm.running_var f4 [32]
00000000: 715a af3e e2cd a53f 08ed ac3f d529 8e3f
00000010: b8e1 6b3f 6276 2f3f 3280 483f 9bf2 503f
00000020: 7db4 1f3f 1e1f 093f 056d a73f c1b6 803f
00000030: 7c88 323f e1a6 2e3f d07a 033f 9467 8c3e
00000040: ea9f 153f 7779 8c3f 1c3d 563f e2bc d23e
00000050: dcc2 313f 0d77 2d3f 5910 983f fc10 a43e
00000060: c115 dc3e 2314 c13e 9133 a63f 44a9 053f
00000070: e050 8a3f cefa ba3e 8280 793f ae37 433f
0.3424869 1.2953455 1.3509836 1.1106516 0.92141294 0.6854001 0.7832061 0.81620187
0.6238478 0.53563106 1.3080145 1.0055772 0.6973951 0.68223387 0.5135927 0.27422774
0.58447134 1.0974568 0.83686996 0.4115973 0.69437957 0.6775978 1.1879989 0.32044208
0.42985347 0.37710676 1.2984487 0.52211404 1.0805931 0.36519474 0.9746171 0.76256835

tail.weight f4 [1, 32, 3, 3]
00000000: cceb a8bd 9bd2 18bd caf9 c8bd c66f 25bc
00000010: 3273 46bb d2c9 89bd d3c3 b13d c666 473d
00000020: 2be0 80bd 0d95 93be 6403 92be 0f60 afbe
00000030: 4001 3dbe 3e1e 34be d2c4 7ebe 4ec9 dcbc
00000040: 7fda 55bd 4d50 32be 1eb1 bbbd 7e06 14be
00000050: 00d8 4ebe 5855 c3ba f9ce 6abd 15dd 42be
00000060: bcb6 a53d f813 b939 cde2 10be c43f 673e
00000070: 6ea4 543e bcd8 393e 8ec5 e63d 59e7 9f3d
00000080: 21fd 963d 251a 293d 7e14 6ebc d846 18bd
00000090: c172 12be 7677 07be 186d c8bd 7cfc acbc
000000a0: 6a6f 55bd 3758 29bd b896 3d3d ee01 593d
000000b0: 7522 513d 19c8 3cbc 0c02 933d a254 913e
000000c0: ca7e 24be bf2f 1abd 72b3 353e 5e79 18be
000000d0: 3e5f 5f3c 7f87 773e 7dd6 0d3f b197 333e
000000e0: b959 0abd ccc0 6a3d a2c9 19be 4691 38be
000000f0: 980a 16be d472 5bbe ed69 56be 1733 2c3e
00000100: 7cf4 4b3e a47d 663e 76c4 a03d 2ec5 953d
00000110: 7850 c63d eef2 993b 0ed7 34bb 9b3a ef3c
00000120: cf0c ae3d 777d 12be 89ad d3be 93d6 b83e
00000130: 84d1 943d 8431 9cbe 4f7b fd3e 50b6 5d3e
00000140: 0f5b 36be 2118 823e 88c6 723e c51e 413e
00000150: d986 293e f38e 1d3e 5c40 2d3d 3bfe fe3d
00000160: f284 333d d2da 21bd 6b49 2b3e f545 1d3e
00000170: 3c29 103e 6b00 803d 2b7a c83d 10f3 8e3d
00000180: 4013 c83c 01d4 f63b 1d88 b2bc 86df bcbc
00000190: b636 acbb dc74 afbc b00b a4bd f247 73bd
000001a0: 6321 d1bc 00a3 aabd 52ab 7bbd 063d 16bb
000001b0: 7765 5d3d dea1 0fbd af45 2bbe e846 7c3d
000001c0: 787c 75bd c86f 53be d059 9b3d a066 a2bd
000001d0: 0e64 88be 4c68 bf3e 85d3 583e 988a 343e
000001e0: 0f8d 4dbd 7b7b 20be 8936 14be d030 8bbe
000001f0: fd4f 84be d86b 7ebe aceb 853e 29de 01be
00000200: 23cc 87be ea3b 8c3e 695f d1bd 08ac 81be
00000210: 7d1b 723e f5c3 c6bd d006 92be ad4f 98be
00000220: 48c5 63be 2349 613e d1f8 9abe 04f5 35be
00000230: 2b37 983e da18 41be 9555 1abd c5c4 0f3f
00000240: 9cea 233f 8f95 17be c1dc cabe 7e66 2e3f
00000250: 7167 4fbe 2fab bfbe 880e f43e 2fdc 9bbe
00000260: d061 d9be abf7 d43e e068 ad3e 0d56 593e
00000270: bd4c a83e fb85 8f3e 7f84 bb3d bf44 8d3e
00000280: fa80 5e3e 1988 8c3d 1d8d 523e c4ec 7b3e
00000290: a3ce 513e 89b6 3e3d 2bbc 8e3d 86f1 d03d
000002a0: af16 e9bc 06dd 64bc 8de2 9f3c 3717 5e3e
000002b0: 9530 273e 3bb1 053e 6847 833d 1a23 793c
000002c0: c633 96bd eb0a c7bc eb69 8bbd bc47 1dbe
000002d0: 9324 573e 45dc 223e 54dc 743d 7e7f 4f3d
000002e0: d02e 19bc fb92 3bbd b6d2 e63c 4413 4abd
000002f0: 854d 07be 3b8e 073f cef4 943c 1d3b 61be
00000300: 21f7 ab3e cd5a d1bd fa74 9fbe 5474 5a3e
00000310: 9f4f 5bbe e7d7 c3be 7cf1 5f3e 5f80 433e
00000320: 2fd9 1e3e d64b ff3d dd34 ba3d e250 563d
00000330: c1b5 b33d dae5 923c 548c 753c 0b8d 1ebd
00000340: 539c eabd 2fc5 e0bd d068 ac3c c9aa 9bbd
00000350: d6ac 13be 21e5 233d 8ae7 94bd 6027 58be
00000360: 9f03 16be 89ba 3cbe efba 43be 03bf 90bd
00000370: 8572 c9bd c1e9 17be 1cd5 233e 9e57 0a3e
00000380: 15bf 0e3d fed4 a33e 000c 933e 1bf3 a83e
00000390: 4cfe 54be fad5 eabd c96e 113d 8fc3 b4be
000003a0: 2f68 9bbe f0e7 abbd 9c10 5fbe a74f 48be
000003b0: 260a 7dbe 0375 b7bd 4e78 e3bd b34e 5cbe
000003c0: 991a e0bc f8cd 92bd eff7 24be 5af3 2cbe
000003d0: 8b30 d0bd 4dff b9bc a974 ebbd de38 e9bd
000003e0: 354f 90bd 02b3 d6bb c249 cdbd b107 8bbc
000003f0: ce54 7fbd a8c8 b5bd 9dd6 10be a51f a43c
-0.082481 -0.037310224 -0.098132685 -0.01009745 -0.0030281064 -0.06727947 0.08679929 0.048681997
-0.06292757 -0.28824654 -0.28518212 -0.34252974 -0.18457508 -0.17589661 -0.24879768 -0.026951458
-0.052210327 -0.17413445 -0.09164642 -0.14455602 -0.20199585 -0.0014902754 -0.05732629 -0.19029649
0.080914944 0.00035300828 -0.14149018 0.22582918 0.2076585 0.18149084 0.11268149 0.07807798
0.07372499 0.0412847 -0.014531253 -0.037176937 -0.14301588 -0.13229164 -0.09786433 -0.021116488
-0.052108206 -0.041343894 0.046286315 0.052980356 0.05105825 -0.011522316 0.07178125 0.28384882
-0.16063991 -0.03764319 0.17744234 -0.14890048 0.013633547 0.24172781 0.5540541 0.17538334
-0.033776972 0.05731277 -0.15018323 -0.18024167 -0.14652479 -0.21430522 -0.20938845 0.16816364
0.19917482 0.22508866 0.07849972 0.07313 0.09683317 0.004698149 -0.0027594003 0.02920275
0.08498537 -0.14305674 -0.41343334 0.36101207 0.072665244 -0.30506527 0.4950814 0.21651578
-0.17808174 0.25409034 0.23708546 0.18859394 0.16555347 0.15386562 0.042297706 0.12450834
0.04382796 -0.039515324 0.16727225 0.15358718 0.1407823 0.0625008 0.09788927 0.06979954
0.024423242 0.007532597 -0.02179342 -0.023055803 -0.0052555455 -0.021418028 -0.08010042 -0.059394784
-0.025528615 -0.08331871 -0.06144268 -0.0022924556 0.054051843 -0.035066478 -0.16725801 0.06159106
-0.059933156 -0.2064811 0.0758549 -0.079297304 -0.26638836 0.3738426 0.21174438 0.17630994
-0.050183352 -0.15672104 -0.14473929 -0.27185678 -0.25842276 -0.24845827 0.26156366 -0.12682404
-0.2652293 0.2738946 -0.10223276 -0.25326562 0.23643298 -0.097053446 -0.28520823 -0.29748288
-0.22243226 0.22000556 -0.30267957 -0.17769247 0.2972959 -0.18857136 -0.037679274 0.5615962
0.6402986 -0.14803146 -0.39621547 0.6812514 -0.20254304 -0.3743529 0.47667336 -0.30441424
-0.42457438 0.41595206 0.33869076 0.21224232 0.32871047 0.28031906 0.09156131 0.27591512
0.21728888 0.06861896 0.20561643 0.24602038 0.20488982 0.046560798 0.06969484 0.10202317
-0.0284532 -0.013968712 0.019517208 0.21688543 0.16327126 0.1305589 0.06410104 0.015206123
-0.07334094 -0.024297198 -0.068073116 -0.15359396 0.21010046 0.15904339 0.059780434 0.050658695
-0.00934954 -0.04579447 0.028176647 -0.04933478 -0.13213165 0.529514 0.018183138 -0.21995206
0.33586982 -0.10222397 -0.31143934 0.21333438 -0.21417092 -0.38250658 0.21869463 0.19091938
0.15512536 0.124656364 0.09092114 0.05232323 0.08774901 0.017931867 0.01498707 -0.038708728
-0.11455598 -0.1097511 0.021046072 -0.07600934 -0.144214 0.040013436 -0.07270725 -0.2110877
-0.14649819 -0.18430533 -0.19114278 -0.070676826 -0.09836296 -0.14835264 0.15999264 0.13509986
0.0348502 0.31998438 0.28720093 0.32997975 -0.20800132 -0.11466594 0.035506044 -0.3530545
-0.30352923 -0.08393848 -0.2178368 -0.19561635 -0.24710903 -0.08957865 -0.11106931 -0.21514396
-0.027356433 -0.07168192 -0.16110204 -0.16889706 -0.10165509 -0.022704745 -0.114968605 -0.113878
-0.070463575 -0.006552101 -0.10023834 -0.016971441 -0.062336735 -0.08876163 -0.14144368 0.02003462
