TrainedModels/0035-sample/scale_factor=0.850000,alpha=10/3/netD.pth (torch, 127382 bytes, 25 tensors)

head.conv.weight f4 [32, 4, 3, 3]
0	0xbd5d9f0b	-0.054106753
1	0x3c8eaea6	0.017417263
2	0x3d40996f	0.047021326
3	0xbd1f9042	-0.038955934
4	0x3cccd062	0.025001708
5	0x3bb93164	0.00565164
6	0xbca1326f	-0.019677369
7	0x3c654027	0.013992346
8	0x3d4dbbae	0.050227813
9	0xbd83d063	-0.06436231
10	0xbca69a3d	-0.020337218
11	0x3ca6e979	0.020375
12	0xbc3abfa6	-0.011398232
13	0x3d14d063	0.036331546
14	0x3d820017	0.063476734
15	0xbce6b2df	-0.028161464
16	0x3d09e4b6	0.03366538
17	0x3dc2097a	0.09474464
18	0xbe0b2954	-0.13589984
19	0xbd1ee6c1	-0.038794283
20	0xbc5ada1f	-0.013357668
21	0xbd9329ef	-0.071857326
22	0x3d0c1fe6	0.03421011
23	0x3d86e6b0	0.06586969
24	0xbd6d5006	-0.057937644
25	0x3d0614c2	0.03273464
26	0x3ddcd7df	0.10783362
27	0xbd7c6b64	-0.061625853
28	0xbdba530e	-0.09097873
29	0xbe02f882	-0.1279011
30	0x3bcec50d	0.0063101114
31	0x3cf5605f	0.02995318
32	0x3cf4ce05	0.029883394
33	0x3d89a1b5	0.06720296
34	0x3d924964	0.071429044
35	0x3da57401	0.080787666
36	0xbc107335	-0.00881653
37	0xbd0785c3	-0.03308655
38	0xbdb877a0	-0.09007192
39	0xbca740b7	-0.0204166
40	0xbd7fa612	-0.062414236
41	0xbd2c8120	-0.04211533
42	0xbc1edeb1	-0.009696648
43	0x3a970f69	0.0011524978
44	0x3e1ee10a	0.15515533
45	0xbc5a0ec4	-0.013309184
46	0xbc32a511	-0.010903613
47	0x3a4b3160	0.0007751193
48	0xbc372642	-0.011178555
49	0xbd554e43	-0.05207659
50	0x3ce3ca3c	0.027806394
51	0x3d1f2b99	0.038859937
52	0x3d74fa6d	0.059809137
53	0x3e700d1d	0.23442502
54	0xbca2d1a8	-0.019875363
55	0xbd4b2c77	-0.04960295
56	0xbcb001bf	-0.021485208
57	0xbb711804	-0.0036787996
58	0xbd6d5a5e	-0.05794751
59	0x3ca9c3fc	0.020723335
60	0x3d5bb566	0.053639792
61	0x3d32a8d9	0.043618057
62	0x3e8527f0	0.26007032
63	0x3daaba0c	0.08336267
64	0x3c978ac2	0.018498782
65	0x3dcff408	0.10153967
66	0xbd76c9d2	-0.060251065
67	0xbc9423b2	-0.018083427
68	0x3d55647a	0.052097775
69	0xbdb8dab9	-0.09026093
70	0xbd150737	-0.036383834
71	0xbbc1233b	-0.0058940924
72	0xbb9f15a7	-0.004854876
73	0xbd765d20	-0.060147405
74	0xbe1dd4f1	-0.15413262
75	0x3c80fa9a	0.015744496
76	0xbc173c0a	-0.009230623
77	0xbc8b1e87	-0.01698233
78	0x3d2bcc63	0.041942965
79	0x3d72e1cb	0.059297364
80	0x3e01f8da	0.12692586
81	0xbd57df9d	-0.05270349
82	0xbdb6efcd	-0.08932457
83	0xbdeec98d	-0.116595365
84	0xbc76c6eb	-0.015062074
85	0xbd1c189e	-0.038109414
86	0xbd418880	-0.047249317
87	0x3d72ad59	0.05924735
88	0x3d531911	0.051537577
89	0x3db0ba32	0.08629264
90	0xbd5d4630	-0.054022014
91	0xbe00e00d	-0.12585469
92	0xbe419f09	-0.18908323
93	0xbd1ebfc5	-0.038757104
94	0xbd2cff00	-0.042235374
95	0xbd6beb65	-0.057597537
96	0x3db2fe8f	0.087399594
97	0x3d03fc1f	0.032222863
98	0x3dce81c2	0.10083343
99	0xbdcd7309	-0.10031707
100	0xbc0da995	-0.008646389
101	0xbd7de43f	-0.06198525
102	0x3cf907ee	0.030399289
103	0xbc45265b	-0.01203307
104	0xbd2cd317	-0.0421935
105	0x3d10a881	0.035316948
106	0x3d45a963	0.048257243
107	0x3d99504c	0.074860185
108	0x3dcccef3	0.1000041
109	0x3d8f6ada	0.07002802
110	0x3d65b19b	0.05607758
111	0x3c674582	0.014115693
112	0x3c8c8e78	0.017157778
113	0x3d3aaed2	0.045576878
114	0x3b3dfed3	0.0028990998
115	0xbc41ffc1	-0.011840762
116	0xbbb33944	-0.005469473
117	0x3d07ab84	0.033122554
118	0x3c8cf1d5	0.017205158
119	0x3c329712	0.010900276
120	0xbd3e74bc	-0.046498045
121	0x3aa3d7a7	0.0012500182
122	0xbccce44d	-0.025011206
123	0xbd5a0531	-0.053227607
124	0x3c5a5d0f	0.013327851
125	0x3c1da3b1	0.009621547
126	0xbc1ecda2	-0.009692581
127	0xbd710a7f	-0.0588479
128	0x3bb01c0c	0.005374437
129	0x38c5f072	9.4384784e-05
130	0xbca758d1	-0.020428093
131	0x3d034e06	0.03205683
132	0xbcfb6538	-0.030687913
133	0x3a6be135	0.0008998097
134	0x3d9fe103	0.078065895
135	0x3de0ab4e	0.10970174
136	0x3c856d4b	0.016287467
137	0xbe1c3816	-0.1525577
138	0x3d346b49	0.044047628
139	0x3d5a6faf	0.053329166
140	0xbd3a2b7e	-0.045451634
141	0x3cf9f059	0.030510115
142	0xbd1b57a7	-0.03792539
143	0xbe597c1c	-0.2123875
144	0x3da34d7b	0.079737626
145	0x3c953e8f	0.018218307
146	0x3dad4aba	0.084615186
147	0x3cb9ec05	0.02269555
148	0xbd727331	-0.059191886
149	0xbca2b7b5	-0.019862989
150	0xbd146373	-0.036227655
151	0xbd7f10aa	-0.06227175
152	0xbcd2a683	-0.025714165
153	0x3dbd2ef6	0.09237473
154	0x3c4dabf8	0.012553208
155	0x3d725328	0.059161335
156	0x3a9cf0fc	0.0011973674
157	0xbd5a9da0	-0.05337298
158	0xbb23d452	-0.002499838
159	0xbd976c88	-0.073937476
160	0xbd966e92	-0.07345308
161	0x3c352b95	0.011057754
162	0x3e116eb6	0.14202389
163	0x3ce5ede5	0.028067539
164	0x3ddaaef4	0.10677901
165	0xbca3dcbb	-0.020002713
166	0xbd8b6a24	-0.06807354
167	0x3d37ae82	0.044844158
168	0xbde107a1	-0.10987783
169	0xbdb62c3e	-0.08895157
170	0x3d33f42d	0.043934036
171	0x3e2ead54	0.17058307
172	0x3d40cc67	0.047069933
173	0x3d3f567b	0.046713334
174	0x3c204a52	0.009783344
175	0xbcac0652	-0.020999108
176	0x3baaf522	0.0052172104
177	0xbd7578dd	-0.059929717
178	0xbcfe9df6	-0.031081181
179	0xbbd15ca1	-0.006389216
180	0xbc960455	-0.018312613
181	0xbd2603b9	-0.040530894
182	0x3d3604c0	0.044438124
183	0x3d99acce	0.07503663
184	0x3cc9694c	0.024586342
185	0x3d5addbe	0.053434126
186	0x3dbcfd49	0.09227998
187	0x3defc6aa	0.11707814
188	0x3ddca71b	0.1077406
189	0xbd461f37	-0.048369613
190	0x3c67baed	0.014143688
191	0x3dcbc24c	0.099491686
192	0x3b1329a4	0.002245524
193	0x3d467b2b	0.048457306
194	0x3d82b0fb	0.063814126
195	0xbc293a8f	-0.010328903
196	0x3c92db35	0.017926792
197	0x3d9060d4	0.070497185
198	0xbdeace33	-0.11465111
199	0xbd80880f	-0.06275951
200	0x3c3a8ef6	0.011386624
201	0xbd585489	-0.052814994
202	0xbd0b9243	-0.034075033
203	0xbbb778a2	-0.0055990973
204	0xbda724dc	-0.08161327
205	0xbdb9aaf6	-0.09065811
206	0x3bc97930	0.00614848
207	0xbd6956eb	-0.056967657
208	0x3c169402	0.009190561
209	0x3dc4f6a8	0.096173584
210	0xbd70a060	-0.058746696
211	0xbca96c1d	-0.020681435
212	0x3dafd98a	0.08586414
213	0xbd1abf7a	-0.037780263
214	0x3d3c3c54	0.04595597
215	0x3dae089d	0.084977366
216	0xbd59d48f	-0.053181227
217	0xbd9237b7	-0.07139533
218	0x3b9c2350	0.0047649518
219	0xbddef601	-0.10886765
220	0xbe284e7e	-0.16436192
221	0xbd288814	-0.0411454
222	0xbe1b7369	-0.15180744
223	0xbe33f761	-0.17574836
224	0xbd528efd	-0.051405896
225	0x3d45dd1a	0.048306562
226	0xbc48c28b	-0.012253414
227	0x3d3d0f89	0.046157394
228	0xbc01c3e8	-0.007920243
229	0xbd42ad0c	-0.04752831
230	0xbbf739f0	-0.0075447485
231	0xbd9d89c6	-0.07692294
232	0xbdb3162c	-0.08744463
233	0x3c730b25	0.0148342
234	0x3cb8e257	0.022568865
235	0x3d04bbcd	0.032405663
236	0xbaf55c9c	-0.0018719616
237	0x3e0583af	0.13038515
238	0x3dd76368	0.10517007
239	0x3d1468a3	0.0362326
240	0x3dfa2c8f	0.1221553
241	0x3dad1ab7	0.08452361
242	0x3d5d72b1	0.054064456
243	0xbac52612	-0.0015041253
244	0xbd1a211a	-0.037629224
245	0x3d3f804d	0.046753217
246	0x3d2010bd	0.039078463
247	0xbd8bb133	-0.068209074
248	0xbcf5c827	-0.030002667
249	0x3e1f22dc	0.15540642
250	0x3d2d6c9f	0.042339917
251	0x3c7e60ff	0.015526055
252	0xbcdd0555	-0.026980082
253	0xbd72aac8	-0.0592449
254	0x3c2d8de4	0.010592911
255	0xbca1c5e2	-0.019747678

head.conv.bias f4 [32]
0	0xbe626004	-0.2210694
1	0x3b020d3b	0.0019844312
2	0x3de73e8a	0.11291225
3	0xbdc12b2a	-0.09432061
4	0x3dea4dc8	0.11440617
5	0xbd113342	-0.035449274
6	0x3d6ffbcf	0.058589753
7	0xbd1bf7fc	-0.038078293
8	0xbca7a6a0	-0.020465195
9	0xbe505521	-0.20344974
10	0xbe37ed2c	-0.17961568
11	0x3cc83965	0.02444143
12	0xbd80ea37	-0.06294673
13	0x3e33e9d3	0.17569666
14	0x3d7df33b	0.06199954
15	0x3ec3c059	0.38232687
16	0x3df3da9f	0.11906933
17	0xbf02123c	-0.50809073
18	0xbe4709e4	-0.19437367
19	0x3e298e6a	0.16558233
20	0x3d63e4d7	0.05563816
21	0x3da18d6a	0.07888301
22	0xbd541454	-0.0517772
23	0x3d3e6a92	0.046488352
24	0x3ee00d60	0.43760204
25	0xbf09827b	-0.5371472
26	0xbcd50694	-0.026004113
27	0x3e5ef7c3	0.21774201
28	0x3e0d9426	0.13826045
29	0x3cb9fff1	0.02270505
30	0xbea2f46e	-0.3182711
31	0xbd027606	-0.031850837

head.norm.weight f4 [32]
0	0x3f7688d6	0.96302545
1	0x3f45e171	0.7729712
2	0x3f8c5733	1.0964111
3	0x3f2986bf	0.6622123
4	0x3f57259a	0.8404175
5	0x3f4dd99b	0.80410165
6	0x3f1f021b	0.6211259
7	0x3f860bb4	1.0472322
8	0x3f43aa67	0.7643189
9	0x3f43c669	0.76474625
10	0x3f674bc3	0.9034998
11	0x3f5c60de	0.8608531
12	0x3f876106	1.0576484
13	0x3f5948c5	0.8487666
14	0x3f7d3f56	0.9892477
15	0x3f4dcc5f	0.8038997
16	0x3f512c4b	0.8170821
17	0x3f80ce33	1.0062927
18	0x3f6264a3	0.8843481
19	0x3f47661e	0.77890193
20	0x3f3492c7	0.70536464
21	0x3f5b9b68	0.85784006
22	0x3f412f80	0.75463104
23	0x3f8ffd14	1.1249108
24	0x3f47f2a9	0.78104645
25	0x3f85406f	1.0410289
26	0x3f518135	0.8183778
27	0x3f4cb748	0.79967165
28	0x3f3f199c	0.7464845
29	0x3f3ed5ee	0.7454518
30	0x3f4da3a2	0.8032781
31	0x3f74a41e	0.9556292

head.norm.bias f4 [32]
0	0x3e826fa1	0.2547579
1	0x3f54ebff	0.831726
2	0x3ee675bc	0.450117
3	0x3f71a735	0.9439576
4	0x3f2d7683	0.6775896
5	0x3f23ae04	0.639374
6	0x3f044261	0.51663786
7	0x3c6a30ab	0.01429383
8	0x3f27d12d	0.6555355
9	0x3f10af1e	0.5651721
10	0x3f526b46	0.82194936
11	0x3f2e5eb1	0.6811324
12	0x3ed4aff8	0.41540504
13	0x3f59c9a6	0.85073316
14	0x3cb52727	0.022113396
15	0xbf73b30b	-0.9519507
16	0x3ecf16a6	0.40446967
17	0x3f3075a8	0.6892953
18	0x3f0a17a4	0.5394232
19	0x3f173d86	0.5907825
20	0x3f1754ef	0.59113973
21	0x3f0e757f	0.55648035
22	0x3f514d4f	0.8175859
23	0xbd139574	-0.0360312
24	0x3f624185	0.88381225
25	0x3f126c26	0.5719627
26	0x3f9234cd	1.1422364
27	0x3f37cd9e	0.7179812
28	0x3f2b82a8	0.6699624
29	0x3f22c695	0.6358426
30	0x3f30521d	0.68875295
31	0x3ed56047	0.41675016

head.norm.running_mean f4 [32]
0	0xbe94ecae	-0.29086822
1	0xbe06e191	-0.13171984
2	0x3e7452cd	0.23859711
3	0xbe474a53	-0.19461946
4	0x3dc5fccf	0.0966736
5	0xbea92b4e	-0.3304085
6	0x3eced8d3	0.403998
7	0xbcfaec40	-0.03063023
8	0xbd11f603	-0.035635006
9	0xbe8cd99f	-0.27509782
10	0xbec023eb	-0.37527403
11	0x3bcd9fc5	0.0062751495
12	0x3e7e7cf7	0.24852358
13	0x3e75d52a	0.24007097
14	0x3e01ae8e	0.12664244
15	0x3de80a77	0.11330121
16	0x3dd11d8e	0.10210715
17	0xbf042362	-0.5161649
18	0xbf026355	-0.5093282
19	0xbe195573	-0.14974003
20	0x3eac3217	0.33631966
21	0xbd8ec845	-0.06971792
22	0xbe079087	-0.13238727
23	0x3de63997	0.11241453
24	0x3ee95c85	0.455784
25	0xbf3d3cac	-0.739207
26	0xbb8b280d	-0.004246718
27	0x3e3c5db8	0.18395126
28	0x3dc9e743	0.09858563
29	0xbe28c73a	-0.16482249
30	0xbe55da74	-0.20884115
31	0xbeb9f11b	-0.3631676

head.norm.running_var f4 [32]
0	0x3cc93732	0.024562452
1	0x3d0adeec	0.033904
2	0x3d54add6	0.051923595
3	0x3d17dd0c	0.03707604
4	0x3d1c6bd3	0.038188767
5	0x3d32b743	0.043631803
6	0x3c4df807	0.012571341
7	0x3e23215e	0.15930697
8	0x3cd28798	0.025699422
9	0x3d076a35	0.03306027
10	0x40149578	2.3216228
11	0x3d26eb9a	0.04075203
12	0x3dcbd7bf	0.0995326
13	0x3d3595b3	0.044332217
14	0x3d18dd39	0.03732035
15	0x408186b3	4.047693
16	0x3c603c39	0.013686233
17	0x3dfcd4b7	0.1234526
18	0x3d1c8089	0.03820852
19	0x3d4af1df	0.049547072
20	0x3c7ec660	0.015550226
21	0x3cf765b7	0.030199869
22	0x3c360b59	0.011111104
23	0x3e006fea	0.12542692
24	0x3cd65377	0.026162846
25	0x3e18a277	0.14905725
26	0x3d19ab81	0.037517074
27	0x3cd22bee	0.025655713
28	0x3d0aa696	0.033850275
29	0x3d052625	0.03250708
30	0x3cac64e4	0.021044202
31	0x3e3288c6	0.17434987

body.block1.conv.weight f4 [32, 32, 3, 3]
0	0x3d85a38e	0.06525336
1	0xbd0e3bda	-0.034725048
2	0x3c2bde6d	0.010490042
3	0xbd3488fd	-0.044075955
4	0xbc2183a5	-0.009858047
5	0xbdb1c225	-0.08679608
6	0x3d86de14	0.06585327
7	0x3d9ead14	0.07747856
8	0x3d6df8ce	0.058098607
9	0x3db5e8eb	0.08882316
10	0x3da084cd	0.0783783
11	0x3dd10a4d	0.10207043
12	0x3c1e6711	0.009668128
13	0x3d8d49c2	0.06898834
14	0x3c35d05c	0.01109704
15	0xbc4f096a	-0.012636522
16	0x3c69d6ae	0.014272375
17	0x3dacc277	0.08435529
18	0xbda81997	-0.08208006
19	0x3ce3e24e	0.027817871
20	0x3d3c95fd	0.046041477
21	0xbd4ed6d6	-0.050497852
22	0xbd1a2745	-0.037635107
23	0xbd6d1903	-0.05788518
24	0xbbfcdf7f	-0.0077170725
25	0x3e1f1768	0.15536273
26	0x3e50fa41	0.20407964
27	0xbd7e4904	-0.062081352
28	0xbcda90d7	-0.026680393
29	0x3d2abf06	0.04168608
30	0xbd5ed681	-0.054403786
31	0x3d32faaf	0.0436961
32	0x3cd7d29b	0.026345542
33	0x3d9833cd	0.07431755
34	0x3d312eee	0.043257646
35	0x3d18d72a	0.03731457
36	0x3d9bdf45	0.07610945
37	0xbdd5fae1	-0.10448242
38	0xbcf60112	-0.030029807
39	0x3d89a7f8	0.067214906
40	0xbce4a7e1	-0.027912082
41	0xb982e191	-0.00024963592
42	0x3d602772	0.054725118
43	0x3a47949e	0.0007613393
44	0xbbb7184f	-0.0055876146
45	0xbdaaa586	-0.08332352
46	0xbd772046	-0.060333513
47	0xbd6be887	-0.057594802
48	0xbd9f1f68	-0.07769662
49	0xbd985ca0	-0.07439542
50	0xbc9719ac	-0.018444858
51	0xbdf91458	-0.121620834
52	0xbd0140fb	-0.03155611
53	0xbd8d90c3	-0.06912377
54	0x3d899579	0.06717963
55	0xbbc43a16	-0.0059883697
56	0xbd5198be	-0.051171057
57	0x3d7eb743	0.06218649
58	0xbc852101	-0.016251089
59	0x3b0d81c4	0.002159224
60	0xbc71a490	-0.014748707
61	0xbc9645f6	-0.018343907
62	0x3d58b902	0.052910812
63	0xbd16368f	-0.036673125
64	0x3d694c01	0.05695725
65	0x3d49d5af	0.04927605
66	0xbdebae3d	-0.11507843
67	0x3de8313a	0.11337514
68	0x3c9bf7f9	0.019039141
69	0xbe02a238	-0.12757194
70	0xbde7f944	-0.113268405
71	0xbe10f4a0	-0.14155817
72	0xbbee271c	-0.007267846
73	0x3d140d2c	0.036145374
74	0xbc5366fb	-0.01290297
75	0xbd4b3a25	-0.049615998
76	0xbbb365b1	-0.005474769
77	0xbc391bf7	-0.011298171
78	0xbccdbbff	-0.025114058
79	0x3dd9efec	0.106414646
80	0x3cc9af9e	0.024619874
81	0x3e040e99	0.12896194
82	0x3dc91afc	0.098196
83	0x3d2a60d9	0.041596267
84	0xbc959038	-0.018257245
85	0x3c4cc549	0.012498208
86	0xbba77b53	-0.005111137
87	0x3cbbeced	0.022940123
88	0x3ddbe236	0.10736506
89	0x3e11c2ff	0.14234541
90	0x3d3c4878	0.04596755
91	0x3cb46cb5	0.022024492
92	0xbd2c8d34	-0.04212685
93	0x3da6c091	0.08142198
94	0x3c95cde5	0.018286655
95	0xbc9d2b5c	-0.019185714
96	0x3d049873	0.03237195
97	0x3c05d7dd	0.008169142
98	0x3cf754bc	0.030191772
99	0x395d9723	0.00021132505
100	0xbdd060c8	-0.101747096
101	0xbda27718	-0.079328716
102	0x3d8dd9f3	0.06926336
103	0xbd714e3c	-0.0589125
104	0xbd83a4cb	-0.06427916
105	0xbd2c154e	-0.042012505
106	0x3aecbd36	0.001806176
107	0x3c92e2c1	0.01793039
108	0x3e411697	0.18856274
109	0x3d13468f	0.03595596
110	0xbca40880	-0.020023584
111	0x3d94e7a7	0.07270747
112	0x3be75c88	0.007060591
113	0xbc16c9bc	-0.009203371
114	0xbe28a4cc	-0.16469115
115	0x3b4bbbfb	0.0031087387
116	0x3df34275	0.1187791
117	0xbc932ac2	-0.017964724
118	0xbc2969da	-0.010340178
119	0xbb6ca911	-0.0036111514
120	0x3add88fe	0.0016901789
121	0xbdbb4ce9	-0.09145529
122	0xbe00613f	-0.12537096
123	0xbd8a9448	-0.06766564
124	0xbd53e87a	-0.05173538
125	0xbe23634f	-0.15955852
126	0xbd8687a5	-0.06568841
127	0x3c8e847b	0.017397156
128	0x3da0b9ce	0.078479394
129	0xbd135ff2	-0.035980172
130	0xbcb1d328	-0.021707132
131	0xbdca10f2	-0.09866513
132	0x3d4a322a	0.049364246
133	0x3d7243dc	0.059146747
134	0x3cc0cc80	0.023535013
135	0x3d8bc04b	0.06823786
136	0x3e3ca497	0.18422161
137	0x3ddda4f1	0.10822476
138	0x3c5eeb1e	0.013605861
139	0x3dea5d11	0.11443532
140	0x3d81b9f8	0.06334299
141	0xbd1ab8e1	-0.03777397
142	0x3db79fb6	0.08966009
143	0x3daf9af8	0.0857448
144	0xbc9d25b1	-0.019183012
145	0x3a9db49f	0.0012031979
146	0x3d475d79	0.048673127
147	0xbd62f938	-0.055413455
148	0x3d3da8cc	0.046303555
149	0x3c38242e	0.011239095
150	0x3c0aaad0	0.008463576
151	0x3c3aa25b	0.011391248
152	0xbd3eea7f	-0.04661035
153	0x3d28f1a4	0.04124607
154	0xbbcf7528	-0.006331105
155	0xbc9d9afc	-0.019238941
156	0x3c284ea7	0.010272658
157	0x3bbe8b11	0.005814918
158	0xbce6af58	-0.028159782
159	0xbc54e939	-0.012995058
160	0x3d330035	0.04370137
161	0xbd857a86	-0.0651751
162	0x3d372556	0.04471334
163	0x3d8ceb72	0.06880845
164	0x3d524eb3	0.051344585
165	0xbd6f4328	-0.058413655
166	0xbca00db8	-0.019537792
167	0xbd49a00a	-0.04922489
168	0x3e19afe7	0.15008508
169	0x3d1653e3	0.036701094
170	0x3c7f4a0b	0.015581618
171	0x3c42ecc2	0.011897268
172	0x3d5210e9	0.051285658
173	0xbc9957a8	-0.018718556
174	0x3ba25c0d	0.004954821
175	0xbcb62637	-0.02223502
176	0xbd43a83d	-0.047767866
177	0xbdc4ee7f	-0.09615802
178	0xbccc78ab	-0.024959883
179	0xbd16610b	-0.03671364
180	0xbda503a1	-0.08057333
181	0x3de0fdbb	0.10985895
182	0x3df4988b	0.11943158
183	0x3c9dd8bd	0.019268388
184	0x3c760ace	0.0150172245
185	0x3db0e351	0.08637107
186	0xbe103349	-0.14082064
187	0xbb21e4ae	-0.0024702954
188	0x3d7bc1a6	0.061463974
189	0x3cb03cc2	0.021513347
190	0x3cde6911	0.027149709
191	0x3d53cc37	0.051708426
192	0x3d675a3f	0.05648255
193	0xbdbf6e87	-0.09347253
194	0x3c8fd22b	0.01755627
195	0x3cbc48ab	0.02298387
196	0xbd1e50db	-0.03865133
197	0x3e010dcf	0.12602924
198	0x3dbf1950	0.09331
199	0xbcc3aefc	-0.02388715
200	0x3d0864e6	0.03329935
201	0x3d96f468	0.073708355
202	0x3aabb592	0.0013100377
203	0xbd600d0c	-0.054699942
204	0xbc58e64f	-0.013238504
205	0x3d79e911	0.061013285
206	0x3cf09f66	0.029372882
207	0x3dc06a70	0.09395301
208	0x3ddc15de	0.10746358
209	0x3df26466	0.11835556
210	0x3de2c2a4	0.11072281
211	0xbd8ee309	-0.06976897
212	0x3d378bdb	0.04481111
213	0x3d84e133	0.06488266
214	0xbd0750ea	-0.03303615
215	0xbd783c89	-0.060604606
216	0xbda37d58	-0.07982892
217	0x3c790933	0.015199947
218	0x3d5567f4	0.05210109
219	0x3cc6f2a2	0.024285618
220	0xbd8f5260	-0.06998134
221	0xbcf1e0e6	-0.029526185
222	0xbd43865d	-0.04773556
223	0x3d441717	0.047873583
224	0xbd0b731b	-0.03404532
225	0x3e0769e5	0.1322399
226	0x3e02cf4c	0.1277439
227	0x3d828d09	0.063745566
228	0x3bab3495	0.005224774
229	0x3c1ae68c	0.009454381
230	0x3d877a41	0.06615115
231	0xbd4a41ca	-0.049379148
232	0xbd3fbc15	-0.04681023
233	0xbd3028e4	-0.043007746
234	0xbe2a2a4f	-0.16617702
235	0x3c863a1c	0.01638513
236	0x3b39178c	0.0028242795
237	0xbddd404d	-0.1080328
238	0xbbf9f5a0	-0.0076281577
239	0xbc3382b3	-0.010956454
240	0x3e0b71d3	0.13617639
241	0x3da0fa6e	0.07860266
242	0x3d91f243	0.07126286
243	0x3aa03412	0.0012222549
244	0xbcb7d1e1	-0.022438945
245	0xbdb96d81	-0.09054089
246	0x3b96f72a	0.004607101
247	0xbdaadebf	-0.08343267
248	0xbdb71156	-0.089388534
249	0xbd93fb41	-0.07225657
250	0xba027458	-0.0004976443
251	0xbc853ea1	-0.016265215
252	0x3ccfb768	0.02535601
253	0x3b51ca4f	0.0032011454
254	0xbcd988b4	-0.026554443
255	0x3c89e377	0.016832097

body.block1.conv.bias f4 [32]
0	0xbdb03cc6	-0.086053416
1	0xbd4ef913	-0.050530504
2	0x3dded1a4	0.108798295
3	0xbd8593c8	-0.06522328
4	0xbd7ff403	-0.062488567
5	0xbd327dd3	-0.043577027
6	0xbd4c6c44	-0.049907938
7	0xbd66ae24	-0.056318417
8	0x3d3a94d4	0.04555209
9	0xbc9e2b36	-0.019307714
10	0xbc81e8da	-0.015858103
11	0xbd132c53	-0.035930943
12	0xbce3d57e	-0.027811762
13	0x3d7951ce	0.06086903
14	0xba48635e	-0.00076442014
15	0x3cd382fe	0.025819298
16	0xbccbd649	-0.024882453
17	0x3c3e3d9c	0.0116113685
18	0x3d6ae018	0.05734262
19	0xbc4438cf	-0.011976435
20	0x3c5eb9b9	0.013594084
21	0xbd1e469d	-0.03864156
22	0x3cfb9949	0.03071274
23	0x3c23ce23	0.009997877
24	0xbda90d73	-0.08254518
25	0x3d873c45	0.066032924
26	0xbdbffe52	-0.093746796
27	0x3d7023dc	0.05862795
28	0xbdb5c3d7	-0.08875244
29	0xbdac361d	-0.08408759
30	0xbd94e7c4	-0.07270768
31	0x3d8f130a	0.06986053

body.block1.norm.weight f4 [32]
0	0x3f3e0814	0.74231076
1	0x3f748a4e	0.95523536
2	0x3f883a65	1.0642821
3	0x3f441139	0.7658878
4	0x3f86168e	1.0475633
5	0x3f713cc7	0.94233364
6	0x3f68aa85	0.9088519
7	0x3f502c44	0.81317544
8	0x3f6df7e6	0.9295639
9	0x3f86d2a0	1.0533028
10	0x3f56a3c9	0.83843666
11	0x3f73e45e	0.95270336
12	0x3f3e9c99	0.744577
13	0x3f5c0620	0.85946846
14	0x3f4e4407	0.8057255
15	0x3f43991c	0.764055
16	0x3f7bf38a	0.98418486
17	0x3f4d5649	0.80209786
18	0x3f6d5eec	0.92722964
19	0x3f520acd	0.8204773
20	0x3f3afd4a	0.7304274
21	0x3f57fc45	0.8436931
22	0x3f6bf5df	0.92172045
23	0x3f3d2357	0.7388205
24	0x3f68f742	0.91002285
25	0x3f8f0358	1.1172895
26	0x3f719c49	0.943791
27	0x3f3dc8d1	0.74134547
28	0x3f4885e8	0.78329325
29	0x3f47545b	0.7786309
30	0x3f633147	0.88747066
31	0x3f3bb682	0.7332536

body.block1.norm.bias f4 [32]
0	0x3f3ab4c5	0.7293208
1	0x3de189af	0.11012589
2	0x3e8d751b	0.27628407
3	0x3f470e77	0.77756447
4	0x3e7be16c	0.2459771
5	0x3e1d6495	0.153704
6	0x3ef03a63	0.46919546
7	0x3ea27433	0.31729278
8	0x3d531758	0.051535934
9	0xbd3f074d	-0.046637822
10	0x3f21c076	0.631843
11	0x3f324fca	0.69653
12	0x3f8a36a4	1.0797925
13	0x3f2519b4	0.64492345
14	0x3f39a5dc	0.72518706
15	0x3f612f82	0.87963116
16	0x3eb04fe7	0.3443596
17	0x3f373220	0.7156086
18	0x3f299337	0.6624026
19	0x3f405c88	0.7514119
20	0x3f8247e4	1.0178189
21	0x3f264e2a	0.6496302
22	0x3ea86e26	0.32896537
23	0x3f6265ce	0.8843659
24	0x3f32243c	0.6958654
25	0xbe4dd628	-0.20101225
26	0x3f0840dc	0.5322397
27	0x3f3dcf61	0.7414456
28	0x3f507f0a	0.81443846
29	0x3f4cfcc2	0.8007318
30	0x3f6ccc2d	0.9249905
31	0x3f6ce350	0.9253435

body.block1.norm.running_mean f4 [32]
0	0x3e640915	0.2226909
1	0x3fac683b	1.3469309
2	0xbfa4b14f	-1.286661
3	0xc002effa	-2.045897
4	0xc000da15	-2.0133107
5	0x3fa76ca2	1.3080027
6	0xbf3f55f3	-0.74740523
7	0xc072cad8	-3.7936306
8	0xbf9345ad	-1.1505638
9	0xbf2e8737	-0.6817507
10	0xbf3cb024	-0.7370627
11	0xbecdb16d	-0.40174428
12	0xbfcccddb	-1.6000322
13	0xbfd626cb	-1.6730589
14	0xbf5289aa	-0.8224131
15	0xc07fe2d9	-3.9982207
16	0xbf2234e6	-0.63361967
17	0xbf8f092e	-1.1174676
18	0x4037732c	2.8664045
19	0xbfaffdee	-1.3749368
20	0xbfb69825	-1.4265181
21	0xc05eb290	-3.4796486
22	0xc040c3b0	-3.0119438
23	0xc02f2927	-2.7368867
24	0x3f8e9b90	1.1141224
25	0x3ea150e6	0.31507033
26	0xbf332a47	-0.69986385
27	0x401e86a6	2.4769683
28	0x40399ba3	2.9001243
29	0xc0313f3a	-2.769484
30	0xc008e6e5	-2.1390927
31	0x3ff488f3	1.9104294

body.block1.norm.running_var f4 [32]
0	0x3e910391	0.28323033
1	0x3fa7b658	1.3102522
2	0x3fc24600	1.5177612
3	0x3f0ec180	0.5576401
4	0x3f650330	0.8945799
5	0x3fb7789e	1.4333684
6	0x3f586ea3	0.8454382
7	0x3f52dd4d	0.8236893
8	0x3f9226e2	1.1418116
9	0x3fafa02c	1.3720756
10	0x3f9b77f4	1.2145982
11	0x3f1be44e	0.6089524
12	0x3fc1a621	1.5128824
13	0x3ff43f76	1.9081867
14	0x40165d20	2.349434
15	0x3f134eec	0.575423
16	0x3f9c559b	1.2213625
17	0x3f54cb0c	0.83122325
18	0x3fb5063e	1.414253
19	0x3ecd2ddd	0.40074053
20	0x3f96de7f	1.178665
21	0x3f2063d9	0.62652355
22	0x3f8e2e7d	1.1107937
23	0x3efee3cb	0.49783167
24	0x3f86c6ad	1.0529381
25	0x3fb0dcc4	1.3817372
26	0x3f3a0c1c	0.7267473
27	0x3f57f139	0.8435245
28	0x3f5ce459	0.8628593
29	0x3ef2058a	0.4726985
30	0x3eea3a02	0.4574738
31	0x3f954f2b	1.1664785

body.block2.conv.weight f4 [32, 32, 3, 3]
0	0x3d9102d5	0.07080618
1	0xbd083d24	-0.033261433
2	0xbce19121	-0.027535023
3	0xbd15b4ba	-0.036549307
4	0xbdc3e260	-0.09564662
5	0xbd20eb0f	-0.03928667
6	0xbc1426b0	-0.009042427
7	0xbd8b44d1	-0.06800235
8	0xbc67a486	-0.014138347
9	0xbd89e8e7	-0.06733876
10	0x3c917a50	0.017758518
11	0x3dc306dc	0.09522793
12	0xbc50103c	-0.012699183
13	0x3d90face	0.07079087
14	0x3d3c238f	0.04593235
15	0xbcd99caa	-0.026563961
16	0x3cc268b2	0.023731563
17	0x3db85eaa	0.09002431
18	0x3e15dfd6	0.14636168
19	0xbd9289cb	-0.07155188
20	0xbdc80104	-0.09765819
21	0x3ce0e8cc	0.027454756
22	0xbd265a02	-0.040613182
23	0x3dc16edb	0.09444972
24	0x3d350f92	0.044204302
25	0x3d9406b3	0.0722784
26	0x3dae2843	0.08503773
27	0xbe66c28a	-0.22535148
28	0xbe2cdcaf	-0.16881059
29	0x3da9b1cf	0.082858674
30	0xbcf71305	-0.030160436
31	0xbdf5dec6	-0.12005381
32	0xbd299980	-0.041406155
33	0xbdb1dc74	-0.08684626
34	0xbca808ca	-0.020512003
35	0xbdafdf73	-0.085875414
36	0xbd6a353f	-0.057179686
37	0xbd9650f1	-0.07339657
38	0xbdee07df	-0.11622595
39	0xbb1820cc	-0.0023212908
40	0x3bf54e92	0.007486173
41	0xbcb5e231	-0.022202583
42	0x3d8d2876	0.06892483
43	0x3db9be74	0.09069529
44	0x3d10de4c	0.03536825
45	0x3d981115	0.07425133
46	0x3a55d1b1	0.00081565516
47	0xbda8d89c	-0.0824444
48	0x3d11ccc9	0.03559569
49	0x3d606239	0.054781172
50	0xbc9a4b2a	-0.01883467
51	0x3e118674	0.14211446
52	0x3dba1307	0.090856604
53	0x3ce9db7f	0.028547047
54	0x3c66401e	0.014053373
55	0x3c4cfc82	0.012511374
56	0xbe1d190f	-0.1534159
57	0x3d30d0de	0.04316794
58	0x3c80534e	0.015664723
59	0xbd004496	-0.03131541
60	0x3e1f7842	0.15573218
61	0x3cca9dbf	0.024733422
62	0x3e1b2db7	0.15154158
63	0x3dcaadd4	0.09896436
64	0x3c918e0c	0.017767929
65	0xbe168f58	-0.14703119
66	0x3df96b30	0.121786475
67	0xbc855d92	-0.01627997
68	0xbdc921d6	-0.09820907
69	0x3d7e1934	0.062035754
70	0xbcce6550	-0.025194794
71	0x3dcf4857	0.101212196
72	0xbd8d1186	-0.06888108
73	0x39e397ff	0.0004341006
74	0xbd86ddee	-0.065852985
75	0xbd3f467a	-0.04669807
76	0x3d955294	0.07291141
77	0x3d18e084	0.03732349
78	0xbc022440	-0.007943213
79	0x3dd7297e	0.10505961
80	0xbab38a81	-0.0013697894
81	0xbd180bb3	-0.037120532
82	0xbd213df4	-0.039365724
83	0xbd3b9f5e	-0.04580628
84	0x3d62ac16	0.055339895
85	0x3d7cc222	0.061708577
86	0x3dc3fdcc	0.09569892
87	0x3d32eddf	0.043683883
88	0x3d9de9a6	0.077105805
89	0x3d0db98a	0.034600772
90	0xbcd243f7	-0.025667174
91	0xbd7ec9f4	-0.062204316
92	0xbdee2829	-0.11628754
93	0x3ca7722e	0.020440187
94	0x3b14a797	0.00226829
95	0x3d31802a	0.043335117
96	0xbd61a132	-0.05508537
97	0xbbda28ee	-0.006657711
98	0x3d43d8b5	0.04781409
99	0xbc7182eb	-0.014740686
100	0x3d93b477	0.07212155
101	0x3d23c856	0.039985977
102	0xbdf18985	-0.11793808
103	0x3d5b9256	0.053606354
104	0xbd2e6d84	-0.04258491
105	0x3c1b3b71	0.009474621
106	0x3d876b18	0.066122234
107	0x3b9e3cb7	0.004829015
108	0xbd6a6d1b	-0.057232957
109	0xbd8473c6	-0.064673945
110	0x3d34d7fe	0.0441513
111	0xbd862e84	-0.06551841
112	0xbd15ee00	-0.036603928
113	0x3dab29ed	0.08357606
114	0x3bdd59ea	0.0067551034
115	0x3c898133	0.01678524
116	0x3d64949f	0.0558058
117	0x3c724624	0.014787231
118	0x3ba8787d	0.0051413164
119	0xbc53c4aa	-0.012925306
120	0xbc74b75f	-0.014936297
121	0xbc322ca9	-0.010874906
122	0xbc5950c8	-0.013263889
123	0x3dbf277d	0.09333704
124	0x3cac6358	0.021043465
125	0xbdc3db22	-0.09563281
126	0xbc72d7cd	-0.014821959
127	0xbcf0a1ce	-0.02937403
128	0x3d0b1ff4	0.03396602
129	0x3e2c53fe	0.16828915
130	0x3de8fff5	0.11376945
131	0x3c725c6a	0.014792541
132	0x3e0938e0	0.13400602
133	0x3de5e52e	0.11225353
134	0x3d89b348	0.06723648
135	0x3de945e7	0.11390286
136	0x3e28af8c	0.16473216
137	0xbd642186	-0.055696033
138	0x3db57328	0.08859855
139	0x3d6b3be0	0.057430148
140	0xbd081ba9	-0.033229504
141	0x3c6330b9	0.013866597
142	0x3d34f29e	0.04417669
143	0x3bbc9b56	0.005755822
144	0x3db3ab11	0.08772863
145	0x3ca75f7b	0.02043127
146	0x3d2a91a6	0.041642807
147	0x3da54c41	0.08071185
148	0x3c756bc0	0.014979303
149	0x3d8d20c9	0.06891019
150	0x3cd47ed2	0.025939379
151	0xbd1bdd15	-0.038052637
152	0x3a8a21ea	0.0010538672
153	0x3cfc81c0	0.030823588
154	0x3d99aafb	0.07503315
155	0x3e15ba12	0.14621761
156	0xbdabf580	-0.08396435
157	0xbcb991d5	-0.022652546
158	0x3da97fa2	0.08276297
159	0x3d4e1cdf	0.050320502
160	0xbbf3407b	-0.007423458
161	0x3c4bbad4	0.01243468
162	0xbd0f7766	-0.035025977
163	0x3d0fe1f2	0.035127588
164	0x3c657198	0.014004134
165	0xbd3a99bf	-0.04555678
166	0xbb2bb59f	-0.0026200784
167	0xbc7004a7	-0.014649547
168	0xbd41d430	-0.0473215
169	0xbd7acd39	-0.06123087
170	0x3ca431b0	0.020043224
171	0x3e0be912	0.13663128
172	0x3d070a29	0.032968674
173	0x3da5c3a1	0.08093954
174	0xbaa88856	-0.0012858014
175	0xbc8ad295	-0.016946116
176	0xbd5a8963	-0.05335368
177	0xbcfc7e03	-0.030821806
178	0x3c5e2299	0.013558053
179	0x3d5452b2	0.051836677
180	0xbdfa866e	-0.12232672
181	0x3d41df0c	0.047331855
182	0x3cb2afeb	0.0218124
183	0xbcf49983	-0.029858356
184	0x3d548e33	0.051893424
185	0xbba81221	-0.0051291143
186	0x3deefecd	0.11669693
187	0xbb45acc3	-0.0030162788
188	0xbd3ea712	-0.04654605
189	0x3c64fb90	0.013975993
190	0x3cd00e21	0.025397362
191	0x3da6564f	0.08121931
192	0xbd154799	-0.036445234
193	0xbdb5e43d	-0.088814236
194	0xbd0beb9f	-0.034160253
195	0x3d3db457	0.046314564
196	0x3c080e65	0.008304213
197	0xbd31e723	-0.04343332
198	0xbc887ef9	-0.016662108
199	0x3b430d81	0.0029762688
200	0xbdc496ed	-0.09599099
201	0x3d8a8c25	0.06765012
202	0xbe1440d9	-0.14477862
203	0xbd7c426e	-0.06158679
204	0x3e03b2ca	0.12861171
205	0xbde0c8e0	-0.10975814
206	0xbd8edd46	-0.06975798
207	0x3dfdd4c1	0.12394095
208	0x3c071f93	0.008247274
209	0x3d7faf24	0.062422886
210	0xbb4b5c4f	-0.0031030362
211	0xbcdd5a4a	-0.027020592
212	0xbc7cc860	-0.0154286325
213	0xbd820594	-0.0634872
214	0xbddca4f5	-0.107736506
215	0x3d0a80e9	0.033814345
216	0x3d69a830	0.05704516
217	0xbc7004f3	-0.0146496175
218	0xbbf04c8b	-0.0073333434
219	0xbc99f155	-0.018791834
220	0xbcea6adf	-0.028615413
221	0xbdceda3f	-0.10100221
222	0xbc5f3c87	-0.013625271
223	0xbdaa9ce8	-0.08330709
224	0xbde23fbf	-0.11047315
225	0xbdd282ba	-0.1027884
226	0x3c545e53	0.012961942
227	0x3d387a41	0.045038465
228	0xbe285aa1	-0.16440822
229	0xbbe18f35	-0.0068835267
230	0x3daeb0e8	0.08529836
231	0xbe3e0200	-0.1855545
232	0x3cd32edd	0.025779182
233	0x3ddc91f7	0.10770028
234	0xbe062e3b	-0.13103573
235	0xbd6aa5ef	-0.057287153
236	0x3dde719f	0.10861515
237	0x3d432a34	0.04764767
238	0x3de23ec9	0.110471316
239	0x3cf2b695	0.029628078
240	0xbc93eba7	-0.018056704
241	0x3db94668	0.09046632
242	0xbd8f3ce6	-0.06994037
243	0x3d0ed926	0.034875058
244	0x3d66b925	0.05632891
245	0xbccdba38	-0.02511321
246	0xbda772d5	-0.08176199
247	0xbd3809ef	-0.04493135
248	0xbd57906e	-0.052627973
249	0xbcde05fb	-0.027102461
250	0xbc87ea35	-0.01659117
251	0xbd53a7db	-0.05167375
252	0x3e1206bc	0.14260381
253	0x3db02c06	0.08602147
254	0xbd1ed5bb	-0.038778048
255	0xbcd2a01e	-0.025711115

body.block2.conv.bias f4 [32]
0	0x3d40ea7c	0.04709862
1	0x3d711b77	0.058864083
2	0x3de5184f	0.11186277
3	0xbc88b1b9	-0.016686307
4	0xbc9e565a	-0.019328285
5	0x3d1f0a1c	0.038828
6	0x3e51d727	0.2049223
7	0x3cd43317	0.025903268
8	0x3d84c034	0.06481972
9	0xbd5b2927	-0.053506043
10	0xbdc79bfe	-0.0974655
11	0x3d95164f	0.07279646
12	0x3d4b9728	0.0497047
13	0x3cf76949	0.030201571
14	0xbcf93bb7	-0.030423982
15	0x3dcdfade	0.10057615
16	0xbd62ce21	-0.05537236
17	0x3d55aa73	0.052164506
18	0x3d9da20a	0.07696922
19	0x3da73b91	0.08165658
20	0x3d253976	0.040338002
21	0x3d3352af	0.043780025
22	0x3ca8aa30	0.020588964
23	0x3e0830a2	0.13299802
24	0x3e07f4ed	0.13277026
25	0x3cde774c	0.027156495
26	0x3dd0c26e	0.101933345
27	0x3d95daba	0.073171094
28	0x3e249c8e	0.16075346
29	0x3d5fde9f	0.054655667
30	0xbd1450de	-0.036209933
31	0x3d606cc8	0.054791242

body.block2.norm.weight f4 [32]
0	0x3f67ddfc	0.90573096
1	0x3f62191b	0.8831956
2	0x3f579622	0.8421346
3	0x3f4cdafe	0.80021656
4	0x3f47a008	0.77978563
5	0x3f6fa44c	0.9361007
6	0x3f6da7d5	0.92834216
7	0x3f4c9fb8	0.7993121
8	0x3f48af75	0.78392726
9	0x3f59361e	0.848482
10	0x3f808541	1.0040666
11	0x3f42875a	0.7598778
12	0x3f8b89d3	1.0901436
13	0x3f6f6b36	0.93522966
14	0x3f8cea4d	1.1009003
15	0x3f728940	0.94740677
16	0x3f70701a	0.93921053
17	0x3f6a6b53	0.91570014
18	0x3f50de7c	0.81589484
19	0x3f5b7add	0.8573435
20	0x3f3d4124	0.7392752
21	0x3f60f055	0.8786672
22	0x3f78479a	0.96984255
23	0x3f5377d6	0.8260473
24	0x3f3ffcdd	0.74995214
25	0x3f564936	0.8370546
26	0x3f736d70	0.95088863
27	0x3f437a59	0.7635856
28	0x3f5c4e04	0.8605654
29	0x3f718152	0.9433795
30	0x3f74205a	0.95361865
31	0x3f6c61a0	0.92336464

body.block2.norm.bias f4 [32]
0	0x3e57837e	0.21046254
1	0x3f09617e	0.53664386
2	0x3f6cbaf3	0.9247276
3	0x3f70cc6a	0.9406191
4	0x3f0c7609	0.5486761
5	0x3ece354d	0.4027504
6	0x3f617bb1	0.88079363
7	0x3f0c64cb	0.548413
8	0x3f2da79b	0.6783387
9	0x3f1642a8	0.5869546
10	0x3eb522aa	0.3537801
11	0x3f3de46f	0.74176687
12	0x3e40d711	0.18832041
13	0x3f3a24bf	0.7271232
14	0x3e02c7d6	0.12771544
15	0x3f0c153d	0.5471991
16	0x3f0a347a	0.5398632
17	0x3ec95097	0.39319298
18	0x3f36a1a8	0.7134042
19	0x3f29b36c	0.662894
20	0x3f42593b	0.75917405
21	0x3f38a474	0.72125936
22	0x3ea3c8f9	0.31989267
23	0x3f2fd8d4	0.6869023
24	0x3f4c72cb	0.7986266
25	0x3f4e16c1	0.8050347
26	0x3e78a0f2	0.24280146
27	0x3f375863	0.7161924
28	0x3f4453e1	0.7669049
29	0x3f2e1def	0.68014425
30	0x3e9210b8	0.2852838
31	0x3f118009	0.5683599

body.block2.norm.running_mean f4 [32]
0	0x3ee3faf3	0.44527397
1	0xbf832260	-1.0244865
2	0x3fc38d7f	1.5277556
3	0xbf00f63f	-0.5037574
4	0xc04c99c0	-3.1968842
5	0xbf3403db	-0.7031838
6	0x3ffc6dc0	1.9720993
7	0xbf7eefdb	-0.9958474
8	0x3f8dc1e7	1.1074799
9	0xbf3a6470	-0.72809505
10	0xc035080a	-2.8286157
11	0x403ed064	2.9814692
12	0x3e4ef5c8	0.20210946
13	0x3e67ebe5	0.2264858
14	0xbf29b96b	-0.6629855
15	0x3ffd338e	1.9781358
16	0xbfa48292	-1.2852347
17	0x3f0554c6	0.5208248
18	0xbf810ee6	-1.0082672
19	0xbddfa7b6	-0.1092066
20	0x3ff84b1b	1.939792
21	0x3f983f3b	1.1894296
22	0xbe956bcd	-0.29183808
23	0x401a2429	2.408457
24	0x3d919019	0.071075626
25	0x3ffb0a9e	1.9612615
26	0x3f52d078	0.8234935
27	0x3e895a0d	0.26826516
28	0x3f4e737b	0.8064496
29	0xbfd49f19	-1.6611053
30	0x3de97518	0.11399287
31	0x3f3597c6	0.7093471

body.block2.norm.running_var f4 [32]
0	0x3fcfe265	1.6240965
1	0x3f975f67	1.182599
2	0x400613db	2.094962
3	0x3fc247cd	1.5178162
4	0x3f88f3bc	1.0699382
5	0x3ef487af	0.47759768
6	0x3f94f541	1.1637346
7	0x3f5d81f9	0.8652645
8	0x3fb8d952	1.4441321
9	0x3f79e236	0.97610795
10	0x3f380703	0.718857
11	0x3ee1588d	0.4401287
12	0x3ff9beab	1.9511312
13	0x3e8e5d22	0.2780543
14	0x3fab7bba	1.3397133
15	0x3fed384e	1.8532808
16	0x3ee25155	0.44202676
17	0x3ef7378f	0.48284575
18	0x3eec5794	0.46160567
19	0x3ee50848	0.4473288
20	0x3ede0d2e	0.4336943
21	0x3fa5809b	1.2929872
22	0x3f2f2d4f	0.6842851
23	0x40380144	2.8750772
24	0x3fefa01d	1.8720738
25	0x3f9b815c	1.2148852
26	0x3faff52c	1.3746696
27	0x3f0d99d3	0.5531284
28	0x3fa45426	1.283818
29	0x3f7ea0b0	0.9946394
30	0x3f1b6fad	0.6071728
31	0x3f04cf83	0.5187914

body.block3.conv.weight f4 [32, 32, 3, 3]
0	0x3cff8d6e	0.031195369
1	0x3d26d2eb	0.04072849
2	0xbdff045b	-0.124520026
3	0x3da17f27	0.078855805
4	0x3ddb64fb	0.1071262
5	0xbd8397d1	-0.06425441
6	0x3a1af583	0.0005911218
7	0x3d87a7aa	0.06623776
8	0xbd9ebe56	-0.077511474
9	0x3dc72079	0.097229905
10	0x3d65ca7f	0.05610132
11	0xba2c3b4c	-0.0006570115
12	0x3d8f010b	0.06982621
13	0xbd9333fc	-0.071876496
14	0x3cc79d53	0.02436701
15	0x3c6afb64	0.014342163
16	0x3b707fc7	0.0036697255
17	0x3cf0e000	0.029403687
18	0xbd17b951	-0.037041966
19	0xbc07e32d	-0.008293909
20	0xbd9602b8	-0.07324737
21	0xbc0baf40	-0.00852567
22	0xbd23a151	-0.039948765
23	0xbd52d3b4	-0.051471427
24	0xbd82b8b9	-0.06382889
25	0xbe036586	-0.12831697
26	0xbd9ce3c6	-0.07660632
27	0xbd98b72e	-0.07456814
28	0xbd34076f	-0.0439524
29	0x3d64226f	0.0556969
30	0xbe25ca78	-0.16190517
31	0xbc03c851	-0.008043365
32	0x3df18344	0.11792615
33	0xbdc2a00f	-0.09503185
34	0x3cfad33d	0.030618304
35	0x3e37589c	0.17904896
36	0xbd960c92	-0.07326616
37	0xbd91f4a1	-0.071267374
38	0xbd238500	-0.03992176
39	0x3d1c07ed	0.038093496
40	0xbd618862	-0.055061705
41	0x3d054734	0.032538608
42	0x3d5de4b6	0.054173194
43	0xbd8e20f4	-0.06939879
44	0xbd23fd11	-0.040036265
45	0x3d068787	0.032844093
46	0xbdc9b4bd	-0.09848926
47	0xbd41aa82	-0.04728175
48	0xbcab7e9b	-0.020934394
49	0xbd3e1480	-0.04640627
50	0x3c655702	0.013997795
51	0x3d2f9181	0.042863373
52	0x3c5bab74	0.013407577
53	0x3db511a5	0.08841256
54	0x3e2b4df6	0.16728958
55	0x3d2f00bc	0.04272531
56	0x3d869b63	0.065726064
57	0x3e46a3d1	0.19398428
58	0x3dc84b6e	0.09780012
59	0x3c3e7f73	0.011627066
60	0x3e2b8043	0.16748147
61	0x3dcec66b	0.10096439
62	0xbc0f85d7	-0.008759937
63	0x3ba8bf1b	0.0051497347
64	0xbcef3da8	-0.029204205
65	0x3c7091d8	0.014683209
66	0xbc914c5a	-0.017736603
67	0xbd5ca7b7	-0.053870883
68	0x3cb83543	0.022486335
69	0xbd2db142	-0.042405374
70	0xbcc3e772	-0.023914073
71	0x3d07b44d	0.033130933
72	0x3dc103ac	0.094245285
73	0xbce7d509	-0.028299825
74	0xbdac5bd1	-0.0841595
75	0xbd224e71	-0.03962559
76	0xbc8c0cfa	-0.017096031
77	0xbd2ed8d2	-0.042687245
78	0xbdcbe8dc	-0.09956524
79	0xbd28d267	-0.04121628
80	0x3db18984	0.08668807
81	0xbd99748d	-0.074929334
82	0xbcf848f6	-0.030308228
83	0xbc0dff73	-0.008666861
84	0xbd038520	-0.03210938
85	0x3cb6811f	0.022278367
86	0x3ca1010a	0.019653816
87	0x3d1044bf	0.03522181
88	0xbd396982	-0.045266636
89	0xbd55ab98	-0.052165598
90	0x3b669c0c	0.0035188226
91	0x3d9016d3	0.070356034
92	0x3d1be767	0.03806248
93	0xbcaebb36	-0.021329504
94	0xbcc38fe6	-0.023872327
95	0xbd18998f	-0.03725582
96	0xbd4de1f3	-0.05026431
97	0xbd5bd497	-0.05366954
98	0xbcf79623	-0.030222958
99	0xbd5fe311	-0.054659907
100	0x3d9a0269	0.07519991
101	0x3dc6e95b	0.09712478
102	0xbe03a9d4	-0.12857753
103	0x3c0ed005	0.008716588
104	0x3cb73aba	0.02236687
105	0xbe19f2e4	-0.15034062
106	0xbdea5927	-0.11442786
107	0xbce3f450	-0.027826458
108	0x3d765de8	0.06014815
109	0xbccf5c9a	-0.02531271
110	0xbda49919	-0.080370136
111	0x3deac483	0.11463263
112	0x3dca1bd2	0.098685876
113	0x3d348c94	0.04407938
114	0x3dc412db	0.09573909
115	0x3de49098	0.111603916
116	0x3d1a22ff	0.03763103
117	0xbd04b93b	-0.032403212
118	0x3db1d4f9	0.086831994
119	0x3d88647e	0.06659792
120	0xbd9492fd	-0.07254598
121	0x3c656236	0.014000466
122	0x3d8c176c	0.06840405
123	0xbe4fd466	-0.20295867
124	0x3d0abbd4	0.033870533
125	0xbc5799a4	-0.013159189
126	0x3bce7450	0.0063004866
127	0x3dcabaff	0.09898948
128	0x3cd186ca	0.025576968
129	0xbd427ca3	-0.047482144
130	0x3c96003d	0.01831066
131	0xbd329311	-0.043597285
132	0xbd7abd06	-0.061215423
133	0x3c1b2de6	0.009471392
134	0xbda6bd9e	-0.08141635
135	0xbd80292a	-0.062578514
136	0x3c5403cf	0.012940361
137	0xbd2b96e1	-0.041891936
138	0xbe2323c1	-0.15931608
139	0x3acb1543	0.0015494007
140	0x3c23b731	0.009992407
141	0xbe0a0798	-0.1347946
142	0xbd0ab44c	-0.03386335
143	0x3cd0a510	0.025469333
144	0xbda3ff46	-0.08007674
145	0xbd8a6612	-0.067577496
146	0x3c35fc3e	0.0111075025
147	0x3cbc89ff	0.02301502
148	0xbbb7d491	-0.0056100567
149	0x3d547d43	0.05187727
150	0xbc7a7d17	-0.015288613
151	0x3b26148e	0.0025341841
152	0x3d7b0a82	0.061289318
153	0xbd3bd519	-0.045857523
154	0xbc8ca735	-0.017169574
155	0x3d0fd973	0.035119485
156	0xbd91bb90	-0.07115853
157	0x3b691d93	0.0035570606
158	0xbc962a3b	-0.018330684
159	0xbe707c1d	-0.23484845
160	0xbda15c84	-0.07878974
161	0xbd55d95c	-0.052209243
162	0x3d4d70de	0.050156467
163	0xbc19a26c	-0.009377103
164	0x3cef6f01	0.029227735
165	0x3df8a21d	0.12140296
166	0x3d5a98e5	0.053368468
167	0x3de6aab6	0.11263029
168	0x3da434d7	0.08017891
169	0x3c65f679	0.014035814
170	0x3d6fcc3a	0.058544375
171	0x3c866b4d	0.016408587
172	0xbc93c99c	-0.01804047
173	0xbd37a624	-0.04483618
174	0xbdbbcad7	-0.09169548
175	0x3cb7d4d6	0.022440355
176	0xbc8ad7c3	-0.016948586
177	0xbe2775c8	-0.16353524
178	0xbd61ff12	-0.055174895
179	0xbc79f444	-0.015255991
180	0x3d48ba18	0.049005598
181	0x3d914814	0.07093826
182	0x3dd6074f	0.10450613
183	0xbd983ed6	-0.0743386
184	0xbd58f831	-0.05297107
185	0x3cec6964	0.028858848
186	0xbd79d9da	-0.060998775
187	0x3cc3dad4	0.023908056
188	0x3dac883a	0.08424421
189	0xbd2de5f9	-0.042455647
190	0xbdc9d275	-0.098545946
191	0x3d04df03	0.032439243
192	0x3e17e98f	0.1483519
193	0x3d86ca1f	0.0658152
194	0x3da4378d	0.08018408
195	0x3e896982	0.2683831
196	0x3ddf7811	0.10911573
197	0x3d35d881	0.044395927
198	0x3c943c18	0.018095061
199	0xbcf79ff4	-0.030227639
200	0x3d133001	0.035934452
201	0xbc3aacb4	-0.011393715
202	0xbb14358d	-0.0022614927
203	0x3d25ae1b	0.040449243
204	0xbd54c125	-0.05194201
205	0xbd222a27	-0.03959098
206	0x3d8ce427	0.06879454
207	0xbc57a904	-0.013162855
208	0xbcb50c01	-0.02210045
209	0xbc669879	-0.014074438
210	0xbe1932c1	-0.14960767
211	0xbda7f993	-0.082018994
212	0xbd578b43	-0.052623045
213	0xbd917a78	-0.07103437
214	0xbcfb93d7	-0.030710144
215	0xbc010c5d	-0.007876483
216	0xbd2fe768	-0.042945296
217	0xbdc5c66e	-0.09656988
218	0xbdbb12ea	-0.09134467
219	0xbc944623	-0.01809985
220	0xbd5c11fb	-0.053728085
221	0xbd66751a	-0.05626402
222	0xbdc3558e	-0.09537803
223	0xbdba4639	-0.09095425
224	0xb8a95d96	-8.07598e-05
225	0xbd682106	-0.05667212
226	0xbcff16fe	-0.031138893
227	0xbde98079	-0.11401457
228	0xbc708c2d	-0.014681858
229	0x3d2f9534	0.0428669
230	0xbd2c42df	-0.04205596
231	0x3c699958	0.014257751
232	0x3db97d29	0.090570755
233	0x3da0d2c7	0.078527026
234	0xbdd0592e	-0.1017326
235	0xbaaa5281	-0.0012994559
236	0x3cc5f2e0	0.024163663
237	0xbd512b7b	-0.051066857
238	0x3d6feacd	0.058573533
239	0x3d224d00	0.039624214
240	0xbd693c60	-0.056942344
241	0xbd14279f	-0.036170598
242	0xbc5eb94d	-0.013593984
243	0x3cdff0ac	0.027336441
244	0xbcde95a1	-0.027170958
245	0x3a192471	0.0005841917
246	0x3b9d5659	0.004801553
247	0xbcbc90c0	-0.02301824
248	0xbd81d572	-0.063395396
249	0x3c896a2b	0.016774258
250	0x3d0daae4	0.034586802
251	0x3bc56444	0.0060239155
252	0x3d8c6197	0.06854551
253	0x3dd96adc	0.10616085
254	0xbd0295f0	-0.031881273
255	0xbd4a5ca3	-0.04940475

body.block3.conv.bias f4 [32]
0	0xbd6872ef	-0.056750234
1	0xbc6cc6bd	-0.01445168
2	0xbd9fa411	-0.07794965
3	0xbd109129	-0.035294686
4	0xbcd1d4fa	-0.02561425
5	0x3db5e96c	0.08882412
6	0xbdb6dddc	-0.08929035
7	0xbe5a99c3	-0.21347718
8	0xbdcc2f61	-0.09969974
9	0x3e0b2105	0.13586815
10	0x3dafcebb	0.085843526
11	0xbdea39ec	-0.11436829
12	0x3dbd22ba	0.09235139
13	0x3da36f3c	0.07980201
14	0x3d4f1062	0.050552733
15	0xbe01a998	-0.12662351
16	0x3d8fa6e3	0.07014253
17	0xbc8c6529	-0.01713808
18	0xbd1c246c	-0.038120672
19	0x3e0596ab	0.13045757
20	0xbd70aa09	-0.05875591
21	0x3e39ec49	0.18156542
22	0x3e16e0ae	0.14734146
23	0x3d49845e	0.0491985
24	0xbb113b49	-0.002216058
25	0xbd6a06c2	-0.05713535
26	0x3db94bc7	0.090476565
27	0xbbec53c8	-0.007212136
28	0x3d665556	0.056233726
29	0x3d115ac4	0.03548695
30	0x3db8ceb7	0.09023803
31	0xbddcee28	-0.10787612

body.block3.norm.weight f4 [32]
0	0x3f9bf524	1.2184186
1	0x3f94dff2	1.1630843
2	0x3f91ee36	1.1400821
3	0x3fa2cd85	1.271897
4	0x3f985465	1.1900755
5	0x3f8f2005	1.1181647
6	0x3f9283d3	1.144648
7	0x3f9640de	1.1738546
8	0x3f96e363	1.1788143
9	0x3f6c63fb	0.9234006
10	0x3f717e15	0.9433301
11	0x3f96c954	1.178019
12	0x3f9b6bf8	1.2142324
13	0x3fac51c7	1.3462456
14	0x3fa025bb	1.2511514
15	0x3f9ce09e	1.2256048
16	0x3fbae463	1.4600948
17	0x3f9a2d35	1.2045046
18	0x3f7702f7	0.964889
19	0x3f86ea94	1.0540338
20	0x3fa17628	1.2614183
21	0x3f8d0b5b	1.101909
22	0x3f90c0f4	1.1308885
23	0x3f9f4f38	1.2446051
24	0x3faa9e8b	1.3329633
25	0x3f7d3450	0.9890795
26	0x3f808d67	1.0043153
27	0x3f84e2a4	1.0381665
28	0x3f8ddae2	1.1082423
29	0x3f969e6e	1.1767099
30	0x3f9ffbea	1.2498753
31	0x3f9fe934	1.2493043

body.block3.norm.bias f4 [32]
0	0x3f4da40b	0.80328435
1	0x3cdc9d31	0.026930423
2	0x3f2d6b5b	0.67741936
3	0x3edf652c	0.43631876
4	0x3d82a5d1	0.06379283
5	0xbf26979f	-0.65075105
6	0x3f324cbf	0.69648355
7	0x3f81d237	1.0142277
8	0x3f17eeb9	0.59348637
9	0xbf4b95c9	-0.7952543
10	0xbf557bdf	-0.8339214
11	0x3f007cd7	0.5019049
12	0x3f01f985	0.5077136
13	0x3ea9eaf5	0.3318707
14	0x3efcd2dd	0.49379626
15	0x3eed863e	0.4639148
16	0xbf08b7e5	-0.534056
17	0x3ef57726	0.47942466
18	0xbf4a567c	-0.79038215
19	0xbf15796d	-0.58388406
20	0x3f041e5f	0.5160884
21	0xbf49dda7	-0.7885384
22	0xbf1d3417	-0.6140761
23	0x3f007e4f	0.5019273
24	0xbf4183f1	-0.7559195
25	0xbf3675db	-0.71273583
26	0xbf321a79	-0.69571644
27	0xbf6e9671	-0.93198305
28	0x3f1eaa14	0.6197827
29	0x3f2001bd	0.6250265
30	0xbedc8aa7	-0.43074533
31	0x3ec0f217	0.376847

body.block3.norm.running_mean f4 [32]
0	0xbfa999ae	-1.3250024
1	0x3f6ade83	0.91745776
2	0xbf2a180a	-0.6644293
3	0x3f8ca5ac	1.0988059
4	0x3f1893f6	0.5960077
5	0xbe16f318	-0.1474117
6	0xbf8c9597	-1.0983151
7	0xbfa41f5a	-1.2822068
8	0xbfb6882c	-1.4260306
9	0xbec98f92	-0.39367348
10	0xbe32dd9c	-0.1746735
11	0x3fa0d7a0	1.2565804
12	0x3f0c4d32	0.5480529
13	0x3f3a976e	0.72887313
14	0x3fd1f60b	1.6403211
15	0x3dbfe2d3	0.09369435
16	0xbf1f353e	-0.62190616
17	0xbfd6c3c1	-1.6778489
18	0xbe42f1b0	-0.19037509
19	0xbf3720da	-0.715345
20	0x3f1d0eef	0.6135091
21	0xbdeb0ea3	-0.11477401
22	0x3cdeca13	0.027195966
23	0x3ed0ce1e	0.40782255
24	0xbf52cbe0	-0.8234234
25	0xbe4bcb85	-0.19901855
26	0x3f37572f	0.71617407
27	0xbf20297a	-0.6256329
28	0x3f980408	1.187623
29	0xbe8cc640	-0.27495003
30	0x3f74f9e0	0.9569378
31	0x3fe11204	1.7583623

body.block3.norm.running_var f4 [32]
0	0x3fc7221f	1.5557288
1	0x3e9ff3ca	0.31240684
2	0x3f061261	0.52371794
3	0x3f151de4	0.58248734
4	0x3e441f50	0.1915257
5	0x3f0d7a44	0.5526469
6	0x3f77fc95	0.96869785
7	0x3eff27ae	0.4983496
8	0x3fa84b2f	1.3147944
9	0x3e21ba38	0.15793693
10	0x3ed1c8bc	0.4097346
11	0x3fdc5e1d	1.7216221
12	0x3fcb7cf0	1.5897503
13	0x3eaad54a	0.33365852
14	0x400b55e9	2.1771185
15	0x3fabe2c2	1.3428576
16	0x3fda34f1	1.7047406
17	0x3e4b1d93	0.198355
18	0x3e966a78	0.29378104
19	0x3e26b1f7	0.16278826
20	0x3fb648d6	1.4240978
21	0x3eeb206a	0.45923167
22	0x3e8c3465	0.27383724
23	0x3f0c18e0	0.54725456
24	0x3e07fb45	0.13279445
25	0x3f8104b3	1.0079559
26	0x3eae7191	0.3407102
27	0x3ef3065d	0.47465792
28	0x3e8a5968	0.27021337
29	0x3f15805e	0.58399
30	0x3fe215eb	1.7662939
31	0x3f39fb97	0.7264952

tail.weight f4 [1, 32, 3, 3]
0	0x3eabc0bb	0.3354548
1	0xbd86d17e	-0.06582926
2	0xbe95ad43	-0.2923375
3	0x3e61fe19	0.22069587
4	0xbd60d1ba	-0.05488751
5	0xbe821b33	-0.25411376
6	0x3e1d3ad5	0.15354474
7	0xbdd523e7	-0.104072385
8	0xbe5a3c30	-0.21312022
9	0x3e2d2945	0.16910274
10	0x3e12e9e8	0.1434704
11	0x3da9124c	0.08255443
12	0x3e092f42	0.13396934
13	0x3d895a88	0.067067206
14	0xbe21f2c1	-0.1581526
15	0x3e49d7db	0.19711249
16	0x3c764816	0.015031835
17	0xbea66200	-0.32496643
18	0x3d284001	0.041076664
19	0x3df14ffb	0.11782833
20	0x3e5738d1	0.21017767
21	0xbdf0d4c1	-0.117593296
22	0xbda0fe4a	-0.07861002
23	0xbd909020	-0.0705874
24	0xbdb07404	-0.08615878
25	0xbd9a93d0	-0.07547724
26	0xbe0bf7a4	-0.13668686
27	0xbe8025d6	-0.25028867
28	0xbe350e20	-0.1768117
29	0xbe1ceb46	-0.15324125
30	0xbd4bcc96	-0.049755655
31	0x3ad6aa52	0.0016377664
32	0xbd047266	-0.03233566
33	0x3de9b172	0.11410798
34	0x3e37c2e1	0.17945434
35	0x3e4ee0ec	0.20202988
36	0x3e364b0f	0.1780207
37	0x3e105922	0.14096501
38	0x3cc38e40	0.023871541
39	0x3e154fdc	0.14581245
40	0x3d9b97c4	0.07597306
41	0xbe08c5fe	-0.13356778
42	0x3cbc3c7e	0.022978064
43	0xbe13b619	-0.14424933
44	0xbebf3ddf	-0.3735189
45	0x3e695646	0.22786817
46	0x3e0f31a2	0.13983777
47	0x3d347e19	0.04406557
48	0x3cd68b52	0.02618948
49	0xbd0e23ea	-0.03470222
50	0xbe275cb2	-0.16343954
51	0x3cfc10c7	0.030769719
52	0xbde9f8d9	-0.11424417
53	0xbe18340e	-0.14863607
54	0x3e3f1085	0.18658645
55	0xbddb822a	-0.10718186
56	0xbe3dad5b	-0.18523161
57	0x3e13eb8b	0.14445321
58	0xbd9efe79	-0.077633806
59	0xbe116018	-0.14196813
60	0x3ce7c0d6	0.028290194
61	0x3cb827ec	0.022479974
62	0xbd3a0033	-0.045410346
63	0x3f0f9c00	0.5609741
64	0xbd40129f	-0.04689276
65	0xbe288ed5	-0.16460736
66	0x3e972aad	0.29524747
67	0xbdd54ba3	-0.10414817
68	0xbe65733d	-0.22407241
69	0x3d72bbd5	0.05926116
70	0xbe4004bb	-0.18751805
71	0xbe9ee13a	-0.3103121
72	0x3ed78c61	0.42099288
73	0x3df63fbb	0.12023874
74	0xbd52520b	-0.051347774
75	0x3d998df5	0.07497779
76	0xbda939af	-0.082629554
77	0xbe5a676b	-0.21328513
78	0xbd39dfd8	-0.04537949
79	0xbe46f658	-0.1942991
80	0xbe97b3c4	-0.29629338
81	0x3df87b73	0.12132921
82	0x3d7ad806	0.061241172
83	0x3d811865	0.06303481
84	0xbc87c33c	-0.016572587
85	0xbc783760	-0.015149921
86	0x3db96fa1	0.09054495
87	0xbd335fdb	-0.043792587
88	0xbd17c3e2	-0.037052043
89	0xbca1686a	-0.019703109
90	0x3cb9a582	0.022661928
91	0x3d2eb5ca	0.042653836
92	0x3e042e40	0.12908268
93	0xbd64c104	-0.055848137
94	0xbd16eb54	-0.03684552
95	0x3dd8502e	0.10562168
96	0xbd3e229f	-0.046419736
97	0x3d2bf828	0.041984707
98	0x3e2e4080	0.17016792
99	0x3ea753a0	0.32680988
100	0x3b3eb85c	0.0029101586
101	0xbd91e6a7	-0.071240716
102	0x3d86255c	0.065500945
103	0xbe18794a	-0.14890018
104	0xbddaf4a9	-0.106911965
105	0xbd3376d4	-0.043814495
106	0xbe3023ae	-0.1720111
107	0xbe04b3d9	-0.12959231
108	0xbe25dfab	-0.16198604
109	0xbe1be485	-0.15223892
110	0xbe0a6f43	-0.13519005
111	0xbc7d3bbb	-0.015456135
112	0xbd9179f9	-0.071033426
113	0xbe00c85d	-0.12576433
114	0x3e2ba4a7	0.16762029
115	0x3d6770eb	0.05650417
116	0xbd1f7d71	-0.03893799
117	0x3e982da1	0.29722312
118	0xbdd51287	-0.104039244
119	0xbed6d148	-0.41956544
120	0x3e9935b8	0.29923797
121	0xbabc9891	-0.001438873
122	0xbe831588	-0.25602365
123	0x3e956072	0.29175144
124	0x3e141231	0.14460064
125	0xbda9cecd	-0.08291397
126	0xbe49ed35	-0.19719394
127	0xbe2c39e1	-0.16818954
128	0x3c20fa51	0.009825305
129	0xbd754344	-0.059878603
130	0xbdc551b2	-0.09634723
131	0xbdd92860	-0.10603404
132	0x3cf3fef7	0.029784663
133	0x3d650f81	0.05592299
134	0xbcea0412	-0.028566394
135	0xbe5fbf23	-0.21850257
136	0xbe5d3100	-0.21600723
137	0xbe1ed2fb	-0.1551017
138	0xbc6054f7	-0.013692132
139	0xbc981496	-0.018564504
140	0xbdbd4120	-0.09240937
141	0x3e22de50	0.15905118
142	0x3e00e9d0	0.12589192
143	0x3d9d50c4	0.076814204
144	0x3edfabcf	0.43685767
145	0x3eb6431d	0.35598078
146	0x3e93d36e	0.28872246
147	0x3f02f9fe	0.5116271
148	0x3ef5c929	0.48005036
149	0x3ea6af28	0.3255551
150	0x3f05f58e	0.5232781
151	0x3ee2896d	0.44245473
152	0x3ec51b98	0.38497615
153	0x3e367921	0.17819645
154	0x3cdf0afa	0.027226914
155	0xbde2eaac	-0.11079916
156	0x3e329368	0.17439044
157	0x3d1b234c	0.03787546
158	0xbdbedfe6	-0.09320049
159	0x3cb9dfa0	0.02268964
160	0xbd1d75a6	-0.038442276
161	0xbe454262	-0.19263604
162	0x3e0467d1	0.12930228
163	0x3e5e97d5	0.21737607
164	0x3e5e8b7d	0.21732898
165	0x3d9c4a2a	0.07631333
166	0x3d934a7b	0.071919404
167	0x3d64f6da	0.05589948
168	0xbd805980	-0.06267071
169	0xbd6c77c5	-0.05773141
170	0xbce78fa6	-0.02826674
171	0x3df17f26	0.1179183
172	0x3dae3841	0.08506823
173	0x3e283f4c	0.16430396
174	0x3ca2c8e6	0.019871186
175	0xbc98a6fd	-0.018634314
176	0x3d50b1cc	0.05095081
177	0xbc4a9c00	-0.012366295
178	0xbcfd05b5	-0.03088651
179	0xbd32ac71	-0.043621484
180	0xbd8184c2	-0.0632415
181	0xbe0136d7	-0.12618576
182	0xbdbddd6e	-0.0927075
183	0x3da1e212	0.079044476
184	0xbd3aebb9	-0.04563496
185	0xbdf859bc	-0.121264905
186	0x3e345501	0.17610551
187	0x3bee2f2a	0.007268806
188	0xbdefe91f	-0.11714386
189	0x3e1567aa	0.14590326
190	0x3de2166a	0.110394314
191	0x3d9ba3d3	0.07599606
192	0x3e540561	0.20705177
193	0x3e0113e8	0.1260525
194	0x3dffd961	0.124926336
195	0x3e1f5b71	0.15562226
196	0x3d9f9ae0	0.07793212
197	0x3e015a02	0.12631992
198	0x3e0b490d	0.13602085
199	0x3e1cf3b1	0.15327336
200	0x3da7eab9	0.08199067
201	0x3d1fe2ea	0.03903476
202	0x3d7f972c	0.062400028
203	0x3d0ef9f8	0.034906358
204	0xbe061607	-0.1309434
205	0xbdf6194b	-0.12016543
206	0xbe132d4d	-0.1437275
207	0x3e946bc2	0.28988463
208	0x3e2f3a1c	0.1711201
209	0x3d9d4a87	0.076802306
210	0x3e31b75a	0.173551
211	0x3cf68785	0.030093918
212	0xbd0925bd	-0.033483256
213	0x3e251e35	0.16124804
214	0xbd00bda0	-0.03143084
215	0xbe87652d	-0.26444378
216	0x3e6200ce	0.2207062
217	0x3d4b010b	0.04956154
218	0xbe4f0794	-0.20217735
219	0x3e6e2d3c	0.23259443
220	0x3d806ccb	0.062707506
221	0xbe8597d0	-0.26092386
222	0x3e803d73	0.25046882
223	0xbccb330d	-0.024804616
224	0xbeb84478	-0.35989738
225	0xbda7c44f	-0.0819174
226	0x3ac147d0	0.0014746133
227	0x3dbb81fb	0.09155651
228	0xbe42961f	-0.19002579
229	0xbd8b2b1c	-0.06795332
230	0x3d72b9b5	0.059259135
231	0xbe662b05	-0.22477348
232	0xbe10da82	-0.14145854
233	0xbcbbe7c9	-0.022937672
234	0x3b6e86c0	0.0036396235
235	0x3c80a2e7	0.015702678
236	0x3d7ace04	0.061231628
237	0x3d5426ab	0.05179469
238	0x3d79cc48	0.060985833
239	0x3e10cfcf	0.14141773
240	0x3dc161d6	0.09442489
241	0x3db55b66	0.088553235
242	0x3e21e0ab	0.1580836
243	0x3ddca0d0	0.1077286
244	0x3e49f794	0.1972335
245	0x3e9631a9	0.29334763
246	0x3dce83e3	0.10083749
247	0x3dbd8ea5	0.09255723
248	0x3e73f6b6	0.23824582
249	0x3d548cd8	0.05189213
250	0x3b53fc77	0.0032346526
251	0x3e23ea74	0.16007406
252	0x3e725aa9	0.23667397
253	0x3e472df1	0.19451119
254	0x3cedc287	0.029023422
255	0x3dfcb22e	0.123386726
