TrainedModels/0035-sample/scale_factor=0.750000,alpha=10/3/netD.pth (torch, 127382 bytes, 25 tensors)

head.conv.weight f4 [32, 4, 3, 3]
000000 de 0d 3c 3c fd f3 c8 3b c2 73 59 3b 08 1b 0f 3c
       0.011477916 0.0061326013 0.003318057 0.008734472
000010 7b 0c 69 bb b6 fa 43 bb d6 cb 6c bc d3 34 ab bb
       -0.0035560417 -0.0029904074 -0.014452895 -0.005224803
000020 af 70 10 bc b2 a6 73 bc 8f 9e 83 bb be e4 c2 bb
       -0.008815928 -0.014871286 -0.0040167044 -0.0059476783
000030 ee 8c ae bb ee d5 8b bb 6f 9b 3c 3c 38 8b ca 3a
       -0.0053268587 -0.0042674458 0.011511668 0.0015452867
000040 9a 41 5a 3c 90 0a 84 3c 00 98 9b 3b 0c 27 1f ba
       0.013321305 0.016118318 0.0047483444 -0.0006071187
000050 63 c0 0c 3b 6d e5 33 bb 13 6e b6 3b 24 d4 e3 bb
       0.0021476976 -0.002744998 0.005567321 -0.0069527794
000060 7b 36 09 3c 44 9f e4 bb 9c bd b1 bb e7 d5 0b bd
       0.008374806 -0.0069769938 -0.0054242145 -0.03413954
000070 e7 c2 c0 3d be d6 8e 3e 13 86 fc bd ce a7 e2 bd
       0.09412175 0.2789821 -0.1233026 -0.110671625
000080 4c 51 6c 3d 57 bf 6b bd ad 68 b9 3d ed 63 ce 3d
       0.05769472 -0.057555523 0.090531684 0.10077653
000090 aa 3d 3c bd e6 7a 29 bd 80 83 45 bd 05 75 f9 ba
       -0.045957245 -0.04137697 -0.04822111 -0.0019032067
0000a0 86 ab 3d bc cf 6a 16 3b 29 b7 0d 3c b5 c6 07 3c
       -0.011576539 0.0022951846 0.008649626 0.008287122
0000b0 c3 77 58 3d ee 34 ba bc f1 fd 0f bd de 83 86 bd
       0.05284859 -0.022730317 -0.035154287 -0.065681204
0000c0 6e 2b 64 3c 32 14 2f 3c 65 ee 63 bb e0 87 e6 3c
       0.01392637 0.010685967 -0.0034779545 0.028140962
0000d0 da 1e 28 3d 7a 94 a7 3d 1a ad 7c bd bd f8 31 bd
       0.041045047 0.081826165 -0.06168852 -0.043450106
0000e0 4c 62 99 bd bb 8a 38 3c 77 26 85 3c c4 88 61 3c
       -0.07489452 0.011263545 0.016253693 0.013765518
0000f0 75 0a 9f 3c da c8 70 3d 8c ea df 3d fb fe 06 be
       0.019414166 0.058785297 0.10933408 -0.13183205
000100 26 a4 28 bd a2 56 83 bc 28 df 35 bd 5b f9 20 3c
       -0.04117217 -0.01603252 -0.04440227 0.009825076
000110 a1 18 a3 3b e4 64 8f 3d 94 df ec 3d d2 87 ce 3d
       0.004977301 0.07001665 0.11566082 0.100844994
000120 03 dc 3b bb 59 ab cf bb f8 f9 d1 bd 9d da f8 bc
       -0.0028665073 -0.006337565 -0.10252756 -0.03037768
000130 75 ca d0 ba 63 15 5a bd ee 9a 91 bd 76 4a 51 bd
       -0.0015929478 -0.053243052 -0.071096286 -0.051096402
000140 e0 77 e9 bd e7 f3 06 bd 3f 15 09 bd a6 d0 1d be
       -0.113998175 -0.032947447 -0.033467527 -0.15411624
000150 80 0e b4 bb 68 0c 0f 3d 24 66 78 bd 7b 02 2e bd
       -0.0054948926 0.03492394 -0.060644284 -0.042482834
000160 45 76 e5 bc 81 3a d7 bd cc 56 83 bc 70 cc da 3b
       -0.028010497 -0.105092056 -0.016032599 0.006677203
000170 83 30 1a be 99 80 d4 3b 04 c3 90 3d 3e fc e6 bd
       -0.15057568 0.0064850566 0.07068446 -0.1127858
000180 95 f6 5f bd 91 3c f2 bc a9 65 20 be 57 4e a6 3d
       -0.05467852 -0.029569896 -0.1566378 0.08120411
000190 6c 89 d5 3d 0f 8f b8 3d 36 da 16 3c 02 14 b4 3c
       0.10426602 0.09011661 0.009207299 0.021982197
0001a0 88 3e 18 3d 90 3b 41 bd b7 f8 76 bd 46 ea cd bd
       0.03716901 -0.047175944 -0.060295787 -0.1005445
0001b0 b1 59 74 bd 4f 98 8e 38 25 40 43 3d 59 48 32 bd
       -0.05965585 6.799457e-05 0.047668595 -0.043526027
0001c0 96 49 a9 bc ca fe 92 bb 36 ad 78 bd b4 c8 80 bd
       -0.020664971 -0.0044859396 -0.06071206 -0.06288281
0001d0 0f b5 69 bd 6a 2d 42 bc e2 01 12 3d 15 cc e0 3d
       -0.057057437 -0.011851648 0.035646327 0.109764256
0001e0 c4 22 a4 bc 83 e0 20 bb ec 60 57 3d c0 d4 8f bd
       -0.020036109 -0.0024547882 0.052582666 -0.07023001
0001f0 4f 0c db bc 64 76 50 3c 68 27 aa 3d 70 9c dd 3d
       -0.026739268 0.012723539 0.083082974 0.10820854
000200 4d d3 74 3e 04 d4 02 bd a3 6b 3e 3c 1d cc 26 3d
       0.2390873 -0.031940475 0.011622342 0.040722
000210 98 30 ac bd 23 6c f6 bc 13 85 c6 3c c6 32 8b bd
       -0.08407706 -0.03008086 0.024233377 -0.06796794
000220 38 83 c5 bc 83 fb 84 bd 83 8c 58 3c b7 c1 98 3c
       -0.024110422 -0.064932846 0.013217094 0.018647058
000230 b6 df 49 3d 05 ec f6 3c ec 30 fc 3c 73 cf c9 3d
       0.049285613 0.03014184 0.030785047 0.09854021
000240 60 b3 e3 bd b8 e4 9c 3d 41 85 e0 3d b6 93 39 bd
       -0.111181974 0.07660812 0.10962916 -0.045306884
000250 00 82 62 3d 5a 09 23 3c a8 bc c3 3c 38 a1 6f 3d
       0.05529976 0.00995096 0.02389367 0.05850336
000260 f2 7c 94 3c 59 31 38 be 75 6d 92 3c 61 5d b1 3d
       0.018125985 -0.17987575 0.017874459 0.08660389
000270 3e 23 94 bd 2e 57 29 3d a2 f0 c2 3c 0e 51 49 bc
       -0.072332844 0.041342907 0.023796383 -0.012287391
000280 df 91 2e 3d 57 3d 55 3c 34 70 5f be 82 62 72 3b
       0.042619582 0.013015113 -0.21820146 0.0036984985
000290 7a 9b d7 3d a3 fd dd bd cb 94 54 3d 9c fc 5e 3d
       0.10527702 -0.10839393 0.051899713 0.054440126
0002a0 52 af cb bc 27 fd a0 3d 11 16 5e 3d f8 70 9f 3c
       -0.024863873 0.07860785 0.054220263 0.019463047
0002b0 32 1a 26 3c c1 9e 3b bd e1 ce 09 bd b4 63 94 3c
       0.010138081 -0.045805696 -0.03364456 0.018113948
0002c0 34 2c 56 3d 2c 39 cc 3c f1 0e 2c 3c 85 c9 b7 3b
       0.05228825 0.024929605 0.010501609 0.00560874
0002d0 7c 67 d6 bd 07 33 41 be f2 32 c7 bd 76 47 b0 bd
       -0.10468957 -0.18867122 -0.09726514 -0.0860738
0002e0 3d 36 62 3c 74 97 16 3e 79 1f 1e 3d 7a bc f4 3d
       0.013806877 0.14706212 0.038604233 0.119500116
0002f0 85 5e cc 3c aa a3 9e bd 2c b6 78 bc a3 ff fe 3b
       0.024947414 -0.0774606 -0.015180152 0.007781939
000300 e0 4d a6 ba 88 1d 46 3d fd 1d c9 3d 11 f2 a4 bc
       -0.0012688003 0.048368007 0.09820173 -0.020134958
000310 ec 62 f0 3c 0e 52 bc 3c 47 b8 21 bd 4f 02 06 bd
       0.029344045 0.022988345 -0.03948238 -0.032717045
000320 db bb 0a 3d f5 2f 28 3c ca 64 5a 3c ff b3 e7 3d
       0.03387056 0.01026534 0.013329694 0.113136284
000330 20 03 2d bd 79 71 08 3c 95 fc 0e 3d 10 c0 fe bb
       -0.04223931 0.008327835 0.03490885 -0.0077743605
000340 f3 a4 b3 bc c5 0f b5 bd bc fc 97 bc 25 1a 91 3d
       -0.02192924 -0.088408984 -0.01855313 0.07085065
000350 5c c5 f5 bc ae 0a ee bd c5 8e 0f 3c bb 14 99 bd
       -0.030001335 -0.11623131 0.008762066 -0.07474657
000360 30 cd 12 bd 59 86 cc bc 39 ec 97 bd f8 6b 13 bd
       -0.035840213 -0.024966406 -0.07418103 -0.03599164
000370 64 75 50 bc d0 12 50 bd 00 22 a8 3d 73 a1 20 3c
       -0.012723301 -0.05079919 0.0820961 0.0098041175
000380 d4 70 ed bc e0 c6 d1 3c d8 c5 c2 bc be fe e6 bd
       -0.028984465 0.025607526 -0.02377598 -0.11279057
000390 f5 a4 04 bb eb c7 4f bb 94 56 25 bd a0 de 7a 3d
       -0.0020239924 -0.0031704854 -0.04036577 0.061247468
0003a0 ac fa 39 3c 2d 0f 69 bc db d0 54 3d ad 3f 37 3d
       0.011351269 -0.01422481 0.051956993 0.04473846
0003b0 96 cb af bd 88 f3 a0 3d 41 98 65 3d 6e e4 9e 3c
       -0.08583753 0.0785895 0.056053404 0.019396033
0003c0 b0 c5 aa 3d 4c 04 25 3d 49 a3 24 bd 9b 7d b1 bb
       0.08338487 0.0402873 -0.040194783 -0.0054165847
0003d0 00 44 b4 bc 5e c3 c0 bd b4 30 88 bd 47 74 e4 3c
       -0.022005081 -0.09412263 -0.066499144 0.027887477
0003e0 ae 27 1b 3e dd 87 56 3d 8b 8a 6c 3c 91 e5 17 3e
       0.15151855 0.052375663 0.014437328 0.14833666
0003f0 3f 48 3f bd 75 bf 05 bd 5e df 38 bd 77 e1 83 3d
       -0.04669976 -0.03265329 -0.045134895 0.064394884

head.conv.bias f4 [32]
000000 6d f9 af 3c d4 76 d6 3c a0 81 89 3e e6 de 6c bb
       0.02148124 0.026179709 0.2685671 -0.00361436
000010 c6 93 10 3d 6d d3 28 be 27 5c e8 3b 95 e7 2f 3e
       0.035297178 -0.16486903 0.0070910635 0.17178185
000020 36 18 db be 8d 38 9e 3c a8 9b 95 be e0 6f 97 3c
       -0.4279191 0.019314075 -0.2922032 0.018485963
000030 e9 bc 64 bd 7c f1 4d 3d ae 03 03 be dd 90 a7 3d
       -0.05584422 0.050279126 -0.12794372 0.08181927
000040 0c 4b 63 be f5 c0 97 bd 1f c0 04 be eb aa 27 bd
       -0.22196597 -0.074098505 -0.12963913 -0.040934484
000050 25 ec 00 bf 8a f2 56 3d 2a 2e 85 bd 75 f6 cf bd
       -0.5036033 0.052477397 -0.06502946 -0.1015443
000060 a3 3e 89 bd 00 bb d2 3e c5 5b db 3d 72 07 36 ba
       -0.067014 0.41158295 0.10710863 -0.00069438585
000070 ca ae e0 3d 08 ff 04 be 5e 8f d7 3c 41 16 6e 3c
       0.10970838 -0.12987912 0.02631348 0.014531673

head.norm.weight f4 [32]
000000 22 04 5c 3f 29 c1 83 3f a1 a0 8d 3f 6e d9 34 3f
       0.85943806 1.0293323 1.1064645 0.7064427
000010 8b 52 6e 3f 30 99 51 3f f6 b9 1e 3f 4c e9 04 3f
       0.930947 0.8187437 0.62002504 0.5191848
000020 9c 96 28 3f c0 44 18 3f 27 d3 76 3f c3 1e 8d 3f
       0.6585481 0.59479904 0.9641594 1.1025013
000030 4e 20 53 3f 43 5a 24 3f a0 16 38 3f ef 70 60 3f
       0.8247117 0.6420023 0.71909523 0.87672323
000040 55 76 39 3f 2e 59 72 3f af 46 24 3f 16 0c 54 3f
       0.72446185 0.9466733 0.64170355 0.8283094
000050 04 85 77 3f a9 9c 7a 3f 6c 3d 37 3f 3b cc 87 3f
       0.9668734 0.97895294 0.715781 1.0609201
000060 dd 57 3d 3f 9b 65 89 3f ad c9 4e 3f c6 2f 76 3f
       0.73962194 1.0734133 0.8077648 0.96166646
000070 59 1d 4f 3f 2c 0b 0f 3f 21 5d 1d 3f 67 b6 5c 3f
       0.80904156 0.5587642 0.6147023 0.86215824

head.norm.bias f4 [32]
000000 ad 53 37 3f e4 1c de 3e 24 ad f5 3e 9f 10 81 3f
       0.71612054 0.43381417 0.47983658 1.0083197
000010 6b bf 03 3f 75 bc 43 3f fe 9c 7b 3f 7a fb 8a 3f
       0.51463956 0.7645944 0.98286426 1.0857995
000020 ec 78 89 3f 6a b7 0b 40 e0 f7 18 3f e1 0e a9 be
       1.0740027 2.1830697 0.5975323 -0.33019164
000030 45 d0 c0 3e 84 55 59 3f c1 0a 84 3f c3 1e c7 bd
       0.37658897 0.8489611 1.0315782 -0.09722664
000040 47 e7 8d 3f 9b ce 35 3f 06 da 6d 3f 68 15 43 3f
       1.1086205 0.7101838 0.929108 0.7620454
000050 ca 74 28 3f 1e 9b 25 bf 4e b4 0e 3e e5 ea 31 3e
       0.65803206 -0.64689815 0.13935968 0.17374761
000060 84 7b 70 3f ee b7 c4 be 68 7c 41 bd ff 99 e1 be
       0.9393847 -0.38421577 -0.047237784 -0.44062802
000070 d4 41 31 3f 4a 77 27 3f 63 61 f8 3e 6b c0 42 3f
       0.6924107 0.65416396 0.485118 0.76074857

head.norm.running_mean f4 [32]
000000 b6 fe ab bc 1b 02 a1 3c 0a 5a 43 3f 27 13 ac 3c
       -0.02099548 0.019654324 0.76309264 0.021005226
000010 8b 00 84 bd 62 39 01 be df dc 76 3d 13 56 21 3e
       -0.06445416 -0.12619546 0.060269233 0.15755491
000020 9b 5c 38 bf fb 80 46 3d 58 93 4d be f8 18 7d bc
       -0.72016305 0.04846285 -0.20075738 -0.015447848
000030 1f db 9a bd 5a 31 a6 bd 34 d1 48 3c 73 86 4b 3d
       -0.07561325 -0.08114882 0.012256909 0.049688768
000040 35 44 f1 be fd dd bb be 6d b4 98 be 23 5b 8f bd
       -0.4712235 -0.366928 -0.29825154 -0.06999805
000050 7b 4d f5 be d1 75 b1 3e d9 c0 f8 bd 93 3e 2d bf
       -0.47910675 0.346602 -0.12146158 -0.67673606
000060 4a 7a 0a be 73 b3 b0 3e 1b 23 1b bd 46 84 2b 3d
       -0.13523212 0.3451191 -0.037875276 0.041874193
000070 69 13 4a 3d c1 f3 fb be 45 44 8d bd 3a db 4e bd
       0.049334917 -0.49209407 -0.06897787 -0.05050204

head.norm.running_var f4 [32]
000000 3e 45 b1 3d 8f 57 a3 3c 39 90 fa 3d 35 11 b0 3c
       0.08655785 0.019939212 0.122345395 0.02149258
000010 ca 8a 91 3c b0 23 89 3d 88 aa 39 3d f3 6a 00 3c
       0.017766375 0.0669626 0.045328647 0.007837999
000020 bb e4 6c 3d a9 d9 5d 3c c0 08 94 3d 80 2b 04 3e
       0.057835322 0.013540664 0.072282314 0.12907219
000030 41 d9 de 3c 44 2b c3 3c 97 79 54 3c 55 ad 45 3c
       0.027203204 0.023824342 0.012968442 0.012065251
000040 19 5d 6f 3d b8 35 d4 3d aa 26 8a 3c ca 0e c2 3d
       0.058438394 0.103618085 0.01686414 0.09475477
000050 45 81 b5 3d b8 e3 55 3d 00 74 06 3c 9e 1a 76 3e
       0.08862547 0.052219123 0.0082063675 0.24033591
000060 7b 05 7e 3c d6 47 0e 3d d1 ad 83 3c 59 44 68 3d
       0.015504236 0.034736477 0.016074093 0.056705806
000070 89 41 43 3e fc 83 28 3c 09 e0 39 3c 84 57 bf 3e
       0.19067968 0.010285374 0.011344918 0.37371457

body.block1.conv.weight f4 [32, 32, 3, 3]
000000 31 dd 03 bd 37 bc 55 bd 94 3f 91 3b ef e5 ee bc
       -0.032193366 -0.05218145 0.004432628 -0.029162375
000010 15 d3 2a bc 2c 49 96 bb 28 a2 c7 bc bb e0 1f bd
       -0.010426302 -0.0045863595 -0.024369314 -0.03903268
000020 9b c1 d6 3c f3 6d e5 bb b9 74 b2 3a 12 39 09 bd
       0.026215365 -0.0070016324 0.0013615108 -0.033501692
000030 3d dc b1 3d ba 83 2b 3c 99 80 16 bd d0 3a 49 3d
       0.08684585 0.010468418 -0.036743734 0.049128354
000040 0c 11 47 3d 67 38 f7 3c e5 d9 6b bd a7 f1 0e be
       0.04860024 0.030178262 -0.057580847 -0.1395937
000050 ba 4c 5a be 7a 28 06 bd 84 1e d7 bd c1 eb 83 be
       -0.21318331 -0.032753445 -0.10503867 -0.25765803
000060 f2 10 9c 3d 0d 8d aa bd f8 33 17 be 31 f8 92 bd
       0.076204196 -0.083276846 -0.14765918 -0.07176245
000070 f6 a9 44 bd df 71 df bc 75 fb 24 3d 7a 82 09 3c
       -0.04801365 -0.027275978 0.04027887 0.008392924
000080 a6 b5 56 3d 7c d8 14 3d 2e 55 9c 3d 01 59 14 3d
       0.052419327 0.036339268 0.07633434 0.036217693
000090 2e f1 70 bd a6 b5 64 3d a5 1f 32 3d ee 00 55 bd
       -0.058823757 0.055837296 0.04348721 -0.05200284
0000a0 f4 34 d1 bb 63 42 51 bd df 04 00 be 4f 71 b4 bd
       -0.0063844863 -0.051088702 -0.12501858 -0.088106744
0000b0 b1 84 22 be 42 4b 82 bd 31 56 9f 3b b7 d2 75 bd
       -0.1587093 -0.063620105 0.0048625697 -0.060015406
0000c0 67 27 82 bd fc ab 30 bb 97 a3 55 bc 6b a9 e1 3b
       -0.06355172 -0.002695798 -0.013039491 0.0068866513
0000d0 96 39 46 3c 63 92 1f bc 24 4e 85 3d ff 31 3e bd
       0.0120986905 -0.009739491 0.06509045 -0.0464344
0000e0 37 1b de bd a2 c5 59 bc ff 23 4f bc 2d a2 32 bd
       -0.108450346 -0.013291748 -0.0126428595 -0.043611694
0000f0 d9 84 ea 3c e5 81 1a 3d 4b 10 16 3d 7b 3d d5 bb
       0.0286278 0.037721533 0.036636632 -0.006507573
000100 08 d1 59 3d 99 c9 d4 bb f9 c1 54 3d af 54 0a 3c
       0.053177863 -0.006493759 0.0519428 0.008443042
000110 d6 5a 3e bc 8a 91 ce bb 86 ef ca ba 6b 1d 17 be
       -0.011618337 -0.0063039707 -0.001548276 -0.14757316
000120 bd f6 e4 3b e1 a8 bd 3b 35 9c 6f bb 4b 93 1f bd
       0.0069874213 0.005787954 -0.0036561613 -0.03895883
000130 80 cf fe bc 5d 60 44 bb 83 97 8c bd 3a 7c 44 bd
       -0.031104803 -0.0029964664 -0.06864836 -0.047970034
000140 b0 cc 2f bd 0f 7e 12 bd 70 fc 01 bd a7 f0 e1 3d
       -0.042919815 -0.03576475 -0.031734884 0.11032229
000150 d4 0a c7 bd c8 9a b7 bd 29 59 9d bb 28 b4 6c bd
       -0.09718862 -0.08965069 -0.0048018885 -0.057788998
000160 de ae 67 bd d1 2a a7 3b a2 94 3c bd d0 ad 83 bd
       -0.05656325 0.0051015397 -0.046040185 -0.064296365
000170 d8 6b 1c be 4d 73 71 bd 49 c1 ac bc 83 27 f6 bd
       -0.15275514 -0.05894785 -0.02108826 -0.12019255
000180 9a ec 00 bd a8 d9 9a bd 29 f0 28 bd a0 ac cd 3d
       -0.03147564 -0.07561046 -0.04124466 0.10042691
000190 5b df b5 3d ce 73 10 3e 3e c4 cd 3d 54 76 79 3d
       0.08880492 0.14106676 0.10047196 0.060903862
0001a0 c7 44 e6 3d f3 b9 cd 3d 14 05 7a 3d 5a 9e cc 3b
       0.11243587 0.100452326 0.06104 0.006244463
0001b0 2f c2 41 3b 50 32 83 3c bb 23 6f 3d f8 b4 0c bd
       0.0029565205 0.016015202 0.058383685 -0.034352273
0001c0 76 3f 49 bd 4e ff 80 bb 6f fd ab 3c 96 f4 1a 3c
       -0.049132787 -0.0039366847 0.02099487 0.009457728
0001d0 9b b3 13 3d 69 13 7e bd 76 cf 69 bb 58 19 cd 3c
       0.036059957 -0.06203023 -0.0035676635 0.025036499
0001e0 c4 88 1e 3c f8 80 57 3c 0a fb a2 3d a6 1f 5d bd
       0.009676162 0.013153307 0.07958038 -0.05398526
0001f0 20 71 87 3d ed 6b 61 3d b6 f6 33 bd 94 03 02 bd
       0.06613374 0.055034567 -0.043936454 -0.031741694
000200 ef 96 96 bc c2 7a 30 3d 8f 55 cd 3d b9 70 7c 3d
       -0.018382518 0.04308582 0.10026085 0.06163094
000210 25 01 c5 3d e5 9d e9 3d 7c 3a 09 3e d6 75 12 bc
       0.09619359 0.11407069 0.13401216 -0.008939227
000220 2e 95 f8 bb 49 3a 2b bd 8c 7a 54 bd 86 6d 11 3a
       -0.007586143 -0.041803632 -0.051874682 0.00055476313
000230 d0 28 9c bb 43 89 8e bd 51 9a cf ba 19 62 33 3c
       -0.0047656074 -0.06959774 -0.0015838837 0.010948681
000240 f7 2b 09 3d 6d 88 14 bd cb ad df 3d b5 29 90 bd
       0.033489194 -0.03626292 0.1092182 -0.07039205
000250 f8 1d 7b bd 3f ef 40 bd d5 2d a2 bb 69 9f 08 bd
       -0.061307877 -0.047103163 -0.0049493113 -0.03335515
000260 f1 64 b6 bb 89 a4 4a 3c 7d 20 59 bd 23 85 9a bd
       -0.0055662324 0.01236833 -0.0530095 -0.07544925
000270 c0 ae 85 bd f4 10 e7 bd 8e a8 af bd 33 16 70 bd
       -0.065274715 -0.112825304 -0.08577071 -0.05861492
000280 36 3b db bd 38 65 d9 bd 16 0f 16 bd 9d d7 80 bc
       -0.10704653 -0.10615009 -0.03663548 -0.015727812
000290 41 7b cd bb 88 8e 00 3c 4a 74 70 3d b6 13 f6 bc
       -0.0062707965 0.007846482 0.058704652 -0.030038696
0002a0 d1 2e c3 bd d6 72 aa 3b 25 05 c7 3c 68 fa 90 bd
       -0.09530414 0.005201678 0.024294445 -0.07079011
0002b0 e5 74 47 bd bc cf 22 bd 83 8e 58 3b 1c 90 03 3c
       -0.048695464 -0.039748892 0.0033043928 0.008029964
0002c0 b1 1e 4e bc df 5c af bd dc 87 df 3b 3c dc c0 bc
       -0.01258056 -0.08562636 0.0068216156 -0.023542516
0002d0 a5 69 1f bd 10 32 3b b9 b9 4b c6 bd 8e 79 d5 bd
       -0.03891911 -0.0001785236 -0.09682412 -0.10423575
0002e0 b8 ef c1 bd b9 2f 97 bc db c9 50 bd 0a eb 0f bd
       -0.09469551 -0.018455373 -0.050973754 -0.03513626
0002f0 2b b8 26 bd 35 5e 54 3d 5a d5 f9 bc 4d 84 2e bc
       -0.04070298 0.051847655 -0.030497242 -0.01065166
000300 25 78 9f 3d fd 9a d4 bb 0b a0 f9 bb 59 a7 07 bd
       0.077865876 -0.0064882026 -0.0076179556 -0.03311858
000310 86 8c c5 bd a9 f1 d1 bc 74 20 8e 3c f9 81 1f bc
       -0.09645943 -0.025627928 0.01734946 -0.009735578
000320 cf 61 ab bc 84 6a ab bc e4 04 1a 3d 7f 28 bd 3c
       -0.020920662 -0.020924814 0.03760232 0.0230906
000330 11 1e 85 bd d3 26 9a 3c 54 e6 f0 3c 0a 98 fe 3c
       -0.06499875 0.018817341 0.029406704 0.031078357
000340 35 28 61 3d 37 bb 97 3d b1 2a 17 3d 1e 69 0b 3d
       0.054969985 0.07408755 0.036905948 0.034035794
000350 7f 41 d0 3d ee ec bc bc b3 4f 45 3d cf 45 4e 3c
       0.101687424 -0.023062196 0.04817171 0.012589886
000360 e8 98 fa 3c c8 cc 9b 3d 54 6e f0 3d 08 25 40 bd
       0.03059049 0.07607418 0.117397934 -0.046910316
000370 17 f1 dd bc 4e 0f a4 3d d6 d8 b6 bc 9e 3d 85 bd
       -0.0270925 0.08010732 -0.022320192 -0.06505893
000380 61 95 34 3d ad 77 ce bb 20 10 f5 3c 4c 22 68 3d
       0.04408777 -0.0063008876 0.029914916 0.056673333
000390 34 02 f7 3c 04 ad 46 3d e9 41 a5 3d ba e3 0c 3d
       0.030152418 0.048504844 0.08069212 0.034396864
0003a0 ba d8 ce 3c 1f fd cd bc f2 1a 2b 3d 98 55 ae bc
       0.025249828 -0.025145112 0.041773744 -0.021281049
0003b0 1c 14 7c bd 1e 84 0b bd df 4f bb bc 8f 90 d5 bc
       -0.061542615 -0.034061544 -0.022865234 -0.026069907
0003c0 ff 9a 18 be 36 82 62 bd b1 6a bd bc 0c 88 5a 3d
       -0.14902876 -0.05529996 -0.023122163 0.0533524
0003d0 f0 71 c5 3d b7 4f 06 3e 6c af bb 3c 7c 5a 0e bd
       0.096408725 0.13116346 0.022910796 -0.03475426
0003e0 ce a6 e4 bb 04 98 19 bd 5e b2 a4 bd 05 54 c1 bc
       -0.0069778925 -0.03749849 -0.08041833 -0.023599634
0003f0 ec 40 80 bd 2e 41 db 39 fe 59 8f 3d df c3 72 bd
       -0.06262383 0.00041819498 0.069995865 -0.05926883

body.block1.conv.bias f4 [32]
000000 1e 50 87 3d b6 9f 31 3d 15 9e aa 3b e7 41 c5 bc
       0.06607078 0.043365203 0.005206833 -0.024079276
000010 3c a2 79 3d 27 6f 72 3d c1 4e 98 3b 38 17 25 3e
       0.060945734 0.059188034 0.00464806 0.16122139
000020 4e 33 e3 3d 22 7c a1 3d 75 cf 1a bd 33 63 c6 3c
       0.1109377 0.078850046 -0.037795503 0.024217224
000030 71 f9 1d 3d 55 03 c9 3b 5b 5a 05 3e e1 6c 16 3d
       0.038567964 0.0061344304 0.13022749 0.03672493
000040 89 24 99 3b 32 6c 01 3d 9b dd f8 3d 0f 76 9e 3c
       0.004673545 0.031597324 0.12151643 0.019343404
000050 2b ec 23 3e 6a 6c b4 3c 26 82 09 3d 90 a2 80 3d
       0.1600806 0.022024352 0.033571385 0.06281006
000060 0a 50 55 3d 5e 05 b8 3d 85 1b cc 3b 4e b7 3c 3d
       0.052078284 0.08985399 0.0062288665 0.04607325
000070 1a b0 57 3c 8d 8c d9 3d 65 54 9c bc f7 0d 5b 3e
       0.0131645445 0.10622511 -0.019083211 0.21392046

body.block1.norm.weight f4 [32]
000000 b5 1e 29 3f 2c 8a 61 3f 44 1a 53 3f 4f 99 53 3f
       0.6606248 0.8810146 0.82461953 0.82655805
000010 70 54 58 3f 40 e9 67 3f d9 58 85 3f c4 fe 47 3f
       0.8450384 0.90590286 1.0417739 0.78123116
000020 95 17 88 3f 44 50 69 3f 52 87 3e 3f 97 b7 40 3f
       1.0632197 0.911381 0.7442523 0.75280136
000030 b5 e5 57 3f 94 c8 4b 3f e4 68 51 3f de 5f 23 3f
       0.8433488 0.7960293 0.81800675 0.63818157
000040 4a d4 51 3f a6 f5 7f 3f 08 ff 2e 3f 4c 56 82 3f
       0.8196455 0.99984205 0.68357897 1.0182586
000050 a3 33 38 3f 6f 33 60 3f 8a 6a 3f 3f e8 ca 83 3f
       0.7195379 0.8757848 0.7477194 1.0296297
000060 a9 85 43 3f a6 15 54 3f d6 8c 5d 3f 55 88 85 3f
       0.76375824 0.8284553 0.86543024 1.043223
000070 e6 25 43 3f 2b c1 78 3f d2 e8 8a 3f b1 f5 3f 3f
       0.76229703 0.9716975 1.0852301 0.7498427

body.block1.norm.bias f4 [32]
000000 48 1c 1c 3f 41 40 1a 3f ec d5 57 3f 35 6d 08 3f
       0.60980654 0.60254294 0.84310794 0.53291637
000010 d6 a9 72 3f 03 5f e8 3e 7d 7d 0d 3e 44 00 54 3f
       0.947904 0.45384988 0.13817401 0.82812905
000020 ca fa 8e 3d 7e 96 1f 3f e8 be 7d 3f 13 67 09 3f
       0.06981428 0.6233901 0.99119425 0.53672904
000030 b3 cd 65 3f 4e bd 1e 3f 47 58 53 3f da 92 ba 3f
       0.89767 0.62007606 0.82556576 1.4576066
000040 aa b7 1d 3f 12 cd 08 3f 83 c5 ed 3e 2e 5a 03 3f
       0.61608374 0.5343791 0.46439752 0.5130948
000050 74 af 8c 3f e9 f7 d8 3e 38 61 6b 3f d7 63 bc 3e
       1.0991044 0.4237664 0.9194522 0.36794922
000060 3b 09 81 3f 82 c0 0a 3f 3a 65 57 3f 9a 9c ce 3e
       1.0080942 0.54199994 0.84138834 0.40353853
000070 57 08 17 3f 87 4c 19 3f 01 f9 e3 3d e7 c5 4f 3f
       0.589971 0.59882396 0.11131478 0.8116135

body.block1.norm.running_mean f4 [32]
000000 d3 f8 5d c0 d6 d4 2c 3f b8 b8 11 be 1b 25 93 c0
       -3.468312 0.6751226 -0.14230621 -4.5982795
000010 9e cf 8a 3f 6b f3 d6 bf 58 f8 28 c0 60 52 19 40
       1.084461 -1.6793035 -2.6401577 2.3956528
000020 22 37 aa bf e9 d6 2a bf 6f 38 a8 be ef 5c 9f bf
       -1.3298075 -0.66734177 -0.32855555 -1.2450236
000030 3c 1a f8 bf 54 91 d9 3e 6d ae af bf ec 31 c5 bf
       -1.9383006 0.4249369 -1.3725106 -1.540586
000040 1f 66 ed bf 2d 8b bf 3f c1 b4 f3 bf d8 76 3f c0
       -1.854679 1.4964348 -1.9039537 -2.9916286
000050 bf 00 2a 3f 1d d4 7e c0 52 fb ca bf 35 3d 87 3f
       0.6640739 -3.9816964 -1.5857947 1.0565554
000060 82 0f 32 be 31 b4 66 bd 30 55 31 c0 06 46 ee be
       -0.17388728 -0.056324188 -2.7708244 -0.465378
000070 90 83 41 40 60 ff 5a c0 93 2d 58 3f 62 d4 4b 40
       3.023655 -3.4218369 0.8444454 3.1848378

body.block1.norm.running_var f4 [32]
000000 75 df 0a 3f 3a a0 02 3f f9 f2 52 3f e9 3e 0d 3f
       0.5424722 0.51025736 0.82401997 0.5517412
000010 b8 13 23 3f bd d6 91 3f e6 5e 46 3f e0 f2 c9 3e
       0.63701963 1.1393658 0.77488554 0.3944311
000020 cd 9e 6b 3f a9 cf e6 3f 77 78 e1 3e ee e3 85 3e
       0.92039186 1.8032123 0.4403722 0.2615046
000030 a7 ea b8 3e 87 99 e7 3e a8 b7 c5 3f 82 e9 31 3e
       0.36116526 0.4523432 1.5446672 0.17374232
000040 96 17 0e 3f b0 25 0d 3f 8f 8d 8d 3f ae 3b f8 3e
       0.5550474 0.5513563 1.1058825 0.48483032
000050 2f 27 c8 3e 65 99 06 3f 46 4c 92 3f 40 3e f2 3e
       0.39092395 0.5257781 1.1429527 0.47313118
000060 4d ff d9 3e 46 e7 47 3f 9c f3 76 3f c0 9d e9 3f
       0.42577592 0.7808727 0.9646547 1.8251266
000070 3c 6a 28 3f 7a 88 a4 3f 6d f9 02 40 fd be 8e 3e
       0.657871 1.2854149 2.0464737 0.27880087

body.block2.conv.weight f4 [32, 32, 3, 3]
000000 7e 9a d7 bc 8f fc 16 bd a0 5d 7c bd a8 25 a1 3c
       -0.026318785 -0.036861952 -0.061612725 0.019671276
000010 21 6d 75 bd 28 43 4d 3d 2e 2d e6 3c d2 f7 8f 3d
       -0.059918527 0.050112873 0.028097715 0.0702969
000020 6c 7e bb 3d f0 c4 8c 3c a9 94 82 bd 1a 70 b0 bd
       0.091549724 0.01718375 -0.06376011 -0.08615132
000030 49 71 02 3e b5 0d 8c bc 24 a8 66 bd 73 6d d4 3d
       0.12738527 -0.01709638 -0.056312695 0.10372438
000040 7d 80 2f bd 2b a1 d7 bd 8e 8a 74 3c 2a 9d 84 bd
       -0.042847145 -0.10528787 0.014925612 -0.06475289
000050 f4 18 e4 bd 3c ee ac bb 6b 1d 0f bc 71 0d c8 bd
       -0.11137572 -0.005277423 -0.008735041 -0.09768189
000060 1f 93 4f 3e fe f2 29 3e b9 d0 aa 3d e4 9b fd 3c
       0.20270966 0.165966 0.08340592 0.030958124
000070 08 ff af 3c d9 7d 63 bd f9 99 1c bd 65 e5 15 3d
       0.021483913 -0.05553994 -0.038232777 0.03659572
000080 83 d6 a3 3c d0 8e ca 3d dd df 51 3d 97 dd 3c bc
       0.019999748 0.098905206 0.051238883 -0.0115274405
000090 c1 02 1b 3e e4 04 95 3c db cc e9 3d 29 71 e8 3c
       0.1513777 0.018190809 0.11416026 0.028374271
0000a0 9b 69 3a bd ab 2c 40 bd 71 56 d1 3d 9d c8 28 3d
       -0.04551087 -0.0469176 0.102215655 0.041206945
0000b0 b8 df 8a 3d ed fc 4b bd fa 37 b3 3c f7 34 90 3d
       0.06780952 -0.049801756 0.021877278 0.07041352
0000c0 a8 eb 95 bd 0f dc c7 bd 36 cc 41 3d 2b d3 9e bd
       -0.073203385 -0.0975877 0.04731389 -0.07755121
0000d0 59 be b0 bd f0 b5 c1 b9 94 7c cd 3c 27 8b c5 bd
       -0.08630056 -0.00036947383 0.025083818 -0.09645682
0000e0 1f 8a ca bd 2e 79 db 3c 8a d4 03 bd b3 73 38 bd
       -0.09889626 0.026791181 -0.032185115 -0.045032214
0000f0 6c e5 f6 3c d1 64 58 3d 52 9f 4e 3d 1b 99 06 38
       0.030138694 0.05283052 0.05044491 3.209068e-05
000100 15 bb ec bb 39 c7 d3 bc d2 de c8 bd 72 74 bf bc
       -0.0072244504 -0.025851833 -0.098081246 -0.023370955
000110 cb 8e b5 3d de 78 d4 bc 14 ab ad bc 86 ff 2e 3d
       0.08865126 -0.02593654 -0.02119974 0.042724155
000120 a7 97 94 bd 2a ee 49 3d ad ca a0 bd a9 4e df bb
       -0.07255488 0.049299397 -0.07851157 -0.006814797
000130 e5 b7 11 3b 52 44 95 3c 7c 2c e5 3a 79 37 52 bd
       0.0022234854 0.018221054 0.0017484571 -0.051322434
000140 8c c0 62 bd 3c e3 cf 3c e1 b4 1d bc 76 35 0d 3e
       -0.05535941 0.025376908 -0.009625644 0.13789925
000150 d8 cc 0c 3c cc 60 02 bd dc 67 27 bc cf 24 f4 3c
       0.00859376 -0.031830594 -0.010217633 0.029802708
000160 6e 1b 96 3b 57 76 10 be 37 92 2e bc 6f 61 5f 3a
       0.0045809066 -0.14107643 -0.0106549775 0.00085212936
000170 17 34 4c 3c e9 43 09 bd 5b 94 d9 bc df 41 d8 bd
       0.012463591 -0.03351203 -0.02656 -0.10559439
000180 98 22 64 3d fe 4f e0 3d 97 15 3d bd 3d 3c b6 3d
       0.055697054 0.10952757 -0.046163168 0.08898208
000190 fc 96 8a bc 1a 87 06 bd a2 73 c8 3c d5 34 44 bc
       -0.016917698 -0.032843687 0.0244692 -0.011975487
0001a0 9e 91 a4 3c 87 2c 82 3d 35 aa d1 bc 5f f9 e4 bc
       0.020088967 0.06356149 -0.025593856 -0.02795094
0001b0 51 b0 84 bc 53 8b ee 3d b7 78 f7 bd c7 a3 9a bb
       -0.016197355 0.11647668 -0.120835714 -0.004719231
0001c0 22 e2 90 3c 75 5d ad bd 5b da fe bd 6b bd 95 bd
       0.017685954 -0.08465091 -0.12443992 -0.07311519
0001d0 fe c1 7d bc fb d2 04 3d 10 96 05 3c 5d 2f 68 bd
       -0.015488146 0.03242777 0.0081534535 -0.056685794
0001e0 d1 65 ee bc 0e c8 92 bd 33 dd bb bc 4d 76 38 bc
       -0.029101284 -0.07167064 -0.022932624 -0.011258674
0001f0 7b 18 48 3b ba c6 ae 3d 96 9d 13 3c ae 0e 78 bc
       0.003053217 0.08533998 0.009009739 -0.015140219
000200 5d 75 d6 bb a2 a7 7f 3d 7d 1e b0 bc fb 91 4b 3d
       -0.0065447525 0.062415726 -0.021498913 0.049699765
000210 88 6f d4 3d bc 17 81 3c 19 a5 c6 3c a5 5a 81 3d
       0.103728354 0.015758388 0.024248647 0.06316117
000220 9a 24 ea 3c fa cf 07 bd 3e d7 fe 3c 7d 90 47 bc
       0.028581906 -0.033157326 0.031108495 -0.012180445
000230 7f 09 26 bd 83 86 1f be 7d 48 05 bd 1e ac 37 3d
       -0.0405364 -0.15578656 -0.032539833 0.044841878
000240 dc 56 d7 bc 27 62 87 bd 9e 24 0e be df bb 16 be
       -0.026286535 -0.06610518 -0.13881156 -0.14720105
000250 e4 1e c8 3a c5 f2 36 3d 8c 76 18 bd c3 63 05 3e
       0.0015267995 0.044665117 -0.03722243 0.13026337
000260 56 cd 9a 3e 71 70 af 3c 10 81 d4 3d 3c c6 e7 3d
       0.30234784 0.02141592 0.10376179 0.11317107
000270 18 22 24 bd bd 1d ca 3c 58 10 42 bc 24 3c 03 be
       -0.040071577 0.024672383 -0.011844717 -0.1281591
000280 25 f9 21 3c 29 3f d4 3b ec f3 23 3c eb cd 91 3c
       0.009886061 0.006477256 0.010006886 0.017798385
000290 0f a8 93 3c d7 27 38 3d 5c 41 a3 b8 b5 99 37 3d
       0.018024473 0.04495987 -7.78462e-05 0.04482432
0002a0 b7 b1 d2 bc b8 73 66 3d f8 76 fd 3d 3c bd 24 3e
       -0.025719507 0.0562627 0.12376207 0.16087812
0002b0 f5 b9 4e 3d d4 bb dc 3d d7 18 df 3c f8 13 a1 bc
       0.05047031 0.10778013 0.027233524 -0.019662842
0002c0 65 0a 30 bd c3 66 08 bd 47 bd 6a bd 4c 22 32 be
       -0.042978663 -0.033301126 -0.057309415 -0.17395896
0002d0 84 7d 56 3d 45 bd 1c bd 67 7d 09 3e 08 da cd 3c
       0.052365795 -0.03826644 0.13426743 0.02512838
0002e0 a9 ed 2b bd 3c ba 10 3e 21 22 0c bc 1d 2a 53 3d
       -0.041974697 0.14133543 -0.008553059 0.051553834
0002f0 00 8c 71 bc 8f 8c 64 bd 79 f1 81 3d 40 d5 67 bd
       -0.014742851 -0.05579811 0.063448854 -0.056599855
000300 79 5f 60 bc 4f 97 9f 3d 7a 09 12 3d d6 7a 11 3c
       -0.013694637 0.07792532 0.03565357 0.008879384
000310 36 52 98 3d 3e ea b6 3d 25 ba 29 bd c5 5a 20 bd
       0.074375555 0.08931397 -0.041437287 -0.039149065
000320 11 38 74 bd 4b 32 1b be 6e c3 a4 3b 68 3c e2 3c
       -0.05962378 -0.15155904 0.00502818 0.027616695
000330 9b 43 36 bd 28 0b db 3c 26 f0 98 3d 71 7d 9b bc
       -0.044498067 0.026738718 0.0746768 -0.018980714
000340 fe a1 9c 3c a0 14 cb bd 0d d7 35 3b 94 74 d9 3d
       0.019120213 -0.09916043 0.0027746588 0.10617939
000350 36 c6 af bd 0b f6 f8 bd 5d 76 6a 3d 8e a9 82 3d
       -0.085827276 -0.12156304 0.057241786 0.06379996
000360 96 78 4d bc 00 31 bb bc 3e ee 6f 3d f6 3f 00 bd
       -0.012540957 -0.022850513 0.058576815 -0.031310998
000370 27 d3 b1 bd a3 69 bd bd 9c fa e0 3b d1 23 b1 3d
       -0.08682852 -0.09248664 0.0068658125 0.086494096
000380 3a 55 fa bc 8d c8 b8 3d d8 09 fd 3c c7 06 03 bd
       -0.030558217 0.09022627 0.030888483 -0.031988885
000390 57 eb 0b 3d d3 8d e4 3b 8f 82 4f 3d ef 79 ad 3d
       0.034159984 0.0069749146 0.05066162 0.084705226
0003a0 42 53 33 bc a9 ec 9f bd 4f 00 42 3c d6 6c a3 3c
       -0.010945143 -0.07808811 0.011840894 0.019949358
0003b0 2c 52 51 3d fc f9 0d 3d e1 83 d5 bc 75 4e 95 bd
       0.051103756 0.03466223 -0.026063861 -0.07290355
0003c0 3b 0a b7 3d ad 94 5d 3d 14 57 03 bd 92 13 c5 bb
       0.08937498 0.054096866 -0.032065466 -0.006014296
0003d0 dc b4 03 3e 85 c6 58 3e f7 4c 5a bc 7a f0 b1 3d
       0.12861961 0.21169479 -0.013324014 0.086884454
0003e0 33 21 96 3d f0 71 84 bc 11 15 50 bd 57 e3 fe bb
       0.07330551 -0.01616761 -0.05080134 -0.007778566
0003f0 87 06 b5 bb fe ca 30 bc 18 2e 08 3d 03 94 51 3c
       -0.0055244598 -0.010790585 0.033247083 0.012791636

body.block2.conv.bias f4 [32]
000000 84 0e 92 3c 2d f2 bd 3d 04 f1 44 3d 4e a2 f6 3c
       0.017829187 0.09274707 0.048081413 0.03010669
000010 2d ce 39 3d 5b 0e 6e bd 9d 28 d5 bd 5d b6 68 bc
       0.04536264 -0.05811916 -0.10408137 -0.014203635
000020 03 4f b5 3d e1 94 83 bd bd eb 23 bb 79 cd 8b 3d
       0.08852961 -0.06424881 -0.0025012337 0.068263
000030 a8 cf 30 bd 20 5c aa 3c df 6d 70 3d bc d0 93 3d
       -0.043166786 0.020795882 0.05869853 0.07217547
000040 9a 8a dc 3d b7 17 9b 3b 32 7c f9 3d 22 7b 27 3e
       0.10768624 0.0047330516 0.121818915 0.16355565
000050 a6 8a be bd dd ba 73 3d a9 c4 59 bd 5a 68 ae bb
       -0.09303789 0.05950438 -0.053166065 -0.0053224983
000060 66 29 b5 bc 99 32 98 3d a1 a0 eb 3d 8d b3 ad 3d
       -0.022114467 0.07431526 0.11505247 0.08481512
000070 66 f5 06 3e db 23 db 3d 09 20 24 3c b2 19 1f 3d
       0.1317955 0.10700198 0.010017403 0.038842864

body.block2.norm.weight f4 [32]
000000 6a 3c 7f 3f 0c a4 53 3f eb 4e 5d 3f bf 6c 78 3f
       0.9970156 0.8267219 0.86448544 0.97040933
000010 46 da 85 3f b1 f3 68 3f 3e 45 63 3f 32 df 3e 3f
       1.0457237 0.90996844 0.8877753 0.7455932
000020 9a ed 55 3f 04 ac 7a 3f ad 64 48 3f 2e 92 37 3f
       0.83565676 0.97918725 0.7827862 0.7170743
000030 ca 86 5a 3f f6 6e 4d 3f eb e9 64 3f 22 b6 42 3f
       0.8536192 0.8024744 0.8941943 0.7605916
000040 db 55 76 3f a1 60 36 3f c7 1d 41 3f 7c 61 8a 3f
       0.96224755 0.71241194 0.7543606 1.0811
000050 25 c1 7c 3f 64 62 5b 3f 5b 5c 76 3f 7c 94 4d 3f
       0.98732215 0.8569701 0.96234673 0.80304694
000060 d0 15 6b 3f 74 fa 77 3f e7 75 40 3f 76 b9 5f 3f
       0.9183016 0.96866536 0.75179905 0.87392366
000070 07 12 5d 3f e7 04 48 3f a3 05 68 3f 3a b1 73 3f
       0.8635563 0.7813248 0.906336 0.951923

body.block2.norm.bias f4 [32]
000000 d6 a6 18 3f 77 c6 37 3f a4 de 15 3f 9e 9a b6 bd
       0.5962957 0.7178721 0.5854285 -0.0891621
000010 83 75 d1 3b 34 b4 59 3e 8e 99 22 3f 48 db 73 3f
       0.0063921823 0.21260148 0.63515556 0.9525647
000020 06 a4 25 3f 87 d0 69 be f6 51 29 3f 32 d8 43 3f
       0.64703405 -0.22833453 0.6614069 0.7650176
000030 93 92 2b 3f 78 4a 0b 3f e4 1b 00 3f 8b a1 9f 3f
       0.6702053 0.54410505 0.5004256 1.2471174
000040 8c 28 0d 3f db ae 48 3f ed 1c 1d 3f fe d3 00 3f
       0.55139995 0.7839181 0.6137226 0.50323474
000050 5a 3f a9 3e f5 fe 42 3f 60 3b f5 3e 69 20 1b 3f
       0.33056146 0.76170284 0.47896862 0.6059633
000060 b8 98 34 3f 6c 3c 93 3e 0d b3 9d 3f 5e c4 e3 3e
       0.7054553 0.28757036 1.2320267 0.44485754
000070 86 51 49 3f ce 87 2d 3f db 84 25 3f 7e 4b 3f 3f
       0.7864002 0.67785347 0.64655846 0.74724567

body.block2.norm.running_mean f4 [32]
000000 b1 87 75 3f 4f f3 98 3e 5a c6 c7 bf 80 06 79 bd
       0.95910174 0.2987313 -1.5607407 -0.060797215
000010 88 64 b7 bf 77 ad 0a 40 d8 02 a6 be 9e 8d 35 c0
       -1.4327555 2.1668375 -0.32424045 -2.8367686
000020 02 45 43 3e c5 94 93 bf fa 70 a8 3e d2 af 7c 3f
       0.19069293 -1.1529776 0.32898694 0.9870578
000030 45 d8 82 bf 39 3b 81 3e ba a5 32 bf 25 19 92 bf
       -1.022225 0.25240496 -0.6978413 -1.1413924
000040 53 06 14 40 2c 67 ce 3f 1b ce c4 bf be cc 21 bf
       2.312886 1.6125236 -1.5375398 -0.63203037
000050 5d 15 77 3e a3 31 cc bf 32 63 92 bf d5 e3 8e bf
       0.24129243 -1.5952648 -1.1436522 -1.1163279
000060 12 c1 6b 3e d2 3d 15 3f 17 0a a5 3f a8 8f f3 3b
       0.23022869 0.58297455 1.2893704 0.0074328966
000070 8d 32 38 bf d2 26 4b 40 74 28 98 bf fd 12 96 3e
       -0.71952134 3.1742444 -1.1887345 0.29311362

body.block2.norm.running_var f4 [32]
000000 fe e5 30 3f 46 02 5d 3f f9 30 1d 3f c0 c9 a6 3f
       0.6910094 0.86331594 0.6140285 1.3030319
000010 13 b7 0c 40 76 6b 1d 3f 1f 28 6e 3f 9e cc 5b 3f
       2.198674 0.614921 0.9302997 0.85859096
000020 a0 4b 5d 3f be 28 06 40 af b1 94 3f b8 aa d5 3f
       0.8644352 2.0962367 1.1616725 1.6692724
000030 1f e2 99 3f 72 31 0f 3f 4a ab 25 3f 81 ed b6 3f
       1.2022132 0.5593482 0.6471449 1.429123
000040 20 ce 46 3f 29 09 98 3f e7 2d 22 3f b5 fc 59 40
       0.7765827 1.1877795 0.6335129 3.406049
000050 1f e5 52 3f 57 3d c5 3f 99 2a 02 3f f8 93 63 3f
       0.8238086 1.5409344 0.5084625 0.8889766
000060 c3 35 08 3f 82 ca 8f 3f ff e4 d3 3f f8 1d 30 3f
       0.53207034 1.1233675 1.6554259 0.6879573
000070 a1 01 0b 40 83 9d 82 3f 60 47 42 3f 9c 8a 31 3f
       2.1719744 1.0204319 0.7589016 0.69352126

body.block3.conv.weight f4 [32, 32, 3, 3]
000000 3d 8f d8 3c 26 e1 82 bc 93 ec 58 bc 97 2e c0 bd
       0.026435489 -0.0159765 -0.013239997 -0.09383886
000010 72 f3 84 bd ac 74 27 bd a6 6a e3 bc d3 f4 3b bd
       -0.06491746 -0.04088275 -0.027760815 -0.04588778
000020 ad f1 14 3b 7f f1 08 3e 23 7c c5 3c 0e 75 d3 3c
       0.0022727058 0.13373373 0.024107045 0.025812652
000030 a7 0b 95 3c 12 d7 16 bd 79 af 9f bd af 68 b3 bc
       0.018194033 -0.0368262 -0.07797141 -0.021900503
000040 c9 e0 22 bd 1a 14 88 bd 64 c8 6c bd 27 21 3e bb
       -0.039765153 -0.06644459 -0.057808295 -0.002901146
000050 59 fd 31 bc d4 ba 25 bd 35 00 5e 3d b1 87 ee 3c
       -0.010863625 -0.040461376 0.054199416 0.029117437
000060 82 cd f3 3d 18 b6 2e 3e eb b8 80 3d ad da 81 3d
       0.11904432 0.17061651 0.0628527 0.06340537
000070 a4 c5 2c bd d7 20 74 bd 92 50 24 3c db c0 9c bc
       -0.042180672 -0.05960163 0.010028975 -0.01913493
000080 ee b7 0e 3d 26 ca fd bd fb b3 66 bc 7c 0f 17 3e
       0.034843378 -0.123920724 -0.014080997 0.14752
000090 a8 60 02 3e 35 58 a1 3d ff ce 5f 3d 4d 70 0b 3d
       0.12732184 0.07878152 0.054640766 0.034042645
0000a0 85 75 8c bd fe b1 9e bd 52 56 21 3d 70 2b b2 bb
       -0.068583526 -0.07748793 0.039388962 -0.005437307
0000b0 c1 ec 8d bc 2e cc 67 bd 2f eb 68 3d 1c 66 e7 3d
       -0.017324807 -0.056591205 0.056864914 0.11298773
0000c0 7e c1 cd bd a7 8c 4b bd 96 de 95 ba 54 30 51 bd
       -0.10046671 -0.049694683 -0.0011434134 -0.05107148
0000d0 56 99 7a bd 05 9f 7c bd 88 26 44 3e aa d7 50 3d
       -0.06118139 -0.06167509 0.19155324 0.050986923
0000e0 20 9b 57 bd ff 2a 21 3e e1 f2 16 3c 16 4c 9f bc
       -0.052638173 0.15739058 0.00921318 -0.01944546
0000f0 1c 59 8f 3c e6 55 3e bd 4c ce f7 bc a0 93 f7 3c
       0.017498545 -0.046468638 -0.030249737 0.03022176
000100 3d 0e ad 3c e0 1e 22 bc a3 16 15 38 c2 2a e7 3c
       0.021124953 -0.0098950565 3.554545e-05 0.02821863
000110 eb be cc 3c 19 31 14 bd f3 c5 7d 3d a8 7d e7 3c
       0.02499338 -0.036179636 0.061956357 0.02825816
000120 e3 7c 23 3e d7 e8 7e 3c 6d 16 8f bd 02 bd b8 bc
       0.15965609 0.015558443 -0.06986699 -0.022551063
000130 0b 4c d9 bb 7c 59 1f 3d c0 17 0f 3c 39 2c 97 bd
       -0.0066313795 0.0389037 0.00873369 -0.07381482
000140 67 79 b0 3d ac ae 70 bc bb 37 6b bc ae e3 ea bd
       0.08616906 -0.0146900825 -0.014356549 -0.11469208
000150 73 23 ef bd 1c 19 13 bd 3e d9 af bd 24 df e1 bd
       -0.11676683 -0.035912618 -0.085863575 -0.11028889
000160 62 1e 3d bd 61 d1 41 bc c1 17 b7 bd fb b3 88 bd
       -0.046171553 -0.011829705 -0.089400776 -0.066749536
000170 8c 5d 1a be ee 46 a0 bd c5 c3 92 3c e6 2f 36 bc
       -0.15074748 -0.07826029 0.017915616 -0.011119818
000180 ec 38 28 be c7 d6 d8 bd 11 ad 97 bd 37 92 13 bc
       -0.16427964 -0.105878405 -0.07406057 -0.009007028
000190 49 12 05 3d 2f e4 9a bc b6 ec 5c bd 6d 37 73 3d
       0.03248814 -0.018907635 -0.053936683 0.05937903
0001a0 35 af 80 bc 0f 33 15 bd a9 51 f6 3c a6 23 0a 3d
       -0.015708545 -0.036425646 0.030068235 0.033725403
0001b0 b3 d7 d4 bd 9b 22 70 bc 17 55 79 3c 6b 85 3e be
       -0.10392704 -0.014656688 0.015218041 -0.18605582
0001c0 4f 2a 6a bd 14 d1 c9 3c 1e da cc bc f6 47 87 3d
       -0.057169255 0.024635829 -0.02500635 0.06605522
0001d0 df 11 69 3d 12 10 16 3c ba a5 6b 3c 97 dc 2f 3d
       0.05690181 0.009159105 0.014382774 0.04293498
0001e0 f6 89 29 3d 58 58 a3 bc a5 3e 5b 3d 18 cc a7 3d
       0.041391335 -0.019939587 0.05352654 0.08193225
0001f0 2c b1 b6 ba 8c 3c e8 3c 5f 1e 8c bd e0 ce 06 be
       -0.0013938299 0.028349183 -0.0684173 -0.13164854
000200 49 d4 0d be 34 de c0 3d 63 e6 5c 3c 0a 02 78 3c
       -0.13850512 0.09417382 0.013482663 0.015137205
000210 97 6e e0 3d f2 a2 5e 3d 8b b9 67 bd be 71 92 3d
       0.10958593 0.054354616 -0.056573432 0.07150601
000220 d7 91 a2 bc ae e2 8f bd 39 2d 93 3d cd c5 a7 3c
       -0.019844932 -0.070256576 0.0718636 0.020480061
000230 19 61 78 bd cc 4f 86 3d 8b eb 2c 3d 85 d3 e6 bc
       -0.060639475 0.06558189 0.04221682 -0.028177032
000240 77 79 b3 3d e2 fa 30 bd 0f 11 94 bd b2 06 51 3d
       0.08763402 -0.04320801 -0.07229816 0.051031776
000250 fb a1 92 bc 7b 3c 42 3d 7c a9 80 bd 88 19 43 3c
       -0.017899504 0.04742096 -0.062823266 0.011907943
000260 05 f8 f8 3c 5c 3b 8d bd 44 af 95 bd 43 2c fc bd
       0.030391702 -0.068960875 -0.0730882 -0.1231313
000270 3c 5c 49 3d 8a 14 53 3c 0e 2d 00 be 80 60 21 3e
       0.049160227 0.012883315 -0.12517187 0.15759468
000280 55 0b 31 3e 00 a6 3d 3d 7d 8f a8 3d d1 1f 5f bd
       0.17289479 0.046300888 0.08230493 -0.054473702
000290 b1 4e 98 bd 56 d7 7d 3d 8c 95 78 bd 55 f2 88 3c
       -0.07436884 0.06197294 -0.060689494 0.016717115
0002a0 87 a5 fd 3c e1 ee d7 bc 38 b8 11 3e 76 7a 54 bd
       0.030962719 -0.026359024 0.1423043 -0.0518746
0002b0 f3 2c 0b bd 2f 16 7b bc 4e 0b be bd 63 4c c2 3c
       -0.033978414 -0.015325113 -0.092795 0.023718065
0002c0 ec 27 b7 3c 12 fb 42 bd c7 9d 25 3d 62 8d e7 3c
       0.022357903 -0.04760272 0.04043367 0.028265659
0002d0 b3 81 91 bc 9b 96 95 bc 28 0d b0 bc ae 7e e9 3b
       -0.01776204 -0.01826029 -0.021490648 0.007125697
0002e0 37 4c b4 bc 77 4c 07 3c f9 3f 44 3d d2 d9 38 bc
       -0.022008998 0.008257977 0.04791257 -0.011282401
0002f0 97 75 aa bc f3 c1 a2 bd ab 9c 5f bd bb 42 9a 3d
       -0.020808024 -0.07947149 -0.05459277 0.07532259
000300 4a 3b af 3c cc 41 a7 bc bc 66 c1 3d cc 09 07 3c
       0.021390576 -0.020417117 0.09443423 0.008242082
000310 c1 87 cd 3c 90 34 00 3e 31 a8 70 bc a5 16 0d be
       0.025089147 0.12520051 -0.014688537 -0.1377817
000320 41 91 c9 bd 3d 33 5a 3d a6 5b 83 bd 84 57 21 bd
       -0.09842158 0.05327152 -0.06413965 -0.039390102
000330 d5 85 7b 3d a6 b0 aa bd a1 9c 8a 3d f6 4e ce 3c
       0.06140693 -0.08334474 0.06768156 0.025184136
000340 f9 12 67 3d b6 c1 43 bc da b1 79 3d 39 f6 45 3d
       0.056414578 -0.01194804 0.060960628 0.04833052
000350 02 31 81 bd 84 ff 0a 3e 4d e6 1d 3e 2f 89 99 bc
       -0.063081756 0.13574034 0.15419884 -0.018742172
000360 33 5c 4e 3d 10 d0 2f 3c 42 08 51 bd c0 42 35 3d
       0.050380897 0.010730758 -0.051033266 0.04425311
000370 e5 dc 00 bc 21 6c 84 bd b6 66 cb 3c 6d 18 0b 3d
       -0.007865165 -0.064659365 0.02482925 0.03395884
000380 f6 1b 0a 3d 96 84 5e 3c 9f 16 26 3e 17 c3 02 3d
       0.033718072 0.013581416 0.16219567 0.031924333
000390 19 fb 01 3c 5f 6b af 3d 23 ce 27 3d 58 89 2b 3d
       0.0079334015 0.08565401 0.04096807 0.041879028
0003a0 32 ad 95 3d 86 15 37 bc 9b dc c4 3d 7a 46 a7 bd
       0.07308425 -0.011174565 0.0961239 -0.08167739
0003b0 15 75 2a be 37 d2 ec 3c 13 cb a7 bd 7e 0a 23 be
       -0.16646226 0.028908832 -0.0819303 -0.15921971
0003c0 39 07 e9 3c 66 5f 06 be b0 1d 37 bd db 10 9b bd
       0.028445827 -0.13122329 -0.044706047 -0.07571574
0003d0 ba 3c dd bd f2 3f 11 3d cc ae 86 bc ea 71 1f 3d
       -0.10802598 0.035461374 -0.016440772 0.038926996
0003e0 f8 47 56 3d 56 a0 ef 3b 7e 9f d2 3d 64 3e ad 3c
       0.05231473 0.0073128147 0.10284327 0.021147914
0003f0 ab 73 ed bd 13 1c e7 bd af 9b 3a bd 85 09 a7 bc
       -0.115943275 -0.112846516 -0.045558628 -0.020390281

body.block3.conv.bias f4 [32]
000000 9d ad 88 bd 52 80 bc bd 97 aa d0 bc 90 07 d3 3c
       -0.06673739 -0.09204163 -0.025471969 0.025760442
000010 6d 88 fd 3c 01 a1 a4 bc 3c c4 88 3d d4 68 b3 3d
       0.030948842 -0.020096304 0.06678054 0.08760229
000020 42 ad 33 bc 5a e8 39 3d 98 e6 35 bc 86 ff 87 bc
       -0.010966601 0.045387603 -0.011102341 -0.016601335
000030 00 48 74 bd 97 74 01 bd c8 2a ad bc cf e5 df 3c
       -0.059638977 -0.03160533 -0.021138564 0.027331261
000040 88 04 97 3d 18 bc 6b bb c9 ca b1 3d b1 fb cb bd
       0.07373911 -0.0035970267 0.08681256 -0.09960116
000050 9a 91 61 3d 27 a8 7c bd 8f e2 23 3d c8 af ac bd
       0.055070497 -0.0616838 0.040010985 -0.08431965
000060 79 57 8a ba 0f ce de 3c 26 83 c6 bc 20 3a a1 3b
       -0.0010554633 0.027197866 -0.024232458 0.004920259
000070 20 91 00 bd 68 b1 5f bc ad 86 bb bd 1b 13 06 3e
       -0.031388402 -0.013653137 -0.09156547 0.13093226

body.block3.norm.weight f4 [32]
000000 f6 87 86 3f 3d 8a 94 3f 98 39 b1 3f 55 b3 82 3f
       1.0510242 1.1604687 1.3845701 1.0210978
000010 54 d7 b6 3f 2b 7b 65 3f 5a 32 8f 3f 01 af 85 3f
       1.4284463 0.89641064 1.1187241 1.0444032
000020 8c 5f cf 3f 42 9a 85 3f 20 c7 88 3f 36 11 7a 3f
       1.6201034 1.0437701 1.0685768 0.9768251
000030 99 b5 89 3f e6 73 5e 3f 0d fc 8f 3f 25 39 9c 3f
       1.0758544 0.86895597 1.1248795 1.2204939
000040 0d 77 a9 3f 98 2a 95 3f 6a c1 92 3f dc 36 53 3f
       1.3239456 1.1653624 1.1465275 0.82505584
000050 f3 3e 8a 3f 5f 60 94 3f 13 3e 96 3f ba 07 8f 3f
       1.080046 1.159191 1.1737694 1.1174233
000060 0d 82 9b 3f cc f0 94 3f 86 b1 83 3f 6d 1b 93 3f
       1.2149063 1.1635985 1.0288551 1.1492745
000070 48 11 a5 3f 33 bf 99 3f 0d f6 93 3f f4 5f 9f 3f
       1.2895899 1.2011474 1.1559464 1.2451158

body.block3.norm.bias f4 [32]
000000 9b b5 5b 3e e9 29 ea 3e 38 73 e3 3e 61 55 43 be
       0.21455996 0.457351 0.44423842 -0.19075538
000010 86 96 ba 3c 3b cc a0 3f 38 34 bf 3e ec 3f b7 bd
       0.022776853 1.2562326 0.37344527 -0.08947739
000020 da 1e 23 3f 55 a5 f1 bd c7 c3 af be f2 fd 9a be
       0.6371895 -0.11799113 -0.34329054 -0.3027187
000030 e9 03 35 3f dc 22 88 3c db d7 60 3f 81 1e 9b 3e
       0.7070909 0.016618185 0.8782937 0.3029671
000040 76 59 95 3f 68 48 df be fd 5d 9e bd 27 f8 0e bf
       1.1667926 -0.4360993 -0.077327706 -0.558474
000050 31 f2 99 be ae 60 f9 3e d3 22 99 be 31 00 f7 3e
       -0.3006759 0.48706573 -0.2990938 0.48242334
000060 b4 1a d3 3e c5 27 59 3f de a9 50 3f 98 07 20 3f
       0.4123131 0.8482631 0.81509197 0.6251159
000070 1c 05 19 bf fc 49 33 3f 16 65 21 bf 43 6e 31 3f
       -0.5977342 0.70034766 -0.6304487 0.6930887

body.block3.norm.running_mean f4 [32]
000000 15 90 03 bf 55 09 9c 3f c3 13 95 bf 5e e6 37 bf
       -0.51391727 1.2190348 -1.1646656 -0.7183589
000010 2f c7 88 be d2 9c df 3f c6 c0 24 3f c6 a2 ad 3d
       -0.26714465 1.7469733 0.6435665 0.08478312
000020 5b 24 94 3f 04 5d a7 be 92 30 9b be 45 03 13 bf
       1.1573595 -0.32688153 -0.30310494 -0.57426864
000030 80 9c 9d bf e3 57 9c bf 59 cd e4 bf f2 8b 93 3e
       -1.2313385 -1.2214321 -1.7875167 0.28817707
000040 22 eb bb bf 6f 9e 52 3e 01 3b 8b 3f de 34 8b bf
       -1.4681132 0.2056825 1.0877382 -1.0875509
000050 11 89 6c 3f 0a 82 7f 3f 93 38 2a bf 4a 25 4d 3f
       0.92396647 0.998078 -0.66492575 0.80135024
000060 b0 ef 11 40 36 e6 b2 bf 03 7e b5 bd 4e 56 24 c0
       2.2802544 -1.3976505 -0.088619255 -2.5677676
000070 03 fc 1b 3f 92 57 0a c0 92 c6 a4 3c 75 e6 31 c0
       0.60931414 -2.1615949 0.020114217 -2.779691

body.block3.norm.running_var f4 [32]
000000 02 43 e8 3e 99 30 f1 3f 33 f8 8f 3f 51 b2 05 3e
       0.45363623 1.8842956 1.1247619 0.13056304
000010 33 93 9f 3e 0a 26 b6 3e a6 13 2c 3f f8 54 14 3e
       0.31166992 0.35575897 0.6721748 0.14485538
000020 5c 86 a6 3f 56 02 e6 3d 87 6e 0d 3e fd 61 75 3f
       1.3009753 0.11230914 0.13811694 0.95852643
000030 fa 25 d4 3e e0 4a 21 3f c9 8e 36 3f 66 a0 98 3f
       0.41435224 0.63004875 0.7131162 1.192395
000040 ec 2e 87 3f 07 5b fe 3e 0e 24 f6 3e 80 91 ef 3d
       1.0561194 0.49678823 0.48074383 0.11697674
000050 70 3a 81 3f 8f fc d6 3e c1 73 60 3f 00 e1 4b 3f
       1.0095959 0.41989562 0.87676626 0.796402
000060 35 6f 9a 3f 9f 0b 24 3f 1b 6b 2f 40 a0 bc ca 3f
       1.2065188 0.6408023 2.7409122 1.5838814
000070 d5 84 0e 3e 0c 1c 5c 3f 9b fe df 3e e8 f4 19 3f
       0.13917859 0.85980296 0.43748936 0.6013932
