TrainedModels/0035-sample/scale_factor=0.750000,alpha=10/3/netG.pth (torch, 130902 bytes, 26 tensors)

head.conv.weight f4 [32, 4, 3, 3]
000000 26 bb 9e 3c fe 2a 44 bb fd ec 26 bc 3d fe bc bc
       0.019376349 -0.0029932852 -0.010188338 -0.023070449
000010 a8 4c 81 3c 08 66 1e 3d 54 a7 0f bd 46 f3 4e bd
       0.015783623 0.038671523 -0.035071686 -0.050524972
000020 d7 cf ae bd f0 6c e4 3b 62 d0 29 3c 0d 3e 38 3d
       -0.08535736 0.006970994 0.010364624 0.04498105
000030 a6 d1 f2 bc 4f b1 fa bc 58 80 ee 3c e2 0b ff bc
       -0.029640984 -0.030602125 0.029113933 -0.031133596
000040 38 47 04 3b b7 1e a7 bd 75 b7 82 bc 41 ab a9 ba
       0.0020184051 -0.08160155 -0.01595662 -0.0012944714
000050 cd 7a f0 3c 1d 19 2c 3c 0a 24 df 3b fa 17 ef 3b
       0.029355431 0.010504034 0.006809716 0.0072965594
000060 f3 f5 38 bd e8 ff c5 bc d5 a6 ab bd f3 80 3c bc
       -0.04515643 -0.024169877 -0.0838143 -0.011505353
000070 dc c4 9f 3c 0f 21 d2 3c 20 ba f1 bc 6d d4 0e 3d
       0.01950305 0.02565053 -0.029507697 0.034870554
000080 3a 75 52 3d 1c 25 c1 bd 85 0a 61 bd 5b 97 0b be
       0.051381327 -0.09430906 -0.054941673 -0.13631956
000090 41 81 7c bc fe 29 5e bc 3f 96 aa bc 7f 14 15 bd
       -0.015411676 -0.013559816 -0.020823596 -0.0363965
0000a0 46 71 93 bc 19 dc 04 bc 63 7e cc bc 48 aa c6 bb
       -0.017998349 -0.008109116 -0.02496261 -0.0060627796
0000b0 0f 0b 8d 3d 85 de fd ba 83 33 b5 3c 01 21 0f 3d
       0.06886875 -0.0019368684 0.02211929 0.034943584
0000c0 4b 71 92 39 da a8 9f bc 7d d0 ff bc 08 10 08 bb
       0.000279317 -0.019489694 -0.031227345 -0.0020761508
0000d0 ea 02 52 bd 01 a4 21 3c bd a9 d2 3c 19 36 70 3d
       -0.05127231 0.009865762 0.025715703 0.05864534
0000e0 37 05 26 3d 9c 1e 8d bc cb 9f f0 3b fd 0e 42 bb
       0.040532317 -0.01722651 0.0073432676 -0.0029610984
0000f0 5c 51 6b bd 8d f2 b2 bc 3f a4 5d 3d 7f ff 15 3d
       -0.057450637 -0.021844173 0.054111715 0.036620613
000100 64 a8 be bc 7e 82 3d bd 11 f0 3a 3d 97 a3 c1 3c
       -0.023273654 -0.046267025 0.0456391 0.023637576
000110 66 db d8 3b 29 de 0f 3c 83 85 27 3c c5 4c 13 3e
       0.006617951 0.008780994 0.010224703 0.14384754
000120 05 de 48 bb 21 e5 e4 3c 31 a7 31 3e ee dd 29 3d
       -0.0030649912 0.027941288 0.17348935 0.041471414
000130 f7 b6 ae bc cb 52 49 b9 7f 42 8a 3b 46 85 cc bc
       -0.021327479 -0.00019199697 0.0042193527 -0.024965893
000140 8d b9 cf ba be 5f f8 3c 50 55 e4 bc fc 31 02 3e
       -0.0015848145 0.030319091 -0.027872711 0.1271438
000150 12 05 f2 bc 45 c5 cd bc af 4a d9 bc 80 6c 09 bb
       -0.029543433 -0.02511848 -0.02652487 -0.0020969212
000160 bf 1b 23 bc 28 fe ba bc 34 2b 50 bd b5 ed 35 bd
       -0.009955346 -0.02282627 -0.05082245 -0.04441615
000170 6f 72 ac 3d 8f ba 83 bd 27 bb 07 bd 82 b8 e2 bc
       0.08420264 -0.064320676 -0.033137467 -0.02767587
000180 9c 68 36 bc 09 03 8c bc 98 89 6a bd 32 98 83 3d
       -0.011133339 -0.017091291 -0.057260126 0.06425513
000190 72 f3 e7 bc 39 52 8d 3d 4e 07 72 3d 83 93 08 3d
       -0.028314326 0.06900448 0.059088998 0.033343803
0001a0 9f 92 eb 3c cc b5 a9 bc 02 67 9e 3c 13 6b 7f 3d
       0.028756438 -0.02071657 0.019336227 0.062357973
0001b0 8f 5c 26 bd 88 c8 c1 3c dc eb 20 3c 9c 65 00 3c
       -0.040615615 0.023655191 0.009821858 0.007836726
0001c0 21 2e ff bb 69 58 47 3d 2f 34 74 bd 1b c4 55 bc
       -0.0077874814 0.0486683 -0.05962008 -0.0130472435
0001d0 ee fe 82 3c 1b 0b 6e bd 64 9d e5 3b 5d 58 d7 bb
       0.0159907 -0.05811606 0.007007288 -0.006571813
0001e0 20 bf 3d 3d f9 9e ba bc 71 fd 8e bc a1 b6 00 ba
       0.04632485 -0.022780882 -0.017454835 -0.00049100263
0001f0 7c c3 5d 3c 99 27 0c bc 2a de a1 bc 06 37 14 bd
       0.013535377 -0.008554363 -0.019759256 -0.036185287
000200 36 70 b7 b9 6d 5f 27 3d a9 0b 08 3d 32 d3 0e 3b
       -0.00034988084 0.04086249 0.033214245 0.0021793363
000210 10 d5 48 bb bd 47 f4 bc 28 a1 36 3c 20 54 20 be
       -0.0030644573 -0.029819364 0.011146821 -0.15657091
000220 76 dc 7f bd 2a 61 54 bc f4 4b 8a bc 50 38 11 3c
       -0.062466107 -0.012962619 -0.01688192 0.008863524
000230 9e 56 bb 3c 06 72 1a bd 3b 08 64 3c a0 a0 ae bc
       0.02286845 -0.037706397 0.013917978 -0.021316826
000240 45 09 6a 3c 2f 85 a2 3b 58 85 0a be 2d a9 f4 3b
       0.014284437 0.0049597244 -0.13527429 0.0074664564
000250 54 88 e9 bc 66 d9 78 bd 40 e2 d0 ba 4e 38 52 bd
       -0.02850739 -0.060754202 -0.0015936568 -0.051323228
000260 2c 3a 30 bd 2f ed ad 3b 00 6b 61 bc ad 9c d5 bd
       -0.043024227 0.0053078155 -0.013758421 -0.10430274
000270 67 52 34 3c 29 bd 22 3c b0 b1 44 3c c7 17 17 3c
       0.011005974 0.009932795 0.012005255 0.009221978
000280 94 26 e0 bc 73 7b 30 bd f0 ac aa 3c b8 b1 c9 3c
       -0.027362145 -0.04308648 0.020834416 0.024620876
000290 36 c6 14 be 84 63 04 3c 71 7b 39 3d 13 0b 3c bc
       -0.14528736 0.008080367 0.04528374 -0.01147725
0002a0 11 3b 0d 3b 89 39 65 3d 4c 82 a8 3d 6f 8d b1 3c
       0.00215501 0.055963073 0.08227977 0.021673886
0002b0 cb d2 7f 3d ad a5 19 be 84 f6 4d 3c 8f e4 74 3c
       0.062456887 -0.15004607 0.012570981 0.014947071
0002c0 4d ea 7a 3c f0 b5 52 bb a7 0b b0 3c 4a 0b 81 bd
       0.015314651 -0.00321519 0.021489931 -0.06300981
0002d0 d5 56 98 bc f9 af 02 3d 14 5a 9a 3d 9e da a8 bc
       -0.018596092 0.0319061 0.07536712 -0.020612057
0002e0 e8 05 d8 3c 1e 74 27 3c e0 e9 2a 3c 26 20 af ba
       0.026370004 0.010220556 0.010431737 -0.0013361021
0002f0 3a a9 38 bd 31 96 52 3d 88 fd cc 3c 91 e5 b5 3c
       -0.045083262 0.051412765 0.025023237 0.022204192
000300 31 25 0f bd 8d f5 50 bc 53 91 e8 3c db b5 62 bd
       -0.034947578 -0.012753856 0.028389608 -0.055349212
000310 44 90 5b bb 90 64 9a bd c4 88 5a 3d 40 18 be 3c
       -0.0033502737 -0.07538712 0.053353086 0.023204923
000320 84 03 00 3d e4 89 9f bb 6f 58 b9 bc 26 eb 5d 3c
       0.031253353 -0.0048687328 -0.022625176 0.013544833
000330 a1 01 9d 3c a9 8b 53 3c a9 97 c5 bd b9 c8 98 bd
       0.019165816 0.012911716 -0.096480675 -0.0746016
000340 26 45 78 bd 1a ed 2d bd 60 99 6e bd fd f2 56 bb
       -0.06061282 -0.042462446 -0.05825174 -0.003279864
000350 f0 c0 10 3c 6b 2f 30 bd e6 c9 30 3d b0 3d 7d bd
       0.008835062 -0.04301397 0.043161295 -0.061826408
000360 5b ef 11 3d dc 0f 50 3d 24 df 51 3b 08 3d 09 3c
       0.035628658 0.050796375 0.0032023871 0.008376367
000370 82 d3 6e 3c ed 2f 52 3d 1a 87 16 bb 5a 74 13 bd
       0.014576795 0.051315237 -0.002296871 -0.035999633
000380 f8 00 ff 3c c6 2d a5 3c 7a b3 4e 3d d9 16 c2 bc
       0.031128392 0.020163428 0.05046413 -0.023692535
000390 5d 59 4f 3c 58 49 dd bb 38 95 df 3c 64 1a 60 bc
       0.012655583 -0.006753128 0.027292833 -0.013678167
0003a0 d4 73 16 b9 1a 9d 73 bc c0 c0 12 3d d4 32 19 3d
       -0.00014348264 -0.014868999 0.035828352 0.03740199
0003b0 15 c8 78 bd 27 b0 2e bd 8f ce 92 bb 4d 84 56 3d
       -0.060737688 -0.04264846 -0.00448019 0.052372266
0003c0 a6 e7 27 bc 5f 2c 82 3c 39 05 35 3d 2f 5b 3b 3d
       -0.0102481 0.015890298 0.044194434 0.045741256
0003d0 e1 15 ac bb 52 14 12 be d7 d3 83 3d 56 c0 64 3d
       -0.0052516316 -0.14265564 0.064368896 0.05584749
0003e0 02 15 86 bc 27 0b 2a 3d f8 b5 22 3d 93 78 a2 bc
       -0.01636744 0.041514542 0.03972432 -0.019832885
0003f0 07 22 b3 3c 62 32 df 3b a6 28 27 bc 35 2d 2a 3c
       0.021866811 0.006811426 -0.010202562 0.010386755

head.conv.bias f4 [32]
000000 9d 51 bf 3d d3 27 97 bc 55 23 0d 3e 88 47 79 3d
       0.093417384 -0.018451607 0.1378301 0.060859233
000010 ad 40 2f 3d 0d 9c bf 3d bf 75 eb 3d 11 7f 15 3e
       0.04278629 0.09355936 0.11497068 0.14599253
000020 69 c6 f4 3d e9 8b df 3a d4 dc 72 3d 35 1e 1f be
       0.11951906 0.0017055246 0.05929263 -0.15538867
000030 80 78 31 3e 7f 27 ff bd 71 98 7c bd 9c 28 8a 3d
       0.17331123 -0.12458705 -0.061668817 0.06746027
000040 c4 af 9b bd fd ef d5 bd dd 49 fc 3d a2 98 17 3e
       -0.07601884 -0.10446165 0.12318776 0.14804319
000050 64 68 ee 3d 0a ed fb bd f7 2e a8 3d 08 2f 10 bc
       0.11641005 -0.12301071 0.08212083 -0.008800276
000060 82 67 b9 3c e6 82 d8 3d 67 04 fb 3c 86 11 b7 3d
       0.022632364 0.10571842 0.030641748 0.08938889
000070 90 5b 9f 3d 22 1b f9 3d 98 ae fb bd c0 77 92 39
       0.07781136 0.12163378 -0.122891605 0.0002793651

head.norm.weight f4 [32]
000000 4f 97 89 3f ea 7a 6e 3f 71 01 89 3f 56 67 76 3f
       1.0749301 0.931563 1.0703565 0.9625143
000010 ca 9e 7b 3f 5b 4d 86 3f 0b ed 81 3f 5d 1f 6f 3f
       0.9828917 1.0492357 1.0150465 0.9340723
000020 95 95 81 3f 59 6a 80 3f 90 db 70 3f 7e 72 71 3f
       1.0123774 1.0032455 0.94085026 0.94315326
000030 41 04 89 3f 2e 9f 81 3f 79 8f 67 3f 93 7a 5f 3f
       1.0704423 1.0126703 0.90453297 0.8729641
000040 25 3f 6e 3f 86 e2 7c 3f 62 ae 81 3f 90 71 86 3f
       0.930651 0.9878315 1.0131342 1.0503407
000050 72 41 64 3f 07 7c 67 3f fd 7c 7f 3f 3b 72 6a 3f
       0.8916236 0.90423626 0.9980009 0.9158055
000060 76 58 7d 3f a1 bf 88 3f f6 04 73 3f 32 01 89 3f
       0.98963106 1.068348 0.94929445 1.070349
000070 cb ef 82 3f e2 d9 7c 3f 3c 3b 68 3f 6e 94 76 3f
       1.0229429 0.9876996 0.90715384 0.96320236

head.norm.bias f4 [32]
000000 09 af b0 3b 70 19 28 be 55 58 0c be b4 75 19 bd
       0.0053919596 -0.16415954 -0.13705571 -0.037465766
000010 02 0b 19 bc 99 f2 97 bc 57 f9 b4 bd fb a5 e5 3c
       -0.009341003 -0.018548297 -0.0883662 0.028033247
000020 23 c9 b2 bd 2f 59 7e bb f3 f9 37 bd 4d 7a 1e bd
       -0.0872977 -0.0038810482 -0.044916105 -0.038690854
000030 dd 05 0f be 60 4b 85 bd bc a3 4a be 57 df 82 bd
       -0.1396708 -0.06508517 -0.19789022 -0.06390255
000040 58 57 46 be 1a 43 0f be f9 85 4b be 3f 65 10 be
       -0.19369256 -0.13990441 -0.19875325 -0.14101122
000050 41 32 c3 bd 7e 3a 23 bd 6d c2 98 3b 4f 8c 07 be
       -0.095310695 -0.039850704 0.0046618492 -0.13237117
000060 19 db e3 bd ec 26 80 bd a5 61 4e be 9a 27 76 bb
       -0.11125774 -0.06257424 -0.20154436 -0.0037560225
000070 0a ba 28 be 0c e7 ca bd f3 3d 47 bd 32 8b 32 bd
       -0.16477218 -0.0990735 -0.048643064 -0.04358978

head.norm.running_mean f4 [32]
000000 26 76 5f 3e 69 44 44 bc 77 6b 6c 3d 6f 82 e6 3d
       0.21822414 -0.011979201 0.057719674 0.11255347
000010 af 7d 53 3e e8 b1 e2 3d 29 72 51 3c e5 f0 38 3e
       0.20653413 0.11069089 0.012783566 0.18060644
000020 f9 54 ce 3d 07 51 0c be 67 ab d7 bd 50 e7 6d be
       0.10074801 -0.13702784 -0.10530739 -0.2323277
000030 69 2b 5f 3d ed cf af bd 96 2e 85 be 88 f6 43 be
       0.05448476 -0.085845806 -0.26012105 -0.19137013
000040 8f 3a fa bd aa af 81 bd 27 e8 e6 3d 2a 4a e4 3c
       -0.122182004 -0.063323334 0.11274748 0.027867395
000050 dc 02 dc 3d 3d c0 d2 bd c1 f3 35 3e f2 00 f2 3b
       0.10742733 -0.10290573 0.17768766 0.0073853666
000060 8d 2c 40 3e 65 32 ea 3d c5 3b 4f bc eb eb 7e 3e
       0.18766995 0.11435393 -0.0126485275 0.24894683
000070 cd ee 5a 3d 1a 5d 8a 3d 5a 78 98 bd 4c b7 88 3c
       0.053450394 0.06756039 -0.0744483 0.016688965

head.norm.running_var f4 [32]
000000 09 8a 40 3d 21 6b cf 3c 4d a2 60 3d ca 0b 3a 3d
       0.04700664 0.025319638 0.054842282 0.0454214
000010 2f 54 b3 3c 1f dd 4f 3d bb e4 6d 3c 79 f8 51 3b
       0.021890728 0.050747987 0.014519866 0.003203897
000020 80 e1 b0 3b af 62 63 3c 5b 88 31 3d 00 b1 b6 3c
       0.0053979754 0.0138785085 0.04334293 0.022301197
000030 64 8b db 3c 62 48 65 3b 1e 94 dd 3c da c9 22 3d
       0.026799865 0.003498577 0.027048167 0.039743282
000040 67 8d 59 3b c2 48 63 3d 75 e5 06 3b 4c d5 9a 3d
       0.0033195855 0.05548931 0.0020583544 0.075602144
000050 d6 eb 64 3c e7 b6 14 3c cf 9e 7a 3c b7 1f 5d 3c
       0.013972243 0.00907681 0.015296652 0.013496331
000060 e7 53 56 3c 67 cd 7b 3c af 6b e4 3b a1 b8 16 3d
       0.013081527 0.015368796 0.0069708447 0.03679717
000070 ad 85 3a 3b f4 63 64 3c b0 63 26 3c 2a e6 07 3b
       0.0028461025 0.013939846 0.010155603 0.0020736554

body.block1.conv.weight f4 [32, 32, 3, 3]
000000 ac 4a a4 bd d7 aa 57 3c 01 11 8f 3a 55 05 bf bc
       -0.08022055 0.01316329 0.0010915102 -0.023317972
000010 b0 1c ea 3b 48 ab a1 3b e0 be 01 bd ff 93 0d 3c
       0.007144533 0.0049337484 -0.031676173 0.008641242
000020 7c 2e 31 3d 58 64 20 bd 91 bb f2 3b 3b f4 16 3d
       0.04325722 -0.039158195 0.0074076136 0.03685401
000030 23 2a d6 bc 0d 3d 25 bd 57 79 a4 3b 21 4d 30 3d
       -0.02614314 -0.040341426 0.0050193476 0.043042306
000040 ba 51 5a 3c 2c c4 41 3d 2e 3d 48 3b d7 ab 68 3c
       0.013325149 0.047306225 0.0030554044 0.014201126
000050 e1 d5 8c 3d 87 23 38 bd 52 dd 9b 3c 65 5c 1d 3d
       0.06876732 -0.044955757 0.019026432 0.038418192
000060 46 fa 31 bd 0a 58 95 3c fa 69 01 3d 7a 57 83 3a
       -0.04345157 0.018230457 0.031595208 0.0010020577
000070 ff 3e 8b 3d 12 ae da bb 43 bc ae bd d5 00 3f bd
       0.06799125 -0.006673583 -0.08532002 -0.046631653
000080 cf 8d 28 3c 36 fb 0c bd 64 7f 51 3d 73 58 ca bc
       0.010287716 -0.03441926 0.05114688 -0.024700379
000090 81 89 20 3c f6 b1 95 bb 65 18 b7 3d 4d 71 bd b9
       0.0097984085 -0.0045683337 0.089402 -0.00036133305
0000a0 f5 3c b1 bc ef eb bd 3c 84 20 70 bd 25 f1 8c bc
       -0.021635512 0.023183791 -0.05862476 -0.01720483
0000b0 61 ed 78 3c f4 29 cd bb c1 dc 97 3a 38 fa 81 bc
       0.015193314 -0.0062611047 0.0011586176 -0.015866384
0000c0 5e b8 3d bd 48 fe 2b bd e4 e8 16 3d 8a 53 2b bc
       -0.046318404 -0.04199055 0.036843196 -0.010456929
0000d0 f2 ee c0 3c f6 13 f1 3c 74 62 8c bc 60 ec 49 3b
       0.023551438 0.029428463 -0.01713679 0.0030811056
0000e0 18 b6 d9 3d 9e 6f dd 3c 53 1f 09 bd 95 47 4d 3c
       0.10630435 0.027030762 -0.03347714 0.0125292735
0000f0 07 8d a2 3d 98 8a 42 3d eb 88 bc 3d 11 52 3e bd
       0.07937055 0.047495455 0.092058025 -0.046464983
000100 0b d2 c4 ba 12 a2 dc 3b 36 6e 87 bd a5 f5 ae bc
       -0.0015016211 0.0067331875 -0.06612818 -0.021357367
000110 ab 47 85 3c 3e 6b 42 3b a2 fd b4 3c d2 ca 58 bb
       0.016269526 0.0029665972 0.022093598 -0.0033079875
000120 33 15 46 3c 1b e9 5c bc bb e7 10 3c 1b 92 7f bd
       0.012090015 -0.013483311 0.008844311 -0.062395196
000130 85 6b aa bc 1f ad 16 3d 75 1f 9b bd 75 85 0f 3c
       -0.020803222 0.036786195 -0.07574359 0.008759846
000140 cd c3 77 bd 36 25 99 3d e6 8a 10 bc 5d ae bd 3c
       -0.060489465 0.074778005 -0.0088221785 0.023154432
000150 2c ea 34 bd f6 c3 ce 3c 2e 4b 04 3d 7c 91 23 bd
       -0.044168636 0.025239926 0.03229826 -0.039933667
000160 f3 e7 fc bb 1d c5 a6 3b fb 23 14 bd 83 e9 9e 3d
       -0.00771808 0.0050894157 -0.036167126 0.077593826
000170 80 7e e4 3c 78 36 29 bd aa 72 d8 3c 5f f6 61 3d
       0.027892351 -0.04131171 0.026421864 0.0551666
000180 43 b3 17 3d 4b 16 91 3d c5 21 6b 3d 3b 1f a8 bc
       0.03703619 0.0708433 0.057405252 -0.020522704
000190 cb a8 96 3c 56 b5 27 3d a4 bf 47 3c 64 65 ad 3c
       0.018391034 0.04094442 0.012191687 0.02116651
0001a0 e6 5f 0b bd f1 ec 88 3c 71 82 d8 3c 92 50 3e 3d
       -0.034027003 0.016714545 0.026429387 0.046463557
0001b0 c6 51 5d bd d4 c4 9c bc 0a be cb 3c b3 b6 29 3c
       -0.054033063 -0.019136824 0.024870891 0.0103585
0001c0 fb 7a 78 bb a3 dc 28 bc e6 af 31 3b b0 3b 1c bd
       -0.00379151 -0.01030651 0.00271129 -0.03814286
0001d0 53 de c9 3b 1d 4a ec 3a ab ac 4d bd d7 f3 2a bd
       0.0061605363 0.0018027459 -0.050213497 -0.04173645
0001e0 8c fa 71 3b 0c e9 83 bd c0 6c 39 3b 1a c8 01 bd
       0.003692302 -0.064409345 0.002829358 -0.031684972
0001f0 33 8a 16 bd 82 01 d3 3b 47 d3 8e bc c7 49 3f bd
       -0.03675289 0.0064393887 -0.01743473 -0.04670122
000200 c7 b7 c0 ba 8f bb 91 bb 26 18 2b bc a9 8a 9c bc
       -0.0014703207 -0.0044474076 -0.010442769 -0.019109087
000210 07 56 b5 bb 14 f4 b0 bb 08 20 a3 3c 81 b7 33 bc
       -0.005533937 -0.00540019 0.019912735 -0.010969044
000220 4a 0b ed 3c 0a 46 6e ba 93 91 07 bd 7d 5b b1 bd
       0.028936047 -0.0009089416 -0.033097815 -0.08660028
000230 77 03 92 bd 0b 47 20 bd 7a 4a 61 bc 76 6c c0 3b
       -0.07129567 -0.03913025 -0.013750667 0.0058723046
000240 20 1e b0 bb f6 2a 1f 3c b2 40 6a 3d d6 17 77 3b
       -0.005374685 0.0097148325 0.057190605 0.0037703416
000250 76 56 a6 bc 51 8c 89 bc 5c 5b 53 3d bd 1e c9 bc
       -0.0203049 -0.01679054 0.0516008 -0.02455079
000260 5a 65 93 bc 76 53 64 bd 94 27 b9 bc 5a 0c ee 3b
       -0.017992664 -0.055743657 -0.02260188 0.007264656
000270 48 2f 02 bd b7 0a 05 bc ce 11 19 3c ed 09 2e 3c
       -0.031783372 -0.00812023 0.009342624 0.010622484
000280 d4 cf f5 bc 9f 3e 0a bc b6 c8 16 bd 7c 99 d9 bc
       -0.030006327 -0.008437782 -0.036812507 -0.026562445
000290 24 cc ea bd d1 60 1f 3d 84 16 2b 3d 99 de 2b 3b
       -0.11464718 0.03891069 0.04176952 0.0026225208
0002a0 49 f8 90 3d ab 21 ce 3c f0 30 72 bc 28 36 22 bd
       0.07078607 0.025162539 -0.014782175 -0.03960243
0002b0 4e 49 39 bd 33 03 88 ba d5 2f 2f bd e0 cc 51 bc
       -0.045235924 -0.001037693 -0.042770226 -0.012805194
0002c0 01 8b 65 3d 43 3b 98 3d e7 99 95 3d d3 0e cf 3d
       0.056040768 0.07433178 0.07304745 0.10110249
0002d0 1b b9 ac bc 29 8f 84 39 95 40 6d bd 9b eb be 3c
       -0.021084359 0.00025283665 -0.05792292 0.023305705
0002e0 01 2f a5 3c 32 70 f3 bc 6a d3 42 3d 29 e1 43 3d
       0.020164015 -0.029716585 0.0475649 0.04782215
0002f0 1d d1 b1 3c 3a 8e 38 3c 61 64 3e 3c 04 bc 8b 3b
       0.021706158 0.011264378 0.011620612 0.0042643566
000300 4c e7 00 bd 5f 85 0f 3d e2 0c f8 ba fb db 1a 3c
       -0.031470582 0.035039302 -0.0018924738 0.0094518615
000310 81 e4 25 3b 3b 49 95 bc c2 3a fa bb a9 fa 25 bc
       0.00253132 -0.018223396 -0.007636399 -0.010130563
000320 80 e5 e9 3b a9 d5 65 3b d6 32 6f bc 26 62 a6 bc
       0.0071379542 0.0035069978 -0.014599523 -0.020310473
000330 fe 78 65 bd 9c d2 de 3b d1 2f 85 3c 76 35 5f bc
       -0.05602359 0.006800009 0.016258152 -0.013623586
000340 06 52 42 3a 75 59 be 3b 71 ae 68 3c ac 61 99 bc
       0.0007412735 0.005809004 0.014201746 -0.018723331
000350 a8 1b 97 3c 47 5b 90 3d 79 91 f6 3c bb 00 65 3d
       0.018445805 0.0704866 0.030098664 0.0559089
000360 df a6 91 bc 75 a4 47 bd 38 e5 f3 bc 33 3f eb bb
       -0.017779766 -0.048740823 -0.029772386 -0.007179165
000370 3e 9c 9d bc d9 59 3d bb db 5b fb bc 8c 39 ba bc
       -0.019239541 -0.0028892665 -0.030683449 -0.022732519
000380 f6 8c ad bc 36 0e 1b 3c 3a b1 c4 3b ee 4d 85 3d
       -0.02118538 0.009463837 0.0060025724 0.065090045
000390 05 73 af 3c 92 1d 0d bd 04 b2 8d ba 0b 26 d9 bc
       0.02141715 -0.03445203 -0.0010810499 -0.026507398
0003a0 ed cb 0e bd c2 a9 a7 bc d3 b2 57 bd 9f 68 34 bd
       -0.034862448 -0.020466689 -0.052660774 -0.044045087
0003b0 d3 0a 13 3c a8 f3 39 bb 8e c3 0e bc 84 25 40 bc
       0.008974749 -0.002837399 -0.008713616 -0.011727694
0003c0 26 36 1a 3c dd e2 1e 3c 56 df 50 3c 46 bb 92 3b
       0.009412324 0.009697643 0.01274856 0.004477891
0003d0 23 48 7f 3c 6f a1 56 3d c6 c9 35 bc 1c bd 52 3c
       0.015581164 0.05240005 -0.01109547 0.01286247
0003e0 66 05 a5 3d 6d 37 fa bc 19 5f c6 bc 41 22 31 3d
       0.0805767 -0.030544007 -0.024215268 0.043245558
0003f0 25 c5 74 bd 07 1b 0f bd 92 7a b4 bd fe 34 0e 3c
       -0.059758324 -0.034937885 -0.08812441 0.0086796265

body.block1.conv.bias f4 [32]
000000 17 d2 11 3d 5b b0 a6 bc a7 d2 32 bd 21 c2 2b bc
       0.035600748 -0.020347765 -0.043657925 -0.010483296
000010 1f 68 27 bd cb ce 3e 3d 11 68 f0 bc 9e d2 af 3d
       -0.040870782 0.046583932 -0.029346498 0.08585094
000020 8f 23 6c 3d 43 1b e5 3c 00 47 fb 3c 02 17 5c bb
       0.0576511 0.027967101 0.030673504 -0.003358305
000030 a2 a4 08 bd 12 32 63 bc 32 1a 33 bd 2c 13 6a bc
       -0.03336013 -0.013866918 -0.043726154 -0.0142867975
000040 b2 5c 36 3b f5 a6 a6 bc 9e 4e 24 3b 71 49 0e bd
       0.0027826247 -0.020343283 0.0025071274 -0.034738008
000050 a5 75 ad bc 3a 60 38 bd a9 3f 2e 3d 80 87 d8 3c
       -0.021174261 -0.045013644 0.04254118 0.026431799
000060 3d 97 fa bc 99 a2 a8 bd f2 53 40 3d 7a 06 ac 3b
       -0.030589694 -0.08234138 0.046955056 0.0052497955
000070 87 de e4 3d 51 9c 04 bd e1 0e 64 3c 54 3d cf bc
       0.11175256 -0.032375637 0.013919563 -0.025297798

body.block1.norm.weight f4 [32]
000000 cd 12 79 3f 3e ec 78 3f 78 cd 74 3f 16 33 78 3f
       0.9729431 0.97235477 0.9562602 0.9695295
000010 63 d7 80 3f ee eb 6f 3f 23 31 80 3f d1 40 67 3f
       1.0065731 0.93719375 1.0014995 0.90333277
000020 6b a7 69 3f ad 5a 7a 3f b9 04 91 3f 08 99 76 3f
       0.91271085 0.9779461 1.1329566 0.9632726
000030 c8 50 5d 3f 46 6c 8c 3f 7d 21 81 3f 66 e6 78 3f
       0.8645139 1.0970542 1.0088345 0.9722656
000040 f8 e8 8c 3f e4 9b 68 3f 7c 76 71 3f 55 5c 70 3f
       1.1008596 0.9086287 0.9432142 0.9389089
000050 3a e6 82 3f a0 ee 68 3f 0d e4 8c 3f 19 78 6c 3f
       1.022651 0.9098911 1.1007096 0.92370754
000060 fe 8a 7c 3f 0f 6b 7d 3f 3e b7 7a 3f f1 ff 6e 3f
       0.98649585 0.98991483 0.97935855 0.93359286
000070 62 3e 82 3f 56 df 7c 3f dd b5 78 3f 72 a4 7d 3f
       1.0175288 0.98778284 0.971525 0.9907905

body.block1.norm.bias f4 [32]
000000 f3 2a 48 be ae 50 18 be e3 ba c0 bd 6b 6a b1 bd
       -0.19547634 -0.14874527 -0.09410646 -0.08662876
000010 0a 49 92 bd dd af 24 be 7d 4b f4 bd 48 fe d8 bc
       -0.07142837 -0.16082712 -0.11928461 -0.026488438
000020 12 5d ab bd 88 32 6f be 13 a8 96 bd 9d 00 63 be
       -0.08367361 -0.2335912 -0.07356276 -0.22168203
000030 99 af 0c be 24 8c 07 bd cf ff 9b bd 48 53 22 bd
       -0.1373886 -0.033092633 -0.07617151 -0.039630204
000040 83 11 4d be 91 de d6 bd cd 0c b5 bd 89 e8 28 be
       -0.20026211 -0.1049167 -0.08840332 -0.16494955
000050 80 b2 d0 be c6 f5 a3 bd bb e7 6d bd 43 23 9f 3c
       -0.40761185 -0.08005862 -0.058082324 0.019425994
000060 74 96 22 be 1a e6 15 bd 41 c7 83 be 58 78 8a bd
       -0.15877706 -0.036596395 -0.25737956 -0.06761235
000070 bf 60 44 be 8e 39 c2 bd 08 86 a8 bd 00 2e a2 bd
       -0.1917753 -0.09483634 -0.082286894 -0.0791893

body.block1.norm.running_mean f4 [32]
000000 a1 ac c7 bc 99 c1 45 be c3 7e b0 3c 4c 3a 9c bf
       -0.024374308 -0.19312133 0.02154482 -1.2205291
000010 62 91 80 bf c3 98 29 3e 79 dd 14 3e cd f6 91 bf
       -1.0044367 0.1656218 0.1453761 -1.1403443
000020 ed ac 5a bf 3d 9a 05 be 3f a3 84 bf 97 36 06 bf
       -0.85420114 -0.13047118 -1.0362319 -0.5242705
000030 ee c9 be 3d 2f f6 8f bf b8 76 09 bf c6 70 09 bf
       0.09315859 -1.1247004 -0.53696775 -0.53687704
000040 8a c1 fa be d9 f3 59 3f 9a 69 6c 3f 5a 76 9c 3e
       -0.48975784 0.85137707 0.92348635 0.30559045
000050 4d a2 b0 3e 30 8d 04 3f ef d9 76 3b 68 55 11 3f
       0.34498826 0.51777935 0.003766652 0.56770945
000060 5a 91 95 bf ea 5a 22 3f 26 47 ea 3d 29 ce 87 bf
       -1.1684983 0.63419974 0.11439352 -1.060979
000070 43 52 d5 3e be bf 1d bf 5d fa 81 3f 79 92 9f bf
       0.41664323 -0.616207 1.015453 -1.2466575

body.block1.norm.running_var f4 [32]
000000 34 3b 3e 3e cc 8c 41 3f 06 e9 46 3e a9 5c b7 3f
       0.18577272 0.75605464 0.19424829 1.4325153
000010 9c 9b df 3e 47 bf 20 40 3a e7 a5 3e d5 c3 10 3f
       0.43673408 2.5116746 0.32402974 0.56548816
000020 0e 12 76 40 df 01 13 3e a8 fe 2c 3f 0d 29 6a 3e
       3.844852 0.14356183 0.67576075 0.22867222
000030 fe b9 ec 3e 8e 52 d2 3f 48 89 64 3e ae bf 36 3f
       0.4623565 1.6431444 0.22317994 0.7138623
000040 33 ae 62 3f 61 39 9c 3e df 2c d1 3e c3 8b 33 3f
       0.88547057 0.30512527 0.40854546 0.70135134
000050 2c a3 03 3e 04 29 b1 3e a4 2b 23 40 50 38 27 3f
       0.12855214 0.34601605 2.5495386 0.653203
000060 fa 9a 28 3f d6 3c ea 3e 95 d8 4c 3f 8e 16 c4 3e
       0.65861475 0.4574954 0.8001798 0.38298458
000070 3d 96 a0 3e a6 a6 ef 3e b3 c9 32 3f 6d 9a 66 3e
       0.31364623 0.4680683 0.6983902 0.22519846

body.block2.conv.weight f4 [32, 32, 3, 3]
000000 50 ee 77 3b ba d6 16 3c ab c2 9d bc 0b 09 1f bc
       0.0037831254 0.009206468 -0.019257864 -0.009706746
000010 24 bb cb ba 82 7b b0 bc bf 73 69 bc 92 53 18 3d
       -0.0015543443 -0.021543268 -0.014248787 0.037189074
000020 41 97 18 bd d6 fb 37 3b a2 f3 85 bd 40 ee 93 bd
       -0.037253622 0.002807369 -0.0654061 -0.07223177
000030 d1 31 b7 bc f2 ab 18 bd dd d7 32 3d 7c 6f c5 bd
       -0.022362622 -0.037273355 0.043662895 -0.096404046
000040 3b 53 08 bd 19 79 df 3c 3d 48 8d bc 13 ba 0c bd
       -0.0332825 0.027279424 -0.01724636 -0.03435714
000050 e5 09 94 3b ff a3 90 bc a3 e7 d3 bc 16 98 0d 3c
       0.004517781 -0.017656324 -0.025867289 0.008642217
000060 28 89 7b 3d ac 65 10 3c 59 1c 16 3d f2 48 bc bc
       0.0614101 0.008813303 0.03664813 -0.022984002
000070 9e 98 82 3c f3 56 40 3c 76 05 12 3d b5 ea 63 3a
       0.015941914 0.01173948 0.03564974 0.0008694337
000080 3c e3 1b bd 7f b9 ca 3a 45 c0 80 3b 69 92 79 bc
       -0.038058504 0.0015466659 0.0039291703 -0.015232661
000090 15 b8 84 3d 1a 64 8b 3d 87 15 73 bb ae d1 73 3d
       0.06480423 0.06806202 -0.0037091689 0.059526138
0000a0 c4 ba 52 3c d3 02 b6 3b a1 c6 45 bc 98 71 99 bc
       0.012861911 0.005554536 -0.012071283 -0.018730924
0000b0 4a c2 0a bd 6d ab 4c 3d 8c 40 b8 3c 69 31 fb bc
       -0.033876695 0.049968172 0.022491716 -0.030663209
0000c0 b2 96 0b bd 84 b1 b9 bc 38 f3 37 3c 36 5a 44 bc
       -0.03407926 -0.022667654 0.011227421 -0.011984399
0000d0 35 b1 53 3c 92 46 d8 bb 8d 4a 90 3d 78 e3 26 3c
       0.012920667 -0.0066002095 0.070454694 0.010186069
0000e0 ee 40 89 3c 85 fd ba bc 40 49 b6 3b 1f 23 04 3c
       0.016754594 -0.022825966 0.0055629313 0.008065014
0000f0 55 ad 3e 3d b9 af ef bc 1d 14 fe bc e1 fe 0d bd
       0.04655202 -0.029258596 -0.03101545 -0.0346669
000100 2e 49 31 bd f1 59 ce bc 86 e3 60 bd 7e 38 58 3c
       -0.04328268 -0.025189372 -0.054904483 0.013197063
000110 dc 55 02 bd 7e 30 5b bc 8e 6c 02 bd bf 99 3c bd
       -0.031820163 -0.013378261 -0.031841807 -0.04604506
000120 90 ee 17 3d d9 10 02 bb e7 7e 77 ba a3 b4 8e bc
       0.037092745 -0.0019846468 -0.0009441212 -0.017420119
000130 05 7d 27 3c 76 54 a8 bb 5a 0f f6 3b 33 84 f1 3b
       0.010222678 -0.0051370217 0.0075091543 0.0073704957
000140 26 8f e6 3c 84 aa 00 3d 5f 14 89 bc 17 b0 f5 bd
       0.02814443 0.031412616 -0.016733347 -0.11996477
000150 eb 3e 23 bc b5 2f 76 bc a3 a3 57 bd 6e 61 bb bd
       -0.009963731 -0.015026023 -0.05264629 -0.091494426
000160 08 e9 bc bb 67 4d f3 bc eb 87 39 bc 43 ba 0c bd
       -0.005765084 -0.029699994 -0.011323909 -0.03435732
000170 c0 5c 08 3b 39 cf d1 3c d3 b1 0f bb 31 15 17 bd
       0.0020807236 0.025611507 -0.002192606 -0.036885444
000180 0d 6d 88 3c 4e 97 c1 3b a0 fd 23 3c ab 55 ad 3c
       0.016653562 0.0059079295 0.010009199 0.021159014
000190 b3 a6 0a 3d 6c 54 ea bc a7 cd 24 3d ba 17 25 3d
       0.033850383 -0.028604709 0.040235188 0.04030583
0001a0 73 70 90 bc 36 40 99 3c 88 8a bb 3c d4 0f 34 bd
       -0.017631745 0.018707376 0.022893205 -0.043960407
0001b0 21 b0 ee ba ee fd a4 3c 25 48 3c bd 61 15 eb 3c
       -0.001821045 0.020140614 -0.04596724 0.028696718
0001c0 10 8b 2e bc 4d dc ce bc 89 dc 18 3d d3 ca 7a 3c
       -0.010653272 -0.025251532 0.037319694 0.015307146
0001d0 19 37 a0 3c ef d4 9c bd 26 60 9c bd 37 35 59 3d
       0.019557523 -0.07657801 -0.07635526 0.053029265
0001e0 27 9b fe bc 5e 97 19 bd b9 10 ac 3d 1b 87 0e bd
       -0.031079842 -0.03749787 0.08401627 -0.034796815
0001f0 30 c5 06 bd 15 fc 73 3d e2 06 2e bd 7d 6d b3 ba
       -0.032902896 0.059566576 -0.042487033 -0.0013689246
000200 d4 fc 9c 3d a4 c0 8d bc f1 1a 08 bb bc 1d 06 3d
       0.07665411 -0.017303772 -0.0020768011 0.0327432
000210 59 bc b1 3c 22 46 d6 3c 71 8a 26 3d 42 4e 2a 3c
       0.021696256 0.026156489 0.04065937 0.010394635
000220 f6 d3 a7 3c b0 ee 4f 3c 68 d1 ea bb 2f 9e 3b 3d
       0.020486813 0.012691185 -0.0071660765 0.045805153
000230 3e 9b d6 3c 10 ec 3e 3d 29 f7 80 3d b9 30 fa 3c
       0.026197072 0.046611845 0.06297142 0.03054081
000240 9a ac ac bd 42 43 3e bd 18 b1 ff bc 66 8f 5e bc
       -0.08431359 -0.04645086 -0.031212375 -0.013583994
000250 ec f9 1b bd ed 11 3e bd 94 47 e8 3c 73 b9 e2 bb
       -0.03808014 -0.046403814 0.028354444 -0.00691908
000260 47 59 13 bd 4b e2 96 3c f3 16 87 3c ac 98 b5 bc
       -0.035973813 0.018418452 0.016490435 -0.022167526
000270 07 01 e5 ba 55 b2 ab bc 03 b0 91 bc 92 2e 14 3c
       -0.001747162 -0.020959059 -0.017784124 0.009044306
000280 f3 1e 30 bb d2 e6 0c bb 50 da 8a bc d0 fe 07 bc
       -0.0026873916 -0.0021499884 -0.016949803 -0.008300498
000290 42 6e d2 bd b5 7c 87 bd d1 58 c9 bb f6 bf 8a bd
       -0.10274936 -0.06615583 -0.006144621 -0.06774895
0002a0 1c 65 16 bd 6b b4 b0 39 27 98 10 3d 58 fe 8b 3d
       -0.03671752 0.00033703758 0.035301354 0.068356216
0002b0 a8 55 82 3d 57 26 0d bd 95 02 b0 3b 32 93 02 bd
       0.06363994 -0.03446039 0.0053714016 -0.031878658
0002c0 f3 ef 0d bc be e6 b2 3d 40 a1 42 3a 7a 6d bc 3b
       -0.008663165 0.08735417 0.0007424541 0.0057503553
0002d0 a5 41 0e 3e 30 07 8f 3d 99 9b ac bc 6f 40 90 3d
       0.13892229 0.06983793 -0.021070288 0.0704354
0002e0 8d 22 2a 3d 64 49 49 bb 86 cd 08 3e 8d c8 82 3d
       0.041536856 -0.003071391 0.13359651 0.06385908
0002f0 07 e3 a4 bb 1a 67 99 bc a3 0f a2 bc 10 f3 b9 bc
       -0.0050319466 -0.01872592 -0.019782847 -0.022698909
000300 66 a4 13 bc 98 6c a2 3b cd bf 22 bd e4 c3 0b 3d
       -0.009011364 0.004956793 -0.039733697 0.034122363
000310 ee ed 26 3d b7 09 99 3c df 38 6a bd bf e0 ff bc
       0.04075425 0.01868139 -0.057183143 -0.031235097
000320 dd 05 db ba 76 2e a3 3c ee ca ba 3c bc 3b 19 3d
       -0.0016710121 0.019919615 0.022801843 0.037410483
000330 74 9f bf 3b f0 bf 39 3b e8 e8 36 3b 90 e1 e8 3c
       0.0058478657 0.0028343163 0.002790982 0.02842787
000340 58 61 b1 3c 7e d6 52 3c 00 6e 82 bd b4 dd 9f 3c
       0.021652862 0.012868522 -0.06368637 0.019514896
000350 c2 6d 61 bd 51 0f 9f bd d5 33 12 bd 3c 4d 64 bd
       -0.055036314 -0.07766593 -0.035693962 -0.05573772
000360 61 10 5d 3d 9a 2b 17 bb 00 3b 8f 3c 61 2c 94 bc
       0.0539707 -0.002306676 0.017484188 -0.018087568
000370 fb 54 41 bd bd 5e a1 3c 93 c8 8d bd 92 93 73 bd
       -0.047200184 0.019698495 -0.06923022 -0.059466906
000380 8d fa 84 3d 5b 66 2f 3c 0e a7 93 bb 0c 48 f3 38
       0.06493101 0.010705556 -0.0045059985 0.00011600563
000390 b9 89 78 3d ed 13 9b 3c 07 04 17 3c bd 80 62 3d
       0.060678218 0.0189304 0.009217269 0.055298556
0003a0 25 8c 2e bd 49 2c 62 bd 04 bc ce 3c 7b 72 0c 3d
       -0.04261412 -0.055218015 0.025236137 0.034288865
0003b0 5c 35 54 3c 90 50 46 3d 29 c3 a5 3d 89 5c 81 3d
       0.012952175 0.048416674 0.080938645 0.06316478
0003c0 9a 07 f8 3d 15 7c c1 3d f8 10 3b 3d 09 f8 06 3d
       0.12110825 0.09447495 0.04567048 0.03295139
0003d0 fa 10 dd 3c e4 1c dc 3c 94 ac 13 3d da 18 02 3d
       0.026985634 0.026869245 0.036053255 0.03176198
0003e0 7f fe ad ba ea 13 71 3d 57 35 12 3c 1a ee 69 3c
       -0.0013274698 0.058856882 0.00892385 0.014277959
0003f0 69 8c 4d 3d 7c 61 96 3d 66 90 b0 bc b3 ca 7f bc
       0.050182734 0.073428124 -0.02155323 -0.015612292

body.block2.conv.bias f4 [32]
000000 32 61 0b 3c 18 03 1c 3d c3 1a 85 bc 35 0d 76 bd
       0.00850706 0.038088888 -0.016248113 -0.06007119
000010 5d 67 80 bc 5c c1 30 3d bb 78 cc 3c 82 54 2b bc
       -0.015674287 0.043153152 0.024959913 -0.01045716
000020 ea c8 bf bc 28 0b bb 3d f2 6b 2f bd a2 59 40 3c
       -0.023411233 0.09132987 -0.042827554 0.01174012
000030 0f 41 6d 3c 47 87 d5 3d 9b 14 31 bd 00 af 81 bc
       0.014480843 0.10426193 -0.04323254 -0.015830517
000040 e5 5a fd bc c3 11 df 3c a7 ef da bb 23 38 8f 3d
       -0.030927131 0.02723015 -0.006681401 0.06993129
000050 bf ab f9 3c 5f a9 2b bd 3d ef 2a 3d 9a e8 85 bc
       0.030477403 -0.04190957 0.04173206 -0.016346265
000060 5e e9 ef bc e2 d7 e0 3c 10 d8 a3 bd 65 06 9b 3c
       -0.029286083 0.027446691 -0.08000195 0.018923948
000070 c0 6d 84 bc 60 e7 94 3c a8 71 b1 3b 8e 37 42 bd
       -0.016165614 0.018176734 0.00541516 -0.047416262

body.block2.norm.weight f4 [32]
000000 51 e2 83 3f 85 ff 61 3f f0 b8 7a 3f d6 d8 76 3f
       1.0303441 0.88280517 0.9793844 0.96424615
000010 d5 1a 69 3f 49 0a 7d 3f 23 b3 82 3f 24 3b 6d 3f
       0.9105657 0.9884382 1.0210918 0.92668366
000020 81 b6 86 3f b2 08 6f 3f b3 36 7d 3f 87 5e 84 3f
       1.0524446 0.93372643 0.9891159 1.0341347
000030 07 d0 7d 3f 6a 12 78 3f c5 50 76 3f 5f f9 7b 3f
       0.9914555 0.969031 0.96216995 0.98427385
000040 be 9b 76 3f c2 33 7a 3f a1 c1 88 3f 8e 64 85 3f
       0.96331394 0.97735226 1.0684091 1.0421312
000050 7e 49 83 3f 07 7b 75 3f 38 36 77 3f e4 96 80 3f
       1.0256803 0.9589085 0.96567106 1.0046048
000060 12 69 7a 3f b5 9f 80 3f a6 f7 7f 3f ce 73 75 3f
       0.97816575 1.0048739 0.99987257 0.9587983
000070 48 d2 83 3f 29 ae 6e 3f 6e 27 67 3f 7e e2 85 3f
       1.0298548 0.932345 0.9029454 1.0459745

body.block2.norm.bias f4 [32]
000000 23 0a 93 be 09 9e a7 bd 39 d4 57 bd fe 9f d2 bd
       -0.2871867 -0.0818444 -0.052692626 -0.10284422
000010 b5 54 08 be e1 17 eb bd 3d 46 2c be 3c a6 3d bd
       -0.13313563 -0.11479164 -0.16823669 -0.04630111
000020 9d b4 28 be ee 93 51 be 1c 3c 3e bc 57 7c 1f be
       -0.16475148 -0.20466587 -0.011611011 -0.15574776
000030 be c2 a2 bd 9a b3 bc be 32 c4 14 bd 8d d1 8e bd
       -0.079473004 -0.36855775 -0.03631992 -0.069735624
000040 7f 63 27 bd 68 2c 5b bd 8e d6 26 be 91 db 8a bd
       -0.04086637 -0.053509146 -0.16292784 -0.0678016
000050 47 53 8e be 95 0f e9 bd 24 47 27 be fb 95 04 be
       -0.2779791 -0.11379925 -0.16335732 -0.12947838
000060 ce 0a 20 be 6b d1 ea bd e6 ce 0b be e0 62 c5 bd
       -0.15629122 -0.114657246 -0.13653144 -0.096379995
000070 1e 41 1a be 52 50 d8 bd 1b 56 5d be 55 c0 38 be
       -0.15063903 -0.10562195 -0.21614878 -0.18042119

body.block2.norm.running_mean f4 [32]
000000 42 4b a0 bd c9 ee ff 3e b4 98 bc bd 6d d1 8b be
       -0.07826854 0.49986866 -0.09208813 -0.27308217
000010 0d a5 58 be bb e3 08 bf 19 dd 83 bd a6 5a 0d bf
       -0.21156712 -0.5347249 -0.064386554 -0.55216444
000020 03 ae 2f bf 0e 9b 58 bb c8 b6 1d 3e ac c2 a0 3e
       -0.68624896 -0.0033051404 0.15401757 0.31398523
000030 72 b5 e9 bd e5 fc d5 3e 53 1b d0 be cd e4 4f 3b
       -0.11411561 0.41794506 -0.40645847 0.003172207
000040 65 80 c8 bd a9 5f 17 3e a6 3c ec be c5 77 ab 3d
       -0.09790114 0.14782585 -0.4614002 0.083724536
000050 6e e2 92 3e 0a 29 52 bf 26 f8 46 3e 8c 3b 9a be
       0.28688377 -0.8209387 0.19430599 -0.30123556
000060 42 e7 54 bf ad 35 22 be 73 3d cc 3e ff cf 03 bf
       -0.8316537 -0.15840788 0.39890632 -0.5148925
000070 9f 81 30 bf 2f 72 2e bf bd 91 fc be a8 4d 69 3e
       -0.68947786 -0.6814298 -0.4932994 0.2278353

body.block2.norm.running_var f4 [32]
000000 cd 0c 21 3f 0a 49 d0 3e 2f dc c9 3e f8 12 79 3e
       0.6291016 0.40680724 0.394258 0.24323642
000010 d4 91 f9 3e 2e 26 45 3f 54 73 32 3e 50 e1 90 3e
       0.4874407 0.7701138 0.17426807 0.282969
000020 ea c7 a9 3e 4f 05 81 3e ad 96 d0 3f df cf 11 3e
       0.33160335 0.25199363 1.6295983 0.14239453
000030 5a f5 04 3f dd ce 19 3e ab 9c 0b 40 56 5e 64 3f
       0.51936877 0.15020318 2.1814373 0.89206445
000040 15 07 a7 3f 78 e0 fe 3e 49 15 2c 3e a4 ef 9d 3f
       1.3049036 0.4978063 0.16804995 1.2338758
000050 00 70 4f 3e ba 65 2d 3e ed fa 0c 40 02 1c 94 3e
       0.20257568 0.16933337 2.2028153 0.28927618
000060 07 47 14 3f 89 db 18 3f a0 73 bd 3e e5 f2 49 3f
       0.5792088 0.59709984 0.37002277 0.7888625
000070 3a 21 f3 3e 81 43 0b 3f 3a 7d df 3e ef c3 8c 3e
       0.47486287 0.5439988 0.43650228 0.27493235

body.block3.conv.weight f4 [32, 32, 3, 3]
000000 e7 bd 56 bc a7 5e e4 bc 1a 19 58 bd f5 99 f2 3b
       -0.0131068 -0.027877165 -0.052758314 0.007403607
000010 6f fe f8 3b 90 72 6e 38 3e 18 cb 3c 7e 08 cb b9
       0.00759869 5.6850316e-05 0.024791833 -0.00038725504
000020 95 5c 20 3c 22 85 2c ba 8f a1 05 bc 07 d7 9a bc
       0.009787698 -0.00065811176 -0.008156194 -0.018901361
000030 d0 ab 74 bc 26 7f 3d bc 01 56 d9 bc d5 81 c1 bc
       -0.014933541 -0.011565959 -0.026530268 -0.023621479
000040 bd 78 16 bd 80 ff de 3b c5 63 b9 bd 09 23 b1 bc
       -0.03673624 0.0068053603 -0.09052233 -0.021623151
000050 47 0f 02 bd 86 82 87 bd fe 53 3d bd cf 87 07 bd
       -0.03175285 -0.06616692 -0.04622268 -0.0330885
000060 90 06 93 bd 06 07 1b bc 68 7a 2b bd cc f0 ed 3c
       -0.07178986 -0.009462124 -0.041864783 0.029045485
000070 e1 fc 4e 3d 22 2f 57 bc a2 71 56 3c 07 f4 85 3d
       0.050534133 -0.013133796 0.013088616 0.06540685
000080 97 4b 81 3b c9 03 8f bd e6 75 de bc 3a 70 32 bd
       0.0039457786 -0.06983144 -0.027155828 -0.04356406
000090 66 9e 14 3d 5b 86 01 bd 26 08 29 bc 21 90 41 3d
       0.036283873 -0.031622272 -0.010316884 0.047256593
0000a0 f3 54 51 3c 37 39 bd bb d6 db 18 3d 03 9f 1e bc
       0.012776601 -0.005774643 0.037319027 -0.009681466
0000b0 4f 50 25 bd 78 78 dd bc 05 39 46 3c db ad 94 bb
       -0.04035979 -0.027034983 0.012098555 -0.0045373267
0000c0 b9 19 49 3d c8 fd a7 bd 17 54 f8 bc 12 75 3e 3d
       0.049096797 -0.08202702 -0.030313535 0.046498366
0000d0 cc 49 30 3c 69 4a f2 bb d1 13 3c bd 93 3f 11 bd
       0.010759782 -0.0073941243 -0.045917336 -0.03546102
0000e0 ea 55 9e bd 45 be 83 bc 32 63 7a 3d 8a 1d 71 bc
       -0.077312306 -0.016081939 0.061129756 -0.014716515
0000f0 b2 52 0a bc dc a8 9a 3c 5d 8f cc bc cc 56 0c 3c
       -0.008442568 0.018879347 -0.024970705 0.008565616
000100 28 12 0a bc 07 87 93 bc 19 cf f4 3b 18 78 7d bb
       -0.00842718 -0.018008722 0.007470977 -0.0038676318
000110 79 f1 bc ba 27 46 8a bc aa b9 31 3c 57 ae de 3c
       -0.0014415226 -0.016879154 0.010847488 0.027182741
000120 86 fa 09 be 76 8e 7a 3b 46 bb 49 bd f5 92 99 bb
       -0.13474473 0.0038231886 -0.049250863 -0.004686708
000130 7b 66 78 3a f7 4d 1a bb bb 7c 4b bd 7c 18 cc bc
       0.000947572 -0.0023545006 -0.0496795 -0.024914019
000140 a0 a9 4a 3d 3e 27 34 bd 3b cf 98 3b df 27 d7 3c
       0.049478173 -0.043982737 0.0046633757 0.02626413
000150 cf 94 3d 3d 81 7e 04 3d 4b bc 3a 3d 04 b6 27 bc
       0.046284493 0.032347206 0.045589726 -0.010236267
000160 fc 7d cb bc 9d 25 52 3d ef 1a 13 bd 68 2d 7b bc
       -0.024840347 0.051305402 -0.035914358 -0.01533065
000170 61 d4 de 3c e3 5c 86 bb 3f e4 63 3c 17 7b 84 bb
       0.02720088 -0.0041004284 0.013909399 -0.0040429938
000180 cc f5 a2 bd 31 a8 f9 bc f7 2a 69 bd 48 a0 35 3c
       -0.07957038 -0.030475708 -0.05692574 0.011085577
000190 59 d0 ac bc c8 81 de bc 46 c1 7b 3c 1d 2b c9 bb
       -0.021095442 -0.027161494 0.015365904 -0.0061391727
0001a0 42 58 0a 3c cb 58 e3 bc 27 78 98 3c af 87 15 3c
       0.008443894 -0.0277523 0.01861198 0.009126588
0001b0 e8 40 45 3c 91 45 eb 3b 79 fb 04 3d 8a a7 82 bd
       0.012039401 0.007179924 0.032466386 -0.06379612
0001c0 03 cd 08 3d fa 8e a1 bc 8e 7c b6 bd 38 aa 11 bd
       0.03339864 -0.019721497 -0.08910476 -0.035562724
0001d0 50 ad 85 bd 03 91 58 3d 32 1b ed 3c 4c 8e aa 3c
       -0.06527197 0.05287267 0.028943632 0.020819806
0001e0 cf 32 b5 3c 12 0b a8 3b f9 e0 c7 3c 23 5b 31 3c
       0.022118954 0.005128273 0.024399268 0.010824951
0001f0 1b 6a 7c 3c 66 1d ab 3a 3a f8 26 bd 41 0b 07 bd
       0.015406157 0.0013055026 -0.04076407 -0.032969717
000200 cd a0 a7 bc 0f 07 ed bc f8 92 9a 3c ab 21 25 3d
       -0.020462418 -0.02893403 0.018868908 0.04031531
000210 af b0 35 3c 18 b0 e9 3c e9 ce c0 3b 79 24 c8 bc
       0.011089488 0.02852635 0.0058840406 -0.024431454
000220 3f e5 59 bd 7e d7 57 bd 61 ec e0 ba 47 d0 bf bc
       -0.05319714 -0.052695744 -0.001716029 -0.023414744
000230 7a d1 31 bd a3 13 88 bc 2f 72 80 3c 93 f3 e7 bc
       -0.043412663 -0.016610926 0.015679447 -0.028314387
000240 95 7c b2 3c 7b 53 73 3c 37 4d 6d 3d ae a0 26 3d
       0.021787921 0.014851446 0.057934966 0.04068058
000250 ae 16 bf 3c 14 ac f0 bb bb 04 0e 3d 77 35 9d 3c
       0.023326244 -0.007344732 0.03467248 0.019190533
000260 7c 57 15 3d 4d 4e 6e 3c 3e b1 68 bd f0 e1 5a bd
       0.036460385 0.014545036 -0.056809656 -0.053438127
000270 9a 8d 80 bc e5 09 4e bd 93 2c 68 bd e6 06 86 3d
       -0.01569252 -0.050302405 -0.056683134 0.065442845
000280 63 d2 b2 3c 0d 17 23 bd 7a ff a4 bc 6a 58 ee bc
       0.021828836 -0.039816905 -0.020141352 -0.029094893
000290 ed 88 cc 3c 2c 38 99 bb 10 05 e1 bc 7e 71 bb 3c
       0.024967635 -0.0046758857 -0.027468234 0.022881266
0002a0 27 70 71 3d 9a c7 0e bd d9 85 4f 3c c2 fd df 3c
       0.058944847 -0.034858324 0.012666189 0.02734268
0002b0 62 b3 1c 3d f1 25 6a 3c a6 17 1d 3a 16 28 c7 3c
       0.03825701 0.0142912725 0.00059925986 0.024311107
0002c0 49 70 24 bc 87 a6 49 bd bd 6d c4 bc 53 95 f8 bc
       -0.0100365365 -0.04923108 -0.023978109 -0.03034464
0002d0 c8 5e 25 3d c9 0a 64 bd 1b 1b 2c bd 5d 7d 41 bc
       0.040373594 -0.055674348 -0.042018037 -0.011809674
0002e0 f2 48 03 bd 55 80 01 bd f7 8d 06 be 03 5a 9b bd
       -0.032051988 -0.031616528 -0.13140093 -0.07585528
0002f0 41 d6 28 bd ec 7e 5c 3d 60 90 38 3b 2e f0 1b 3a
       -0.041219953 0.05383198 0.0028162226 0.00059485703
000300 78 46 37 3d 4e 09 01 bc 87 2f 64 bd 07 e8 88 bc
       0.04474494 -0.007875754 -0.055709388 -0.016712202
000310 1c c2 9f bd 9c 43 62 bd d7 72 99 bb ed 2a 5c 3d
       -0.07800695 -0.05524026 -0.0046828794 0.053751875
000320 e8 54 ad bc 0a bf 0e 3d d4 87 dd 3c 06 96 9e 3c
       -0.02115865 0.034850158 0.027042307 0.019358646
000330 b8 79 a3 3d 84 f0 0f 3d 9f e8 d2 3d ae 8c c4 3c
       0.079822004 0.035141483 0.10298275 0.023992863
000340 21 80 02 3d 1a aa 02 3d da db dd b7 72 5c 87 3c
       0.031860474 0.031900503 -2.644763e-05 0.016523574
000350 0c 15 82 bc bf 7b 6d 3c cd 75 b5 3c 5e e8 1c bd
       -0.015879177 0.014494835 0.022150898 -0.03830754
000360 88 0b 67 ba 0b 78 ec bb a1 71 3b bc 12 c8 ed bb
       -0.0008813669 -0.0072164587 -0.011440665 -0.0072565163
000370 33 9a a9 bc 70 4f 6c bd 42 df 74 bc e9 8b 92 3c
       -0.02070341 -0.057692945 -0.014945807 0.01788898
000380 61 9b ff 3a 2a c5 56 bb 67 07 b2 bc d2 47 c8 bc
       0.0019501263 -0.0032771328 -0.021732045 -0.02444831
000390 44 54 92 bb 05 57 a2 3c 05 f4 1a bd 19 40 de bd
       -0.0044656117 0.019816885 -0.03783037 -0.108520694
0003a0 83 b7 50 bd 4f a9 90 bc 61 ae 65 3d 60 dd 6d 3d
       -0.05095626 -0.017658858 0.056074504 0.058072448
0003b0 53 2b 18 bd e8 0a 01 3d 3d 9d 09 3d 21 bf 05 bd
       -0.037150692 0.03150454 0.03359722 -0.032652978
0003c0 d0 9d 37 3d 46 a2 2b bc 8a 7e 88 3c d6 e4 93 3d
       0.044828236 -0.010475701 0.016661901 0.07221381
0003d0 9f 71 07 bd 92 ab 12 bd 4a b2 7c 3d 17 bf 5f bd
       -0.033067342 -0.035808153 0.061693467 -0.054625597
0003e0 d2 02 17 bd ec 26 89 3d 69 2c d1 bc 7c fb ca bd
       -0.036867924 0.06696877 -0.025533872 -0.09911248
0003f0 e9 35 8c bd 72 45 2f bc 43 6a 16 bd 4b 80 6f bd
       -0.0684622 -0.010697709 -0.036722433 -0.05847196

body.block3.conv.bias f4 [32]
000000 96 99 1e 3d ca 10 f7 bc e1 a7 1c 3d 02 2a 66 bd
       0.03872069 -0.030159373 0.03824604 -0.056192406
000010 e7 35 09 3c 48 97 c8 bd fe fd 89 ba 09 07 06 3d
       0.008374668 -0.097944796 -0.0010527966 0.032721553
000020 10 35 93 bd 4a 2e 0e 3b eb 1b b5 3c ee d5 aa 3c
       -0.07187855 0.002169507 0.022108039 0.020853963
000030 ee b9 8a bc 70 de 78 bc bb fd c5 3c c6 9a 28 bd
       -0.016934361 -0.015189752 0.02416884 -0.04116323
000040 86 85 e7 3b f6 06 0f 3d ba b9 3f 3d 43 5e ea 3b
       0.007065478 0.034918748 0.046807982 0.00715235
000050 cc f7 80 bd bb 36 86 bd ee 89 e5 bc ef c0 69 bd
       -0.062972635 -0.06553408 -0.028019872 -0.05706876
000060 72 ce 88 bd 5e 89 2d bd 18 c7 88 bd 41 f7 27 3d
       -0.06680001 -0.04236733 -0.06678599 0.041007284
000070 71 c8 2d bd 28 b9 d9 3c 41 0a 8d bd 0c 4c 93 ba
       -0.042427484 0.026577547 -0.068867214 -0.0011237874

body.block3.norm.weight f4 [32]
000000 35 b4 68 3f fd 5d 8b 3f b9 dd 73 3f 09 ba 73 3f
       0.90899974 1.0888058 0.95260197 0.9520574
000010 fa f6 6d 3f b8 db 67 3f 72 f9 81 3f d5 4a 72 3f
       0.9295498 0.9056964 1.015425 0.94645435
000020 2b 34 7a 3f 75 12 68 3f 9f 67 86 3f 55 0f 7f 3f
       0.9773585 0.90653163 1.0500373 0.9963277
000030 aa 08 78 3f b6 b1 67 3f 81 db 69 3f fb 12 68 3f
       0.9688822 0.9050554 0.9135056 0.9065396
000040 25 05 74 3f 9b 83 71 3f cf 39 69 3f 08 82 70 3f
       0.9532035 0.9434144 0.91103834 0.9394841
000050 c7 b7 72 3f 16 26 5d 3f 5e 58 82 3f dd b7 81 3f
       0.9481167 0.8638624 1.0183218 1.0134236
000060 86 dd 78 3f 31 6a 6d 3f 83 7b 6b 3f 78 61 69 3f
       0.9721302 0.9274016 0.9198534 0.9116435
000070 89 1d 5d 3f 79 18 71 3f bc 2d 6a 3f df 69 6b 3f
       0.8637319 0.9417797 0.91476035 0.9195842

body.block3.norm.bias f4 [32]
000000 91 5b 51 be b6 44 a4 be 6b 83 59 bd e0 7f 14 be
       -0.20445086 -0.32083672 -0.053103846 -0.14501905
000010 58 26 32 be 63 8e c9 bc 6c 99 d3 bd e6 13 51 be
       -0.1739744 -0.024604028 -0.10331997 -0.20417747
000020 85 98 22 be c0 ec 95 bd 59 bb 1e be 60 ed 1b be
       -0.15878494 -0.07320547 -0.15501155 -0.1522727
000030 4a b2 b8 bd f0 f5 25 be 90 58 43 be 62 c8 a8 bd
       -0.09018381 -0.16207099 -0.19076753 -0.08241345
000040 42 5c ef bd 39 0b ba bd ce 1a 26 be c6 02 84 be
       -0.11687519 -0.09084172 -0.16221163 -0.25783366
000050 44 98 15 3c d3 bc 42 bd 6c 2e 93 be 1c 3a cc bd
       0.009130541 -0.047543358 -0.28746355 -0.09972021
000060 13 ca 83 be 9c 15 74 bd cb 9b a7 be 58 b4 ee bc
       -0.25740108 -0.05959092 -0.32736048 -0.029138729
000070 80 dd b4 bd 1f 9f 4c be 40 39 ef bd bf dc 09 be
       -0.0883131 -0.19982575 -0.116808414 -0.13463114

body.block3.norm.running_mean f4 [32]
000000 5c c0 f1 be ba 71 2a be e3 ee 4f 3d b9 7c db be
       -0.4721707 -0.16644946 0.05076493 -0.42868593
000010 89 a3 d5 be 88 6b 1b be da 3f d0 be c8 0f 32 bd
       -0.4172633 -0.15177739 -0.40673715 -0.04347208
000020 f6 bb c1 be 10 9c c3 bc 0e cd de 3d 2e 94 0e be
       -0.37838715 -0.023878127 0.10878955 -0.13923714
000030 b1 d5 b6 bd 39 12 05 bf 27 a2 25 bd e5 89 93 bf
       -0.08927477 -0.5198093 -0.040437844 -1.1526457
000040 ae 73 8d 3e 98 a9 a8 be 75 08 1d bf 41 77 fa be
       0.2762732 -0.3294189 -0.6134103 -0.4891911
000050 c5 65 8d bf 38 6e 12 bf 8d 0c 3f bd ff e7 72 be
       -1.1046683 -0.5719943 -0.04664283 -0.23721312
000060 ae 99 30 be 0c 11 49 bf 1d db 34 bf 94 f2 ef be
       -0.17246124 -0.78541636 -0.7064684 -0.4686476
000070 3f e0 24 be 24 48 7f bf 16 0d 26 bf 54 ab ae 3d
       -0.16101168 -0.9971945 -0.6486372 0.08528772

body.block3.norm.running_var f4 [32]
000000 c2 9f 62 3e d8 c9 65 3e aa 0b 32 3f cc 83 06 40
       0.22131255 0.22440279 0.6954905 2.1017942
000010 e1 fa a7 3e c3 11 2f 3f 9a 55 89 3f 5a cd 8d 3f
       0.32808593 0.6838648 1.0729249 1.1078293
000020 13 5e f7 3f 2f a7 5b 3f 43 15 58 3f 41 d1 d2 3f
       1.9325584 0.85801977 0.8440744 1.6470109
000030 bd 65 11 40 06 73 05 3f ed e3 00 3f e7 5f a9 3f
       2.2718346 0.52128637 0.5034779 1.3232392
000040 3e 3e ab 3f f8 25 0c 3f 8d ab cf 3e 7f 61 58 3f
       1.337837 0.54745436 0.4056057 0.8452377
000050 32 5d 38 40 66 1e fd 3e 24 7e 88 3f 4c 08 21 3e
       2.8806882 0.49437255 1.0663495 0.15725821
000060 5d f0 8c 3f 57 97 5e 40 6b 24 8a 3e 0c 9b 8f 40
       1.1010853 3.477987 0.2698091 4.4876766
000070 3b a2 6b 3f af ac ed 3e dc 2e 92 3f 99 ab 3e 3f
       0.9204442 0.4642081 1.142055 0.7448059
