TrainedModels/0035-sample/scale_factor=0.850000,alpha=10/5/netD.pth (torch, 467478 bytes, 25 tensors)

head.conv.weight f4 [64, 4, 3, 3]
000000 0c b8 1b bd 0e 17 70 3d 4b 0a 5e 3d 5d 98 1b bd
       -0.038017318 0.058615737 0.054209035 -0.0379871
000010 ab 4d 09 3d f6 ff 9d 3c 72 23 0b bb 16 9f d2 3c
       0.033521336 0.01928709 -0.0021230844 0.025710624
000020 36 b8 a2 bb ac 90 01 3d f7 dc 9c 3d 2e 10 ce 3d
       -0.0049658073 0.03163211 0.07659333 0.1006168
000030 46 fb c4 3c 9e 92 36 3c c5 85 a4 3d b2 ae d5 bb
       0.024045598 0.011143355 0.08033327 -0.0065210694
000040 d3 33 3e 3c 36 16 29 3d 3d bf 1b bd ba 7a 09 bc
       0.011609036 0.041280948 -0.038024176 -0.008391077
000050 f8 f4 98 3c ba c3 e9 bd 2c fe e7 bc 50 80 5e 3c
       0.018671498 -0.11414285 -0.02831944 0.013580397
000060 75 57 0d be 11 47 a2 bd 90 21 53 bd 47 fa e7 3a
       -0.13802893 -0.07923711 -0.05154568 0.001769849
000070 3a 46 80 bb 3e f0 52 3a b2 b6 02 3c 80 ea 82 3d
       -0.0039146217 0.0008046663 0.007978128 0.063923836
000080 21 d9 74 bc 12 cf 10 bd 52 e7 b6 bb d6 4c 31 3c
       -0.014944346 -0.035353728 -0.0055817747 0.010821542
000090 d0 d2 ec bc c5 59 b0 bc fd c1 2f bc 51 19 9d 3d
       -0.028909117 -0.02152718 -0.010727403 0.07670844
0000a0 12 b7 16 3c 47 11 47 bc f4 b9 a6 3d db 28 dd 3c
       0.009198921 -0.012150115 0.081409365 0.02699702
0000b0 fc 21 df bc 7a cc 8c 3d db 3d 8f 3c 85 41 fc 3c
       -0.027237885 0.06874938 0.01748555 0.03079296
0000c0 8c 22 ec 3d ac 21 40 bc 68 ed 1f 3d 11 54 60 3d
       0.11530027 -0.011726778 0.039044768 0.054767672
0000d0 ed e9 9c bc e0 0e db 3b a1 92 16 bd 68 ac 81 bc
       -0.019154513 0.006685123 -0.03676093 -0.01582928
0000e0 ed 77 5d bd 28 00 10 3d 63 21 7d bd c1 d5 13 bc
       -0.05406945 0.0351564 -0.06179942 -0.009023131
0000f0 a6 03 29 3d ea 99 aa bc cd a3 3a bc 03 f4 dc 3d
       0.041263245 -0.020825345 -0.011391592 0.10788729
000100 bd d7 fa b9 56 79 82 bb d8 6d cf 3c bc 5a 5a bc
       -0.00047844453 -0.0039817495 0.025320932 -0.013327297
000110 ec 82 75 3d a7 33 3b 3c de 6a 97 3c ff 71 cd 3d
       0.05993931 0.011425889 0.018483575 0.10031509
000120 92 a0 81 bd d1 ec 73 3a bf 05 73 bd 73 0c 0b bd
       -0.063294545 0.0009305003 -0.05933165 -0.03394742
000130 22 64 59 bd e4 8f 35 bd 8b 19 00 3c 92 dd 38 3b
       -0.05307401 -0.044326678 0.00781859 0.0028208238
000140 53 6e e8 bc 07 45 a1 bd 6e 15 6c 3c 0d 8f 8c 3d
       -0.02837292 -0.07874494 0.014409406 0.06863222
000150 02 db 66 3a 84 85 07 3d 0b 90 00 3d 8d 23 3c 3d
       0.00088064384 0.033086315 0.03138737 0.04593234
000160 56 d9 01 3d d0 9d 5a 3d fc 96 9e bd ad 89 cd bc
       0.03170141 0.053373158 -0.07743642 -0.025090063
000170 06 d4 e5 3c fc b9 2f bc 83 28 86 bc 39 3e 01 3d
       0.028055202 -0.0107254945 -0.01637674 0.03155348
000180 26 3c cf 3c d8 46 57 3b 6f 71 0c 3d c5 a9 aa bc
       0.025297236 0.0032848623 0.034287866 -0.020832906
000190 2a be 47 3d c3 a4 b9 3c fa c2 82 bd 19 6a a6 3d
       0.04876534 0.022661572 -0.06384845 0.08125705
0001a0 02 74 0b 3d ac c0 c5 bb 25 fb da 3d 60 cc ba 3c
       0.03404618 -0.006034931 0.10692433 0.022802532
0001b0 de 52 0c bd 2b 6d 67 3c 4c a2 b5 3a 3d ad 4b 3c
       -0.034258716 0.014125149 0.0013857572 0.01243144
0001c0 20 1f f9 3c 02 08 c9 b9 7f 51 14 3d 96 93 23 bc
       0.03041035 -0.00038343674 0.036210533 -0.009983918
0001d0 ad 95 47 3d 49 21 04 bd 56 77 2f bc f5 3c a1 3c
       0.048726726 -0.032258306 -0.010709604 0.019682387
0001e0 71 67 11 3c 22 87 1d 3d 34 92 36 3b 7c 57 c4 3c
       0.00887476 0.03845895 0.002785814 0.023967497
0001f0 d3 d2 0c 3d 77 71 08 3d 2e 4c 97 bd f7 1c b3 bc
       0.034380745 0.033311334 -0.07387577 -0.021864397
000200 4e ee a4 bc 2a 71 e0 bc 8a d0 96 3c 4c da 03 3d
       -0.020133164 -0.02739771 0.018409986 0.032190606
000210 e5 40 8c bc d1 55 92 bc 1b e7 2e 3d 82 90 6d bd
       -0.017120788 -0.017863186 0.042700868 -0.05799914
000220 11 81 4c 3c b6 ca 51 3d 59 da dd 3c c1 a5 5e 3d
       0.012481944 0.05121871 0.027081655 0.054357294
000230 2a fa 66 bd 5b 10 10 bc 33 e3 e6 3d 70 03 77 bd
       -0.05639092 -0.008792962 0.112738036 -0.060306013
000240 74 53 a1 bc 21 1d 2d 3d 02 3a 3c 3d 3c ee c3 bd
       -0.019693114 0.042264108 0.045953758 -0.09566924
000250 71 78 e7 ba 2e bc 8c 3d 1a 62 7c bd c1 0a 2a 3c
       -0.0017659796 0.0687183 -0.061616994 0.0103785405
000260 12 63 27 3d 61 a6 a2 bb e2 86 6b 3d 30 50 e9 bc
       0.040865965 -0.0049636816 0.05750168 -0.02848062
000270 a5 6c 59 bd ce fb dc bb 46 ab dd bc cc 65 07 bd
       -0.053082127 -0.0067438846 -0.027059209 -0.033056065
000280 e9 3b ac bb 95 1f 3c 3d 3d 2d f7 3b 0e db 0f 3d
       -0.0052561653 0.045928556 0.0075432346 0.035121016
000290 e2 1b f8 3c f6 80 09 bd 47 24 0c 3d c3 a1 62 3c
       0.030286733 -0.033570252 0.034214284 0.013832512
0002a0 7a 64 06 bd 53 a1 b8 bb 71 d5 8a 3b 11 8e 59 3d
       -0.032810666 -0.0056344657 0.00423687 0.053114
0002b0 bd e3 cb 3d fb c0 42 3d 7c 71 10 3d 0f ca 46 bd
       0.09955547 0.04754732 0.035264477 -0.04853254
0002c0 b5 c0 75 3b e5 58 18 3d ab 24 80 bd 78 3f 47 bc
       0.0037498896 0.03719415 -0.06256994 -0.012161128
0002d0 b8 4e 4e bc 10 4c ed bc 78 ce af bc 96 44 89 3d
       -0.01259201 -0.028966933 -0.021460757 0.06702535
0002e0 d3 77 b4 bc 24 8e a5 bc fa 42 9c bc fd 4f ec bc
       -0.022029793 -0.02020938 -0.019074906 -0.028846735
0002f0 24 f3 c4 bc 90 5e e3 bc 23 c5 22 3d ec 63 9e 3d
       -0.02404172 -0.027755052 0.039738785 0.07733902
000300 d5 dd b4 3c e7 20 1d bd 77 a0 b6 bc 66 9a 02 bb
       0.022078434 -0.038361456 -0.022293312 -0.0019928454
000310 a4 45 70 3c ea 94 e5 bc 41 9f b1 3b 25 0d 1f 3c
       0.014665041 -0.02802511 0.005420596 0.009707724
000320 7c e7 25 3d fd dd 93 3c ea e0 54 bd c6 9c 9f bc
       0.040503964 0.018050188 -0.051972307 -0.019483935
000330 c3 bf 35 b9 c9 03 d3 3c bf 5b cc 3c 4a d2 e4 3c
       -0.00017332942 0.02575864 0.024946092 0.027932305
000340 48 60 c2 bc 7d e0 53 bd 41 4a 37 ba 00 ee 92 3d
       -0.023727551 -0.05172776 -0.00069919607 0.07174301
000350 53 fd 2e 3d 09 28 b6 bd d6 ed 95 3c 78 b0 38 3d
       0.042722058 -0.08894355 0.018301886 0.04509017
000360 05 6b 8c bc e8 b0 0f 3c 96 e5 af bb 24 f9 f3 3a
       -0.017140875 0.008770205 -0.005367945 0.0018613678
000370 25 de 2b bc 7b 6c 6a 3a 06 0c 99 3c 53 73 82 3a
       -0.010489975 0.00089425565 0.018682491 0.0009952582
000380 4b 1c b4 3c 27 e7 a4 3b 4d 9e 00 bc 9c 99 95 3b
       0.021986147 0.0050324383 -0.007850242 0.004565431
000390 42 cf 3e 3c b7 7b cf 3a 4c 30 45 3b e9 97 86 bc
       0.011646094 0.0015829717 0.0030088602 -0.016429858
0003a0 53 cd 0b bc 04 15 a2 3b d6 ce 53 3b c8 c3 29 bb
       -0.00853284 0.004946353 0.0032319329 -0.0025904048
0003b0 cf 77 07 3c 32 c1 64 ba a2 7e bb 3b 43 10 12 bb
       0.008268311 -0.0008726298 0.005721883 -0.0022287525
0003c0 25 5f 28 bc 9a e8 17 3c 4b f8 0f bc 52 35 68 3d
       -0.0102765905 0.009271765 -0.008787225 0.056691475
0003d0 6f 5d 7d bc 40 a7 d3 bd a7 32 2b 3e 69 b7 39 bd
       -0.015464171 -0.10334635 0.16718541 -0.04534093
0003e0 b4 90 13 bd 29 fb 90 bb 85 ab 88 3c d9 0d 13 bd
       -0.03602667 -0.004424472 0.01668335 -0.035901878
0003f0 aa 54 52 bb f9 f0 54 bd aa 39 6e 3c 6b 11 de 3c
       -0.003209392 -0.051987622 0.014540115 0.027107915

head.conv.bias f4 [64]
000000 5c ab b0 bd 75 84 08 3e de b6 9a bd b3 70 d2 3d
       -0.08626434 0.13331778 -0.075544104 0.10275402
000010 f3 46 ee bd 33 d7 54 be dc 68 5d 3c b2 af 82 3d
       -0.11634626 -0.20785217 0.01351377 0.063811675
000020 43 1d 7f 3d 66 ca 1e 3e 50 e1 a5 3d 9b 27 43 3b
       0.062283766 0.15506896 0.080996156 0.0029778245
000030 f6 0b c2 ba 1e 26 e3 bc 69 72 05 be c7 f0 d6 3d
       -0.001480459 -0.027728137 -0.13031925 0.104951434
000040 21 27 11 be 83 9f 4e 3e 45 86 f7 3c d4 c5 9a 3c
       -0.14175083 0.20178036 0.030215392 0.01889316
000050 b6 e3 2d 3d 53 17 eb 3d c3 69 c8 bd a7 78 8e bd
       0.04245349 0.11479058 -0.097857974 -0.06956606
000060 94 fc 94 3b b3 07 25 3d 80 64 90 bd 3a e5 2d bd
       0.004546711 0.040290546 -0.07050419 -0.042454936
000070 32 5c 88 bc 50 98 33 be 3c c7 82 bd e1 99 09 3c
       -0.016645525 -0.17538571 -0.06385657 0.008398504
000080 b8 ce 96 3d d3 79 f5 bd 63 b0 68 bc 2c 7c 2c be
       0.07363647 -0.11986127 -0.01420221 -0.16844243
000090 64 14 72 bd 12 11 54 bd 69 45 f2 bd 21 ce 8d bd
       -0.059101477 -0.051774092 -0.11829645 -0.069240816
0000a0 fe 00 b6 3d 0d 29 57 bd 64 67 a1 3d 9f 69 fc bd
       0.08886908 -0.052529383 0.07881048 -0.12324833
0000b0 21 97 74 bd 16 1f a9 bd a0 fb 20 be 46 9a ff bd
       -0.05971444 -0.08257882 -0.15720987 -0.12480597
0000c0 51 13 8b bd 2c 29 33 3c 24 88 3f bd 8f 29 e1 3d
       -0.06790794 0.010935109 -0.046760693 0.10994255
0000d0 75 b7 39 3e 67 e8 29 3d f8 df 70 bc 97 58 d1 3d
       0.1813639 0.0414814 -0.014701836 0.10221975
0000e0 16 12 c6 bd 75 df 1c 3e 0a cc 2a 3c 5b c0 48 3e
       -0.09671418 0.15319617 0.010424623 0.19604628
0000f0 72 bb e8 bd e3 b1 ec 3d 3b 6b 35 3d ec e3 92 3d
       -0.11363877 0.11557367 0.044291716 0.07172379

head.norm.weight f4 [64]
000000 08 64 8d 3f 4a 1e 61 3f 09 e1 55 3f e2 67 6f 3f
       1.1046152 0.8793684 0.835465 0.9351789
000010 90 02 76 3f af f1 78 3f 2c 01 9c 3f d1 89 75 3f
       0.9609766 0.9724378 1.2187858 0.95913416
000020 16 40 30 3f a8 2b 81 3f e2 15 75 3f 10 29 7e 3f
       0.6884779 1.0091448 0.95736516 0.99281406
000030 8c df 7e 3f af 4b 95 3f 8e 09 42 3f 63 74 5d 3f
       0.99559855 1.1663722 0.7579583 0.8650572
000040 22 4b 4e 3f 5a f8 79 3f 42 72 57 3f 15 c2 8e 3f
       0.80583394 0.9764458 0.8415872 1.1152979
000050 56 ca 48 3f 3f 70 56 3f 50 ac 57 3f 0d e3 7a 3f
       0.7843374 0.83765024 0.84247303 0.980027
000060 b6 b8 4e 3f 67 fa 64 3f 09 f1 7f 3f 3d f5 6e 3f
       0.80750597 0.89444584 0.99977165 0.93342954
000070 01 4e a6 3f 33 2a 8f 3f 55 ab 68 3f 5d 20 96 3f
       1.2992555 1.1184753 0.9088643 1.1728626
000080 df 07 4c 3f 57 4c 92 3f 37 5a 3b 3f a6 19 4b 3f
       0.7969951 1.1429547 0.7318453 0.7933601
000090 92 15 48 3f b0 c4 6e 3f b8 33 7c 3f 85 63 4b 3f
       0.78157914 0.9326887 0.98516417 0.7944873
0000a0 00 f9 73 3f 99 8b 78 3f b1 b6 98 3f 4d f8 59 3f
       0.9530182 0.9708801 1.1930753 0.851445
0000b0 59 17 84 3f 55 e3 57 3f 6f 4d 49 3f de e0 80 3f
       1.0319625 0.84331256 0.7863378 1.0068624
0000c0 53 4f 81 3f 32 8a 75 3f 8d f0 73 3f 07 ee 4d 3f
       1.0102333 0.95913994 0.95288926 0.80441326
0000d0 b7 ab 9d 3f 37 28 92 3f 4b cf 77 3f dc 42 53 3f
       1.2318028 1.1418523 0.9680068 0.82523894
0000e0 71 08 6b 3f fd 72 43 3f f7 e8 89 3f be 5d 7d 3f
       0.91809756 0.76347333 1.077422 0.98971164
0000f0 d1 57 75 3f 94 fc 9a 3f d2 d9 37 3f 42 cb 85 3f
       0.9583712 1.2108331 0.7181674 1.0452654

head.norm.bias f4 [64]
000000 83 9c 23 3c 83 e6 04 be 86 03 84 bd 34 3e f9 3b
       0.009986046 -0.12978558 -0.064459845 0.007606292
000010 43 84 13 3c 9f aa e7 3c c8 db 94 3d 49 76 f0 3d
       0.009003702 0.0282796 0.072684824 0.11741311
000020 41 ac 47 bb a7 14 5d 3d 5d 45 a9 3d 01 32 9e 3d
       -0.0030467662 0.053974774 0.08265183 0.07724381
000030 ee 1c c0 3d 22 5f aa 3e f9 bc 88 3d f7 40 4b be
       0.09380518 0.33275706 0.06676669 -0.19849001
000040 87 75 8c 3c 52 c1 15 be ad 5b 47 bd 52 ed 1c 3e
       0.017145885 -0.14624527 -0.048671413 0.15324906
000050 94 84 d1 3c df d4 1c bd cc 65 d0 3c af e8 b7 3e
       0.025575913 -0.038288947 0.025439166 0.3591971
000060 a9 3b a7 3c 1f ef b3 3d 67 d9 9c 3e bc 76 ab 3e
       0.02041419 0.08785843 0.30634615 0.33489025
000070 db b2 1c 3f 90 e4 6c 3e 4c ae 0e 3e fd 18 9e 3e
       0.6121041 0.23134065 0.13933676 0.3087844
000080 50 de bd bd 33 e4 b2 3c 7d 0a df bc d9 0f b8 3d
       -0.09270918 0.02183733 -0.02722668 0.08987398
000090 90 a0 93 bd 4b e4 73 3c 03 73 9b 3e 41 aa ac bd
       -0.07208359 0.014885972 0.30361184 -0.08430911
0000a0 48 82 3f be 82 8d 1d 3d 8c bb 40 3f 43 38 25 3f
       -0.18702042 0.03846503 0.75286174 0.64538974
0000b0 73 71 13 3f 7b c9 22 bd f8 9c 10 3d 96 a5 a3 3c
       0.57594985 -0.039742928 0.035305947 0.019976418
0000c0 43 d9 3c 3f be 6c e8 bd 71 f1 b9 bd 57 45 01 3f
       0.73769015 -0.11348866 -0.090792544 0.5049643
0000d0 c5 dd 2c 3e b1 3a 3f 3e 4a 14 04 3d 05 07 d9 3c
       0.16881473 0.18674733 0.03224591 0.026492605
0000e0 a8 15 0c 3d 47 a9 28 bb d8 c4 17 3f ea 55 fa bd
       0.03420034 -0.0025735663 0.59284735 -0.12223418
0000f0 d4 43 f4 3e de 28 d6 3e 49 40 22 bd 35 36 57 3f
       0.47708 0.41828054 -0.03961209 0.8406709

head.norm.running_mean f4 [64]
000000 66 5b 5a be 25 29 8a bd 18 a9 5c bd 37 85 1c 3b
       -0.21323928 -0.06746129 -0.053872198 0.0023883113
000010 93 a4 10 be a2 78 39 be 30 10 f3 3b 21 9d 87 3d
       -0.1412528 -0.18112424 0.007417701 0.06621767
000020 54 97 fa 3b b9 8c 14 3e 8e 2c c1 3d aa 44 cb 3c
       0.0076474342 0.14506806 0.09432326 0.024813015
000030 fb c3 fd bd f2 e4 a1 bd ea ca ad be f5 cd 78 3d
       -0.12390896 -0.07904996 -0.33943874 0.06074329
000040 ce 10 05 be d6 97 4c 3e 9b 7a a4 3d 6e a1 37 3d
       -0.12994692 0.19979796 0.08031198 0.044831686
000050 87 19 a6 3d 6b c0 19 3e 19 9a f9 bd 1e 7e 73 be
       0.08110338 0.15014808 -0.12187595 -0.23778579
000060 65 e2 cc ba 47 20 40 3d d4 54 d4 bd fb 69 d2 bd
       -0.0015631436 0.046905782 -0.10367742 -0.102741204
000070 60 5a a8 3c c2 0e 91 be f6 97 a5 be 08 36 7e bc
       0.020550907 -0.28331572 -0.323425 -0.015515812
000080 35 a9 c4 bd 84 89 b4 3e 9c 24 b8 bd 8f c8 d0 be
       -0.09602586 0.35261166 -0.08991358 -0.40778014
000090 e6 65 56 be ac 06 f5 be ca a2 ce bd cf db 1f be
       -0.20937309 -0.47856653 -0.10089643 -0.15611194
0000a0 97 ca f0 bd 99 00 fb 3d 9b 02 44 3d 76 85 cb bd
       -0.11757391 0.12255973 0.047854047 -0.09937565
0000b0 ee b3 e5 3c 0a ee 79 3d 6d fc 91 be 51 94 aa 3d
       0.028039899 0.061018027 -0.28512898 0.0832907
0000c0 06 2c 04 be ac 69 c9 3d 07 98 65 bd 49 a9 08 3e
       -0.12907419 0.098346084 -0.056053188 0.13345827
0000d0 e5 38 aa 3d e5 18 d6 bd 2b 66 55 bd 97 0c e3 bd
       0.08311633 -0.10453967 -0.052099388 -0.11086386
0000e0 fb 4e 40 be 50 b6 8b bd 29 2e f7 bd 8f f1 7a 3e
       -0.18780129 -0.06821883 -0.12069351 0.2450621
0000f0 5f 24 49 be 56 64 b9 3d 3a a8 50 3d 1a 0b 0f 3d
       -0.1964278 0.09052341 0.050941683 0.034922697

head.norm.running_var f4 [64]
000000 aa 94 ae 3b 36 4c cb 3d 43 7d 30 3d db 8c 29 3c
       0.0053277807 0.099266455 0.04308821 0.010348524
000010 81 f2 d1 3c c1 ad 06 3b a9 d8 9a 3b b9 50 1e 3c
       0.02562833 0.0020550343 0.004725535 0.0096628005
000020 08 51 5b 3e 0e a2 60 3b 3e 63 dd 3b 77 3f f8 3b
       0.2141763 0.003427628 0.0067562154 0.007575925
000030 87 7b ff 3c 77 f3 57 3b 29 d0 e1 3d 6c 12 c6 3c
       0.031186832 0.0032951513 0.110260315 0.024178706
000040 e3 90 54 3e e4 2b b2 3b 8b 05 aa 3d 3a fe c5 3b
       0.20758395 0.005437361 0.083018385 0.006042269
000050 b8 de 30 3c 54 b8 3d 3c fd f8 04 3c 80 7b 48 3b
       0.010795288 0.011579592 0.008116004 0.003059119
000060 dd 17 9b 3d 83 c0 50 3b a9 d1 a2 3b 4f d5 98 3b
       0.07572911 0.0031853027 0.004968841 0.0046641002
000070 8c 04 a8 3b af f1 17 3c 98 1f 62 3d 7e b6 a3 3c
       0.005127495 0.00927393 0.05520591 0.01998448
000080 39 19 50 3e b9 57 34 3e 11 12 68 3e bf 82 0b 3e
       0.20322122 0.17611589 0.22663142 0.13624094
000090 fa b2 b4 3d 3c f7 8f 3d 74 6f 45 3b 21 0d 50 3d
       0.088231996 0.07029578 0.0030126246 0.05079377
0000a0 7a 9b 88 3c 47 f8 92 3d c4 80 1c 3b 01 fb 87 3a
       0.0166757 0.071762614 0.0023880461 0.0010374488
0000b0 08 7a cb 3b bf f2 12 3c 01 03 12 3d 20 3b 81 3b
       0.0062096156 0.008969008 0.035647396 0.003943816
0000c0 0d dd 11 3b a6 db dd 3c 66 e4 47 3c e9 f4 1b 3a
       0.0022257 0.027082276 0.0122004505 0.0005949275
0000d0 50 e2 96 3b c5 64 fe 3c fa 1f 96 3b dc e8 bc 3d
       0.0046046153 0.03105391 0.0045814486 0.09224102
0000e0 22 3a 83 3c 3a 78 09 3e 8f 09 38 3b e3 f6 56 3c
       0.01601893 0.13424769 0.002808187 0.013120386
0000f0 5c 16 8a 3a a8 86 0a 3b 01 1f 67 3d 0c 1a 78 3b
       0.0010535228 0.002113739 0.056426052 0.0037857322

body.block1.conv.weight f4 [64, 64, 3, 3]
000000 d1 af 4c bd 6a f8 fe 3b 60 47 66 3d 92 99 fe bc
       -0.04997236 0.007781078 0.056220412 -0.031079087
000010 f5 bf 66 bd 18 9b 01 3c f9 8f ba 3c 79 7a e0 bc
       -0.05633541 0.007910512 0.02277373 -0.02740215
000020 52 72 de bc 9d 39 7f ba 8a 23 7b ba 73 36 11 bd
       -0.027154122 -0.0009736063 -0.0009580186 -0.035452317
000030 c7 00 2e 3d 28 ea 5a 3c c2 ea 6c 3b 47 3e d2 bc
       0.04248121 0.013361491 0.0036150669 -0.025664462
000040 49 98 a8 3d d2 da 7f 3c 56 9c ad bc 13 64 79 3b
       0.08232171 0.015616136 -0.02119271 0.0038054034
000050 03 48 0d bd 9c 93 f3 3c ba c9 37 3b a6 83 23 bd
       -0.034492504 0.029733472 0.0028043822 -0.03992047
000060 a4 e1 08 3c d3 6a 0d bc 10 84 3a bb ec 3c 4d 3d
       0.008354578 -0.008631426 -0.0028460063 0.050106928
000070 45 ea 3f 3a 34 06 08 3d 58 d3 0f bd 9e 43 9b 3c
       0.00073209807 0.03320904 -0.035113662 0.01895314
000080 22 0b 64 bc a9 b7 0b 3d eb d0 64 bd 8c f8 e3 bc
       -0.01391867 0.0341107 -0.055863302 -0.027828477
000090 67 85 a4 3d b8 02 35 3d 9a ab f4 3c 0c 24 2d bb
       0.08033257 0.044192046 0.029866982 -0.002641919
0000a0 60 71 88 3c b0 47 1e bc 08 4f 2a 3d 6f 63 e7 3c
       0.016655624 -0.009660646 0.041579276 0.028245656
0000b0 64 21 e9 3c 3e 55 1c bd b4 7c e1 bd 1b b1 4d bd
       0.028458305 -0.03816723 -0.11010113 -0.05021773
0000c0 31 7c b8 3d ae 49 b9 3b be da 8f 3d 3e bc 2c bd
       0.09008063 0.0056545353 0.07024144 -0.04217171
0000d0 5a 07 2e 3d 51 02 8f bc ef da 3e bd 4b 6b 52 3c
       0.04248748 -0.01745716 -0.04659551 0.012842963
0000e0 1a be 9f 3c 43 84 b8 3d 2d 89 46 3d 47 5e a8 3c
       0.019499827 0.09009602 0.048470665 0.020552767
0000f0 de 94 f2 3c 84 69 31 3d 74 c3 99 bd 03 27 e0 3c
       0.029612001 0.04331352 -0.07507983 0.027362352
000100 80 57 22 3d 8e 12 d1 bb 83 b3 d0 bc 17 1e f2 3b
       0.039634228 -0.0063803857 -0.025476223 0.007388841
000110 10 17 fa bc cc 08 e3 bc b2 36 65 bd e8 66 27 bd
       -0.030528575 -0.027714156 -0.055960365 -0.040869623
000120 a8 5c 0c 3d 7a 15 1e 3c 2a 36 95 bc 47 f9 38 3d
       0.03426805 0.009648675 -0.018214304 0.045159604
000130 34 43 3e 3d a3 47 ac 3c 9c 7d d5 3b 99 8a 92 3d
       0.04645081 0.021030253 0.006515218 0.07155342
000140 15 22 27 3d ef 06 11 3c f3 e2 27 bd 35 7e 89 3c
       0.040803988 0.008851751 -0.04098792 0.016783813
000150 65 72 78 bc b4 1a 90 3d f9 ec 52 bc c6 7b 2c bd
       -0.0151639925 0.07036343 -0.0128738815 -0.042110227
000160 9a d1 00 bc 78 30 d1 3c 2b c5 0f bc f7 70 89 bc
       -0.007862473 0.025535807 -0.008775036 -0.016777499
000170 5f 87 d5 ba 6a ef aa 3c cb f1 e8 ba b3 5c c2 3b
       -0.0016290954 0.020866115 -0.0017772255 0.0059314608
000180 d4 54 ac bc de 6b 5a 3d 39 92 c9 bc 07 a0 35 bd
       -0.021036543 0.053325526 -0.024605857 -0.044342067
000190 ba 30 0f bb 99 08 27 3d d0 ea 48 bd 6b 8a c8 bc
       -0.0021849112 0.040779684 -0.04905206 -0.024480065
0001a0 1d 36 18 bc 91 20 8d ba 86 80 21 3d 36 33 aa bc
       -0.009290245 -0.0010767152 0.03942921 -0.020776372
0001b0 14 e0 8d bd 54 88 0a bd 88 1d 30 bd 2d f3 fd bc
       -0.06927505 -0.03382142 -0.042996913 -0.030999744
0001c0 10 fe 26 bd 8c a1 04 bd fb d9 1d bd 03 40 e9 3b
       -0.040769637 -0.032380626 -0.03853796 0.0071182265
0001d0 6d 4b 59 bd 5b 0e 92 bc ef 71 c9 3c a7 40 c8 3d
       -0.053050447 -0.01782911 0.02459046 0.097779565
0001e0 38 90 70 bc 6f b0 dd 3c f3 5c c1 3a 2b a0 fd bc
       -0.014682822 0.02706167 0.0014752432 -0.030960163
0001f0 39 26 a2 3c fd 60 26 3e 22 af 5e 3b 14 c8 50 3d
       0.019793617 0.16247936 0.00339789 0.05097206
000200 ed ed 0f 3c c3 5e 18 3d 76 65 5e 3d 0e 88 c6 3b
       0.008784753 0.037199747 0.05429598 0.0060586995
000210 57 92 ff bb 74 da 0e 3d 1a 2e 6d bc 28 37 3c ba
       -0.0077994275 0.034876302 -0.0144763235 -0.000717985
000220 95 bc b5 3c 15 6a 1d 3d af b5 4b 3d 35 8d ee 3c
       0.02218465 0.038431246 0.049733814 0.029120067
000230 e0 c1 0b 3c 32 7b 86 bb 56 54 f4 3c 20 51 8b 3d
       0.00853011 -0.0041040415 0.02982537 0.06802583
000240 17 6f 18 3d 54 9d 21 3d 79 8e 1b 3c 01 a4 65 3b
       0.03721532 0.03945668 0.009494417 0.003504038
000250 66 6a 0c 3d 85 8e d1 3c ea 60 1c 3d dc 00 35 3d
       0.034281157 0.025580654 0.038178362 0.044190273
000260 1b 05 92 3c 22 03 43 3c 43 bc 6e bd 69 9d 07 bd
       0.0178247 0.011902602 -0.05828501 -0.033109102
000270 e1 f4 1d bc d3 72 00 bd 58 20 b1 bd e1 5e cf 3d
       -0.009640903 -0.031359505 -0.08648747 0.101255186
000280 38 5b 05 bd 40 28 99 bc 75 cc f3 3c 84 24 1c bc
       -0.032557696 -0.01869595 0.029760579 -0.00953019
000290 12 22 4b bb ff bc d8 bb 55 6f a6 3c d6 72 2e bb
       -0.003099565 -0.006614327 0.02031676 -0.002661874
0002a0 2f 48 ba 3a c8 3d 08 3d 33 39 35 bd cb ee 43 bd
       0.0014212186 0.033262044 -0.044244003 -0.047835153
0002b0 b4 3b 97 bc 1b c7 47 3d 81 ed 9d bd b1 26 d8 3d
       -0.018461086 0.048773866 -0.07711316 0.10554255
0002c0 98 a4 7f 3c a6 01 1d 3d 66 d3 a3 3d e4 04 21 3e
       0.015603207 0.03833165 0.079993054 0.15724522
0002d0 83 65 12 3c 04 46 31 3d 90 fb 68 3b 9d 11 46 3c
       0.008935335 0.043279663 0.0035550334 0.01208916
0002e0 82 9e 3d 3a d9 a6 89 3a d4 13 06 bc a7 4c 9c bb
       0.00072333973 0.0010501995 -0.008183438 -0.00476988
0002f0 39 20 52 3c ac 07 6b 3c 52 b7 01 bb 2a 21 bf 3c
       0.012825065 0.014345091 -0.0019793105 0.023331244
000300 95 b6 05 3c e1 65 1e bd f1 2d b0 bc e0 93 00 3d
       0.008161207 -0.038671378 -0.021506282 0.031391025
000310 6f 11 6d 3c a2 77 c4 3c 9d 16 c2 bc f0 38 a0 bb
       0.0144694885 0.023982827 -0.023692423 -0.0048896
000320 18 0b 4f bd 0d c6 5d bc eb 5e 0b 3d bb 7f 19 ba
       -0.05054769 -0.0135359885 0.034026068 -0.000585552
000330 a9 6f 9f 3c 3f f5 14 3d a5 5c d7 3b ba 3a 22 bb
       0.019462423 0.036366697 0.0065723234 -0.0024754242
000340 8f 1a bf 3a 0c 63 0f 3d ae d7 e7 bc da 83 f9 3c
       0.0014580059 0.035006568 -0.028301086 0.03045838
000350 eb 38 28 3b 22 f1 3c bc be ac d3 bb 31 75 11 3d
       0.0025668691 -0.0115321 -0.0064598015 0.035512153
000360 ec de 73 3d 29 aa 3e 3d 3c dc d0 3c 5d e7 92 bc
       0.059538767 0.046548996 0.025495641 -0.017932588
000370 63 63 4e 3d d4 45 20 3d f0 bf 12 bd b5 23 d4 3c
       0.05038775 0.039129093 -0.035827577 0.025895933
000380 c8 c7 be bb cf 89 a4 bc 2c d1 1d bd 2d 64 12 bd
       -0.0058221556 -0.020085244 -0.03852956 -0.035740066
000390 be 99 3b 3d 93 f3 bc 3b 4a 9c 30 3d f6 9d 8f 3d
       0.045800917 0.005766341 0.0431178 0.070125505
0003a0 1f d9 45 bd 07 2d 59 bd db 60 c2 bd a0 99 44 bd
       -0.048302766 -0.053021457 -0.0949113 -0.04799807
0003b0 db 57 a0 3c ad 54 6c b9 27 66 44 bc d7 d0 0f 3e
       0.019573143 -0.00022538258 -0.011987246 0.1404451
0003c0 3b e8 5b bd e1 3c 10 3d c4 8f a8 3d 34 30 14 bd
       -0.05368827 0.03521431 0.08230546 -0.036178783
0003d0 e9 f4 4d bd ac a5 85 3c 54 e0 55 3d fc 99 26 bd
       -0.050282393 0.01631435 0.05221589 -0.040674195
0003e0 16 cb bc 3b 8f 9c 6e 3c a9 9e be bc f9 ca ea bc
       0.0057615144 0.014563694 -0.023269014 -0.028661238
0003f0 f4 b9 cf 3c 77 fd 66 bc d0 8c a5 3c eb c7 3c 3d
       0.025357224 -0.014098517 0.020208746 0.046089094

body.block1.conv.bias f4 [64]
000000 e8 f6 67 3a f1 9d 45 39 06 9e d5 bc 62 df a4 3c
       0.00088487426 0.00018846222 -0.026076328 0.020126048
000010 2c e3 5e bc 41 e7 bb 3c 19 da 05 3d 11 f6 5c 3c
       -0.013603967 0.022937419 0.032678697 0.013486401
000020 05 35 d7 3c c2 1d dc bc b8 2e f7 3c 25 fe af bc
       0.026270399 -0.026869658 0.030173644 -0.02148349
000030 0c 33 1a 3d b5 9e c8 3c 5f d5 81 3c 7e 1a e1 bc
       0.03764634 0.02448974 0.015848814 -0.027478453
000040 12 c4 92 bc 19 44 cc bc 57 10 10 3d 1f ad 30 bd
       -0.01791576 -0.024934815 0.035171833 -0.04313385
000050 d5 4a 0e 3d 4c 15 64 3c e9 e5 9f bb cc b8 0c 3d
       0.034739334 0.013921093 -0.0048797023 0.034355924
000060 12 68 7c 3c d7 dc 9b 3c 25 a2 1c 3d 3f 98 ff 3b
       0.015405672 0.019026203 0.03824057 0.0078001316
000070 bd 78 8a bc 7a 28 34 3d bb 77 10 3d 25 9f 17 bd
       -0.016903276 0.043983914 0.035270434 -0.037017006
000080 db 64 03 3d b0 89 bf bb 20 91 0e bd e2 be ef 3c
       0.032078605 -0.005845271 -0.03480637 0.029265825
000090 cd 43 ae 3c a0 e3 01 3d db 24 d0 bc b1 18 48 bc
       0.021272564 0.03171122 -0.025408199 -0.012212918
0000a0 7a fc a5 3b 95 5d a2 3c d0 af 57 bc 53 4f 29 bd
       0.005065498 0.019820014 -0.013164476 -0.041335415
0000b0 9f b1 64 3c 59 8a f0 3c 21 ad a3 bc d4 f1 bc 3c
       0.013958364 0.029362844 -0.019980015 0.023064531
0000c0 41 61 fd 3c 8c 55 fb bc bc 84 0f bc c8 7a f6 bc
       0.030930163 -0.03068044 -0.008759674 -0.030087844
0000d0 e7 e3 1c bd 9e 04 ca 3b c0 6f a8 3c da c6 a9 bc
       -0.038303282 0.006165101 0.020561099 -0.020724703
0000e0 8e cc 17 bc 39 cd 17 3d 67 d2 88 3c 62 b2 87 3c
       -0.009265078 0.03706095 0.01670189 0.016564552
0000f0 24 6f 92 bc 67 ea 52 3b c2 54 87 bc 10 ae 1d 3d
       -0.017875262 0.0032183172 -0.016519908 0.038496077

body.block1.norm.weight f4 [64]
000000 14 0c 7f 3f c3 10 86 3f a5 a6 5b 3f 12 21 80 3f
       0.99627805 1.0473865 0.85801154 1.0010092
000010 e1 f6 61 3f 90 d6 7c 3f fe ae 58 3f 41 b4 84 3f
       0.8826733 0.98764896 0.84642017 1.0367509
000020 36 aa 8d 3f b6 8e 83 3f 30 cd 7c 3f 1f 9b 88 3f
       1.1067569 1.0277927 0.9875059 1.0672339
000030 17 36 6a 3f 4a 8b 8f 3f 6d e8 86 3f 07 57 7b 3f
       0.91488785 1.1214383 1.0539681 0.9817967
000040 bc 1a 61 3f 24 3f 8f 3f c2 52 65 3f 30 b4 81 3f
       0.8793142 1.1191144 0.89579403 1.0133114
000050 76 0a 8b 3f 5c 78 76 3f 14 f3 88 3f 73 6d 7b 3f
       1.0862567 0.96277404 1.0699182 0.9821388
000060 b3 d4 8d 3f 17 59 78 3f 08 b6 87 3f ee 74 60 3f
       1.1080536 0.9701094 1.0602427 0.8767842
000070 8e c5 5f 3f ac 34 6e 3f 70 d3 74 3f 37 06 6b 3f
       0.8741082 0.9304912 0.9563513 0.9180636
000080 e8 16 6e 3f 42 c1 91 3f 21 7a 6f 3f 2e 73 84 3f
       0.930037 1.1387103 0.9354573 1.034765
000090 d4 0c 8e 3f cd 7e 67 3f 1d 28 74 3f a5 77 80 3f
       1.1097665 0.9042786 0.9537371 1.0036513
0000a0 68 98 75 3f f7 59 7e 3f 15 67 70 3f 42 9e 66 3f
       0.9593568 0.99356025 0.9390729 0.9008523
0000b0 d4 47 8c 3f 20 0b 83 3f bf e5 64 3f ab 99 80 3f
       1.095942 1.023777 0.89413065 1.0046896
0000c0 44 38 79 3f 70 85 77 3f e4 e1 7b 3f 9f 09 80 3f
       0.9735148 0.96687984 0.98391557 1.0002936
0000d0 63 00 7f 3f 1e 9b 6e 3f c5 81 61 3f ea 8c 8e 3f
       0.99609965 0.9320544 0.8808864 1.1136754
0000e0 7a de 7c 3f da 51 88 3f 0c d0 7b 3f ff 20 85 3f
       0.9877697 1.0649979 0.9836433 1.0400695
0000f0 11 a8 87 3f ae a3 89 3f 07 86 62 3f 66 1f 83 3f
       1.0598165 1.0753076 0.8848576 1.0243957

body.block1.norm.bias f4 [64]
000000 07 a3 c8 3d 11 1f 65 3e b9 a8 e3 bd eb ec 1b be
       0.0979672 0.22375132 -0.11116166 -0.15227096
000010 4e f6 d7 bc f7 05 cc 3e 84 26 8f bd f0 f1 35 3e
       -0.026362564 0.398483 -0.06989768 0.17768073
000020 5a 3f 5b 3e b4 c2 8d 3d b8 a5 1d 3e 6c bb e1 bd
       0.21410885 0.06921902 0.15395248 -0.11022076
000030 9d 18 c4 bc 49 f4 96 3e 7e 4a 2e 3e 0f 63 27 be
       -0.023937518 0.2948325 0.17020604 -0.16346382
000040 c8 5b ff 3d d5 bd 78 3e 0a 85 9c 3d 3a 94 06 be
       0.12468678 0.24291165 0.07642563 -0.13142481
000050 5a 93 50 3e 69 a4 a8 bd 83 f6 5c 3d 11 e1 d5 3b
       0.2036871 -0.08234484 0.05394603 0.006527074
000060 99 65 e1 3d 2b 07 1e 3e e6 ee 98 3e e5 d8 8e bc
       0.11005706 0.15432422 0.29869765 -0.017437408
000070 6a 8c c1 3c 11 d6 c0 3e 96 5e cd bd bf 5a a4 3d
       0.023626525 0.3766332 -0.100278065 0.08025121
000080 37 84 09 be 60 89 d5 3d 62 ef c7 3b f6 79 ac 3e
       -0.13429342 0.10426593 0.0061015347 0.336868
000090 e3 39 94 3e c9 c8 1f 3f 76 2e 54 bd 59 1b 25 be
       0.28950414 0.6241575 -0.05180212 -0.16123714
0000a0 15 69 04 3e da 53 d8 3a 2a dc ee 3b 18 b4 a3 3e
       0.1293071 0.0016504482 0.007289429 0.31973338
0000b0 68 6f 31 3e 76 41 86 3e 15 76 55 3d 68 fb 50 3e
       0.17327654 0.26221818 0.052114565 0.20408404
0000c0 8a a8 db 3d 10 46 34 3c bd cb 10 3e a4 93 82 3e
       0.10725506 0.011003032 0.1414022 0.25503266
0000d0 2e 45 e1 3e ae cb 4a be 1a d1 0c bc 31 98 3f 3d
       0.43998092 -0.1980426 -0.008594776 0.046776
0000e0 cf 91 c8 3e 2a c6 41 3e 21 65 93 3e b4 e6 6b bc
       0.39173743 0.1892325 0.28788093 -0.014398266
0000f0 bf e3 8f 3e 6a dd 25 3e 7b f1 4c bd 46 11 ae 3e
       0.28103444 0.16197744 -0.05003498 0.33997554

body.block1.norm.running_mean f4 [64]
000000 89 2e a4 3e cd 0f 01 bf 11 50 f4 3f 42 79 8b 3f
       0.32066754 -0.50414735 1.9086934 1.089638
000010 00 b9 0e 40 e3 da 51 bf 80 ce c0 3f 85 8d a6 3e
       2.2300415 -0.8197462 1.5063019 0.32529846
000020 35 82 3c 3f 4f 25 ed be d0 11 ee 3e 20 07 90 3f
       0.7363618 -0.46317527 0.46497965 1.1252174
000030 f0 b0 88 3f 64 82 f5 be bd 9e 9f be 22 1d d9 3f
       1.0678997 -0.47951043 -0.31175795 1.6962016
000040 e9 88 3a 3f 23 a6 cd bf 49 d4 61 40 a2 b3 07 40
       0.7286516 -1.6066326 3.5285819 2.120339
000050 92 13 51 bf c4 b2 43 bf 98 80 d8 3d ee 31 d3 3f
       -0.81670487 -0.7644465 0.10571402 1.6499612
000060 e1 c9 be be 1b 5f f4 be 6b a7 94 3e bb a3 e6 3f
       -0.37263396 -0.4772881 0.2903398 1.8018717
000070 37 5b ab 3e c6 65 f9 3e 4f fe 63 3f 23 60 d7 3e
       0.3346803 0.4871046 0.8905992 0.42065534
000080 9f 11 14 40 54 a6 9c bf cd 46 ec 3f bb 72 0a 3f
       2.3135755 -1.2238259 1.8459107 0.54081315
000090 87 3a a5 bf 73 04 5d bf 36 9a 61 be cd f6 ac 3f
       -1.2908486 -0.86334914 -0.22031483 1.3512818
0000a0 a7 ac 7f 3e 74 f4 d4 be 96 cd 08 3d 93 b2 c1 3f
       0.24968205 -0.41592753 0.033399187 1.5132622
0000b0 d7 a6 be be d6 6c 6a bf 1f b5 53 be e4 49 1e 3f
       -0.37236664 -0.9157232 -0.20674561 0.618315
0000c0 6e 7f 9a be 2d 59 c7 3e 47 8e 21 3f 25 0a f7 be
       -0.30175346 0.38935223 0.63107723 -0.48249927
0000d0 11 61 82 3e 73 3b 0b 40 91 a3 a1 3f bd 37 31 c0
       0.2546468 2.1755035 1.2628042 -2.769027
0000e0 1e 84 c8 bc 87 ea b6 be 2e bb 6d be 46 59 09 3e
       -0.02447706 -0.35725805 -0.23215935 0.13412961
0000f0 a4 be 5d bf 8b 31 81 be 34 9a 67 3f 35 a8 40 be
       -0.8661902 -0.2523311 0.9046967 -0.18814166

body.block1.norm.running_var f4 [64]
000000 81 d5 0b 40 1b 00 ce 3f af 97 0d 41 90 c7 86 40
       2.1849062 1.6093782 8.849532 4.2118607
000010 97 64 6a 41 89 b5 39 3f a8 14 57 40 28 67 ce 3f
       14.649558 0.72542626 3.3606358 1.6125231
000020 0f 19 eb 3f 9d 4c a0 40 ca e4 5f 40 42 f0 04 41
       1.8367022 5.009352 3.4983392 8.308657
000030 33 6a c1 40 ac f4 bb 3f b7 0b 30 40 f4 87 06 40
       6.044214 1.4684043 2.750715 2.102048
000040 2f be 5d 40 a2 a8 5a 40 b5 9d bf 41 ee a4 98 40
       3.464733 3.4165425 23.952005 4.770133
000050 65 2a 81 40 cf 63 7a 40 c0 31 69 40 93 f6 f3 3f
       4.036425 3.9123418 3.6436615 1.9059623
000060 e9 26 16 40 ab c9 96 3f fe d6 e9 3f ba a7 92 40
       2.346125 1.1780294 1.8268735 4.5829744
000070 d0 df fd 3f 19 72 27 3f ee 4d c0 40 3d 21 9d 3f
       1.9833927 0.65408474 6.009513 1.2275769
000080 fa 04 0a 41 da 1d 99 40 d4 a1 90 40 5a 57 55 3f
       8.626215 4.784894 4.5197544 0.8333641
000090 cb f5 af 3f 00 b9 5d 3f e2 09 f3 3f ce 24 01 40
       1.3746885 0.8661041 1.8987391 2.0178714
0000a0 b5 02 7e 3f 03 71 3b 40 de 57 38 40 90 fd 1b 40
       0.9922288 2.9287727 2.880363 2.4373512
0000b0 8b d9 8c 3f fe c3 43 40 e8 eb c9 3f f2 e6 bf 3f
       1.1003889 3.0588374 1.5775118 1.4992354
0000c0 3a 56 c2 3f b0 24 2a 3f 5e b6 b5 3f 29 aa d4 3f
       1.5182564 0.6646223 1.4196279 1.6614429
0000d0 b7 25 fe 3f 29 4a 04 41 88 54 02 40 fa 4a 19 41
       1.985526 8.2681055 2.0364094 9.580805
0000e0 21 81 ef 3f 3e d5 54 3f d6 6f c1 3f 12 b5 f3 3f
       1.8711282 0.8313788 1.5112255 1.9039633
0000f0 25 ab 64 3f c0 c2 08 40 28 e2 13 40 b6 16 93 3f
       0.89323646 2.1368866 2.3106785 1.1491306

body.block2.conv.weight f4 [64, 64, 3, 3]
000000 56 4e 20 3c 91 5c 93 bc 55 85 1e 3d 1d 66 76 bc
       0.009784302 -0.017988475 0.038701374 -0.015038994
000010 c4 3b a0 bc 49 8b cd bb 4a c5 c3 3b ec af 6b bd
       -0.019559748 -0.0062727076 0.0059744464 -0.05754082
000020 70 8c 81 3d 0a 4d 36 3c f6 17 d3 bc 8d f1 71 bd
       0.063256145 0.011126766 -0.025768261 -0.05906825
000030 b6 a3 33 3d 6c 86 23 bd 02 64 2d 3d fa e3 48 3c
       0.0438573 -0.039923117 0.042331703 0.012261385
000040 6e 11 a1 3d 26 dc 96 bd 64 e6 6d bd 11 20 b7 3b
       0.078646526 -0.07366209 -0.058081046 0.0055885394
000050 8b 4d aa 3c f7 43 b1 bc 5e e9 34 3d 01 9e 58 3d
       0.020788928 -0.021638853 0.04416787 0.05288506
000060 55 f9 1c 3c 41 93 05 3d db d0 e9 3d 2e 7d 1d 3d
       0.00958093 0.032611135 0.11416789 0.03844946
000070 b0 e9 99 3c b2 75 8d bd 9d cf 40 bb f8 77 61 bd
       0.018788189 -0.06907214 -0.0029420622 -0.05504605
000080 eb 0f 02 bd e3 43 d4 b9 ca 02 b9 bc 74 a8 2b bc
       -0.03175346 -0.0004048637 -0.022584338 -0.010477174
000090 cb 34 a6 3c d4 a2 9c 3c 18 e9 17 3d fa 1e 3d 3d
       0.020288846 0.019120611 0.03708753 0.04617212
0000a0 c6 12 ca bc 3d cc a9 bc 28 68 0d 3c fa 6e 56 bb
       -0.024667155 -0.020727271 0.00863079 -0.0032719956
0000b0 a9 32 b7 bb bf e6 48 bd 2c ff b4 bc 62 c4 0a 3d
       -0.005590756 -0.04904818 -0.022094332 0.03387869
0000c0 b7 41 09 bd 80 2d 82 bc ff 13 42 bc aa 64 38 3d
       -0.033509936 -0.015890837 -0.011845588 0.045017876
0000d0 cc ee 07 bd cf c3 e4 3c b6 67 5a bc 9d a1 5b 3d
       -0.03318672 0.0279254 -0.013330391 0.053620923
0000e0 3b e7 4b 3c 08 ec eb bc cc da 49 bd 5f ed 3d 3c
       0.012445266 -0.028799072 -0.049280927 0.011592238
0000f0 91 d2 d3 bb 16 2e c3 3c 2f 2e 46 3d cd bd df bc
       -0.0064643105 0.023825686 0.048383888 -0.027312184
000100 cc 5a 39 3d 92 2e 5a bc 59 cb 7a bd 01 ae a8 bd
       0.045252606 -0.013316767 -0.061229084 -0.082363136
000110 6e 60 46 bd cd 2d ef bc 9d 36 45 bd 08 56 57 bc
       -0.048431806 -0.029196644 -0.048147786 -0.01314307
000120 a0 d9 90 3c d5 78 65 3d 58 d4 08 3d 80 f6 13 bd
       0.017681897 0.056023438 0.03340563 -0.036123753
000130 5a 9c a7 3d 93 c7 b7 3d 2c 1b ea bc 8d 45 72 3d
       0.081841186 0.08973613 -0.02857741 0.05914836
000140 1a ef eb 3d bb 5a 86 3a 57 4c 5f 3d 6a c9 8f 3d
       0.115202144 0.0010250428 0.054516163 0.070208386
000150 6d e3 4c 3c 1c d1 0e 3c 5d 47 2c 3c 7a 36 9c 3d
       0.012505394 0.008716848 0.010515061 0.07627578
000160 a8 58 23 3d e7 28 7d bc 5d 27 40 3d 34 26 5a 3d
       0.03987947 -0.015451646 0.04691254 0.05325909
000170 0d 21 35 3d 45 cf cf 3c 6e 63 1f 3d 72 17 76 3d
       0.044220973 0.025367389 0.038913183 0.060080953
000180 59 b8 1c 3d af 35 3b bc a1 0a 21 3d 16 00 49 ba
       0.038261745 -0.011426373 0.039316777 -0.00076675543
000190 c2 b0 cd bb eb 5b cf 3b 4d da e7 bc 2b 19 8a 3b
       -0.0062771747 0.006328096 -0.028302336 0.004214426
0001a0 29 ff 22 3c c9 db 4b bd 78 c2 8b bd 42 ee fc 3c
       0.00994853 -0.04977015 -0.06824201 0.030875329
0001b0 0e 42 a5 bb 92 98 15 bd 8a d1 9e bc fa c8 61 3d
       -0.0050432747 -0.036522456 -0.019387025 0.055123307
0001c0 06 9d 8b bd 40 f4 97 bd 2f 82 8c 3d 42 90 07 bc
       -0.06817059 -0.07419634 0.06860768 -0.00827414
0001d0 47 95 b0 3c d9 9b 27 3c d9 4d 37 3c de d7 91 bd
       0.021555556 0.010230028 0.011187994 -0.071212515
0001e0 3b b2 e7 bc 6a b1 e0 bd 14 a3 7b bc ec f0 e0 bc
       -0.02828323 -0.10971339 -0.015358705 -0.02745863
0001f0 9a f0 e6 bc 2c 09 a3 3d ca eb 49 3d a7 95 36 3d
       -0.0281909 0.07960734 0.04929713 0.044576313
000200 b7 a6 ee 3d a8 5d 96 3d 7f 5d 4d bb 9e 20 26 3d
       0.11652892 0.07342082 -0.0031336246 0.04055845
000210 44 e5 95 bd a0 18 c4 bd 67 14 33 bd 94 c9 bc bd
       -0.073191196 -0.09575009 -0.04372063 -0.092181355
000220 f8 95 e9 3c 4c 26 60 bd b3 32 bc bd 43 6c 22 bd
       0.028513893 -0.054724023 -0.091893576 -0.039654028
000230 13 6b e6 3d df 45 21 bd 76 8b 96 bc 31 79 6d 3d
       0.112508915 -0.039373275 -0.018377047 0.057976905
000240 c9 2b 9e 3c d2 51 7f 3d 9f 12 0f bc f2 a3 26 bc
       0.019307988 0.06233389 -0.008732467 -0.010170924
000250 3b 1f 47 bd ad 11 15 bd a8 5d 4f bd 7e 5c 53 bd
       -0.048613768 -0.03639381 -0.050626427 -0.05160188
000260 13 20 43 bd 3f 7a 50 bc 96 37 89 3c 87 61 24 3c
       -0.04763801 -0.012724458 0.016750138 0.010033018
000270 5a 77 b2 3a fe 13 68 bc ce 0f 97 bc dc df fc bc
       0.0013615892 -0.014164923 -0.018440153 -0.030868463
000280 99 d7 da 3c 51 95 02 3d e2 1b 92 bd 21 b4 89 bc
       0.026714133 0.03188068 -0.071342245 -0.016809525
000290 3e 04 2a bc 1f 38 83 3b 4f c1 09 bd ff 5b 1b bd
       -0.010376988 0.004004493 -0.03363162 -0.03792953
0002a0 70 64 5d 3d af 41 66 3d 33 b2 b8 3c d8 ee 68 3c
       0.054050863 0.056214985 0.02254591 0.014217101
0002b0 c5 43 8e 3d c2 55 8d b9 93 32 90 3d 0d ce 08 3c
       0.0694652 -0.0002695751 0.07040896 0.008349908
0002c0 f3 7a 7c bc 1f 98 89 bd 8f b3 cb bc c5 fd 67 bc
       -0.015410173 -0.06718468 -0.024865894 -0.014159624
0002d0 44 91 ea 3a 73 5e 15 bd da 57 3a bd dd 89 01 bc
       0.0017896076 -0.036467027 -0.045493938 -0.007906404
0002e0 bd 23 84 3c dc c9 ec bc 8b 03 a3 3d 99 8e 3b 3d
       0.016130323 -0.028904848 0.0795966 0.04579029
0002f0 3b e3 ec bb 35 aa 20 3b da bb 7a bd 0d 89 02 bd
       -0.0072292364 0.0024515514 -0.061214305 -0.031868983
000300 9b 26 57 bd 74 31 e6 bb b7 05 30 bd e8 82 4f 3c
       -0.05252705 -0.0070249382 -0.0429742 0.012665488
000310 da 91 d1 bc 47 13 9e 3d 54 b6 40 bc 97 5b a7 bc
       -0.025582243 0.077185206 -0.01176222 -0.020429416
000320 78 c0 0c bd e8 da 79 3d b1 ff 35 3d a0 85 a6 bc
       -0.03436324 0.06099978 0.0444333 -0.02032739
000330 a6 77 33 3d 4f a9 7d 3d 2f 5d 8a 3c 00 70 cc bb
       0.043815278 0.061929043 0.016890137 -0.0062389374
000340 e6 ab 8a 3d 83 11 8a bc 00 33 80 3d 16 e8 0c 3d
       0.06771068 -0.016854053 0.062597275 0.034401022
000350 77 ca 04 bd d5 ae 8b bc fd 7f 63 bc 0c 6a 18 bd
       -0.032419648 -0.01705114 -0.013885495 -0.03721051
000360 16 9a f2 3d c4 14 47 3c 15 bd 8e bd 03 de 3c bd
       0.11845796 0.012150947 -0.06969658 -0.046110164
000370 bf 4c 5a bd 9d e8 d5 bc 2b d3 1a 3b 9a ea 32 3c
       -0.053295847 -0.026111895 0.00236244 0.010920191
000380 d0 41 7c 3c 92 5c a7 bc 58 59 42 bc 54 18 06 bd
       0.01539655 -0.020429883 -0.0118621215 -0.032738045
000390 14 66 06 3d 5b ea 0a 3c 8a 18 3e bd a8 ea 7b bd
       0.032812193 0.008478726 -0.04641012 -0.061503083
0003a0 0e d4 ba bc ff bb 9d bd bb cd b7 3d 79 44 43 3d
       -0.022806194 -0.07701873 0.08974787 0.047672722
0003b0 8b b7 55 3c 6a 9b 9f 3d 2b 5a d3 bc 88 12 22 3d
       0.013044248 0.07793315 -0.025799831 0.039568454
0003c0 97 33 41 3d 7e cf 09 bd c4 d8 a2 3c 2e 8b a2 3d
       0.04716834 -0.033645146 0.019878753 0.07936703
0003d0 b7 76 a7 3d 12 87 57 3d 26 41 b1 3d bb 2d a4 3d
       0.0817694 0.052619047 0.08655004 0.08016535
0003e0 4b f5 fa 3c 9d 62 8c 3c 41 9a ba bc 84 3c de 3a
       0.030634543 0.017136866 -0.022778632 0.0016955291
0003f0 a6 8f 48 3d 4c dc 0f bc b6 8e 8a 3c 4b 2a 2c bd
       0.04896512 -0.00878055 0.016913753 -0.04203252

body.block2.conv.bias f4 [64]
000000 1b 8f 37 bc c1 b4 b6 bb 65 1a b3 bc f0 81 22 bc
       -0.011203553 -0.0055757468 -0.021863172 -0.009918675
000010 fc 21 d1 3c 3d f5 12 3d b3 ab 13 3d 88 cd 50 3b
       0.0255289 0.03587841 0.036052417 0.0031860787
000020 35 bc bd bc 9c 2d cd bc 42 26 19 bd 55 29 d1 bc
       -0.023161033 -0.025046162 -0.03739 -0.025532404
000030 0f 05 d0 bc ab c4 1a bd 01 cc a5 bc 5c c0 d1 bc
       -0.025393037 -0.037785213 -0.020238878 -0.02560442
000040 d9 87 23 3c 7d cd 48 bc 69 9a fe 3a 72 42 a0 bc
       0.009981119 -0.0122560235 0.001942468 -0.019562934
000050 7b d4 4b 3c d9 c2 0a 3d 9f d2 1a 3d 21 d4 0d 3d
       0.012440796 0.033877227 0.03779852 0.03462613
000060 4b 11 a2 3c 77 4f d9 3c 0e e0 ea 3b ea ff 9d 3c
       0.019783637 0.02652715 0.0071678227 0.019287068
000070 bf 70 18 bd 48 37 35 39 4d 68 af 3c 90 fc 91 3c
       -0.037216898 0.00017282099 0.02141204 0.017820626
000080 f2 55 be bc 9e 11 ad bc 40 8a ee bc 6e 58 bd bb
       -0.023234341 -0.021126565 -0.029118657 -0.005778364
000090 95 e4 66 3b d8 6b b9 bb f7 c7 a3 3c 69 7b 21 bd
       0.003523146 -0.005658608 0.019992812 -0.039424334
0000a0 30 9f 05 bd e0 31 1a bc 7e 30 16 3d ae bd e9 bc
       -0.032622516 -0.009411305 0.03666734 -0.02853283
0000b0 1e 11 b8 bc de 28 29 bd eb 0d 22 3d 4b f8 b5 3c
       -0.0224691 -0.04129874 0.039564054 0.022213122
0000c0 b2 37 4f 3c 79 d6 22 3d 9a b5 19 bc 63 78 0a 3d
       0.012647556 0.03975532 -0.009381676 0.033806216
0000d0 fb aa fc bc 70 1c 21 3d b5 f6 e3 b9 3b f7 ba bc
       -0.030843249 0.03933376 -0.00043480625 -0.022822967
0000e0 5f df 14 bd fb 83 45 3c 5a 5a 2a 3d 44 82 e4 bc
       -0.036345836 0.012055392 0.041590072 -0.027894147
0000f0 ab ac 47 bd b2 af aa bc 33 68 0e 3c bb d3 e4 3c
       -0.048748653 -0.020835731 0.008691835 0.027932992

body.block2.norm.weight f4 [64]
000000 1e b2 68 3f 91 05 87 3f c2 1b 48 3f e0 70 78 3f
       0.90896785 1.0548574 0.78167355 0.97047234
000010 48 3b 6c 3f 3a 58 7d 3f 84 a2 57 3f ee 96 6a 3f
       0.92277956 0.9896275 0.84232354 0.9163655
000020 2b a8 66 3f 9f 38 86 3f 9f 2d 89 3f 4c 39 80 3f
       0.90100354 1.0486029 1.0717047 1.0017486
000030 91 72 84 3f e7 df 8a 3f 6e 95 70 3f b0 13 92 3f
       1.0347463 1.084958 0.9397801 1.1412258
000040 e4 6d 86 3f 6f 6c 77 3f a6 89 7d 3f 6f f6 71 3f
       1.0502286 0.9664983 0.9903816 0.9451665
000050 d4 c4 7b 3f 70 22 7f 3f 1d 80 82 3f 74 c2 62 3f
       0.9834721 0.9966192 1.0195347 0.8857796
000060 28 53 72 3f 64 c9 6d 3f 95 ef 89 3f 60 e1 6c 3f
       0.94658136 0.9288542 1.077624 0.92531395
000070 e7 da 5e 3f 68 a2 80 3f d6 bc 86 3f 01 62 88 3f
       0.8705277 1.0049562 1.0526378 1.0654908
000080 5c aa 86 3f 50 d1 74 3f 32 e1 76 3f 46 7e 77 3f
       1.052074 0.95631886 0.9643737 0.9667705
000090 9c 10 86 3f 97 af 78 3f b0 8d 81 3f 38 7a 84 3f
       1.0473819 0.9714293 1.0121365 1.0349798
0000a0 34 e1 87 3f ba 76 8b 3f 5a 0a 76 3f ba 90 78 3f
       1.0615602 1.0895607 0.96109545 0.97095835
0000b0 bf 70 7d 3f 84 a8 6d 3f 65 c0 6a 3f f9 31 85 3f
       0.9900016 0.9283526 0.9169982 1.0405875
0000c0 bb 1e 88 3f a0 f2 85 3f da 13 77 3f 33 cd 76 3f
       1.0634378 1.0464668 0.96514666 0.9640686
0000d0 f4 ad 74 3f 2e 85 88 3f 04 06 8b 3f fe 98 70 3f
       0.9557793 1.0665643 1.0861211 0.9398345
0000e0 b3 80 76 3f 2d 40 75 3f 00 a1 71 3f b2 21 7d 3f
       0.9629013 0.9580105 0.9438629 0.9887954
0000f0 37 3c 87 3f ec be 6f 3f f9 14 80 3f 56 a2 83 3f
       1.0565251 0.936507 1.00064 1.0283916

body.block2.norm.bias f4 [64]
000000 99 01 ce 3e 64 cd a9 3e 69 cc a0 bd b4 3e aa 3e
       0.40235594 0.33164513 -0.07851488 0.33250964
000010 50 cf 32 ba d0 53 9c 3d 3b 34 66 3e c3 57 93 3e
       -0.0006821053 0.076331735 0.22480862 0.28777894
000020 f3 6c 30 3e 1d c1 21 3e e5 79 3e 3e 00 9f 65 3e
       0.17229061 0.15796323 0.18601187 0.22423935
000030 55 5d 68 3e 32 c8 d0 3d 18 3a 2f 3e db 19 54 3e
       0.22691853 0.10194434 0.17112005 0.20712988
000040 3d 19 a0 3e b3 7f a1 3e 8d 66 f4 3d af 5a 8f bd
       0.31269255 0.3154274 0.119336225 -0.069997184
000050 52 b4 09 bc d4 d6 14 3e d0 47 36 3e c1 b3 98 3d
       -0.008404808 0.14535075 0.17800832 0.0745616
000060 e8 c0 cd 3d 1a b4 64 3e 0f fc 9c 3e 2c 2c 3b 3e
       0.100465596 0.22334328 0.30661055 0.18278569
000070 28 00 8c bd 74 09 0a 3e 86 8d 4d 3e 32 7b c9 3d
       -0.06835967 0.13480169 0.20073518 0.09837951
000080 80 18 2a 3e 1e 92 8b 3d db 57 2a 3e 96 85 bb 3d
       0.16610909 0.06814979 0.16635077 0.09156339
000090 38 eb 35 3e 69 ca a9 3e ca e4 d7 3c 1c 87 51 3e
       0.1776551 0.3316224 0.026354212 0.20461696
0000a0 51 f4 ba 3e 1d 3f 9d 3d a7 06 45 bd ab d1 ae 3d
       0.36514524 0.076780535 -0.048102047 0.08536085
0000b0 4b c6 97 3c 77 4e 7d 3e a2 43 1d 3e 8c 9e 68 3d
       0.01852717 0.24736963 0.15357831 0.056791827
0000c0 9a fb 5e 3d 81 60 91 3d aa 1a 38 3e 1e 2e 9b 3c
       0.054439165 0.07098485 0.17978922 0.018942889
0000d0 fb 6c 83 3d 4d 19 1b 3e ef 33 bf 3d e9 0b 0b 3e
       0.06417271 0.1514637 0.093360774 0.13578762
0000e0 20 1e a7 3d f2 a0 42 3d d6 be 8d 3e cf 9d 90 3e
       0.08160043 0.04751677 0.2768466 0.28245398
0000f0 52 90 eb 3d d8 ac 01 3e c9 86 20 bd f8 62 f7 3d
       0.11502136 0.12663591 -0.03919104 0.12079424

body.block2.norm.running_mean f4 [64]
000000 22 50 9e 3f 91 0f 13 3f 17 ed 2e 3f d8 99 8a 3e
       1.2368205 0.5744563 0.6833052 0.27070498
000010 79 22 84 3f ad 3f d6 be c3 cd 10 bf 15 f9 6f bf
       1.032302 -0.41845456 -0.5656397 -0.93739444
000020 c1 1c e3 bd 02 67 e8 bf b4 60 72 be 5c c0 52 3f
       -0.11089469 -1.8156435 -0.23669702 0.8232477
000030 f3 c0 8c bf 90 09 e2 be 72 df 39 3f 8b d6 37 bd
       -1.0996383 -0.4414792 0.72606575 -0.04488234
000040 b9 88 14 bf c4 ea c6 3e 33 40 61 3f 1c 78 24 bf
       -0.5802112 0.38850987 0.87988585 -0.6424577
000050 a9 33 6f 3f 12 cf fc be 14 18 dc bd fb 9b 1f bd
       0.934382 -0.49376732 -0.1074678 -0.038967114
000060 8d 60 a1 bd 6c 05 d2 3d 68 b2 53 bf 0d 8b b2 be
       -0.07879744 0.102549404 -0.826941 -0.34871712
000070 1e 64 a2 3f b0 bc b0 bf fc 6f df be f1 4e 6c bf
       1.2686803 -1.3807583 -0.43640125 -0.92307955
000080 02 23 24 3f f2 54 6b 3c a9 d9 cd 3d 18 f0 cc be
       0.6411592 0.014363514 0.10051281 -0.40026927
000090 02 ac f2 be aa bb 28 3e 35 ba 0b 3f a4 3f 81 bf
       -0.47396857 0.16477838 0.54581004 -1.0097547
0000a0 3d 4e 2c 3e 96 fb 1a 3f 60 e3 04 3f 8c ac 88 3f
       0.1682672 0.6054014 0.51909447 1.0677657
0000b0 5a 77 07 40 27 1c 11 3f 49 c5 3a bf e8 bc 39 3e
       2.1166596 0.5668358 -0.72957283 0.18138468
0000c0 da 86 55 bd 9f 75 83 bf 3c 22 0c be 6a e9 04 3f
       -0.052130558 -1.027027 -0.13684934 0.5191866
0000d0 57 f8 b3 3f 29 03 51 3f f2 06 d7 3e ed fb 85 bf
       1.4060162 0.81645447 0.41997486 -1.0467507
0000e0 bc 3f 94 3f ed 29 80 3e a7 34 f1 3e 17 07 57 3e
       1.158195 0.25031987 0.47110483 0.20998798
0000f0 47 04 56 3d 27 ea ec be 38 25 b4 3f 47 90 5d bf
       0.052250173 -0.46272394 1.4073858 -0.86548275

body.block2.norm.running_var f4 [64]
000000 04 d7 84 3f 4b 98 13 3f d0 72 94 3f cd 0e 93 3f
       1.0378118 0.57654256 1.1597538 1.1488892
000010 bd c5 c9 40 3b 23 36 40 34 79 32 3f f1 de 9f 3f
       6.305388 2.8459003 0.6971619 1.2489911
000020 a1 10 b7 3f 7c 7d ee 3f 8f a7 51 40 f7 e7 a2 3f
       1.430195 1.8632045 3.275852 1.272704
000030 84 60 70 3f 91 4c a1 3f 99 b7 bf 3f d4 a0 cf 3f
       0.9389727 1.2601491 1.4977905 1.6220956
000040 1b 4e ca 3e a3 22 5f 3f 4d a6 e8 3f d5 cd 1e 40
       0.39512715 0.87162226 1.8175751 2.481313
000050 05 0f b6 3f 52 c2 78 3f 84 77 27 3f 8a 27 be 40
       1.4223334 0.9717151 0.6541674 5.9423265
000060 24 a6 37 3f 68 84 d9 3e d4 c9 64 3f 50 97 b1 3f
       0.71737885 0.4248383 0.89370465 1.3874302
000070 e2 83 4c 40 50 38 23 40 39 99 7a 3f 1d fc 18 40
       3.1955495 2.550312 0.9789005 2.3903878
000080 86 11 ae 3f b9 a4 20 40 54 e5 aa 3f ce d6 6b 3f
       1.3599098 2.5100539 1.3351235 0.9212464
000090 42 cb 6e 40 1e 3f 96 3f 64 70 82 3f 06 c6 25 40
       3.7311559 1.1738012 1.0190549 2.5902114
0000a0 21 a3 f2 3f 6e ee 9c 40 d8 18 e3 3f f6 c1 02 40
       1.8956033 4.904105 1.7741957 2.0430884
0000b0 02 43 55 41 67 72 24 40 ab b0 1e 40 11 04 0a 3f
       13.328859 2.5694826 2.479533 0.53912455
0000c0 c1 1a a5 3f 27 cf 75 40 20 65 82 40 4d 14 b5 3f
       1.289879 3.8407686 4.0748444 1.414682
0000d0 26 3c 04 40 0a ec d9 40 66 a1 85 3f 7f 98 88 40
       2.0661712 6.8100634 1.043988 4.2686152
0000e0 4a 94 64 40 e3 88 a5 3f 92 c9 13 3f 88 8c a2 3f
       3.5715508 1.29324 0.57729447 1.2699137
0000f0 a3 a4 8d 3f 3b b4 05 40 39 d2 10 40 55 48 d2 3e
       1.1065868 2.0891254 2.262831 0.4107081
