TrainedModels/0035-sample/scale_factor=0.850000,alpha=10/5/netG.pth (torch, 474454 bytes, 26 tensors)

head.conv.weight f4 [64, 4, 3, 3]
00000000: 3f20 cfbc 525a 1abc e77b 7cbc 1d46 02bd
00000010: d434 193c c7d3 94bc 6af0 513b 2474 f6bc
00000020: 6500 d83a 4a23 61bc 21f4 f43c 4220 9d3b
00000030: 50a1 413c 3c77 173d 3aae 55bb d761 bfbb
00000040: 85a9 843c f47e 90bc fea3 953c 186c 383c
00000050: b114 acbd aa5c 103c dc80 543c e799 febc
00000060: 23d1 9fbc 15be afbd 2bd9 babd 0a79 16bc
00000070: 9f86 3ebd 93f3 afbb b5b8 e539 90d1 4fbc
00000080: 102d f73b 7883 913c 96d8 363c f222 a2bc
00000090: 0eff 423c f946 4d3d 08b9 85bc 6ac1 3e3d
000000a0: 375d 16bb 2e28 e13c bbc3 9cbc 948b 923c
000000b0: 9323 343d f2aa 06bd 0011 3dbd 14fc c93c
000000c0: eb19 1f3d c5c6 95bd 5fb7 0fbc 92bd c2bc
000000d0: 82ad 8cbd 192b 44bc 17d8 863c a694 66bc
000000e0: 9577 5dbd c60a a53d 6d84 d33b 1e12 41bd
000000f0: 9805 3e3d 4c95 68bc 174c 673c 5c9f 363c
00000100: 44ae 2cbc 10f3 363c 88b6 87bc 6b64 04bd
00000110: db28 8bbb 7c06 3c3d 6e33 cdbc e442 5cbc
00000120: c153 c8bc 8a24 02bc f3b8 373c 4fc5 9e3c
00000130: db25 023d 6e49 d63c 1836 af3c 59fc 103d
00000140: 7fe5 713d 25eb 6dbd 2394 11bd eec6 4dbd
00000150: 0537 30ba 8fbc f039 c444 c9bc db73 07bd
00000160: 3c08 8bbb fcf8 563c 4d8d 7ebd b346 853b
00000170: 11ed 0b3a 077c a0bc da63 353b 2738 d23a
00000180: a26c 60bc a73a 1b3c 7c0b 003d f0c5 21bd
00000190: a6ca 1abd 3b9b 063d a9b8 83bc 3877 ef3b
000001a0: 68d1 b53c 6534 073b d73b 623b 11dc c1bb
000001b0: 1547 4f3d 571b 273d 21ff 113d 6baf 02bd
000001c0: 731d 243c f5b2 453d b62b 6abc 3259 58bc
000001d0: 557d c5bc 15af 22bc 1cf3 543c ddda bb3c
000001e0: 7dce 41bd 97b1 983c a456 483c b781 b4bd
000001f0: ab1c 8bbc 6d9f 173d 7ca9 03bc 2579 7c3d
00000200: 4345 d13c 1821 11bd 02ea 823a 6e1f 2bbc
00000210: 6444 16bd 9856 38bd f043 463c 48bd f13c
00000220: 4439 05bd f04b f9bc fb51 d4bc 4e2a f73c
00000230: c917 613c dcf9 303d 1d57 a3ba 34bb f6bb
00000240: 0703 013d 3d80 2fbc 5c7c 313c ad67 00bd
00000250: 01da 09bd a7d9 87bc 0eb7 77bb 27a7 f5bb
00000260: 58d6 0abd 1bb0 9b3d 6e6f b33a 67f7 69bb
00000270: 0e97 3bbd 62cb 67bc d96f 3fbd fa36 853c
00000280: 3b3e 6f3d 2279 833c 132c 793d b2cb 73bc
00000290: 34c4 103c 7b8e dc3c 35c3 24bc 64bf 4abc
000002a0: 2fda 713c 98dc f23c 422d 313c 417d d43c
000002b0: 61c7 23bc 2ccd c53a 2296 3fbc e33f 413c
000002c0: dd60 c2bb d9fd 3ebb abf8 403d 0952 6e3d
000002d0: 9e66 33bd 4531 613b 1928 14bd 3c33 78bd
000002e0: 3d42 78bd d14d 78bd 7d6b 463d 4fc4 023d
000002f0: 1bca f63c 2e30 983c e472 78bd 26e8 0f3d
00000300: ad93 3fbd c8a8 2fbc 5aa4 d53c 2970 95bd
00000310: c3c7 90bd 2d26 2fbd 3d32 663d 9675 353d
00000320: c980 bb3c eaa5 1b3d ab77 11bc a389 853c
00000330: 3e65 df3b 4ee9 873b b1c5 4b3d 2a2a 733c
00000340: f269 a5bc ff71 303c 518c 0b3d 2831 88bd
00000350: 2d9d 153d e304 c3bb 851f 103c ec2f 27bb
00000360: 6a27 073d 9660 5f3c afba 0abd 8f64 193c
00000370: 47de f93b 520c d0bc 9a91 213d 4f4f b63c
00000380: 6a60 86bc 6ea8 483c 0499 9fbb 3580 14bc
00000390: 55ed 063d 0011 17bd 0f19 3e3c 21fb 583d
000003a0: d104 e83a c4f3 793b 2897 cf3b db9b 003d
000003b0: 6ca9 933c 7b14 103c f2bc fbbb f348 8cbc
000003c0: c333 803d 1815 5a3d 5757 e03c cecf d0bc
000003d0: b2a5 6e3b fc52 57bd 76b8 04bc 7259 d43b
000003e0: 99bc 67bc 1f51 043d 160f 3ebc 9e5a e6bc
000003f0: c84e 573c 925f 683c c992 6a3c 9d1c b83c
-0.02528393 -0.009420948 -0.0154104 -0.031805146 0.009350974 -0.01816739 0.0032034167 -0.030084677
0.001647961 -0.013741324 0.029901566 0.004795105 0.011818245 0.036978945 -0.0032605068 -0.005840521
0.016194114 -0.017638661 0.018266674 0.01125624 -0.08402384 0.008811155 0.012970176 -0.031079246
-0.019508904 -0.08581177 -0.09123453 -0.009184131 -0.046515103 -0.0053696125 0.000438159 -0.012684241
0.0075432137 0.017762884 0.011160037 -0.019792054 0.01190163 0.050116513 -0.016323581 0.046571173
-0.0022943744 0.02748498 -0.0191363 0.017888822 0.04397924 -0.03287787 -0.04615879 0.024656333
0.038843077 -0.07313303 -0.008771746 -0.023772035 -0.068690315 -0.011973166 0.016460462 -0.0140735265
-0.05406912 0.080586955 0.0064549954 -0.04713642 0.046392053 -0.014195751 0.014117262 0.011146393
-0.010539595 0.011166349 -0.01656653 -0.03232233 -0.0042468137 0.04590462 -0.025048938 -0.013443682
-0.024454 -0.007943282 0.011213529 0.019381193 0.031774383 0.02615806 0.021388099 0.035396907
0.059056755 -0.05808558 -0.035541665 -0.050238542 -0.0006722066 0.00045916854 -0.024568923 -0.033069473
-0.004242925 0.013120886 -0.062146474 0.004067266 0.0005337755 -0.01959039 0.0027677924 0.0016038463
-0.013697775 0.009474433 0.031260952 -0.03949541 -0.037790917 0.032862883 -0.016079264 0.007307913
0.02219458 0.0020630595 0.003452053 -0.0059161265 0.0506049 0.040797558 0.0356437 -0.031905573
0.010016787 0.04826637 -0.014292648 -0.01320486 -0.024107615 -0.009929438 0.012997415 0.02293151
-0.047316063 0.018639369 0.012227688 -0.08813804 -0.016981443 0.037017275 -0.008036014 0.06163897
0.025545722 -0.03543195 0.0009987953 -0.010444505 -0.036686316 -0.045004457 0.0121011585 0.029509202
-0.032525316 -0.030431718 -0.025917998 0.03017154 0.013738581 0.043207034 -0.0012461875 -0.0075296406
0.031497028 -0.010711727 0.010832872 -0.031348873 -0.03365517 -0.016583277 -0.0037798318 -0.0074967328
-0.03389582 0.07601949 0.0013689825 -0.0035700442 -0.045798354 -0.014147611 -0.046737526 0.016261566
0.058408957 0.016048972 0.060833048 -0.014880108 0.008835841 0.026923409 -0.010056307 -0.012374733
0.014761492 0.029646203 0.010814013 0.025938632 -0.009996266 0.0015091053 -0.011693509 0.011795017
-0.005931957 -0.0029143004 0.04711215 0.058183704 -0.043799035 0.0034361642 -0.036171053 -0.060595736
-0.060610045 -0.060621087 0.048442353 0.031925496 0.030125668 0.018577661 -0.060656443 0.035133503
-0.046771694 -0.010721393 0.026079345 -0.072967835 -0.070693515 -0.042761017 0.056200255 0.04430159
0.022888558 0.038000025 -0.008878629 0.016300982 0.006817489 0.004147685 0.04974908 0.014841596
-0.02019212 0.010769366 0.034069363 -0.06650001 0.036526848 -0.0059515103 0.008796577 -0.0025510741
0.032996573 0.013633868 -0.03386944 0.009362354 0.0076253745 -0.0253965 0.039445497 0.022254614
-0.016403396 0.012247188 -0.004870536 -0.00906377 0.03294118 -0.036881447 0.011602654 0.05297387
0.0017701631 0.003813968 0.006335158 0.031398635 0.018025123 0.008793945 -0.007682436 -0.017124629
0.06259873 0.053242773 0.027385397 -0.025489714 0.003641468 -0.052569374 -0.00810062 0.0064803893
-0.014144086 0.032303926 -0.011600276 -0.028119382 0.0131413415 0.014182942 0.014317223 0.022474581

head.conv.bias f4 [64]
00000000: f07b 0abe 27e4 db3d 83d5 f03d 4618 183e
00000010: 3d9f 223e 54d9 f0bd ed7d 01bd eec7 adbd
00000020: 6218 233e e9da 2cbe ef6d abbd 8aa4 d43c
00000030: a0e7 d83d 28bf 1abe 8104 42bd 6118 833d
00000040: ad5e edbc 086e 233e 144b fdbd 273f cb3d
00000050: 9217 1bbd 95de e53d bd58 253e 09bf 58bd
00000060: 1029 06be 75b1 fd3d c64e 8abd 90e1 a83d
00000070: fc64 153e 4427 663b a55a f8bd 8821 afbd
00000080: ee27 be3d 936c aa3a 0c9e 36bd e804 42bd
00000090: b749 0e3e c472 35bd 1883 06bc 078a c83d
000000a0: 371c 1e3e 7e39 e13d 062e a4bd 0e26 c5bc
000000b0: c031 133e 8dcb bbbd 6d04 f53d 232c e6ba
000000c0: ccc7 3d3c 3691 2abe 5bcf 163d c5e5 0bbe
000000d0: 96b0 1ebd e8dd c8bd 26bb debd 609f c13d
000000e0: 15c1 193e bdeb adbd 570e 1d3d 391d 4e3d
000000f0: c53b 3abe 021d fe3d 8ba3 93bd b4ca 04be
-0.13523841 0.10736876 0.11759474 0.1485301 0.15881057 -0.11760202 -0.031614233 -0.08485399
0.1592727 -0.16880383 -0.083705775 0.025957365 0.10591054 -0.15111983 -0.047367577 0.06401134
-0.028975809 0.15959942 -0.12367836 0.09924155 -0.037864275 0.11224095 0.16147132 -0.05291656
-0.13101602 0.12387363 -0.06753306 0.08246148 0.14589304 0.003511862 -0.12126664 -0.085513175
0.0928496 0.0013002328 -0.04458432 -0.04736796 0.13895307 -0.044298902 -0.008209966 0.097919516
0.1544045 0.10997294 -0.08016591 -0.024065997 0.14374447 -0.091696836 0.11963735 -0.0017560761
0.01158328 -0.16656956 0.036818843 -0.13661869 -0.038742624 -0.0980795 -0.108755395 0.094542265
0.15015061 -0.08492229 0.038343754 0.050320838 -0.18186863 0.124078766 -0.07208928 -0.1296795

head.norm.weight f4 [64]
00000000: 53f0 7d3f ff6c 883f c3c9 853f 50eb 8a3f
00000010: 2b99 693f 8684 8f3f f5d5 7f3f 40f8 5e3f
00000020: d05a 813f cef9 813f 1214 7d3f 3ffd 843f
00000030: 81c2 8e3f 4f69 793f 6182 853f 1dca 603f
00000040: 209a 643f 6769 5a3f e016 863f dcdb 783f
00000050: d2c8 713f fc70 803f cf11 773f fdd6 7f3f
00000060: b745 803f 6a69 803f 2d11 863f f0a8 783f
00000070: bd35 783f d48e 7a3f 0036 843f c345 803f
00000080: 9213 893f dcfc 693f e440 733f 19be 7d3f
00000090: cf52 8a3f 6ad9 863f c971 683f 5854 5e3f
000000a0: 6ab5 873f fc42 663f 84bc 713f d222 873f
000000b0: 7484 8d3f 4748 8b3f 758a 843f 7206 833f
000000c0: 2205 883f 4978 793f f2f8 823f bff9 733f
000000d0: e2fb 703f 8b5f 883f 3558 7a3f 9ce3 603f
000000e0: ebbb 903f d9c3 763f b69b 773f b50a 663f
000000f0: 47e1 893f 8e90 803f a62c 763f c9ac 6b3f
0.9919483 1.0658263 1.0452198 1.0853062 0.9124934 1.1212318 0.9993585 0.8709755
1.0105839 1.0154359 0.9885875 1.0389785 1.1153108 0.97426313 1.0430413 0.878084
0.89297676 0.8531708 1.0475731 0.9721048 0.9444705 1.003448 0.9651155 0.9993742
1.0021275 1.003217 1.0473992 0.9713278 0.96957 0.9787419 1.032898 1.002129
1.0709097 0.9140146 0.9502089 0.9911819 1.0806521 1.05351 0.9079862 0.8684745
1.0602238 0.8994596 0.94428277 1.0557501 1.1056046 1.0881432 1.0354754 1.0236342
1.0626566 0.97449166 1.0232222 0.9530296 0.9413434 1.0654157 0.97790843 0.87847304
1.1307348 0.9639259 0.9672197 0.8986009 1.0771874 1.0044115 0.9616188 0.92060524

head.norm.bias f4 [64]
00000000: 6a52 debd cc3a 40bd 4fa0 51bd 50c8 f6bd
00000010: 6102 08be adb8 d4bd a933 d7bd c3aa dcbd
00000020: d49c 0cbd 27f0 83bd 4681 4bbc 1097 28bd
00000030: 988f 12bd 6665 23bc 71f3 3bbd 6fcb 08be
00000040: c872 c6bd d06f c5bd 266b 46bd 9071 b5bd
00000050: 1fff bfbc 023f 4abd dbb6 11bd 680d 9dbd
00000060: 7613 9cbc 8b83 a6bd 09a1 6fbd b449 9ebd
00000070: ecfb e0bd 8f2b e6bd 22d9 bc3c 30a6 adbd
00000080: 0e27 6abd f2ab c0bd 5fa3 b3bd 29ab 7fbd
00000090: e2f0 13ba 6ee3 70bc e11a 9abd 7fea 09be
000000a0: 223a 923c dc48 e8bd 0824 c8bd 7924 ecbc
000000b0: a780 afbc ae79 883d be60 43bd aac5 97bd
000000c0: e6ae 7fbc 2740 8abd 9a07 96bd 6a3c 8bbd
000000d0: 12c8 7abd a9be 7cbd 7248 9abd 26ce eabd
000000e0: 2d42 1dbd b0ea 0cbe aecb f1bd 2b4f 23be
000000f0: 2d4b 4abd aabd f0bd 1d57 a8bd df72 a1bd
-0.10855563 -0.046931073 -0.051178273 -0.12049925 -0.13282157 -0.103867866 -0.105079 -0.10774758
-0.03432925 -0.0644229 -0.012420958 -0.04115969 -0.035781473 -0.009972906 -0.04588646 -0.13358854
-0.096898615 -0.09640467 -0.04844203 -0.08859551 -0.02343708 -0.049376495 -0.035574775 -0.07668573
-0.019052248 -0.081305586 -0.058503184 -0.077289015 -0.1098555 -0.11238777 0.023052756 -0.084789634
-0.05716615 -0.09407796 -0.08771395 -0.06241909 -0.00056434993 -0.014702661 -0.07524658 -0.1346836
0.017849986 -0.11342022 -0.097724974 -0.028825985 -0.02142365 0.066638336 -0.047699682 -0.07410748
-0.015605664 -0.06750517 -0.07325669 -0.067986324 -0.06122596 -0.061705265 -0.07533349 -0.11465101
-0.03839319 -0.13761401 -0.11806427 -0.15948169 -0.0493881 -0.117549255 -0.082197405 -0.07883238

head.norm.running_mean f4 [64]
00000000: 93ec 52bd bd3f dc3d 4f22 ff3d 060c 043e
00000010: da04 103e 99f2 b2bc a286 bbbd 90a1 2cbe
00000020: 4251 2b3e 20f9 a3be 2548 c3bd efc3 003d
00000030: 47fd e03d 3447 6fbe 4227 50bd 006d 933d
00000040: 0766 cbbd c7b8 453d 32f3 3abe 5612 e33d
00000050: 40eb 03bd 8704 3b3d 3cff 413e 99f1 bcbd
00000060: 5019 4dbe c980 043e bc3f f6bc ddf0 8b3d
00000070: 9d3a 183e 3f7a 033b 6b58 33bd 824b c9bd
00000080: 18a4 1a3e a97a b6bd 7c32 23bd daaa 12be
00000090: 1c2a 203e bf5f 78bd bfc5 f4bc 3021 973c
000000a0: 5bb8 373e e31f 363d ffe3 acbd 9f63 f43a
000000b0: 1bc6 0b3e 7930 8cbd 66c3 be3d 1261 e3bd
000000c0: 6ff2 943c 4556 32be b87d 013d d9e2 04be
000000d0: c494 74bd eb99 babd 593a 92be ae45 823d
000000e0: a078 233e 030f 9abd d115 123d 883d fb3c
000000f0: 6ff9 31be e8bf a93d b888 86bd 8259 8dbe
-0.051495146 0.107543446 0.12457716 0.12895212 0.1406435 -0.021844195 -0.091565385 -0.16858506
0.16730216 -0.32026005 -0.09535245 0.031436857 0.10985809 -0.23367006 -0.05081869 0.071985245
-0.099315695 0.04827192 -0.18256834 0.11087482 -0.032206774 0.045658614 0.1894502 -0.092257686
-0.20029187 0.12939753 -0.030059688 0.068330504 0.14866109 0.0020061878 -0.043785494 -0.09828855
0.1510166 -0.08910114 -0.039843068 -0.14322987 0.15641063 -0.060638186 -0.029879449 0.018448442
0.1794142 0.044464003 -0.08441924 0.0018645412 0.1364979 -0.06845183 0.09314613 -0.11102499
0.018182008 -0.17415722 0.031614035 -0.1297716 -0.059712186 -0.09111389 -0.2856014 0.063609466
0.15963984 -0.075223945 0.035665337 0.030668989 -0.17380308 0.08288556 -0.06569046 -0.27607352

head.norm.running_var f4 [64]
00000000: ebab 713c c5a9 bb3a 323d 6f3b eeee 143b
00000010: 44e9 203c d41f 6a3b 4666 3c3c c36c 903b
00000020: bf1d 7f3b e2d7 4c3c a28f 8f39 64a4 3b3a
00000030: e061 7c3a 32cd c23b 4393 023a f88f dd3a
00000040: 9849 ce3c e31f 283d abd0 023b 2e3c c43a
00000050: 1930 e13b 8889 043b dcc4 9e3a a920 273b
00000060: cd30 b93b 9a13 a23b 6885 0f3a 8d69 df39
00000070: 22fe 103b 8460 e839 629f 173c 21a7 8c3a
00000080: a548 b43a 5fd6 593c ca45 103b b7f7 5e3b
00000090: 0b95 893a 24aa 8d3a 921f b03a f01e 563d
000000a0: ad54 cc3a 196a 2d3b 974f fa3b 87af 543a
000000b0: 64eb f939 d168 bf39 7ca0 373a cd19 7e3b
000000c0: 2bd1 e93a 83db d03c 2876 643b 1f6a c93a
000000d0: 4a18 b63c 2d12 3b3a 2828 553c 861f f23c
000000e0: 188c 0a3b 91ae 843a e8d9 0f3a 9c06 8c3a
000000f0: 22bf 9a3a 68aa 963a 427c 383a 96d6 333c
0.014750461 0.0014317563 0.003650498 0.002272542 0.00982124 0.0035724537 0.011498993 0.0044074967
0.0038927642 0.012502642 0.000273821 0.000715798 0.00096276216 0.0059448713 0.000498105 0.0016903868
0.025181577 0.041046035 0.0019960802 0.0014971548 0.0068721888 0.0020223577 0.0012113112 0.0025501645
0.0056515695 0.0049461843 0.0005474896 0.00042612516 0.0022124131 0.00044322398 0.009254308 0.0010730961
0.001375456 0.013295739 0.0022014254 0.0034022161 0.0010496689 0.0010808152 0.0013437143 0.052275598
0.00155892 0.0026460944 0.0076388824 0.0008113314 0.0004766836 0.00036508453 0.000700481 0.0038772703
0.0017838826 0.025495296 0.0034860466 0.001536671 0.022228379 0.0007136192 0.013010062 0.029556047
0.0021140631 0.0010122826 0.00054874877 0.0010683122 0.001180623 0.0011494877 0.0007037559 0.010976454

body.block1.conv.weight f4 [64, 64, 3, 3]
00000000: 43d8 103c 93e8 6fbc 46de 463d 6d8e 333c
00000010: 0c2f d1ba 0aac c93c ca7e 60bc e226 163d
00000020: 63df a03c 6ca8 643d 5178 a33c 652f c73c
00000030: 45d5 75bd 0811 bc3b 2fc0 843d 4293 98bb
00000040: f4c5 573d e2fe d23c 4a6e 3a3d a23f 423d
00000050: 4190 5f3c 7e2e 6cbc b36d b4bc 49bf 0f3b
00000060: ac64 803c 9ec0 26bd 611f c6bc 441a e93b
00000070: 7135 1dbd a604 813c 00c3 e13c 1bc1 18bc
00000080: 3b96 bc3c 7784 973c 2790 d73c 7c79 e5ba
00000090: 704a d7bc 8ffc 913c 91be 043d 2ece 5cbd
000000a0: 935d 9cbc db50 b0bb 3b23 a13c dfbd 12bc
000000b0: 3653 c6bc b05d 07bc 5202 4a3a ffe5 d9bc
000000c0: b3cf d93b 6c6e 01bc f307 17bc fb85 e73c
000000d0: 65ea 313c bf4e f6bb 1795 36bb b95f 76bc
000000e0: c8b3 33bd 890e d3bb 9818 14bd 67d1 a9bc
000000f0: 923c 25bd 5368 91bc a385 84bd 6428 e33c
00000100: 125c 183b 1b9c 303d 4646 c8bb f68f 853b
00000110: 4524 e73b 23f4 09bc bf89 f7bb 1869 0dbc
00000120: 526a f83b 5ff4 47bb 5e12 7c3c 08a0 2c3c
00000130: b695 0bbc 55ed fcba 062b 08bd c354 83bd
00000140: 8916 503b b853 bebc 4658 c9bc 0184 3bbc
00000150: 3262 2dbd 7abc 5dbc 18e3 da3c 4385 b8bc
00000160: 7f86 dd3c 9260 8d3d a732 4a3d 9785 cbbb
00000170: e3fa 8abc f68a 613c 4c3e 6f3b eac2 6c3c
00000180: 427c 79bd 2be4 423c 7630 93bd 1150 053c
00000190: 8af5 913d e74a 2c3d b3bd 56bd 8f39 903c
000001a0: f661 1bbd ebe6 18ba 35fd 6fbd 3b6d 74bd
000001b0: 7bb9 12bd 22a0 d3bb 20fa 73bc 7522 dabc
000001c0: 6525 10bd 71e0 69bd 1f7d 07bd 66b4 57bd
000001d0: 0b43 c93b 7b44 223d 9ddc b13c c51f 3e3b
000001e0: 3d47 0a3d 5509 843c 77d8 573b d789 01bc
000001f0: efe7 b93b dfee a3bc a576 13bd cfd2 fcbc
00000200: b1d6 a4bc 962a 613b 70db 873c 4253 013d
00000210: 5ed1 46bc 0d56 253c 51b1 093c cef7 dbbc
00000220: 9452 d9bb 0817 4ebb 1199 d73b 040a 10bd
00000230: 99ac c7bc 80a0 7abc ad65 903c 17d3 d43c
00000240: 5a21 1bbd 5a1a f1bb e435 0fbd 79ce 24bc
00000250: a471 96bc 9bec 52bc 3e7d 9639 4895 513c
00000260: 34cc 54bc 4ed3 c8bb 5516 66bb fb31 9037
00000270: fd77 16bd 008f a7bc cd90 60bb 6c60 063c
00000280: e4c5 2c3c 6913 51bc 8f4d d5bc 2f13 b53b
00000290: 7ce2 84bd eab7 84bc fbd4 293d e745 be3c
000002a0: 53ba 01bd 6942 86bc abf0 c6bb b993 023d
000002b0: b850 193d b1c1 b73b c305 cd3a 34cb b43b
000002c0: 01e9 48bc 124b 2bbc bd0a 0d3d bde6 823c
000002d0: 0d9e 11bd 6ab2 fbb9 d808 11bd 9fc9 953d
000002e0: 41a7 763c 7f17 18bc 94d7 f4bc fd48 283c
000002f0: cda5 0dbd 132d 6c3d 33ec 33bc b665 ba3c
00000300: a85c 513c 2083 0e3c a6c4 ecb9 8063 72bd
00000310: 42d0 a33c 5d65 e03c db82 83bd 22f3 7d3c
00000320: c49d 80bc e446 8a3b eee3 6cbd fb4f a6bc
00000330: 5d94 843d dff1 efbc 31a0 dfbc 7f29 123d
00000340: 32a9 ed3a 92ed a73c ca5e 913d a181 b23c
00000350: c2e3 5bbd a4fc f8bc bcb3 09bc 12ae babc
00000360: 30e1 343c 9085 05bd cae5 373d 9fb4 0dbc
00000370: 1d76 58bb 4c61 faba ddc5 e33b bb0c 963b
00000380: 0ce9 023d 124e eb3c 38a1 3dbd e326 e1bc
00000390: b870 3e3d a4c7 4b3c c03e 27bd dfa2 efbc
000003a0: 4eac d23a 95ad 90bc 7a7a 0d3b 30bd 293c
000003b0: c498 dc3c 042d 7dba c9dc 603c d9bf 2c3a
000003c0: 50f6 183d 217d 883a a258 89bd b0b8 16ba
000003d0: f8b6 b4bb 142a 3e3c d3b9 49bd 05f2 213c
000003e0: 6ed1 af3c 7916 24bd 5424 bdbc d6cc 683c
000003f0: 5571 3b3d 0d6f 59bc 7d6f e83c 142b 9c3c
0.008840623 -0.014642852 0.04855182 0.01095925 -0.0015959456 0.024618167 -0.013702104 0.036658175
0.01963777 0.055824682 0.019954832 0.024314592 -0.060017843 0.005739335 0.064819686 -0.0046562264
0.052679017 0.025756303 0.045515336 0.047423966 0.013645233 -0.0144153815 -0.022024965 0.0021934083
0.015673004 -0.040711038 -0.024184885 0.007113727 -0.038381044 0.015749287 0.027558804 -0.009323384
0.023020854 0.018495781 0.026313854 -0.0017507519 -0.026280612 0.017820625 0.0324083 -0.053907566
-0.019087588 -0.0053807325 0.01967012 -0.008956402 -0.0242096 -0.008262083 0.0007706034 -0.026598928
0.006647074 -0.007899862 -0.009218204 0.028262129 0.010859107 -0.0075167115 -0.002785986 -0.0150374705
-0.043872625 -0.0064409417 -0.036156267 -0.020729734 -0.040340967 -0.017749941 -0.06470802 0.02772922
0.0023248238 0.043117624 -0.006111893 0.0040759994 0.007053884 -0.008420023 -0.0075542624 -0.008631013
0.0075810337 -0.0030510647 0.015385238 0.010536201 -0.008519581 -0.0019296805 -0.033244155 -0.064126514
0.0031751713 -0.02323328 -0.024578225 -0.011445046 -0.042329974 -0.013533706 0.026719615 -0.022524482
0.027041672 0.06903185 0.049364712 -0.0062109935 -0.016965335 0.013766041 0.0036505638 0.014450768
-0.060909517 0.01189522 -0.071869776 0.008136765 0.07126911 0.04206362 -0.052427005 0.017605571
-0.03793522 -0.00058327493 -0.058591086 -0.059674483 -0.03582142 -0.0064582983 -0.014891177 -0.026627759
-0.035191912 -0.05709881 -0.03307831 -0.052662276 0.0061420253 0.03961609 0.021711642 0.0029010635
0.033759344 0.016117731 0.003293542 -0.007906399 0.0056734006 -0.020011364 -0.03600182 -0.03086224
-0.020121904 0.0034357659 0.016584128 0.03157354 -0.012134878 0.010091317 0.008404092 -0.02685156
-0.0066321585 -0.0031446833 0.0065795262 -0.0351658 -0.024374293 -0.015297055 0.017626608 0.025979562
-0.037873603 -0.0073578777 -0.034963503 -0.010058993 -0.018364735 -0.012873794 0.00028703542 0.012791939
-0.012988139 -0.006128705 -0.0035108526 1.7189412e-05 -0.036735523 -0.02045393 -0.0034265995 0.0082017
0.010545228 -0.012760975 -0.02603796 0.0055259685 -0.06488511 -0.016200978 0.04146288 0.023226691
-0.031671833 -0.016389089 -0.0060711703 0.03187916 0.037430495 0.0056078066 0.0015641976 0.0055173878
-0.012262584 -0.01045491 0.03443407 0.015979165 -0.03555112 -0.0004800738 -0.035408825 0.07313847
0.015054525 -0.009282946 -0.029887952 0.010271308 -0.034581948 0.057660174 -0.010981607 0.022753578
0.012778439 0.008698255 -0.00045159942 -0.05917692 0.019996766 0.027392084 -0.06421443 0.015499862
-0.015700229 0.0042198766 -0.05783456 -0.02030181 0.064736106 -0.029290138 -0.027298065 0.035684105
0.0018132089 0.020499025 0.07098158 0.021790328 -0.053684004 -0.030393906 -0.008404668 -0.022788081
0.011040017 -0.03259808 0.04489688 -0.00864902 -0.0033029385 -0.0019102483 0.0069510774 0.0045791543
0.031960532 0.02872375 -0.04629633 -0.027484363 0.046494216 0.012437735 -0.040831327 -0.029252468
0.0016073079 -0.017660895 0.0021587894 0.010360047 0.026928313 -0.0009657892 0.013724514 0.0006589867
0.037344277 0.0010413268 -0.067063585 -0.00057495665 -0.0055149756 0.011606712 -0.04924948 0.009884362
0.021462169 -0.040060494 -0.023088612 0.014208993 0.04576238 -0.0132711055 0.028373474 0.01906351

body.block1.conv.bias f4 [64]
00000000: 9930 763c 394a cabc b47e 4c3c 8874 233c
00000010: bfd8 43bc 6b73 af3c f7b9 12bd ce89 033d
00000020: 5fa3 2d3c c939 abbc 4c47 14bd c8da f9bc
00000030: f7f2 79bc e3cc cdbc 68b9 1abc 5b6b 033d
00000040: c949 dc3c c8c3 0e3b 3a9a c4bc ec42 053d
00000050: df7b efbb e457 04bb 0b26 d93c 7896 fdbc
00000060: 00e2 3b3c e227 e93a 47d2 003d 7c19 e73c
00000070: 51f2 7cbc 35c3 c03c 7635 9abb fc56 0e3d
00000080: dd1c 1fbd ebb1 333c 2f44 2a3b b9fe d6bc
00000090: 1752 023c b682 373c 4022 5abc 12df abbb
000000a0: b4ed a7bc 351b 0b3c cba5 fe3b 61e0 4fbb
000000b0: 64bf 07bd 8766 34bc 5d8b 243c 0c9c 283c
000000c0: a42e 353c bde9 57bc ab8c 053d 7cd5 8eb9
000000d0: 3d8a bd3c 9a09 1b3d bbf2 bbbb 88a7 b8bc
000000e0: 8781 f8bc 460e a0bb 7015 1bbd 4697 e2bc
000000f0: 2ccb 05bd fc5d 433c a0a0 2f3c 400c da3c
0.015026235 -0.024693595 0.01248138 0.009976514 -0.011953532 0.02141734 -0.03582188 0.032113843
0.010598033 -0.020901578 -0.036200806 -0.03049983 -0.015255681 -0.025122112 -0.009443618 0.032084804
0.026890652 0.0021784175 -0.023999322 0.032534525 -0.0073084678 -0.0020193988 0.026507398 -0.030955538
0.011467457 0.0017788375 0.031450536 0.028210394 -0.015438632 0.023530582 -0.00470608 0.034750924
-0.038845886 0.010967712 0.0025980582 -0.026244508 0.007954142 0.0112005975 -0.01331383 -0.005245098
-0.020499088 0.008490373 0.007771229 -0.0031719434 -0.03314151 -0.011010773 0.010042992 0.010291111
0.011058483 -0.013178286 0.032604855 -0.0002724341 0.023137206 0.037850954 -0.005735723 -0.022540823
-0.030335201 -0.004884514 -0.03786224 -0.027660023 -0.032664463 0.011924263 0.010719448 0.02661717

body.block1.norm.weight f4 [64]
00000000: bf8a 833f 64b9 7e3f fcac 813f 2fd8 843f
00000010: 3105 7a3f 7357 7b3f fb3e 853f 045a 823f
00000020: 1c94 793f 6398 823f e830 823f b404 873f
00000030: 3554 853f 266a 7d3f 0a33 833f 8dcc 863f
00000040: bb8b 763f 51a2 763f ffb5 883f cb75 7a3f
00000050: bb9f 743f cc7b 783f 9bc3 783f 82a7 833f
00000060: 0c33 853f 1765 793f 4cbe 803f 7b8a 803f
00000070: 3ae2 773f dffa 863f 01c1 6f3f 9bad 6d3f
00000080: 057d 833f c93e 743f a045 853f bf15 7d3f
00000090: 29b5 843f ea81 793f 14c8 743f e8ae 823f
000000a0: e3c2 833f b880 7c3f b220 7a3f 8bf9 7b3f
000000b0: cbdb 823f ea4e 773f a026 803f 9e86 7b3f
000000c0: 8928 723f 465c 833f f9de 823f 6987 793f
000000d0: 3cb8 713f 55bb 7e3f 4d34 7c3f 9f51 853f
000000e0: c51b 783f e4ea 803f 007d 883f ced2 803f
000000f0: d1a6 7d3f 6b28 633f 72c9 783f a5ec 813f
1.0276717 0.99501634 1.0130916 1.0378474 0.9766417 0.9818031 1.0409845 1.018372
0.9749162 1.0202755 1.0171175 1.054831 1.0416323 0.98990095 1.0249951 1.0531174
0.9630696 0.96341425 1.0680541 0.9783599 0.9555623 0.970639 0.9717347 1.0285494
1.0406203 0.97419876 1.0058074 1.0042261 0.9682957 1.054531 0.93653876 0.92843026
1.0272528 0.954083 1.0411873 0.98861307 1.0367786 0.9746386 0.95617795 1.0209627
1.029385 0.9863391 0.9770614 0.9842765 1.0223325 0.9660479 1.0011787 0.98252285
0.945931 1.0262535 1.0224296 0.97472245 0.94421744 0.99504596 0.98517305 1.0415534
0.9691737 1.0071683 1.0663147 1.0064332 0.99082667 0.8873355 0.9718238 1.0150343

body.block1.norm.bias f4 [64]
00000000: 08b5 cbbd 2eb6 cabd 777d 98bd f853 07be
00000010: 4a09 b2bd 3861 88bd a030 71bd 9302 8dbd
00000020: 30fd 84bd f0f0 cfbd 67fd c2bd 4a66 f2bc
00000030: ef3f f8bb f3b6 a5bd f26a 53bd e423 bdbd
00000040: ecc6 f2bd 901a c3bd 5089 43bd e412 27be
00000050: 7acb cebd 3dc7 9abd f08a a4bd 6d19 3dbd
00000060: 913f e9bd 538d 92bd 8a86 afbd fbd7 fabd
00000070: 9676 19be 0a7f 70bd 26cd 64bd 7d28 85bd
00000080: d8b0 6bbd dcf1 c9bd 2563 71bd 56b9 c8bd
00000090: e206 0fbe 3f2f 92bd 5658 a0bd 5c2d cfbd
000000a0: 4598 0bbe 9886 44bd 4ac6 89bd 7e6c d5bd
000000b0: 2ae9 e9bd 20d6 63bd c598 cabd 3670 ccbd
000000c0: 2482 45bd 7a10 90bd b355 9cbd 384d 66bd
000000d0: 0913 b8bd 1991 fcbd 8884 a2bd b303 a1bd
000000e0: e93d 08be a69a dbbd 357a dbbb 619d 87bd
000000f0: 7132 adbd 00d1 0cbe 3492 adbd 0669 dcbd
-0.09946638 -0.09898029 -0.074458055 -0.13215625 -0.08693178 -0.06659168 -0.058884263 -0.068852566
-0.06493604 -0.10153377 -0.09520989 -0.02958979 -0.007575981 -0.080915354 -0.051615663 -0.09235361
-0.118543476 -0.09526551 -0.047738373 -0.163158 -0.10097404 -0.07557533 -0.08034313 -0.046166826
-0.113890775 -0.07155862 -0.08570583 -0.12248226 -0.14986643 -0.058714904 -0.055859707 -0.06501863
-0.0575417 -0.09860584 -0.058932442 -0.09800975 -0.1396747 -0.07137918 -0.07829349 -0.101160735
-0.13632305 -0.04797992 -0.06727274 -0.10421084 -0.11421426 -0.055624127 -0.0989242 -0.0998234
-0.048219815 -0.07034393 -0.07633533 -0.056225985 -0.08988006 -0.12332363 -0.079354346 -0.07862034
-0.13304867 -0.10722856 -0.006697918 -0.066218145 -0.084568866 -0.13751602 -0.08475152 -0.10762219

body.block1.norm.running_mean f4 [64]
00000000: caa2 60be 8fca 903e d2db b73e 7f54 c9be
00000010: bf58 b73e de66 26bd 22fd 8ebe f742 debe
00000020: 2431 75be 46b0 bfbe 6435 cebd 36db aebe
00000030: ce58 333e 27ba 75bf 0667 89be d652 49be
00000040: 759d 77bd 7148 6b3e 66fe b6be 29cd 0e3e
00000050: 90e5 e63d 9009 a4be 3cb3 07bf e01e f3be
00000060: e8d0 78be 4e01 39be 5804 8bbe 9805 2ebe
00000070: e216 4abe 5402 c4be 0590 a0be e165 2ebf
00000080: 737a 0dbf fa78 be3e 6a13 3d3e 3098 27be
00000090: 14be 1e3d 11a9 05be be5c 19bf 5f85 083d
000000a0: da7b 8d3e 5a60 babe 800b 8ebe 18a9 e2be
000000b0: 7e7b c33e 7283 9abe e80b 21bf bc66 1a3d
000000c0: 3e8b f9be 513e f9bd 8b5d 56be 8b62 48be
000000d0: 6c9b 9dbd 6066 103e 8383 cebe 9f1e 43bf
000000e0: 8558 20be 3459 b03e e702 2cbe f9dc b83d
000000f0: fbb1 28bf d53a b6bd 5edb 04be 5490 3abf
-0.21937099 0.2827954 0.35909897 -0.39322278 0.35809895 -0.040625446 -0.279275 -0.43410465
-0.23944527 -0.37439173 -0.10068777 -0.3415162 0.17514345 -0.9598717 -0.26836413 -0.19660506
-0.060452897 0.22976853 -0.35740966 0.1394545 0.11274254 -0.32038546 -0.53007865 -0.47484493
-0.24298441 -0.18066904 -0.27151752 -0.16994321 -0.19735292 -0.38283026 -0.31359878 -0.68124205
-0.5526497 0.37201673 0.18464437 -0.16366649 0.03875549 -0.13052775 -0.5990714 0.033330318
0.27633554 -0.36401635 -0.2774315 -0.44269633 0.38180155 -0.3017841 -0.6290879 0.03769563
-0.48739046 -0.12170089 -0.20934121 -0.19568841 -0.0769566 0.14101553 -0.4033471 -0.762186
-0.15658768 0.34443057 -0.16797982 0.09026522 -0.65896577 -0.0889794 -0.12974307 -0.7287648

body.block1.norm.running_var f4 [64]
00000000: 7e23 c53e f7df f13e e5c6 d73e 12c4 e83e
00000010: 04e3 9a3e 86eb 643f 216a 143e 97ae 673e
00000020: fb5f ff3e ab64 e43d 50b9 083f bfd3 5a3e
00000030: 9fda 013f c743 d13e 52bd b63e 4720 a13f
00000040: 0342 5e3e aae7 103f c936 3b3e 73e2 a73e
00000050: 660d 323e eab6 b33e e255 af3e a51e 333f
00000060: 20c9 143e 480b a83e ec70 973e 9169 473e
00000070: f8fc 213e 58df 823e aaf9 913f dde0 c83e
00000080: 7237 153f 9a70 a33e 3b19 5d3f b4ad 613e
00000090: b944 513e d029 1a3e ae71 b03e 1ce3 633f
000000a0: 121a 533f a2ec 543e acea 883e ec2c b53e
000000b0: 0d9b 053f 8f4a 073f 2130 a73e 7497 b33e
000000c0: 1d1f 3f3f c6c0 933e ce07 403e dab0 3f3f
000000d0: c2ce 9f3e c72a 3d3e 30df 893e 1b2c 253f
000000e0: 9830 703e 4e1f bd3e 3c1b 433e e629 153f
000000f0: 5a23 863f 6f71 913e 0bc8 0d3e 7d24 fe3e
0.3850364 0.47241184 0.42143932 0.4546209 0.30251324 0.8942188 0.1449361 0.22625194
0.49877915 0.111520134 0.53407764 0.21369837 0.50724214 0.40872023 0.35691315 1.2587975
0.21704869 0.5660349 0.18282618 0.32789955 0.17387924 0.3510049 0.3424521 0.69968635
0.14529848 0.32821107 0.2957834 0.19473864 0.15819156 0.25561023 1.1404316 0.39234057
0.5828773 0.31921846 0.86366624 0.22038919 0.20436372 0.15055013 0.3446173 0.89018416
0.82461655 0.20793393 0.2674154 0.35385835 0.52189714 0.5284814 0.32653907 0.35076487
0.7465685 0.28858012 0.18752977 0.7487923 0.3121243 0.1847335 0.2692809 0.64520425
0.23456037 0.36937946 0.19053358 0.58267057 1.0479538 0.28406855 0.13845842 0.49637213

body.block2.conv.weight f4 [64, 64, 3, 3]
00000000: a061 1f3d 64fd d73c c21d e1bc 91ba 6b3d
00000010: b0be a9bb 945f 273c f84e 713d 9f6b b63c
00000020: 6e27 92ba 652f b7b9 313d 913c df7d 9d3c
00000030: bbe8 4a3c f84f 173d 98ff 5c3b d3fa e0bc
00000040: 6f92 333d 9faa a539 18f8 00bc a66b c03c
00000050: 8870 c83b e584 51bc 1cdd b6bc 52ac 2a3d
00000060: 8063 cfbc 1db5 c63c c45d e03c 2462 27bd
00000070: 924d 40bd b97a b1bc 33e9 883b 478f 52bc
00000080: 2811 083c 8209 a0bc a697 3f3c 3b9f a33c
00000090: 3070 453c 5308 02bc 650e 8c3c 2ae3 fdbc
000000a0: 4ba0 ac3c 1c2d 993c 446a f23b 3f83 0dbd
000000b0: 56f1 a33c 6662 d63c 7dc1 773c f1c5 babc
000000c0: 8eaa 61bc 2be7 27bd 22ae adbc 7003 603d
000000d0: ac11 953b 75de 1c3b 204c fb3c bd83 92bc
000000e0: b3ab f2bc 5400 0b3d 7eac c5bc ad23 fc3c
000000f0: 305b 48bd 2fd0 0bbd 6d81 243a ef0f 0f3c
00000100: fb4a 073d 1840 ae3b 6914 7e3b 08c4 b13c
00000110: cd2b 9b3d 69bb 5fbc aad3 79bc 5e58 7b3d
00000120: d110 e5bc ff03 643d 12a9 a5bc 7bf9 95bb
00000130: 98f9 fabc 3c2b 6abd 9250 ba3c d326 953c
00000140: 1072 343d 0e92 173d 11bf 9a3d 35b9 d63c
00000150: e9cc 3dbd e5ac 68bd 2671 38bd 1713 bc38
00000160: de61 4d3d 355d 4bbd a389 0b3d 25bf 533c
00000170: 6c42 963c 7fc0 a1bc 9035 bf3a ceac 4f3c
00000180: b84d 5f3b 9b75 48bc 110f c03c 9b4f 5f3c
00000190: 958c 73bc 022b ddbc 00d4 f7bb 7471 2f3c
000001a0: 298a 69bc 5354 1bbb b83c 613c 41c2 d13b
000001b0: 52ef 63bc 62f1 eebc 66f2 873b 925f 913c
000001c0: abe3 babb 6600 8f3c 5606 023c 5bd6 e93a
000001d0: 215b af3c c582 24bc 64b6 37bc 5af5 8bbc
000001e0: b6d3 1dbc da7a 563c 8841 093c c95a d63c
000001f0: 871e 843d f4ae 433d d353 113d 049b 8d3c
00000200: 3fc2 9e3b a2bd 453c fcd9 30bc f3bc a23b
00000210: 8674 c0bc 28f5 1fbd c1ec 2b3c 56bb ddbc
00000220: cf99 c03c b09a bbbc 779b a5bc 9b2e 283c
00000230: 33cb f13c 2e50 803c d366 c43c c0f5 9f3c
00000240: c327 843c 1c82 1b3c adfa 273d d296 e1bc
00000250: aa77 0f3c 68c5 c3bc 6787 c23c d276 fb3c
00000260: 63e0 0e3c bfce b33c 2bdc d93c e194 a33d
00000270: b572 cd3a 1eed 523a 9b5a b43c f22d 013d
00000280: 53f5 393c 63bb ca3c 6ca5 41bd c2a9 f2bc
00000290: 9e2c 57bd 96fd 03bd f30f 5abc 599c 103d
000002a0: a4d9 8a3c a4ac 073d 7e1c 073c 9b61 29bd
000002b0: 5399 90bc 7907 4dbd acb2 b53c 389f 363c
000002c0: eb9d a83c ca7f 64bc 1895 0a3c c944 6abc
000002d0: a7ca 243d 39d2 c5b9 2716 ff3b 06a6 093d
000002e0: 5313 82bc 45a4 4f3d ad5f 2d3d aa68 71bc
000002f0: 3d5c 9e3c 4841 4f3c 4b3c bcbc fd13 96bc
00000300: faed 0e3d 4ca1 76bb 06b5 ecb9 6560 bbbc
00000310: 1428 71bc afee 123d b52f 493d e420 9d3c
00000320: 89e5 72ba 7531 f03b 1631 b53b 0ce4 383c
00000330: 4cdb 8b3b 52d4 783c c1f4 29bc 6e15 6dbd
00000340: 0918 dfbb f441 97bb c678 80bc 6119 7eba
00000350: 4040 91bc 8061 123c 6872 e23c 19b5 33bb
00000360: fbee 433b 18ed a7bb c31e 5dbc d543 2bbc
00000370: 324b 463d d62e 8b3c 2de1 42bd 2a68 013c
00000380: 6f03 3ebd 485d cfbc a5be 973c 4c11 f53c
00000390: 15cb bebc a393 11bd 120d 4dbc 52df c83b
000003a0: a3e0 803c 7a2d e7bc 7cfb fbbc 98e6 7c3c
000003b0: 01af a03c e8a6 10bc b507 853c 612b 9f3c
000003c0: e082 163d a71c 2dbd b4d0 b2bb 2b2e 653c
000003d0: 4661 a53c 92be 71bc 1ceb 623c 2e17 ed3a
000003e0: e9d3 81bd fbe9 41bd bce2 753d 30e1 f33c
000003f0: 3e5b 063d c107 35bc a4e8 2f3d e1b1 073c
0.03891146 0.026365943 -0.02748001 0.05755097 -0.0051802024 0.010215659 0.0589132 0.022268115
-0.0011150667 -0.00034939792 0.017729374 0.01922506 0.012384589 0.0369415 0.0033721682 -0.027463352
0.04384082 0.00031598375 -0.00787165 0.02348883 0.0061169304 -0.012788032 -0.02232223 0.041668244
-0.025316 0.024256283 0.027388461 -0.04086508 -0.046948977 -0.021664964 0.00417819 -0.012851543
0.008304872 -0.019535784 0.011693871 0.019973388 0.012050673 -0.007936555 0.017096708 -0.03099211
0.021072527 0.018698268 0.0073979218 -0.034548994 0.020012539 0.026169967 0.015121815 -0.022799464
-0.013773574 -0.040991943 -0.021201197 0.05469078 0.004549226 0.0023936306 0.030675948 -0.017885083
-0.029622888 0.03393586 -0.024130102 0.03077873 -0.04891509 -0.034134086 0.00062753895 0.008731826
0.03303049 0.005317699 0.003876949 0.02169992 0.07576714 -0.013655522 -0.015248219 0.06136357
-0.02796212 0.055667873 -0.02022222 -0.0045768595 -0.030636594 -0.057170138 0.022743497 0.01820699
0.04405409 0.037004523 0.07555974 0.02621136 -0.046337996 -0.05680551 -0.04502978 8.968094e-05
0.05014216 -0.049649436 0.034066807 0.01292399 0.01834222 -0.01974511 0.0014588106 0.012675477
0.0034073424 -0.012235071 0.023444684 0.013629819 -0.01486506 -0.026998047 -0.007563114 0.010708202
-0.014254131 -0.0023701384 0.013747387 0.0064013307 -0.013912039 -0.029167835 0.004148769 0.017745767
-0.0057034097 0.017456245 0.007936081 0.0017840372 0.021405758 -0.0100409435 -0.011212919 -0.017084766
-0.009632995 0.0130908135 0.00837744 0.026166337 0.06451135 0.04777427 0.03548033 0.017285831
0.0048449333 0.012069138 -0.010794159 0.004966372 -0.023493063 -0.03905216 0.010493458 -0.027066868
0.023510842 -0.02290091 -0.020215733 0.010265018 0.029515838 0.015663233 0.023974812 0.019526362
0.016132241 0.00949147 0.041010547 -0.027537737 0.0087565575 -0.023897842 0.023746205 0.030696306
0.00872049 0.02194917 0.026594242 0.07987381 0.0015674444 0.00080461975 0.02201586 0.031537957
0.011349994 0.024747556 -0.0472769 -0.029621962 -0.052532785 -0.03222426 -0.013309467 0.035305355
0.016949482 0.033123627 0.008246539 -0.04135285 -0.017651236 -0.050055955 0.022179924 0.011146359
0.020583114 -0.013946483 0.008458398 -0.014298626 0.040232327 -0.00037731396 0.007784623 0.033605598
-0.015878355 0.05069377 0.04232757 -0.0147344265 0.019331092 0.012649842 -0.022977969 -0.018320078
0.03489492 -0.0037632762 -0.000451483 -0.022873113 -0.014719028 0.035872158 0.049117763 0.019180723
-0.0009265771 0.0073301145 0.005529533 0.011284839 0.0042680856 0.01518734 -0.010373295 -0.057881765
-0.006808285 -0.0046160165 -0.01568259 -0.0009693113 -0.017730832 0.008934379 0.027642444 -0.0027421175
0.0029897082 -0.0051246993 -0.013496104 -0.010453184 0.048411556 0.016990107 -0.047578026 0.00789837
-0.046389993 -0.025313035 0.018523524 0.029915474 -0.023290196 -0.035541188 -0.012515323 0.0061301375
0.015732115 -0.028219927 -0.030759566 0.015435837 0.019614698 -0.008828856 0.016239027 0.019429864
0.036745906 -0.042263653 -0.0054570083 0.013988058 0.020187985 -0.014754908 0.01385 0.0018088573
-0.06339247 -0.04734228 0.060030684 0.029770464 0.03280186 -0.011049212 0.042946473 0.008282156

body.block2.conv.bias f4 [64]
00000000: 075b 21bd d121 05ba c4c9 193d f715 b93c
00000010: da44 8a3c e595 b53c 4b01 f7bc ed43 223c
00000020: d536 6cb9 bf62 003c 7fa0 f63c 0afb a83c
00000030: ec9d 8f3c ca7b 0a3d cbda 01bc b334 ff3c
00000040: 8237 f1bc 65fb 1ebb a714 c43b a5de 973c
00000050: 4668 1d3c abd5 a93a 8ae7 283d d487 f63c
00000060: 91c8 b2bc e6f4 953c 8bc2 11bd 3e8a b7bc
00000070: e575 183d 39e0 4a3c 0e54 2d3c e0f2 acbc
00000080: d3a8 25bd 0a7b 82bc fdbc 6eb9 e6e4 a43c
00000090: 5cb8 01bd a889 13bd 4d6c b2bc 4246 e0bc
000000a0: dcec 9bba 23d0 723c b609 823b 72e0 4c3c
000000b0: 2c32 593b e95f ff3b fbaa e6b9 117a c5bc
000000c0: 624a 193d d133 29bd 8c0d c13c f729 243d
000000d0: 2f08 3dbc 5206 533c ae6e 4fbc 1a0d 5fbc
000000e0: 0efd eb3b b04b c63c 4a62 04bc 2d06 f9bc
000000f0: 0752 febc 66fa f0bc 07a3 ebbc b03d a6bc
-0.03939345 -0.00050785864 0.037545934 0.022593481 0.016878534 0.022166202 -0.030151984 0.00990389
-0.0002252714 0.007836043 0.030105827 0.020627517 0.017531358 0.03380946 -0.007925699 0.031153059
-0.029445414 -0.002425873 0.0059839073 0.018538782 0.00960738 0.0012957355 0.041236438 0.030094065
-0.021824153 0.018305253 -0.03558592 -0.022404786 0.037221808 0.01238256 0.010579122 -0.021111906
-0.040444206 -0.01592781 -0.00022767852 0.020128679 -0.03166996 -0.03601995 -0.021780157 -0.027377252
-0.0011896151 0.0148201315 0.003968443 0.012504684 0.0033141477 0.007793416 -0.0004399641 -0.024106057
0.037424453 -0.04130918 0.02356603 0.040079083 -0.011537596 0.012879925 -0.012660665 -0.0136139635
0.0072017973 0.024206012 -0.008080075 -0.030398453 -0.031044973 -0.029416274 -0.028764261 -0.020293087

body.block2.norm.weight f4 [64]
00000000: 173b 7f3f eede 803f 44fa 783f 4c35 6c3f
00000010: f354 763f 2c05 853f 4b9c 7a3f 178f 853f
00000020: 2af7 773f 3769 7a3f 148a 7d3f b664 753f
00000030: ba59 7b3f 0c84 883f b2cd 843f 3366 7f3f
00000040: 5ebc 843f f03c 803f 73a8 833f 5158 783f
00000050: 1853 7a3f 9c22 7f3f 4e11 813f 48e8 7f3f
00000060: b659 883f 9a02 7e3f 64ca 813f bacc 843f
00000070: bf32 7c3f f13a 873f a8c9 833f ff68 773f
00000080: c5a0 743f a578 793f a341 723f e768 7c3f
00000090: 85b8 833f 715b 833f 63fb 883f 3702 843f
000000a0: fd13 783f 7fc0 7a3f 79f6 773f 2d07 7d3f
000000b0: 970f 833f 12a8 8a3f c68a 783f 6b32 773f
000000c0: da28 743f b2dd 753f 338d 823f 7620 7b3f
000000d0: 1368 773f 7114 6d3f 6e8e 783f 0b1f 813f
000000e0: 0c06 853f a18d 873f de7c 6d3f e438 723f
000000f0: ffdd 803f 9c4f 883f 1ea6 7e3f 7ee5 863f
0.9969954 1.0068033 0.97256875 0.92268825 0.9622337 1.0392203 0.97894734 1.0434293
0.9686152 0.97816795 0.99038815 0.958568 0.98183787 1.0665298 1.0375273 0.9976532
1.0369985 1.0018597 1.0285782 0.9700976 0.9778304 0.99662185 1.0083406 0.9996381
1.0652378 0.9922272 1.013989 1.0374978 0.9851493 1.0564862 1.0295916 0.96644586
0.95557815 0.97449714 0.94631404 0.9859757 1.0290686 1.0262281 1.0701717 1.0313176
0.969055 0.97949976 0.9686046 0.98839074 1.0239133 1.0832541 0.9708675 0.96561307
0.95374835 0.96041405 1.019934 0.98096406 0.9664318 0.92609316 0.9709233 1.0087599
1.039247 1.0590097 0.9276866 0.9461806 1.0067748 1.0649295 0.99472225 1.0538785

body.block2.norm.bias f4 [64]
00000000: 3d3f 89bd fc06 b1bd ec50 17be 2b73 bcbd
00000010: fc83 a6bd 4554 aebd e405 83bd 8975 c4bd
00000020: 54bd 84bd 69f2 5cbd 1412 a4bd 7dcb 60bd
00000030: 3776 debc fabd 9cbd 7a7d 86bd e574 89bd
00000040: 1665 aebd 4411 3cbd 0512 d2bd cd31 3dbd
00000050: fb61 71bd b982 e4bd 844a 9bbd 317e 62bd
00000060: c408 b8bc a832 53bd 61f5 84bd 2403 96bd
00000070: 301d a3bd 8e62 50bd 3a3e 44bd 563a 06be
00000080: ccc3 b4bc 21bb b8bd cca7 ecbd ffe9 85bd
00000090: cee8 46bd 853c 34bd 6687 a4bd 6656 95bd
000000a0: f3e1 65bd 28af 92bc f573 8fbd beeb ccbd
000000b0: 270d 16bd 5d79 d0bd c024 f6bd 8d59 eebc
000000c0: 9129 92bd 94bb 56bd b0ef 53bd 6202 d8bd
000000d0: 9f03 53bd abd4 a7bc ce43 90bd 3d0b 97bd
000000e0: 4aea 82bd ac9a e3bd 26b9 96bd 9588 4abd
000000f0: 3c99 fcbd c522 cdbd b0a2 aabd f7cf 72bd
-0.06701515 -0.0864391 -0.14776963 -0.09201654 -0.08130643 -0.08512167 -0.06397608 -0.095927306
-0.06481424 -0.053942118 -0.08011261 -0.05488156 -0.027155979 -0.07653423 -0.065669015 -0.06711749
-0.08515374 -0.045914903 -0.10257343 -0.04619007 -0.058931332 -0.11157746 -0.07582572 -0.055296127
-0.022465117 -0.05156198 -0.06492115 -0.07324818 -0.079645514 -0.05087524 -0.047910906 -0.13108191
-0.02206602 -0.09020067 -0.11555442 -0.06538772 -0.048561864 -0.04400303 -0.08033638 -0.0729187
-0.056123685 -0.017905787 -0.07004539 -0.10005902 -0.036633637 -0.10179398 -0.12018728 -0.029095436
-0.071368344 -0.052424982 -0.051742256 -0.105473295 -0.051517125 -0.02048715 -0.07044183 -0.073751904
-0.06392343 -0.11113486 -0.07359533 -0.04944666 -0.12333915 -0.100163974 -0.083318114 -0.059280362

body.block2.norm.running_mean f4 [64]
00000000: d830 aa3e 3d08 26bd 2f9b 08bd 3b5a 873e
00000010: a6ea e139 a390 24be 4eb1 f8be b130 633d
00000020: e257 4b3d 80ac 2bbd 45bb 53bd 76c2 153d
00000030: 3e6c 91be f99e 8e3d 9bfb 34be 4308 a43d
00000040: 4ed2 743d 05e4 16be 84c2 643e 6f69 8dbd
00000050: 44ee 18be c12c e33d 060c ee3d 5b91 1abe
00000060: 4c55 6f3c 99c8 123e 22e4 963e ed12 cdbc
00000070: 0eaa 983e 87c4 c43d 25a3 79be e7ac 46be
00000080: 6588 debe 299a ab3e 7cd3 fabd 68f3 e93e
00000090: dcbd 57be 15f4 d5bc 87fd 0a3e 6839 bdbe
000000a0: feba 48be fb3b 863d 40fb ff3c 0c25 833c
000000b0: 0e6e 8abd 7a82 12be a9e5 453d 44f1 303e
000000c0: c05a 27be ddd2 9abe 3363 9f3e b9fd 723e
000000d0: 94e0 d9bd a64f a6bd f556 79be aef5 d43d
000000e0: a97d 4cbe 89fe 2fbe b2bf 03bf 5cda 143e
000000f0: 71a3 febd e562 58be 9e85 2b3d 2e2f f93d
0.3324039 -0.0405352 -0.03335112 0.26436028 0.0004309017 -0.160708 -0.48572773 0.055466358
0.04964436 -0.041912556 -0.051692266 0.036562406 -0.28402895 0.069639154 -0.17674105 0.08009388
0.059770875 -0.1473542 0.22339827 -0.069048755 -0.14934641 0.110925205 0.11623387 -0.15094511
0.014607739 0.14334334 0.29470927 -0.025033439 0.2981724 0.09607797 -0.24378641 -0.19401895
-0.43463436 0.33516052 -0.12247369 0.45693517 -0.2106852 -0.026117364 0.13573276 -0.3695786
-0.19602582 0.06554409 0.031247735 0.016008876 -0.067592725 -0.14307585 0.048314724 0.17279536
-0.16343212 -0.30239 0.3113037 0.237296 -0.10638538 -0.081206605 -0.24349578 0.10398422
-0.1996981 -0.17186941 -0.5146438 0.14536422 -0.12433518 -0.21131475 0.041875474 0.12167202

body.block2.norm.running_var f4 [64]
00000000: 20c0 293f f51b 0a3f c404 e53e 3686 183f
00000010: d9db 783e 1298 f23e 7865 103f 23b5 793e
00000020: 8f4a 853e 7c65 d73e 6594 043f 1985 923e
00000030: 82a8 f03e 5d17 d83e beca 113f f8fa b13e
00000040: 4b0d 253f 5ffc e43e 0558 dd3e ced1 e83e
00000050: 261c 433f c408 e23e 98aa 763f f065 bb3e
00000060: 0883 073f fe5b 8b3e 4ad9 1d3f e0bc 8f3e
00000070: 5b43 373f 8cac e23e aeb5 ea3e e6c1 8c3e
00000080: f3e4 5a3e d5e2 253f 5fcc 9d3e 42ee ae3e
00000090: 74ba d13e e62e d23e 33f5 173f c7ac 8b3e
000000a0: 36a0 c63e 3b2b fa3e db0e ac3e 4da8 c33e
000000b0: 19b1 c93e 466c d73e e6c1 543e f10f 3d3f
000000c0: 281c a13e 765f 953e 27f7 6b3f 4aa7 c03e
000000d0: a9b3 203f ee2f 023f 70f5 b03e 5a5a 283f
000000e0: 781a 8d3e 7e9c 573e 8999 f63e ada0 b83e
000000f0: 5172 1a3f bc6a 303e 88fa ac3e db49 2e3f
0.66308784 0.5394891 0.44730198 0.5957979 0.24302615 0.47381645 0.5640483 0.24385504
0.26033446 0.42069614 0.5178893 0.2861717 0.4700356 0.42205325 0.56949985 0.34761786
0.6447341 0.44723794 0.43231216 0.45472568 0.76214826 0.44147313 0.96354055 0.3660121
0.5293431 0.27218622 0.6165968 0.28073788 0.7158715 0.44272268 0.45841736 0.27491683
0.213764 0.64799243 0.30819985 0.3416615 0.40962565 0.41051406 0.5935852 0.27280256
0.38794106 0.48861107 0.33605084 0.3821434 0.39392927 0.42074794 0.20777091 0.7385245
0.31466794 0.29174393 0.92174 0.3762763 0.6277414 0.50854385 0.34562254 0.65762866
0.27559257 0.21055791 0.48164013 0.36060086 0.60330683 0.17228216 0.3378489 0.68081445

body.block3.conv.weight f4 [64, 64, 3, 3]
00000000: 3ec5 ce3b 9f4b f13c 914f 5eb8 4dd0 ebbc
00000010: 3c7f 28bc 8ab6 983b 1f7b 22bc 56a0 93bd
00000020: f284 0abd ae59 f73c 0068 44bb 6a62 1a3d
00000030: 7a28 9b3b aeee f7bc 4ca6 cd3c 3d03 6bbd
00000040: 30b6 f8ba cfb8 183c 6c99 f5bb 8bc3 40bd
00000050: c072 b4bc 8a77 1fbd 8620 f63b c4a2 f1bc
00000060: 8461 82bc 7a9e 33bd 3f1a ed39 e8a1 96bc
00000070: 78e9 2a3d 6b4c 2fbc 67fc eabc da1f 76bd
00000080: 7edb 5e3c d7a7 95bc 9730 13bd ebe5 363a
00000090: 0e1f 7f3c bb2e 283d 718f 12bc b5c3 d63c
000000a0: 80e9 ec3b 7047 93bc 1138 86bc 4451 96ba
000000b0: dfd2 7cbc 241a 523c e339 203d 88d9 2dbc
000000c0: a9b7 febc 9c74 953c ed2e 473d 506b fbbc
000000d0: bc26 fdbc c870 1d3c 8fea 43bc 7f39 953a
000000e0: 0a33 383c 0b85 5fbc 5487 343c c5eb 333d
000000f0: 00e4 47bb 5f06 503c 378c e539 fae8 5abc
00000100: 8077 503b c899 9abb 4563 d53c 1720 013d
00000110: 27b0 febb dada 4a3c af6f 93bc 9c44 1a3b
00000120: 1eb7 80bc 7c2c 80bc ac30 013d 65c1 343d
00000130: 5480 9e3c 2ff9 9bbc 86cf 0ebd 8995 21bc
00000140: 05b8 c33a 39ec 683d f49d 4ebd c4e3 a2bc
00000150: ebd6 0dbc 1f4e abbc f3f5 fb3b e5d6 3abc
00000160: b2b3 4abc 4a68 fb3c 54a1 3b3c f02c 8fbc
00000170: ef8e 07bc 62b1 cdbc 5953 bcbc 31ff c2b9
00000180: f7ff 023d 2327 b9bb 67a9 183d 617a de3b
00000190: b8ba 823b 5152 bd3c 076d c33c f87c 6c3d
000001a0: d641 bd3c 5912 9bbc 2652 03bd b163 e93c
000001b0: a361 083d 06a9 2cbb 1de0 4bbd 69d8 923c
000001c0: 83e6 bfbb 637f 80bc 3c91 f03c 46d7 57bb
000001d0: 36c0 24bc 9c7b b9bb 41a7 f93b c325 5f3d
000001e0: bb52 c23c d954 a73c df89 a8bc ca9b 0b3d
000001f0: 17f0 7e3a 8cd6 0dbc 36c3 0abc 0879 ccbb
00000200: c13c 13ba c47b 3e3c a0d4 a53c caa2 933c
00000210: 397a 4a3d 0d37 55bd 3500 9bbc 2bfe 2ebc
00000220: 1bb3 533b 2747 a43b 8c91 bf3c 74fa 87bc
00000230: 4967 29bd c217 643b 0fd6 b13c d22b 17bd
00000240: a344 1b3d 3ff9 76bc 4175 213d a78c b53c
00000250: 1ba9 0e3c 8fce 25bc ff18 963b 6c56 163b
00000260: 459a 113a 4a56 e1bc 9ef8 443c fcad 393b
00000270: 34c0 f4bb 0b43 35bc dfad e1bb e520 bf3c
00000280: 3674 23bd 341e b9bc 3185 913d c76d a83c
00000290: 0bdd d33b ea0a cf3c c1a4 fdbc 3903 14bb
000002a0: de2e d3bc 7b92 a9bc 3c0f 1c3b 91a1 233c
000002b0: 2931 e6bb 1865 9f3c 577e 38bd a52a 17bb
000002c0: 3187 0bbd 4ef3 91bc b367 113d df2f e63c
000002d0: 900f d33c ef18 21bc bcf1 23bc c630 5e3b
000002e0: 6e38 353d b43e 5c3c 3835 e63b 97cd c03a
000002f0: 8352 1dbc 53a6 ad3a 8f9c 3ebc 1321 a93a
00000300: 388a 19ba 8ddb 45bc 4598 533c d2e0 fc3b
00000310: cfcd 493c 9c8b 5cbd 79a5 08ba 378e 433d
00000320: c6d8 c839 dd23 b43c ce93 c73c e4a7 f83b
00000330: 896a adbc 751a 03bd 6018 37bd 86c4 073d
00000340: e45a ee3c 350f 8abc b55a 673c a00e 7c3b
00000350: fb19 dd3c 2c1f 60bd c5bf 4dbb e4ec a3bc
00000360: 0265 7e3c b9e1 263d 4565 283d 135f 513a
00000370: 0ce1 203d e847 a43c 46f0 583c ed69 2e3c
00000380: 4488 dbbb 1d66 08bd bf35 1d3d 8681 f1bc
00000390: d305 283c b1d0 6cbd 1dd1 c6bc 482b 883c
000003a0: cf4a 1dbd 6dec 20bc 60ce 07bc ef6c 923c
000003b0: ff03 c1bc 85f6 b33b cb40 45bc cd5d 87ba
000003c0: 9939 3cbd bb8e 22bd 6a6b 3cbd e941 143d
000003d0: 7eba 48ba 0371 623b ea0d 993d 1c2f 8d3c
000003e0: cfdc 863c eedf d53b adb4 60bb f42d a33c
000003f0: 3690 8a3d 0edd e0bb 0b72 cfbb fdcf 0338
0.006310134 0.029455004 -5.3003027e-05 -0.028785849 -0.010284241 0.004660432 -0.00991705 -0.07208316
-0.033818193 0.03019413 -0.0029969215 0.03769151 0.00473505 -0.030265179 0.02510371 -0.057376135
-0.0018975195 0.009321406 -0.007495096 -0.047061484 -0.022027373 -0.03893236 0.0075112013 -0.029496558
-0.01591564 -0.043852307 0.00045223717 -0.01838775 0.04172656 -0.010699372 -0.028684808 -0.06008897
0.013602136 -0.018268509 -0.03593501 0.00069770095 0.015571369 0.04106019 -0.008945332 0.026216367
0.007229984 -0.0179784 -0.016384156 -0.0011468311 -0.015431135 0.012823615 0.039117705 -0.0106109455
-0.031093435 0.01824408 0.048628736 -0.030690819 -0.030902259 0.009609409 -0.011957779 0.0011384933
0.011242637 -0.01364256 0.011018593 0.04392602 -0.0030500889 0.0126968315 0.00043782752 -0.01336121
0.0031809509 -0.004718039 0.026048312 0.031524744 -0.007772464 0.01238128 -0.01799759 0.002353943
-0.015712317 -0.015646212 0.031540558 0.044129748 0.019348301 -0.019039718 -0.03486588 -0.009862312
0.0014932161 0.056865904 -0.050443605 -0.019883998 -0.0086571975 -0.020911274 0.0076892315 -0.011403774
-0.012371944 0.030689377 0.011452038 -0.017477483 -0.008273824 -0.025108997 -0.022988962 -0.00037192696
0.03198239 -0.0056504174 0.03727093 0.006789491 0.0039895438 0.02311054 0.0238557 0.057736367
0.023102682 -0.018929647 -0.032060765 0.02848992 0.03329624 -0.0026345863 -0.049774278 0.017925458
-0.0058563366 -0.015685743 0.029366128 -0.003293471 -0.010055592 -0.0056604873 0.007618815 0.05447937
0.02372109 0.0204262 -0.020573555 0.03408412 0.0009725107 -0.008657109 -0.0084693935 -0.006240014
-0.0005616658 0.011626188 0.020242989 0.01802196 0.049432967 -0.052054454 -0.018920997 -0.010680716
0.00323028 0.005013365 0.023384832 -0.016598918 -0.041358266 0.00348042 0.021708516 -0.036907025
0.037907254 -0.015074073 0.039418463 0.022161795 0.00870731 -0.010120048 0.0045806165 0.0022939695
0.0005554299 -0.027506966 0.012022166 0.0028332463 -0.0074692015 -0.011063348 -0.006887182 0.023331115
-0.03990575 -0.02259741 0.07105482 0.020560158 0.0064655594 0.025273759 -0.03096235 -0.0022584929
-0.025779184 -0.02069973 0.0023812791 0.009987251 -0.0070249033 0.019457385 -0.045042362 -0.002306619
-0.034064475 -0.017816212 0.035499286 0.028098999 0.025764257 -0.009832605 -0.010006364 0.0033903583
0.04424327 0.013442684 0.007025387 0.0014709708 -0.009602192 0.0013248421 -0.011634006 0.0012903534
-0.0005857083 -0.012076271 0.012914722 0.0077172304 0.012317135 -0.05384408 -0.00052126456 0.04774305
0.0003830848 0.021989757 0.024362471 0.0075883735 -0.021168964 -0.032007653 -0.04470098 0.033146404
0.029096074 -0.016852954 0.014120747 0.0038460866 0.026989928 -0.054717228 -0.003139482 -0.02001042
0.015527012 0.04074261 0.041112203 0.00079868844 0.03927712 0.020053819 0.013240879 0.010645372
-0.0066995937 -0.033300508 0.038381334 -0.029480707 0.010255295 -0.05781621 -0.024269635 0.0166222
-0.03840142 -0.009821993 -0.00828895 0.01787421 -0.023561476 0.005492034 -0.012039374 -0.0010327637
-0.045953367 -0.0396869 -0.046000876 0.03619567 -0.0007657184 0.0034552224 0.07473357 0.017234378
0.016462712 0.0065269386 -0.0034287379 0.019919373 0.06765787 -0.0068622893 -0.0063307337 3.1426538e-05
