SinGAN/old Trained Model/scale_factor=0.750000,alpha=10/1/netG.pth (torch, 130902 bytes, 26 tensors)

head.conv.weight f4 [32, 4, 3, 3]
0	0x3c4a52a7	0.012348807
1	0xbbca3eeb	-0.006172051
2	0xbca4d669	-0.02012177
3	0xbce61cbe	-0.028089877
4	0x3ca6e462	0.020372573
5	0x3d0e67c0	0.034766912
6	0xbcd49777	-0.02595113
7	0xbcafa5b9	-0.021441327
8	0xbd8de080	-0.069275856
9	0x3c696a14	0.014246482
10	0x3c485306	0.012226826
11	0x3d1864e1	0.03720558
12	0xbc6db827	-0.014509237
13	0xbcb3781a	-0.021907855
14	0x3cef5040	0.02921307
15	0xbc334329	-0.010941305
16	0x3c92b47b	0.017908325
17	0xbda39729	-0.07987816
18	0xbb83bdbe	-0.0040204218
19	0x3b832916	0.0040027006
20	0x3cf1e118	0.029526278
21	0x3cb2c355	0.021821657
22	0x3c3a008d	0.01135267
23	0x3bd82d90	0.0065972283
24	0xbd0fc27e	-0.03509759
25	0xbc9ec6cb	-0.019381901
26	0xbdc1e355	-0.09467188
27	0xba0927ce	-0.00052320666
28	0x3cb14471	0.02163908
29	0x3cd3f9ba	0.025875915
30	0xbc72e984	-0.014826182
31	0x3d0e1b3f	0.034693953
32	0x3d41f0d0	0.047348797
33	0xbd650151	-0.05590946
34	0xbd0b362b	-0.033987205
35	0xbe0357c8	-0.12826455
36	0xbb8ab36b	-0.004232814
37	0x3abcdb3b	0.0014408597
38	0xbba9dd90	-0.005183883
39	0xbcea24f2	-0.02858207
40	0xbc3caf9a	-0.011516476
41	0x3b44e1c0	0.0030041784
42	0xbcd76e04	-0.026297577
43	0xbc080ac7	-0.008303351
44	0x3d951cd2	0.07280888
45	0xbb938043	-0.004501374
46	0x3c63d452	0.013905602
47	0x3ce91b7a	0.028455485
48	0x3c10af90	0.00883092
49	0xbc6aa4c6	-0.014321512
50	0xbc83658b	-0.01603963
51	0x3bd572e0	0.0065139383
52	0xbd239a61	-0.03994215
53	0x3d188ebd	0.0372455
54	0xbc1e02c0	-0.00964421
55	0x3cd2ada2	0.02571756
56	0x3c374f27	0.011188305
57	0xbd1463f4	-0.036228135
58	0xbbc39062	-0.0059681395
59	0xbc06b24f	-0.008221223
60	0xbd81463c	-0.06312224
61	0xbc929d24	-0.017897196
62	0x3d8eeff6	0.06979363
63	0x3add2159	0.00168709
64	0xbcc9cb50	-0.02463308
65	0xbd293677	-0.041311707
66	0x3ce1cf72	0.027564738
67	0x3c59a26e	0.013283355
68	0xbc0a203f	-0.00843054
69	0x3d5f888b	0.054573577
70	0x3c073227	0.008251703
71	0x3dbf135a	0.09329863
72	0xbd100dfa	-0.03516958
73	0x3cb80ae6	0.022466134
74	0x3e1db654	0.15401584
75	0x3cc586ed	0.02411219
76	0xbc7ed73d	-0.0155542465
77	0x3ba9a569	0.005177189
78	0xbc3bd1fd	-0.011463639
79	0xbc81d27e	-0.01584744
80	0x3c63e94b	0.013910602
81	0x3ce64654	0.028109707
82	0xbc418c8d	-0.011813295
83	0x3df6c96c	0.12050137
84	0xbd046456	-0.03232225
85	0xbc414a6b	-0.011797528
86	0xbcb8a71c	-0.022540621
87	0xbcae470a	-0.021274108
88	0xbc732d14	-0.01484229
89	0xbcdb200f	-0.026748685
90	0xbcdd9790	-0.02704981
91	0xbc904e19	-0.017615365
92	0x3dba117e	0.090853676
93	0xbd3825d9	-0.04495797
94	0xbc40f6a7	-0.0117775565
95	0xbc76e7cb	-0.015069912
96	0xbc291628	-0.010320224
97	0xbc435f65	-0.011924599
98	0xbd546493	-0.051853728
99	0x3d358eda	0.044325687
100	0x3c234ba7	0.009966767
101	0x3e07ef37	0.13274847
102	0x3d09465c	0.033514366
103	0x3ca31a59	0.019910024
104	0x3c571a87	0.013128883
105	0xbcf86075	-0.030319432
106	0xbb2f51f8	-0.0026751738
107	0x3ccc4864	0.024936862
108	0xbd4eab28	-0.050456196
109	0x3c29f567	0.01037345
110	0xbc6b4e6b	-0.014361958
111	0x3b7b1fb2	0.0038318452
112	0xbcaeb0d1	-0.021324547
113	0x3cc484e8	0.023989156
114	0xbd896d9b	-0.06710359
115	0xbce75e01	-0.028243067
116	0xbbdaa5f6	-0.006672616
117	0xbd6949a8	-0.05695501
118	0x3c049f3d	0.008094606
119	0xbb2fdd98	-0.002683496
120	0x3d468758	0.048468918
121	0xbcc0240d	-0.02345469
122	0xbc5b5117	-0.013386033
123	0xbc1e7e5d	-0.009673682
124	0x3c156ca7	0.009120143
125	0xbbecb3ba	-0.0072235735
126	0xba5b8632	-0.00083741837
127	0xbc967ada	-0.018369127
128	0x3c956bde	0.018239912
129	0x3d86a21a	0.06573887
130	0x3d5d5737	0.054038253
131	0x3ca648b5	0.020298341
132	0x3bdafd6e	0.006683043
133	0xbca291ee	-0.019844975
134	0x3c501ae9	0.012701728
135	0xbd933e4f	-0.07189619
136	0xbc7b23f8	-0.0153284
137	0xbc4b1d3c	-0.012397107
138	0x3d20ec8a	0.03928808
139	0x3cc5d053	0.024147188
140	0x3c6c753f	0.0144322505
141	0xbd1e0c04	-0.038585678
142	0xbb4da4a2	-0.0031378646
143	0xbcbf0524	-0.02331788
144	0x3c747355	0.014920075
145	0x3c7b9591	0.015355484
146	0xbd975dd3	-0.073909424
147	0x3c14899a	0.00906601
148	0xbbe4ff12	-0.0069884146
149	0x3c4bee83	0.012447002
150	0x3c89e44a	0.01683249
151	0xbca72795	-0.020404616
152	0x3cc545a8	0.024081066
153	0x3c7e5fcb	0.0155257685
154	0x3b3c3b23	0.0028721772
155	0xbda52b0b	-0.080648504
156	0x3bdd1de1	0.0067479466
157	0x3ca32964	0.019917198
158	0x3cc9b9f0	0.024624795
159	0x3c1dc01a	0.00962832
160	0xbc89dbeb	-0.016828498
161	0xbd0a9ff4	-0.03384395
162	0x3b84d863	0.0040541156
163	0xbb51c616	-0.0032008938
164	0xbe2f3e00	-0.17113495
165	0xbcb17724	-0.021663256
166	0x3c53321f	0.012890368
167	0xbd470fa9	-0.04859892
168	0xbc8c3526	-0.017115187
169	0x3d155f90	0.03646809
170	0x3d63fa58	0.05565867
171	0xbb282514	-0.0025656866
172	0x3d06bf61	0.032897357
173	0xbe225b0b	-0.15855043
174	0x3bee9553	0.0072809844
175	0x3b126029	0.0022335148
176	0x3cdec753	0.027194655
177	0x3c23a608	0.009988315
178	0x3cded043	0.027198916
179	0xbce7b1fb	-0.02828311
180	0xbd18b0b8	-0.037277907
181	0x3c92d066	0.017921638
182	0x3d6387b0	0.055549324
183	0xbd1b051f	-0.03784668
184	0x3c87e822	0.016590182
185	0xba48c58c	-0.00076588313
186	0xbbf5defa	-0.0075033875
187	0xbbe494ef	-0.006975762
188	0xbd28f6ed	-0.04125111
189	0x3d40e51f	0.047093507
190	0x3cc5dd37	0.024153335
191	0x3ca20c73	0.019781327
192	0xbd025912	-0.031823225
193	0xbb2f33b6	-0.0026733703
194	0x3d25495c	0.040353164
195	0xbd748110	-0.059693396
196	0x3c11a02a	0.008888284
197	0xbd6179ef	-0.055047926
198	0x3d681a31	0.056665603
199	0x3cd487ce	0.025943663
200	0x3cf57fe7	0.029968215
201	0xbc10eeeb	-0.008846025
202	0xbcd297dd	-0.02570718
203	0x3be62562	0.0070234993
204	0x39af1ca0	0.00033399928
205	0x3a6a9fc9	0.00089502014
206	0xbdebe597	-0.115184
207	0xbd2ce0b9	-0.0422065
208	0xbd07ab40	-0.0331223
209	0xbd00fc5f	-0.03149068
210	0xbc9cb747	-0.019130362
211	0x3ccb4e24	0.024817534
212	0x3c97145a	0.018442322
213	0xbd12e88c	-0.035866305
214	0x3b2897a0	0.0025725141
215	0xbd90c88a	-0.070695
216	0x3bd84d76	0.006601031
217	0x3cd6ebce	0.026235487
218	0xbd3e86ec	-0.04651539
219	0x3c6072fc	0.013699289
220	0x3cd91240	0.02649796
221	0x3d1a3458	0.037647575
222	0x3ca83fa2	0.020538155
223	0xbc4d2745	-0.01252157
224	0x3d21c569	0.039494906
225	0x3c0ad809	0.008474358
226	0x3d4800aa	0.04882876
227	0xbd8e1dc3	-0.0693927
228	0x3cf3378b	0.02968957
229	0x3c9be3a8	0.019029453
230	0x3c19fd45	0.009398763
231	0x3ba09324	0.004900353
232	0x3c8f7f48	0.017516747
233	0xbcd9abb9	-0.026571142
234	0x3c93027b	0.017945519
235	0x3ce45ea2	0.027877156
236	0xbdd147fd	-0.10218809
237	0xbd0bd097	-0.034134474
238	0x3c1ad6bf	0.0094506135
239	0x3d1a4581	0.03766394
240	0xbc94b143	-0.018150931
241	0x3c23f371	0.010006771
242	0x3ca6d9ea	0.020367581
243	0x3d58388b	0.0527883
244	0x3b274cef	0.0025528034
245	0xbdea4fda	-0.11441012
246	0x3d5acbc3	0.05341698
247	0x3d041ab1	0.032252017
248	0xbc016a18	-0.00789883
249	0x3cd81fab	0.026382288
250	0x3c817e67	0.015807344
251	0xbba82f92	-0.005132624
252	0x3c6c57be	0.014425216
253	0x3c41385a	0.01179322
254	0xbc0319c9	-0.008001753
255	0x3c8bc305	0.017060766

head.conv.bias f4 [32]
0	0x3da195a0	0.07889867
1	0xbaf28474	-0.0018502609
2	0x3e08b720	0.13351107
3	0x3d614038	0.054992884
4	0x3da5b5fd	0.08091352
5	0x3dc92c68	0.09822923
6	0x3dead46c	0.114662975
7	0x3dee72d9	0.11642999
8	0x3de8a913	0.11360373
9	0x3bbdef88	0.0057963766
10	0x3d5085ef	0.05090898
11	0xbe31353b	-0.17305462
12	0x3e38b3cb	0.18037336
13	0xbdfc3017	-0.1231386
14	0xbd5ecd57	-0.054395046
15	0x3d85b15f	0.065279715
16	0xbd2cc766	-0.04218235
17	0xbdc4bfb8	-0.0960688
18	0x3e1c6278	0.15271938
19	0x3e1409ff	0.14456938
20	0x3e0553e3	0.13020281
21	0xbded8877	-0.11598294
22	0x3dab359a	0.08359833
23	0xbd1a7418	-0.037708372
24	0x3c67a9b6	0.014139583
25	0x3dd77404	0.10520175
26	0x3b077265	0.002066755
27	0x3da98f64	0.08279303
28	0x3da23dfd	0.079219796
29	0x3de48974	0.111590296
30	0xbe01e2f3	-0.1268423
31	0x3b872f28	0.0041254945

head.norm.weight f4 [32]
0	0x3f87e52a	1.061681
1	0x3f73d08f	0.9524011
2	0x3f8bb5ba	1.0914834
3	0x3f742147	0.9536328
4	0x3f7acd35	0.9796937
5	0x3f85eac6	1.0462272
6	0x3f80ae82	1.0053256
7	0x3f661d7b	0.89888734
8	0x3f7f07b8	0.9962115
9	0x3f81fb4a	1.0154812
10	0x3f75ad48	0.9596753
11	0x3f6dc6ac	0.92881274
12	0x3f8942dd	1.072353
13	0x3f7c7036	0.9860872
14	0x3f6a9080	0.9162674
15	0x3f6758d5	0.9036992
16	0x3f6b9d77	0.9203715
17	0x3f7e8fa2	0.99437916
18	0x3f7be207	0.98391765
19	0x3f89a2cf	1.075281
20	0x3f6c0256	0.92191064
21	0x3f70f367	0.941214
22	0x3f82a097	1.0205258
23	0x3f6e68f0	0.9312887
24	0x3f771e12	0.9653026
25	0x3f893ff5	1.0722643
26	0x3f754330	0.95805645
27	0x3f88d6fa	1.0690606
28	0x3f83f62b	1.03095
29	0x3f8024f0	1.0011272
30	0x3f6e0f45	0.9299205
31	0x3f72dc6e	0.948676

head.norm.bias f4 [32]
0	0xbd2da204	-0.04239084
1	0xbd41ee6b	-0.047346514
2	0xbd55a907	-0.05216315
3	0xbcb7fd37	-0.02245961
4	0xbcbd3401	-0.023096086
5	0xbd7eb75e	-0.06218659
6	0xbd86aeae	-0.06576286
7	0xbbdc3639	-0.006720331
8	0xbcc0fbef	-0.023557631
9	0xbccd1c4a	-0.025037903
10	0xbc9cb993	-0.019131457
11	0xbca81cca	-0.02052154
12	0xbbfea985	-0.007771673
13	0xbc059654	-0.008153517
14	0xbda79783	-0.081831954
15	0xbd09efdd	-0.033676017
16	0xbd5c390e	-0.05376535
17	0xbd9aa6e4	-0.07551363
18	0xbd7ad4c9	-0.061238084
19	0xbd14b59c	-0.03630601
20	0xbc002e8a	-0.007823596
21	0xbd53f0f3	-0.05174346
22	0xbcc06d94	-0.02348975
23	0xbc4390e2	-0.011936398
24	0xbda8db07	-0.08244901
25	0xbd6a9fff	-0.05728149
26	0xbdea0678	-0.11427015
27	0xbd543222	-0.051805623
28	0xbcc6cf16	-0.024268668
29	0xbd8ec024	-0.06970242
30	0xbda3f986	-0.08006577
31	0xbd72e8d3	-0.05930407

head.norm.running_mean f4 [32]
0	0x3e1a09d1	0.15042807
1	0xbc96dc67	-0.018415643
2	0x3d6d6240	0.057955027
3	0x3dec578e	0.11540137
4	0x3e0bf34d	0.1366703
5	0x3e18e5a8	0.14931357
6	0x3d6cd9c4	0.057824865
7	0x3df7d5d8	0.12101334
8	0x3d0af883	0.033928405
9	0xbd3af6e0	-0.045645595
10	0xbc9313a6	-0.017953705
11	0xbe6be7ad	-0.23037596
12	0x3dc64937	0.096819334
13	0xbdc9a52a	-0.09845956
14	0xbe0c0710	-0.13674569
15	0xbc3116c1	-0.010808648
16	0xbe05ee6e	-0.13079235
17	0xbdf317db	-0.118697844
18	0x3e1b8d79	0.15190686
19	0x3d91200d	0.07086191
20	0x3e0e5260	0.13898611
21	0xbd39cd97	-0.04536208
22	0x3e4cacd1	0.19987799
23	0xbd8fa358	-0.07013577
24	0x3da1b527	0.0789588
25	0x3dd57e62	0.10424496
26	0x3b2351a7	0.0024920495
27	0x3db5b81f	0.08873009
28	0x3da25c59	0.0792777
29	0x3d69c29c	0.05707036
30	0xbdf8621d	-0.121280886
31	0xbb633668	-0.003466988

head.norm.running_var f4 [32]
0	0x3c358252	0.011078434
1	0x3bc80234	0.0061037783
2	0x3cbc498f	0.022984294
3	0x3b853485	0.0040650987
4	0x3c066069	0.008201697
5	0x3c3bb436	0.01145654
6	0x3be07fb3	0.0068511604
7	0x3a85bf88	0.0010204175
8	0x3bc0fc12	0.005889424
9	0x3ba86d26	0.0051399646
10	0x3baa3f18	0.0051955096
11	0x3b900afc	0.0043958407
12	0x3c887361	0.01665658
13	0x3ab4fd9d	0.0013808493
14	0x3c09c936	0.008409789
15	0x3b9f5c13	0.004863271
16	0x3bd13ece	0.0063856607
17	0x3bd42751	0.0064744134
18	0x3b137822	0.0022502025
19	0x3c8b02a3	0.01696903
20	0x3b183b6f	0.0023228785
21	0x3b2a6f2f	0.0026006212
22	0x3ca52daf	0.020163385
23	0x3bd34c08	0.0064482726
24	0x3b83bf30	0.004020594
25	0x3c93d680	0.018046618
26	0x3bab3aae	0.005225501
27	0x3bf6fbaf	0.0075373272
28	0x3ad92d4d	0.0016569287
29	0x3b70c708	0.0036739726
30	0x3b0ce3e7	0.0021498145
31	0x3a9ec2b2	0.0012112467

body.block1.conv.weight f4 [32, 32, 3, 3]
0	0xbd6c84c4	-0.057743803
1	0x3cedc9cf	0.029026894
2	0x3c80d3ed	0.015726054
3	0xbc8737c5	-0.016506085
4	0x3c134eea	0.008990983
5	0x3b521a4e	0.0032059136
6	0xbc2b75da	-0.01046511
7	0x3af451f1	0.0018640143
8	0x3d4cd190	0.050004542
9	0xbc8b4a3f	-0.017003177
10	0x3bf2c69d	0.0074089305
11	0x3c867c1b	0.0164166
12	0xbced359f	-0.028956233
13	0xbd466df8	-0.048444718
14	0xbc288238	-0.010284953
15	0x3ca0eaeb	0.019643268
16	0xbcc9c594	-0.024630345
17	0x3c86e8b8	0.01646839
18	0x3c3bfecd	0.011474323
19	0x3c8f3866	0.017482948
20	0x3d8e540b	0.06949624
21	0xbcd65bfe	-0.026166912
22	0x3cb9b998	0.022671506
23	0x3d0d0316	0.03442677
24	0xbd24a387	-0.040195014
25	0x3aaf650e	0.0013381557
26	0x3b942d94	0.004522035
27	0x3c300fa5	0.010745917
28	0x3d87724c	0.06613597
29	0xbbb4f243	-0.005522044
30	0xbdc6fc25	-0.097160615
31	0xbd5460ef	-0.051850256
32	0xbbcd6f66	-0.0062693832
33	0xbcad6b24	-0.021169253
34	0x3d4c44ef	0.049870428
35	0xbd0f7eff	-0.035033222
36	0x3c22702d	0.00991444
37	0xbc054e51	-0.008136348
38	0x3d83c349	0.06433732
39	0xbbf54c90	-0.0074859336
40	0xbcc30f1e	-0.02381092
41	0x3c52a83f	0.012857496
42	0xbd81fd81	-0.0634718
43	0x3c31e1e3	0.010857078
44	0x3d08a3e6	0.03335943
45	0x3bac9910	0.00526727
46	0x3bd8abff	0.0066123004
47	0xbb3e1836	-0.002900613
48	0xbd00e89c	-0.031471834
49	0xbd3ac3b2	-0.045596786
50	0x3cf37c13	0.02972225
51	0xbb9fdee5	-0.004878866
52	0x3b5d347c	0.0033753207
53	0x3b8f8520	0.0043798834
54	0xbaaf702c	-0.001338487
55	0x3bb70b22	0.005586044
56	0x3d9fe327	0.07806998
57	0x3c5705ee	0.013123972
58	0xbd47a16a	-0.04873792
59	0xbc7c2172	-0.015388833
60	0x3d22d744	0.039756075
61	0x3d028bae	0.03187149
62	0x3d79c256	0.06097635
63	0x3ac39c16	0.0014923837
64	0x3b4077d1	0.002936829
65	0xbc89962f	-0.016795246
66	0xbcfbbaf4	-0.030728795
67	0x3c807fa5	0.015685866
68	0x3cf0ab84	0.02937866
69	0x3ca3e0dd	0.020004684
70	0x3c770e66	0.015079116
71	0xbd00eedc	-0.031477794
72	0x3bf9cd7a	0.0076233717
73	0x37a846ac	2.006007e-05
74	0x3cf6d6f6	0.030131798
75	0xbc858755	-0.016299883
76	0xbc7368b3	-0.014856505
77	0x3cf5317d	0.029930824
78	0xbd0f12ab	-0.034929913
79	0x3c3e12c0	0.01160115
80	0xbd63ff0d	-0.055663157
81	0x3d87aa26	0.0662425
82	0xba686ada	-0.000886602
83	0x3ca80e69	0.020514684
84	0xbd31a76c	-0.043372557
85	0x3d072df9	0.033002827
86	0x3cdd97ae	0.027049866
87	0xbca40352	-0.020021114
88	0xbc11989b	-0.008886482
89	0xbbeccbd4	-0.0072264466
90	0xbd1c2ea7	-0.03813043
91	0x3d619e34	0.055082515
92	0x3bf97552	0.0076128626
93	0xbd49c1a2	-0.04925693
94	0xbb9e27f9	-0.0048265425
95	0x3c46e35a	0.012139166
96	0x3c9e2bc1	0.019307973
97	0x3cfb2b25	0.030660221
98	0x3aedd21f	0.0018144286
99	0x3c39c6aa	0.011338869
100	0x3c6a7c03	0.014311793
101	0x3d2d9029	0.04237381
102	0x3c8f215a	0.017471958
103	0x3c6acc57	0.014330945
104	0xbd1d1015	-0.038345415
105	0x3a74ed6e	0.0009343241
106	0x3c071f72	0.008247243
107	0x3cf74d47	0.030188216
108	0xbcb88ee8	-0.02252908
109	0xba4a5890	-0.00077188853
110	0x3c0bd4a8	0.008534588
111	0x3c23d764	0.010000084
112	0xba827b78	-0.000995501
113	0xbcd59859	-0.026073622
114	0xbc8d15b1	-0.017222257
115	0xbd3fe16b	-0.046845835
116	0xbc9dceb2	-0.019263599
117	0xbc95bd7b	-0.018278828
118	0xbd07aa65	-0.033121485
119	0xbcb99194	-0.022652425
120	0xbb40fb4a	-0.0029446655
121	0xbd552564	-0.05203761
122	0x3bc81c50	0.0061068907
123	0xbd0a9367	-0.03383198
124	0xbcbc0516	-0.022951644
125	0x3c67e51b	0.014153744
126	0x3c77b0ff	0.015117883
127	0xbcdf6c71	-0.027273389
128	0xbc1f72e9	-0.009731987
129	0x3c41f9ca	0.0118393395
130	0x3b75b343	0.0037490882
131	0xbc7b16f5	-0.015325298
132	0xbc3c4a6c	-0.011492353
133	0xbcc66d0f	-0.024221925
134	0x3b5f20f5	0.0034046744
135	0x3ba2d432	0.0049691433
136	0x3c985982	0.018597368
137	0x3b29fa07	0.0025936381
138	0xbb88ceee	-0.0041750586
139	0xbdb3be03	-0.08776476
140	0xbd840821	-0.06446863
141	0x39ca15c8	0.0003854467
142	0xbc3bfc6d	-0.011473757
143	0x3c569f7e	0.013099549
144	0x3b98a4d1	0.0046583195
145	0xbba2cc8c	-0.0049682315
146	0xbb951618	-0.004549753
147	0xbc7ae4d7	-0.015313349
148	0xbd1f08a0	-0.038826585
149	0xbd2d5344	-0.042315736
150	0x3ce30715	0.027713338
151	0xbd36ac31	-0.04459781
152	0xbd2d7553	-0.042348217
153	0xbcffe3a9	-0.031236487
154	0x3c51bb33	0.012800979
155	0x3d1a4a7f	0.0376687
156	0xbbb41275	-0.0054953643
157	0x3c9a3b8d	0.018827224
158	0x3cd11db8	0.025526866
159	0x3c220a24	0.009890113
160	0xbcb40f4f	-0.021979956
161	0xbacd06c0	-0.001564227
162	0xbd8a2b33	-0.06746521
163	0xbccb5ec4	-0.024825461
164	0xbdc0e339	-0.09418339
165	0x3cc6243a	0.024187196
166	0x3cf1c78a	0.029514093
167	0xbb0269a1	-0.0019899386
168	0x3d884017	0.06652849
169	0x3ca3cdc2	0.019995574
170	0xbc28d98e	-0.010305775
171	0xbc9fd90e	-0.01951268
172	0xbd1e6ea7	-0.038679745
173	0xbbdd9c8a	-0.0067630457
174	0xbd2f9c63	-0.04287375
175	0xbcae8fbf	-0.021308778
176	0x3d069d4c	0.032864854
177	0x3d118bba	0.035533644
178	0x3d0dbc34	0.034603313
179	0x3d89c312	0.0672666
180	0x3c83068a	0.015994329
181	0xba7fb303	-0.0009754153
182	0xbd6d48c2	-0.057930715
183	0x3cab6f0a	0.020926971
184	0xbb8ef085	-0.0043621683
185	0xbd22fcb8	-0.039791793
186	0x3d2d0443	0.042240392
187	0x3c9c3aa2	0.019070927
188	0x3b577324	0.0032875026
189	0x3d2f086c	0.04273264
190	0x3c8a0a47	0.016850604
191	0xbba5e2d3	-0.00506244
192	0xbc4d0027	-0.012512243
193	0x3d055cbb	0.032559138
194	0xbc755d55	-0.014975865
195	0x3d26cf67	0.040725138
196	0x3be010fa	0.0068379613
197	0xbcdb7d2f	-0.02679309
198	0xbc3f71ec	-0.011684876
199	0xbcdf06ae	-0.027224865
200	0xbb1d38dd	-0.0023990192
201	0x3bb3c0ff	0.0054856534
202	0xbccc03d6	-0.024904173
203	0xbce620cd	-0.028091813
204	0xbd5b8891	-0.053597037
205	0xba06c68e	-0.0005141281
206	0x3cb6bdb7	0.02230726
207	0xbc783314	-0.015148897
208	0x399618fe	0.0002862885
209	0xbc1b6a95	-0.00948586
210	0xbb8ba3d7	-0.0042614746
211	0xbcdc9843	-0.026928073
212	0x3bc723af	0.006077252
213	0x3d5503c2	0.052005537
214	0x3c3a6172	0.011375772
215	0x3d1b3c5c	0.03789936
216	0xbc0c0983	-0.00854719
217	0xbd5f798b	-0.05455927
218	0xbd2818e2	-0.041039355
219	0x3c9dcd41	0.019262912
220	0xbc288553	-0.010285693
221	0xbc2cbaed	-0.010542613
222	0x3b6c303d	0.0036039494
223	0x3c123fad	0.008926314
224	0xbc6e3a0c	-0.014540207
225	0x3c89b884	0.016811617
226	0x3cdd1758	0.02698867
227	0x3d85a502	0.06525613
228	0x394dfa0e	0.00019643476
229	0xbcc61b90	-0.024183065
230	0x3ba13c34	0.004920507
231	0xbd51da91	-0.05123383
232	0xbc43468b	-0.011918674
233	0x3c1180a5	0.008880769
234	0xbd1fc0eb	-0.03900234
235	0xbcfe0ba5	-0.031011412
236	0x3cce4890	0.025181085
237	0xbc3adb21	-0.011404783
238	0xbb686bf9	-0.0035464747
239	0x3b094ef5	0.0020951603
240	0xbd2ddff9	-0.042449925
241	0xbbf9824d	-0.00761441
242	0x3bbf97b3	0.0058469414
243	0xbc4d4f74	-0.01253115
244	0xbb067486	-0.002051623
245	0x3c1c5389	0.009541401
246	0xba0b2b72	-0.0005308903
247	0x3c75fc50	0.015013769
248	0x3d3607b4	0.04444094
249	0x3bd17b29	0.0063928557
250	0xbcb41a48	-0.021985188
251	0xb9e0bd7f	-0.00042865795
252	0xbcadb2e3	-0.021203464
253	0xbc9cb773	-0.019130444
254	0xbd90784d	-0.070541956
255	0x3c878e76	0.016547423

body.block1.conv.bias f4 [32]
0	0x3d279787	0.040915992
1	0xbc95d5f6	-0.018290501
2	0xbd60e2d3	-0.054903816
3	0xbc22f3d3	-0.009945828
4	0xbd2892d2	-0.041155644
5	0x3d46524c	0.04841833
6	0xbce43bfd	-0.027860636
7	0x3db1f8c5	0.08690027
8	0x3d69ee60	0.057112098
9	0x3ce3fa5c	0.027829342
10	0x3cf1ecb5	0.029531816
11	0xbb9915a0	-0.0046717674
12	0xbd1de851	-0.038551632
13	0xbc35040d	-0.011048329
14	0xbd1f6b64	-0.038920775
15	0xbc21aa9f	-0.009867339
16	0x3917d5d2	0.00014480136
17	0xbc9f4cbd	-0.019445771
18	0x3ae5dd98	0.0017537354
19	0xbd03ce52	-0.032179184
20	0xbcf59b21	-0.029981198
21	0xbd2a357b	-0.04155491
22	0x3d386afb	0.0450239
23	0x3caf2be0	0.021383226
24	0xbd029379	-0.031878922
25	0xbda81e7b	-0.08208939
26	0x3d2a288c	0.041542575
27	0x3c13ff9b	0.009033109
28	0x3ddd3779	0.10801596
29	0xbd032e1d	-0.0320264
30	0x3c11a15b	0.008888568
31	0xbc95addd	-0.018271381

body.block1.norm.weight f4 [32]
0	0x3f7ba1a6	0.9829353
1	0x3f818086	1.0117347
2	0x3f704f3f	0.9387092
3	0x3f7f8c9c	0.9982393
4	0x3f7f9fcf	0.99853224
5	0x3f76d119	0.9641281
6	0x3f833a64	1.0252194
7	0x3f67e77a	0.9058758
8	0x3f7109f8	0.94155836
9	0x3f782ba2	0.9694158
10	0x3f8fcddc	1.1234698
11	0x3f69968d	0.9124535
12	0x3f5c7ea1	0.8613072
13	0x3f8dd918	1.1081877
14	0x3f7de6ad	0.9918011
15	0x3f719b87	0.9437794
16	0x3f8e6077	1.1123189
17	0x3f6baf0d	0.9206398
18	0x3f72c551	0.9483233
19	0x3f75739f	0.9587955
20	0x3f841e15	1.032168
21	0x3f6d2cd1	0.9264651
22	0x3f8d0299	1.1016418
23	0x3f6c8a0c	0.9239814
24	0x3f820bb2	1.0159819
25	0x3f76f52a	0.9646784
26	0x3f7bc571	0.98348147
27	0x3f726fdd	0.9470194
28	0x3f80bb57	1.0057172
29	0x3f7e3a48	0.9930768
30	0x3f7914f4	0.97297597
31	0x3f7ad9cc	0.9798858

body.block1.norm.bias f4 [32]
0	0xbe1125b8	-0.14174545
1	0xbd896529	-0.06708748
2	0xbd8627a2	-0.06550528
3	0xbccad506	-0.02475978
4	0xbc7d6e06	-0.015468126
5	0xbe202092	-0.15637425
6	0xbca79b8c	-0.020459913
7	0xbd446ecd	-0.04795723
8	0xbd8fc952	-0.07020821
9	0xbdcdcb7d	-0.10048578
10	0xbc9b422f	-0.018952457
11	0xbde27824	-0.11058071
12	0xbd6e5a9e	-0.058191888
13	0xbb9b0882	-0.004731239
14	0xbd6ffa27	-0.058588173
15	0xbc6cca91	-0.0144525925
16	0xbe2e8024	-0.1704107
17	0xbd88510d	-0.06656084
18	0xbd3d0f37	-0.046157088
19	0xbde971a2	-0.11398627
20	0xbe5004a2	-0.20314267
21	0xbcef671d	-0.029223973
22	0xbd1baf84	-0.03800918
23	0xbc49531e	-0.012287883
24	0xbd76cee5	-0.060255904
25	0xbd364be4	-0.04450597
26	0xbe17374b	-0.14767186
27	0xbcbd8dca	-0.0231389
28	0xbdd1b9c1	-0.10240508
29	0xbc202163	-0.009773585
30	0xbd86bf2f	-0.06579434
31	0xbd61874f	-0.05506068

body.block1.norm.running_mean f4 [32]
0	0xbdd21f87	-0.102599196
1	0xbf07619c	-0.52883315
2	0xbda8cfdf	-0.08242773
3	0xbf803224	-1.0015302
4	0xbf53e12a	-0.8276545
5	0x3f00d2f4	0.5032189
6	0x3e67a57b	0.2262172
7	0xbf48d17c	-0.7844465
8	0xbf0f6675	-0.5601571
9	0xbf308cec	-0.6896503
10	0xbf203296	-0.6257719
11	0xbede6b88	-0.43441415
12	0x3e3cca97	0.18436657
13	0xbf2f3e17	-0.68454117
14	0xbe5d52f5	-0.21613677
15	0xbe0810bc	-0.13287634
16	0xbf55e107	-0.8354649
17	0x3eef2218	0.467057
18	0x3f7e4e9c	0.993387
19	0x3f006a7d	0.5016249
20	0xbdca664e	-0.09882794
21	0x3f5160ef	0.81788534
22	0xbefb66b9	-0.4910181
23	0x3f33203e	0.6997107
24	0xbf1d61ea	-0.6147753
25	0x3f2bf15e	0.6716517
26	0x3e007638	0.12545097
27	0xbe75feb4	-0.24022943
28	0x3ed0dff6	0.4079587
29	0xbcd6f1dd	-0.026238376
30	0x3f873c4b	1.0565275
31	0xbf30d4c5	-0.6907466

body.block1.norm.running_var f4 [32]
0	0x3db96572	0.09052552
1	0x3f378629	0.7168909
2	0x3e989ed6	0.29808682
3	0x3f390274	0.7226937
4	0x3edd9f97	0.4328582
5	0x3ea81b2d	0.32833233
6	0x3e72a4df	0.23695706
7	0x3ee36035	0.44409338
8	0x3f9ec5b7	1.2404088
9	0x3e0267c9	0.12734903
10	0x3ed89c01	0.42306522
11	0x3f8f0d2e	1.1175897
12	0x3f3e4680	0.74326324
13	0x3fef7b9a	1.8709595
14	0x3e5b1f06	0.21398553
15	0x3ebb5527	0.36588404
16	0x3f156913	0.58363456
17	0x3f23c28d	0.63968736
18	0x3ea1718f	0.3153195
19	0x3e89ad0e	0.26889843
20	0x3e1eab87	0.1549512
21	0x3f489eb6	0.78367174
22	0x3fda5b47	1.7059106
23	0x3eab117e	0.33411783
24	0x3f34a9c1	0.70571524
25	0x3e6958be	0.22787759
26	0x3e5ea8cf	0.21744083
27	0x3ed7b616	0.42131108
28	0x3e0621ea	0.13098875
29	0x3f2e94ae	0.6819562
30	0x3e703088	0.23456013
31	0x3e5b11e4	0.21393543

body.block2.conv.weight f4 [32, 32, 3, 3]
0	0x3c37f1a8	0.011227049
1	0x3d05a259	0.03262553
2	0x3c8d28eb	0.017231425
3	0x3c0eda74	0.0087190755
4	0xbb88391d	-0.004157199
5	0x3c32a5e3	0.010903808
6	0x3b2b656b	0.002615298
7	0x3d31c307	0.043398883
8	0xbb7097e6	-0.0036711632
9	0xbc4a98c2	-0.012365522
10	0xbd3e9906	-0.046532653
11	0xbca9ddd6	-0.020735662
12	0x3bf17103	0.0073682084
13	0xbce5b468	-0.028040126
14	0x3d0b4d50	0.034009278
15	0xbd0f06d2	-0.034918614
16	0xbc6a912e	-0.01431684
17	0x3b7b0fde	0.0038309018
18	0x3c824def	0.015906302
19	0xbcac2b13	-0.021016633
20	0xbc70772b	-0.014676849
21	0x3aac33bf	0.001313798
22	0xbb6da078	-0.0036258977
23	0xbb88feca	-0.004180764
24	0x3d056338	0.032565325
25	0x3c04da24	0.008108649
26	0xbb1c98c7	-0.0023894773
27	0xbd5b9f91	-0.05361897
28	0x3ac6cfd7	0.0015168142
29	0x3ce94c38	0.028478727
30	0x3cb573ef	0.022150008
31	0x3c23ab8f	0.009989633
32	0xbb8736cc	-0.0041264053
33	0xba24156f	-0.00062592974
34	0x3d09b94f	0.03362399
35	0x3cfce7d1	0.030872257
36	0x3bf32212	0.007419833
37	0x3d25e448	0.04050091
38	0xbb92968a	-0.004473512
39	0x3d04f05e	0.032455795
40	0x3beb8d48	0.007188473
41	0x3c67b7e8	0.014142968
42	0xba7b0ded	-0.0009576965
43	0x3bb2165f	0.0054347957
44	0xbc15caf6	-0.009142628
45	0x3d4acdc4	0.04951264
46	0x3d180751	0.037116352
47	0xbc8b6907	-0.017017854
48	0xbca8bb87	-0.020597233
49	0xbb2b62fb	-0.0026151526
50	0x3c9bb049	0.019004958
51	0xbb46bc65	-0.0030324694
52	0x3d04e0fe	0.03244113
53	0x3aeb5ce2	0.0017956758
54	0x3d35e25b	0.044405323
55	0x3ac430fd	0.0014968213
56	0x3c09fc6f	0.008422001
57	0x3c83144d	0.016000891
58	0x3d10b8d3	0.035332512
59	0x3cac55c4	0.02103699
60	0x3da7b48c	0.081887335
61	0x3cd7341c	0.026269965
62	0x3ca17ed7	0.019713802
63	0x3cc58403	0.0241108
64	0xbcc3953b	-0.02387487
65	0x3c6ac97f	0.014330267
66	0xbc386607	-0.011254794
67	0x3c1da1b0	0.009621069
68	0x3c30368f	0.010755195
69	0x3bf57e7d	0.007491885
70	0xbd186035	-0.037201125
71	0xba00b6e4	-0.00049100653
72	0x3d089693	0.033346724
73	0x3bb6f23c	0.005583076
74	0x3c809c7b	0.015699616
75	0xbc688a48	-0.014193125
76	0x3c94cd25	0.018164227
77	0x3bc90431	0.006134533
78	0x3a9e6072	0.0012083186
79	0xbb48a591	-0.0030616263
80	0x3cfb312d	0.030663097
81	0x3d1ddb4d	0.03853922
82	0x3c03de7c	0.00804865
83	0xbd4ff76d	-0.050773073
84	0x3d2d37fe	0.042289726
85	0x3cdda053	0.027053988
86	0x3c9cdc0d	0.019147897
87	0x3adfa803	0.0017063621
88	0x3cbf03ab	0.023317179
89	0x3bfe0366	0.00775187
90	0x3cc02a9e	0.023457821
91	0xbc98410f	-0.01858571
92	0x3c16bc33	0.009200144
93	0x3d75a7ae	0.059974365
94	0x3c855e0c	0.016280197
95	0xbc2890fb	-0.010288472
96	0x3ce5a623	0.028033322
97	0xbb16224d	-0.0022908628
98	0x3ce7b260	0.028283298
99	0x3ca85775	0.020549515
100	0x3cf5535e	0.02994698
101	0x3c841fc4	0.016128428
102	0x3d0d22b3	0.03445692
103	0x3d1cfebc	0.03832887
104	0x3ce9e83a	0.028553117
105	0x3d3b6845	0.045753736
106	0x3ccea97a	0.025227297
107	0xbc8d54d5	-0.017252365
108	0x3c8419d4	0.016125597
109	0x3cfac7b9	0.030612813
110	0xbd4469e2	-0.04795254
111	0x3a76f1e8	0.0009420202
112	0xbc82f4c7	-0.01598586
113	0xbd0edcb0	-0.034878433
114	0xbc07f53f	-0.008298217
115	0xbbc31541	-0.0059534614
116	0x375ec4a6	1.3278017e-05
117	0xbd81e609	-0.06342704
118	0xbd851e0b	-0.06499871
119	0x3dab564b	0.083660685
120	0xbd4b1a8a	-0.049585856
121	0xbd4ab71f	-0.049491044
122	0x3dd79b3f	0.10527658
123	0xbd0e06f2	-0.034674592
124	0xbd162ba8	-0.036662728
125	0x3d8f0962	0.069842115
126	0xbc86a6e6	-0.016437005
127	0x3c23b298	0.009991311
128	0x3cc1e38c	0.023668073
129	0x3c4c7d98	0.012481116
130	0x3c99bf9f	0.01876813
131	0x3c82e4be	0.015978213
132	0x3cc313b7	0.023813112
133	0x3c7bddd9	0.015372717
134	0x3ce610e6	0.02808423
135	0x3ced8d64	0.028998084
136	0x3d3d1aee	0.04616826
137	0xbc6c00d9	-0.014404499
138	0x3c2c9e39	0.01053577
139	0x3d2b821d	0.041872133
140	0xbc36ff46	-0.01116926
141	0x3d88afdd	0.06674168
142	0x3d77e1ec	0.06051819
143	0xbbb0e5d0	-0.0053984895
144	0xbdcbc896	-0.09950368
145	0xbd5dbb9b	-0.054133993
146	0xbc5970a6	-0.013271486
147	0xbc4885c3	-0.0122389225
148	0xbd057c26	-0.0325891
149	0xbc8f37f0	-0.017482728
150	0x3d61b93b	0.05510829
151	0x3b96e732	0.0046051973
152	0xbc889fd5	-0.016677776
153	0xbbbc3eb2	-0.0057447786
154	0xbc61c799	-0.013780498
155	0xbd733af1	-0.059382383
156	0xbcc56423	-0.0240956
157	0xbcbbd678	-0.022929415
158	0xbd293363	-0.04130877
159	0xbc2b8815	-0.010469456
160	0x3bd9710b	0.00663579
161	0xbcad3b66	-0.021146487
162	0x3ae272d0	0.0017276648
163	0xbba7a0f7	-0.005115624
164	0xbd0eba1e	-0.034845464
165	0xbd123b3c	-0.03570102
166	0xbab5b8eb	-0.0013864314
167	0xbc9908bf	-0.018680928
168	0xbc725c37	-0.014792494
169	0xbbb75c30	-0.0055957064
170	0x3d1ef5d8	0.038808674
171	0x3d7585aa	0.059941925
172	0x3d8a1eac	0.067441314
173	0xbd437e63	-0.047727954
174	0x3bcc8615	0.0062415698
175	0xbc2eb4bb	-0.010663207
176	0xbc529b5f	-0.012854426
177	0x3d5fb897	0.054619398
178	0xbc84ea03	-0.016224867
179	0xbc750e28	-0.014956988
180	0x3e0db272	0.13837603
181	0x3c56d280	0.013111711
182	0x3c777049	0.015102454
183	0x3d900ed2	0.07034077
184	0x3d06c282	0.03290034
185	0x3d1b6f21	0.037947778
186	0x3d60b93b	0.05486415
187	0x3d282d7f	0.041059013
188	0x3d032300	0.0320158
189	0x3d1f56fd	0.038901318
190	0x3c2a768b	0.010404239
191	0xbca4190a	-0.02003147
192	0x3c69d935	0.014272978
193	0x3a358c09	0.0006925469
194	0xbd5f737c	-0.054553494
195	0x3cd0e8a0	0.02550155
196	0x3cca0a14	0.024663009
197	0xbb035ac7	-0.0020043121
198	0xbd1241d6	-0.035707317
199	0xbc88cc18	-0.016698882
200	0xbc5646f7	-0.013078443
201	0x3c28c0e6	0.010299897
202	0x3bf29d78	0.0074040256
203	0x3c5c9ce0	0.013465136
204	0x3bdbea77	0.0067113
205	0xbac41aa5	-0.0014961554
206	0xbc15d2b2	-0.009144472
207	0x3cb6b7ad	0.02230438
208	0x3ca880a8	0.02056916
209	0x3b014690	0.0019725896
210	0xbd266d7c	-0.040631756
211	0x3c8700d6	0.01647989
212	0xbd1ae666	-0.03781738
213	0xbd4d68d5	-0.050148804
214	0xbcf028d9	-0.029316353
215	0xbca3b71f	-0.01998478
216	0x3b62dda3	0.003461697
217	0xbca2275e	-0.019794162
218	0x3d2b5ea7	0.041838314
219	0xbce8b010	-0.028404266
220	0xbd313853	-0.043266606
221	0x3d620fc6	0.055190824
222	0xbd33417f	-0.043763634
223	0xbd73582d	-0.059410263
224	0x3d9c0cee	0.07619654
225	0x3d066c59	0.032818172
226	0xbaf6f570	-0.0018841457
227	0x3d244f27	0.040114548
228	0x3d0fa277	0.035067048
229	0xbc418be2	-0.011813136
230	0x3cd219af	0.025647013
231	0x3d8202f6	0.06348221
232	0xbceed34d	-0.02915349
233	0x3bbc0ffb	0.0057392097
234	0x3db27af6	0.08714859
235	0x3d03bc7a	0.032162167
236	0xb99787f9	-0.00028902272
237	0x3c73d024	0.014881168
238	0x3d24f682	0.04027415
239	0x3cdbea84	0.026845224
240	0x3ce83d9f	0.028349696
241	0x3d072fc9	0.033004556
242	0x3c9da161	0.01924199
243	0x3bdeeab4	0.006802881
244	0xbb8f5dd2	-0.004375198
245	0xb97fdf8f	-0.00024401977
246	0x3c80f2ba	0.015740741
247	0x3c983490	0.018579751
248	0xbc74b20d	-0.014935029
249	0x3cdff14e	0.027336743
250	0xbad32f5b	-0.0016112135
251	0xb7f16ced	-2.8780161e-05
252	0x3c06b10a	0.00822092
253	0x3d642a6c	0.05570452
254	0xbcdfe347	-0.027330054
255	0xbcef7f30	-0.029235452

body.block2.conv.bias f4 [32]
0	0x3c0f7556	0.008756002
1	0x3d13b6b3	0.036062907
2	0xbc904e00	-0.017615318
3	0xbd89c0ff	-0.06726264
4	0xbcdb225c	-0.026749782
5	0x3d1dfc91	0.038570944
6	0x3ca44ea5	0.020057032
7	0xbbe42595	-0.006962488
8	0xbcacd3d5	-0.021097103
9	0x3db7ca8b	0.08974179
10	0xbd3d2109	-0.046174083
11	0x3c18b3b1	0.0093201855
12	0x3c26b85d	0.010175792
13	0x3dbe1ac4	0.09282449
14	0xbd236017	-0.03988656
15	0xbc82227a	-0.01588558
16	0xbd079e92	-0.03311021
17	0x3cb40dc4	0.02197922
18	0xb9e47432	-0.0004357412
19	0x3d8dad95	0.06917874
20	0x3d14e2b0	0.036349
21	0xbd3d532a	-0.04622189
22	0x3d1e6365	0.03866901
23	0xbc539251	-0.0129133025
24	0xbcbc2685	-0.022967586
25	0x3cf6e8b1	0.030140253
26	0xbda49a10	-0.080371976
27	0x3c93c4a2	0.018038098
28	0xbc57b47e	-0.013165591
29	0x3c99aba9	0.018758612
30	0xbb4a8022	-0.0030899127
31	0xbd57fe07	-0.052732494

body.block2.norm.weight f4 [32]
0	0x3f84af86	1.0366066
1	0x3f68877b	0.90831727
2	0x3f7af221	0.9802571
3	0x3f7250c0	0.94654465
4	0x3f703c28	0.9384179
5	0x3f7bc629	0.98349243
6	0x3f837041	1.0268632
7	0x3f756736	0.9586061
8	0x3f86cfe7	1.0532197
9	0x3f766441	0.96246725
10	0x3f7c91d8	0.9866004
11	0x3f816b3d	1.0110852
12	0x3f801143	1.0005268
13	0x3f7ded23	0.99189967
14	0x3f781e9b	0.969217
15	0x3f7d94f0	0.99055386
16	0x3f787ff5	0.97070247
17	0x3f75a177	0.959495
18	0x3f83907e	1.027847
19	0x3f87db0a	1.061372
20	0x3f7dfa42	0.9920999
21	0x3f7fa647	0.99863094
22	0x3f7f25be	0.99666965
23	0x3f828703	1.0197452
24	0x3f77e1f4	0.9682915
25	0x3f825186	1.0181129
26	0x3f754f61	0.9582425
27	0x3f7a359a	0.9773804
28	0x3f800891	1.0002614
29	0x3f6f88fc	0.93568397
30	0x3f66fd89	0.90230614
31	0x3f898f61	1.0746881

body.block2.norm.bias f4 [32]
0	0xbe711ac1	-0.23545362
1	0xbcb0cb4e	-0.021581318
2	0xbc9c6777	-0.019092305
3	0xbd8ce518	-0.06879634
4	0xbdad9697	-0.08475988
5	0xbd9a378f	-0.07530128
6	0xbdbb331c	-0.09140608
7	0x3d0fb564	0.035085097
8	0xbdc37712	-0.09544195
9	0xbe103fb6	-0.14086804
10	0x3c6970cf	0.014248087
11	0xbdd12094	-0.10211292
12	0xbd84c2ea	-0.064824894
13	0xbe8d3987	-0.27582952
14	0x3b2288be	0.0024800743
15	0xbd69b53e	-0.05705761
16	0xbcc551e0	-0.024086893
17	0x3b91cfb9	0.0044498113
18	0xbdb2bf51	-0.08727897
19	0xbcee0dcd	-0.029059315
20	0xbe2d69cf	-0.16934894
21	0xbcc6e011	-0.024276765
22	0xbdb7df75	-0.08978168
23	0xbdc9dc1b	-0.09856435
24	0xbe074104	-0.13208395
25	0xbd835ce8	-0.06414205
26	0xbdb868a5	-0.09004334
27	0xbcab51ce	-0.020913031
28	0xbdc349c6	-0.095355555
29	0xbd144c60	-0.03620565
30	0xbdffe009	-0.12493903
31	0xbe277731	-0.16354062

body.block2.norm.running_mean f4 [32]
0	0x3e878729	0.26470307
1	0x3eaebe2f	0.34129474
2	0xbcdac2b5	-0.026704172
3	0xbefc15a4	-0.4923526
4	0xbe0e638d	-0.13905163
5	0xbf5c5275	-0.8606332
6	0xbeb4d17e	-0.3531608
7	0xbedf830b	-0.43654665
8	0xbe8dfa6c	-0.2773012
9	0xbde34f61	-0.11099125
10	0x3cbfd36b	0.023416242
11	0x3ea41070	0.3204379
12	0xbd319684	-0.043356434
13	0x3eae146c	0.33999956
14	0xbf6f155b	-0.9339196
15	0x3b90eff9	0.004423138
16	0xbc97bb7f	-0.018522022
17	0x3d308071	0.04309124
18	0xbdfdf6ba	-0.12400575
19	0x3d938f33	0.072050475
20	0x3e47fc66	0.19529876
21	0xbeecf6f0	-0.46282148
22	0xbcc8fb8b	-0.024534008
23	0xbe9f64ea	-0.3113168
24	0xbed08a84	-0.4073068
25	0xbdc95c6d	-0.09832082
26	0xbd4396fc	-0.04775141
27	0xbf31c5a1	-0.6944218
28	0xbf1b4041	-0.6064492
29	0xbf4ef58b	-0.8084342
30	0xbf0d512d	-0.5520199
31	0xbd83e762	-0.06440617

body.block2.norm.running_var f4 [32]
0	0x3eb1c431	0.34719995
1	0x3ed5652b	0.41678748
2	0x3f1bcb14	0.6085675
3	0x3e93c3a5	0.28860202
4	0x3e56168f	0.20907043
5	0x3f369bc0	0.71331406
6	0x3e28b164	0.16473919
7	0x3fa11220	1.2583656
8	0x3eb2bade	0.34908193
9	0x3ddc2930	0.107500434
10	0x3fa9b673	1.3258804
11	0x3e2b835f	0.16749333
12	0x3ed3c61a	0.41362077
13	0x3e191645	0.14949901
14	0x3f83afbb	1.0288004
15	0x3f5358cc	0.8255737
16	0x3f325db9	0.6967426
17	0x3eca056e	0.39457268
18	0x3e80fba9	0.25192
19	0x3f8e847c	1.1134181
20	0x3ea97170	0.33094358
21	0x3e029069	0.127504
22	0x3f8b15db	1.0866045
23	0x3f2bdaec	0.67130923
24	0x3e1498c9	0.14511408
25	0x3ec247b5	0.37945333
26	0x3eb0ebc3	0.34554872
27	0x3f5d0720	0.86338997
28	0x3ece7f42	0.40331465
29	0x3f3d1453	0.7385914
30	0x3eb34d10	0.35019732
31	0x3e8db353	0.27675876

body.block3.conv.weight f4 [32, 32, 3, 3]
0	0x3c5b226c	0.013374906
1	0xbcb81e9e	-0.022475537
2	0xbd4b8c48	-0.04969433
3	0x3bc70916	0.006074081
4	0x3c67abfa	0.0141401235
5	0x3bc82470	0.0061078593
6	0xbb877b38	-0.004134562
7	0xbc30eb01	-0.010798217
8	0x3acc8d08	0.0015605995
9	0x3c89be5f	0.016814409
10	0x3cbcd365	0.02305002
11	0xbca1a2fb	-0.019731035
12	0xbcc9ba4d	-0.024624968
13	0xb9091857	-0.00013074405
14	0xbd47114d	-0.048600484
15	0xbc8ace2d	-0.016944015
16	0xbbed4314	-0.0072406624
17	0x3981b96c	0.00024742947
18	0xbd9a6934	-0.07539597
19	0x3bfc1265	0.0076926225
20	0xbc1b7420	-0.009488136
21	0xbd926a89	-0.07149226
22	0xbd159b63	-0.03652514
23	0xbcc0de03	-0.023543363
24	0xbdb8cc5a	-0.09023352
25	0xbc3ab6e9	-0.011396148
26	0xbd199f5c	-0.037505493
27	0x3d2929fc	0.041299805
28	0x3ccae5dd	0.02476781
29	0xbc9fdb65	-0.019513795
30	0x3cd9373a	0.026515592
31	0x3d0eb78d	0.034843016
32	0x3ab741ba	0.001398138
33	0xbc0697ad	-0.008214873
34	0xbccf274d	-0.025287295
35	0xbc8a9fa3	-0.016921824
36	0x3cb2d291	0.021828922
37	0xbcd335de	-0.025782522
38	0xbcf449ef	-0.02982041
39	0x3d2661fd	0.040620793
40	0x3cc78bee	0.024358716
41	0xbc6757f0	-0.014120087
42	0x3c36210d	0.011116278
43	0xbc881043	-0.016609317
44	0xbd5c4887	-0.053780105
45	0xbd0ed2ce	-0.034869008
46	0xbc47437e	-0.0121620875
47	0xbd097e81	-0.03356791
48	0x3d3fd613	0.046835016
49	0xbda9a79c	-0.08283922
50	0xbd2a8676	-0.04163214
51	0x3ce57c36	0.02801333
52	0x3b875ecd	0.004131174
53	0xbc063c53	-0.008193093
54	0xbcc4a841	-0.024006011
55	0xba1f9ec8	-0.0006089029
56	0xbd9dd680	-0.07706928
57	0x3bcdba4b	0.0062783114
58	0x3da20643	0.079113506
59	0xbab70be5	-0.0013965337
60	0x3c34dc1b	0.011038805
61	0x3d106231	0.035249893
62	0x3988f5a7	0.00026122967
63	0xbc2d37c8	-0.010572381
64	0x3bd9dd24	0.0066486765
65	0x3c2f8390	0.010712519
66	0xbc5b9b99	-0.013403797
67	0xbc6a9cf2	-0.014319645
68	0xbc0934d0	-0.008374408
69	0x3b042810	0.002016548
70	0x3c742a9d	0.014902738
71	0x3c29b7c5	0.0103587555
72	0xbdd274d5	-0.1027619
73	0x3a634d9c	0.00086709275
74	0xbd4b168a	-0.04958204
75	0xbcf830f7	-0.030296786
76	0xbc83365c	-0.016017132
77	0xbc121a28	-0.008917369
78	0xbd49f56c	-0.04930632
79	0xbd2ec013	-0.042663645
80	0x3c0cd2a3	0.008595142
81	0xbcc79a79	-0.02436565
82	0xbd3ae666	-0.04562988
83	0xbbcdfb3e	-0.006286054
84	0x3cd9db6d	0.026593888
85	0xbc8a5c4d	-0.016889716
86	0xba00c7e0	-0.0004912596
87	0xbcc8c6dc	-0.024508886
88	0xbd263185	-0.04057457
89	0x3d2e7285	0.042589683
90	0xbd3e7206	-0.04649546
91	0xbc03ea62	-0.008051487
92	0x3d1c93ea	0.038227
93	0xbb93132f	-0.004488371
94	0x3cf5a759	0.029987024
95	0x3b640be8	0.0034797136
96	0xbd8cbb15	-0.068716206
97	0xbc0b5a4f	-0.008505418
98	0xbd3db597	-0.046315756
99	0x3b1e2be6	0.0024135052
100	0xbcddeded	-0.02709099
101	0xbcec7d2e	-0.028868284
102	0x3c5031cc	0.012707185
103	0xbcac95ed	-0.021067584
104	0x3cc09088	0.023506418
105	0xbca3460d	-0.019930864
106	0xbbad517f	-0.005289256
107	0x3b84857c	0.004044233
108	0x3c4c11e4	0.012455437
109	0x3c11a3bb	0.008889134
110	0x3d334527	0.04376712
111	0xbd502c19	-0.050823305
112	0x3d3d2c2b	0.0461847
113	0x3b90f2f6	0.0044234945
114	0xbd784da9	-0.060620937
115	0xbc4507fb	-0.0120258285
116	0xbce68e9e	-0.028144177
117	0x3d4f271f	0.05057442
118	0x3c793ee5	0.015212749
119	0x3cb9cf4b	0.022681853
120	0x3d010576	0.03149935
121	0xbc625ea1	-0.013816507
122	0x3b69ea0c	0.0035692481
123	0x3c709f2a	0.014686385
124	0xbc2146f1	-0.009843574
125	0xbca11e18	-0.01966767
126	0xbd0c1879	-0.034203026
127	0x3b1c4f98	0.0023851153
128	0x3ca00252	0.019532356
129	0xbd2dbd77	-0.042417016
130	0x3c643100	0.013927698
131	0x3d8043af	0.062629096
132	0x3c3df5d5	0.011594255
133	0x3cbde775	0.023181656
134	0x3cbf2a1f	0.023335515
135	0xbc858d72	-0.016302798
136	0xbce1e8a4	-0.027576752
137	0xbc9f7e9e	-0.019469555
138	0xbbd644b9	-0.006538954
139	0xbd04c187	-0.032411125
140	0xbd009c90	-0.03139931
141	0xbcaddc89	-0.021223323
142	0x3aabe73d	0.0013115179
143	0xbc8968fe	-0.016773697
144	0x3c94cb24	0.018163271
145	0x3c69ccd3	0.014270025
146	0x3d6c2cd7	0.05765995
147	0x3d1474ac	0.03624408
148	0x3cd6f5f6	0.02624033
149	0x3b6caf81	0.003611535
150	0x3d166ad2	0.036722966
151	0x3cac2b87	0.02101685
152	0x3d17f654	0.03710015
153	0x3acc092f	0.0015566702
154	0xbd0e2352	-0.034701653
155	0xbc6ad9f7	-0.014334193
156	0xbc911c58	-0.01771371
157	0xbc8a15f1	-0.016856166
158	0xbcc723a3	-0.024308985
159	0x3b372450	0.0027945228
160	0xbb8605ac	-0.0040900316
161	0xbc82f5b6	-0.015986305
162	0xbc9e5ca3	-0.019331282
163	0xbd4a3dd9	-0.04937539
164	0xbce59658	-0.028025791
165	0xbc0053f7	-0.007832519
166	0xbcbb1e19	-0.0228415
167	0xbc823d60	-0.015898407
168	0x3d8961bc	0.067080945
169	0x3b72a04d	0.0037021816
170	0x3c336807	0.010950095
171	0xbc7e24ba	-0.015511686
172	0x3c835e34	0.01603613
173	0x3ae8dc01	0.0017765762
174	0xbd3c9034	-0.04603596
175	0xbb25e5dc	-0.0025314009
176	0xbcec768c	-0.028865121
177	0xbd9628bf	-0.073319905
178	0xbd10950c	-0.035298392
179	0xbd3f2e13	-0.0466748
180	0x3ceee675	0.029162625
181	0xbd008358	-0.03137526
182	0xbcfc1df6	-0.030776005
183	0xbc7e0820	-0.015504867
184	0xbcb3852d	-0.02191409
185	0xbcc91e40	-0.024550557
186	0xbd9025c1	-0.07038451
187	0xbd13a670	-0.0360474
188	0xbcd77e66	-0.026305389
189	0x3c096005	0.008384709
190	0x3c50f96c	0.012754779
191	0x3cfcab3e	0.030843373
192	0x3a6501d1	0.00087359274
193	0x3ab77ea5	0.0013999535
194	0xbcc2155c	-0.023691826
195	0xbc877b36	-0.016538244
196	0xbd1a3bf2	-0.037654825
197	0xbcd686fc	-0.026187412
198	0xbd1f41d3	-0.038881134
199	0x3d3ff84f	0.046867665
200	0xbcae7f54	-0.02130095
201	0x3ae12b65	0.001717907
202	0x3c7e6fc5	0.015529578
203	0x3c3b4e6b	0.0114322705
204	0x3d7f9d20	0.062405705
205	0x3ce292d8	0.027657911
206	0x3dcb1a64	0.09917143
207	0xbc2d7da4	-0.010589037
208	0x3d17e9cd	0.037088204
209	0x3b645e1f	0.003484614
210	0xbc2c91c4	-0.0105328
211	0x3d1780a4	0.036987916
212	0xbc8c0d6a	-0.01709624
213	0x3c690731	0.014222906
214	0x3d5fed11	0.054669444
215	0xbcb94847	-0.022617472
216	0x3bc10ce4	0.0058914293
217	0xb9e65213	-0.0004393017
218	0xbb4dc6fd	-0.0031399124
219	0x3c069f89	0.008216747
220	0xbc99c4c8	-0.01877059
221	0xbd5862e2	-0.052828677
222	0xbac39908	-0.0014922926
223	0x3c94a062	0.018142883
224	0x3c0f7fea	0.008758524
225	0xbbe01c29	-0.0068392945
226	0xbc72068f	-0.0147720715
227	0x3bfef24d	0.0077803493
228	0xbca475f2	-0.020075772
229	0x3c3bee17	0.011470339
230	0xbc8a0d52	-0.016852055
231	0xbdc6f0aa	-0.09713872
232	0xbd89b963	-0.06724813
233	0xbcc44270	-0.023957461
234	0x3cdea3a4	0.02717764
235	0x3c85e7af	0.016345827
236	0xbb971d91	-0.004611679
237	0x3d08a383	0.033359062
238	0x3c516606	0.012780672
239	0xbcb6281e	-0.022235926
240	0x3c95246b	0.018205842
241	0xbd1cf6ee	-0.038321428
242	0x3a667c5d	0.0008792335
243	0x3d2c710b	0.042099994
244	0xbbb595eb	-0.0055415533
245	0xbb9ce628	-0.004788179
246	0x3d0899fa	0.03334997
247	0xbcf51aff	-0.0299201
248	0x3c1c7a1d	0.009550598
249	0x3d118869	0.03553048
250	0xbcb1e8f4	-0.021717526
251	0xbd1f496c	-0.03888838
252	0xbd275f48	-0.04086235
253	0xbb00ddb2	-0.001966339
254	0xbd17851f	-0.03699219
255	0xbd221297	-0.03956851

body.block3.conv.bias f4 [32]
0	0x3d27ca31	0.04096431
1	0xbc7bb3f7	-0.015362731
2	0x3d31110d	0.04322915
3	0xbd4cc8f7	-0.049996343
4	0x3c2dc135	0.010605146
5	0xbdb4ded7	-0.08831566
6	0x3bc0b5e4	0.005881058
7	0x3d1e60fb	0.038666707
8	0xbd8b7c3c	-0.06810805
9	0x3bc022c9	0.0058635217
10	0x3ce81e9c	0.028334908
11	0x3cd660b9	0.026169168
12	0xbc2f3911	-0.010694758
13	0xbbe30d47	-0.006929073
14	0x3cdb2624	0.026751585
15	0xbd115d15	-0.03548916
16	0x3c1828fd	0.009287116
17	0x3d109ba2	0.035304673
18	0x3d385f59	0.045012806
19	0x3d237c03	0.03991319
20	0xbd71b736	-0.059012614
21	0xbd76cf80	-0.06025648
22	0xbc8cc29b	-0.017182639
23	0xbd358172	-0.0443129
24	0xbd633f3f	-0.055480238
25	0xbd154094	-0.03643854
26	0xbd0d6f8f	-0.03453022
27	0x3d254268	0.040346533
28	0xbd119b9c	-0.03554879
29	0x3d30ff06	0.04321196
30	0xbd65b7f6	-0.056083642
31	0x3ae4389f	0.0017411894

body.block3.norm.weight f4 [32]
0	0x3f75c3d9	0.96001965
1	0x3f857dd4	1.0429025
2	0x3f7eb683	0.9949724
3	0x3f7c01ad	0.9844006
4	0x3f74424c	0.9541366
5	0x3f6ff0f9	0.9372707
6	0x3f867484	1.0504308
7	0x3f7e8091	0.99414927
8	0x3f81c8fb	1.0139459
9	0x3f76f44f	0.96466535
10	0x3f8b5f4a	1.0888455
11	0x3f821817	1.0163602
12	0x3f7d8b81	0.9904099
13	0x3f78fed4	0.97263837
14	0x3f76fd24	0.9648001
15	0x3f74efd8	0.9567847
16	0x3f79339e	0.97344387
17	0x3f804d3f	1.0023574
18	0x3f7b5308	0.9817357
19	0x3f781595	0.9690793
20	0x3f80f83a	1.0075753
21	0x3f684416	0.9072889
22	0x3f835218	1.0259428
23	0x3f819e5c	1.0126452
24	0x3f802baa	1.0013325
25	0x3f707fcc	0.93945
26	0x3f73f644	0.95297647
27	0x3f73cad6	0.9523138
28	0x3f645ef0	0.89207363
29	0x3f7f2f55	0.996816
30	0x3f7208a7	0.9454445
31	0x3f791236	0.9729341

body.block3.norm.bias f4 [32]
0	0xbdc90882	-0.09816076
1	0xbe12499f	-0.14285897
2	0xbc675944	-0.014120404
3	0xbde34248	-0.110966265
4	0xbdcebeb7	-0.1009497
5	0xbc846252	-0.016160164
6	0xbd9239ce	-0.071399316
7	0xbdfc5550	-0.123209596
8	0xbdc51cc9	-0.09624631
9	0xbc2a1228	-0.010380305
10	0xbd8a9880	-0.06767368
11	0xbe028b03	-0.12748341
12	0xbd2ebc4d	-0.042660046
13	0xbd642728	-0.055701405
14	0xbdd42656	-0.103588745
15	0xbd59b545	-0.053151388
16	0xbdc7dbf1	-0.09758747
17	0xbd2482c8	-0.040163785
18	0xbd2774a5	-0.040882725
19	0xbe56816e	-0.20947811
20	0x3d5ee234	0.054414943
21	0xbc32b833	-0.010908174
22	0xbe4ad3c1	-0.1980734
23	0xb92afc6c	-0.00016306498
24	0xbe20a61a	-0.15688363
25	0xbccdfb4e	-0.025144245
26	0xbdec596f	-0.115404956
27	0x3cbc1d4f	0.022963194
28	0xbd323c05	-0.04351427
29	0xbdfa3240	-0.12216616
30	0xbd4860a5	-0.048920292
31	0xbd83145e	-0.06400369

body.block3.norm.running_mean f4 [32]
0	0xbf13dfe3	-0.577635
1	0x3e1dd525	0.1541334
2	0xbd48d54b	-0.049031537
3	0xbe5bc66b	-0.21462409
4	0xbec1f574	-0.37882578
5	0xbea94371	-0.33059266
6	0xbebb3ba6	-0.36568946
7	0x3e732cdf	0.23747586
8	0xbe8ac666	-0.2710449
9	0xbdeebc05	-0.11656956
10	0x3eacad74	0.33726084
11	0x3d8dae8d	0.069180585
12	0x3e42135d	0.18952699
13	0xbeeef780	-0.46673203
14	0x3de5a8cf	0.11213838
15	0xbf94b443	-1.1617512
16	0x3e123a0c	0.14279956
17	0xbe2c3913	-0.16818647
18	0xbf4f3195	-0.8093503
19	0xbe6bb91a	-0.2301983
20	0xbfa75b87	-1.3074807
21	0xbf0b593e	-0.5443305
22	0x3eac70d2	0.33679825
23	0xbf1786f0	-0.59190273
24	0xbdcd28ca	-0.100175455
25	0xbf38c8d1	-0.7218142
26	0xbf2f13de	-0.6838969
27	0xbe97326d	-0.2953066
28	0xbed0bba3	-0.40768155
29	0xbf541be0	-0.82855034
30	0xbf16204f	-0.5864305
31	0xbea37ba9	-0.31930283

body.block3.norm.running_var f4 [32]
0	0x3e7d4822	0.24734548
1	0x3df7cf15	0.12100045
2	0x3ed5e0b8	0.4177301
3	0x3f266945	0.6500438
4	0x3e0598ee	0.1304662
5	0x3f189f88	0.59618425
6	0x3ef00986	0.46882266
7	0x3dfb2054	0.122620255
8	0x3f5b277e	0.85607135
9	0x3ebeb929	0.3725064
10	0x3eabb005	0.3353273
11	0x3eb355fc	0.35026538
12	0x3f771fdd	0.96532995
13	0x3f446603	0.7671816
14	0x3f028d30	0.50996685
15	0x3ea723f2	0.32644612
16	0x3f147cea	0.58003104
17	0x3e17a7d9	0.14810123
18	0x3f08a4f6	0.5337671
19	0x3ea1f718	0.3163383
20	0x3fcb21e2	1.5869715
21	0x3e9308e7	0.2871773
22	0x3e7dee2c	0.24797887
23	0x3e409b59	0.1880926
24	0x3ee0537c	0.43813694
25	0x3ff2b193	1.8960441
26	0x3ea77f57	0.3271434
27	0x3f107be6	0.56439054
28	0x3f305641	0.68881613
29	0x3ea5b629	0.3236554
30	0x3fb0439d	1.3770634
31	0x3ebaf6c2	0.36516386
