TrainedModels/0035-sample/scale_factor=0.750000,alpha=10/4/netD.pth (torch, 467478 bytes, 25 tensors)

head.conv.weight f4 [64, 4, 3, 3]
00000000: 3875 f83c 4745 b03d fd7f e03d 8499 6c3b
00000010: 9c86 58bd 2892 d6bc b66f 863d 18e1 9d3d
00000020: f371 823d e335 5c3c fee0 923c 7684 193d
00000030: 3501 df3a 7cf2 78bc d067 0abc 1cbd 273c
00000040: facd e73c 8b7b 293d d69d f23c 2c5b 953d
00000050: 3abf a23c dcd0 f93b 6017 9fbc 1adc 33bd
00000060: dc8b 0dbc 444a d83c 59c3 663c 4346 b2ba
00000070: 3bef ed3b f443 7b3d 4503 dbbc 60d3 1cbc
00000080: 575f 653c 42aa 993c 8bca 003b be30 0f3d
00000090: 5f38 b93d f22d 903d 90b2 cf3c 496e fd3c
000000a0: 5d12 bfbc 9d2b ee3a edca 2bbd 50d5 8dbd
000000b0: 0e07 83bd e2cc 17bc c0ac 613d 3b16 6b3c
000000c0: 29af 7fbc ed65 543b 4fc2 0f3c 10b7 febc
000000d0: 6ab0 53bd 9b04 5cbd c21f b9bb 650b e03c
000000e0: f160 8a3d a655 693c 438f 983c 709b 253d
000000f0: 3156 a2bc f075 26bd 6412 5ebd 8b29 9e3c
00000100: a28b ef3c 17a4 bb3d 6e2a fabc 4b4a 9f3a
00000110: 9d09 0d3c 72c2 47bd 4e6f bbbc 2c82 dcbc
00000120: 0e28 08bd 131f 703b 9636 903d ecb5 393d
00000130: 2840 9a3a 08b9 16bd ef77 b73c 7646 75bc
00000140: c45f 29bd 6e46 0bbd 5b70 773c 864f 943d
00000150: e8d5 143d 9f6a e93c 0dc8 36bd d463 093c
00000160: a8d8 a0bc 5bf6 55bd 5990 8abd 00cb 483d
00000170: 95e5 c63d e8d6 533d ba25 233d 1d01 16bd
00000180: e597 073b 0c6b 2bbd ba7a aebd 96f3 603d
00000190: d873 1bbc 5331 d7bc ec05 893b ae76 a03a
000001a0: 0e29 78bc ea99 b2bc 0df6 803c f2f6 5b3c
000001b0: 5b7d b1bc 51e2 7bbc c592 20bd ad0e 64bd
000001c0: 3a21 8fbc bae4 753d 67ad 22bd 266b 69bc
000001d0: 671a b0bc 8bb6 953d 6923 b63c 68d5 31bc
000001e0: 7222 113b 8d07 163d e091 423d d498 47bd
000001f0: 8c1f e43c 71ef 4f3c cfb8 a43d d73b 083d
00000200: 1832 26bc da57 85ba ba03 953c e604 bc3d
00000210: a8cc 62bd 9f4e d4bb 4a1d 523d 204c 12bd
00000220: a20d df3c 8396 adbc 33a4 fd3c b612 53bb
00000230: d500 253d 0ce7 1abc 4bd1 d738 7805 053d
00000240: 6e15 04bd 09d3 5ebc 3f9a 593b 4b63 0bbd
00000250: 3eb1 37bd 68e9 21ba 5d06 723d f3a7 813d
00000260: b65f e63d 710a 5cbd 8a68 7ebc 4bfe aabc
00000270: 3661 93bd b9a0 d8bc cc4a 40bc bfa8 733c
00000280: 272e 813d fe76 713d a241 92bd ff00 8bbc
00000290: 43e4 3a3c 016e b8bd b422 b1bc eab9 5cbb
000002a0: fa50 933c 51ef 4b3d cf5f bb3d 63e3 bf3b
000002b0: 69a7 503c 9a4c 53bc 32ef edbb 5964 413c
000002c0: 5b6c 4f3c daf5 54bb 34f5 8b3c b701 ebbc
000002d0: 054a ca3c 1bc8 f03b 980c 36bd f235 a3bc
000002e0: 3906 8ebc 8656 1c3c 1c0d 83bc 5451 8cbc
000002f0: c9f2 46bd cb0e 5abd e645 4bbc 4887 16bd
00000300: b11b a73c 0c35 8cbb a09f 39bd cd11 ffbb
00000310: 7b13 adbb 6e81 90bd b988 70bd 4aad 22bd
00000320: 3d09 bf3a 5374 c8bc 9f98 fd3b 791c 3bbc
00000330: a0ec 963c c2bd 14bc 5f88 b73a b95a 4e3d
00000340: e7bb 413c 3ac2 a5bb befc ffbc 30e0 b7bb
00000350: 4cac 81bc 059b c3bc c503 c13b 69c8 0cbd
00000360: cba7 6bbc 2dc5 24bd c2ef 133b f612 883d
00000370: 6fc2 b23b 1c26 eabb d53a aa3d 083b 193c
00000380: 7584 e13b 67d6 bd3b 4aeb f4ba 8a53 a1bc
00000390: 9de8 e1bc 941c 17bc 04f5 dcbc 9d48 2e3c
000003a0: b676 9b3c 58cb 09bc 36c5 b83c f458 ef3b
000003b0: f827 eab8 8cc8 96bc d364 233c 0339 a23b
000003c0: 425d 22bd aa72 82bc 9c4c 713c 2914 aabc
000003d0: 59f8 0d3d 4267 a43d 0e06 c1bb 6c59 bb3c
000003e0: 78fe b2bc 5c83 11bc fa84 adbb 00df 36bd
000003f0: f77b 8abb ee41 4b3c f260 f439 b35b 8e3b
0.030329332 0.086069636 0.10961912 0.0036102245 -0.05286275 -0.02619274 0.06564276 0.07708949
0.0636939 0.013440582 0.01792955 0.03747984 0.001701391 -0.0151945315 -0.008447602 0.010237958
0.02829646 0.041377585 0.029616278 0.0729278 0.019866575 0.007623775 -0.019420326 -0.043911077
-0.008639302 0.0264026 0.01408466 -0.0013601262 0.0072611845 0.061344102 -0.026734957 -0.00957188
0.013999782 0.018757943 0.0019651975 0.034958594 0.09043955 0.070400134 0.0253537 0.030936377
-0.023324186 0.0018170957 -0.041941572 -0.06925452 -0.0639783 -0.009265156 0.055096388 0.014348562
-0.015605726 0.0032409385 0.008774354 -0.03109315 -0.051681913 -0.05371533 -0.005649538 0.027349183
0.06756771 0.014241612 0.018623 0.04043144 -0.01981649 -0.040639818 -0.054216757 0.019306919
0.029241387 0.09162157 -0.03053781 0.0012152878 0.008608249 -0.048769422 -0.022880223 -0.02691754
-0.033241324 0.0036639615 0.070416614 0.04533951 0.0011768388 -0.036797553 0.022396056 -0.0149704125
-0.041351095 -0.034002714 0.015102471 0.072417304 0.03633681 0.028493224 -0.044624377 0.008385617
-0.01963456 -0.052236896 -0.067658134 0.04902172 0.09711758 0.051718622 0.0398309 -0.036622155
0.0020689901 -0.041850135 -0.08519502 0.0549198 -0.0094880685 -0.026268637 0.004181614 0.00122424
-0.015146507 -0.021801908 0.015742326 0.013425576 -0.02166622 -0.015373782 -0.03920247 -0.05567806
-0.017471898 0.060032584 -0.03971615 -0.014246738 -0.021496965 0.07310208 0.022233682 -0.010854103
0.0022145775 0.036628295 0.0475024 -0.048729733 0.027847074 0.012691365 0.08043062 0.033260193
-0.010143779 -0.0010173277 0.018190254 0.09180622 -0.055370957 -0.006479099 0.051297463 -0.03571713
0.02722818 -0.021189934 0.030962085 -0.0032207198 0.040283997 -0.0094545 0.00010290983 0.03247592
-0.032247 -0.013600119 0.003320351 -0.03403024 -0.044846766 -0.0006176443 0.0590881 0.06330862
0.11248724 -0.053720895 -0.015527854 -0.02087321 -0.07196276 -0.026443826 -0.011736583 0.014871775
0.06307631 0.05895137 -0.07141425 -0.016968248 0.011406961 -0.090053566 -0.021622993 -0.003368015
0.017982949 0.049788777 0.091491334 0.005855964 0.012735226 -0.012896681 -0.0072611803 0.01180371
0.012660111 -0.0032495172 0.017084695 -0.028687341 0.024693498 0.007348073 -0.044445604 -0.019923184
-0.017336952 0.009542113 -0.015997462 -0.017128624 -0.04857138 -0.053236764 -0.012406802 -0.036750108
0.020398946 -0.0042787846 -0.045318246 -0.0077841044 -0.0052818633 -0.07055937 -0.05872414 -0.039716043
0.0014574897 -0.02446953 0.007739141 -0.011420363 0.018423378 -0.009078445 0.0014002434 0.05037949
0.011824585 -0.005058554 -0.031248447 -0.005611442 -0.015829228 -0.02387763 0.005890342 -0.034370814
-0.014383267 -0.040227104 0.0022573327 0.066442415 0.005455307 -0.0071456563 0.083120026 0.009352453
0.006882245 0.005793381 -0.0018685844 -0.019693155 -0.027576739 -0.009223122 -0.026972301 0.01063743
0.018977504 -0.008410297 0.022554975 0.007304305 -0.00011165434 -0.018406175 0.009972769 0.004950644
-0.03963972 -0.015923817 0.014727738 -0.020761566 0.03466067 0.08027507 -0.0058906144 0.022869788
-0.021849856 -0.008881416 -0.005295393 -0.044646263 -0.0042262035 0.012405856 0.00046611537 0.0043444275

head.conv.bias f4 [64]
00000000: 3916 143e c908 1d3e 7ecb e53d b32b 653c
00000010: f842 aa3c 710f ce3d dd9b 95bc 153d 14be
00000020: ad91 e63d 6a83 c13d f164 34be 0dd9 8bbd
00000030: 68f8 da3c d12b c7bd 42cb 5c3d 4fc9 da3d
00000040: 766b 96bd d11f 373d a578 46be daba 81bd
00000050: 24ab 50bd 8a10 1ebd 5c3d dd3c 8683 9d3b
00000060: ce84 e73b ecb9 44bc 6a92 56bd f799 b13d
00000070: c576 743c a221 77bd 9099 bfbc 232c e13d
00000080: dad8 e43d e430 f23d c866 c6bd 76f9 c5bd
00000090: 368b 663d 14ef c83d 6dd8 5e3e 34fe 8b3d
000000a0: 81f1 04be eb5d 253d 00ba 813c 2722 a53d
000000b0: 8439 dfbc 89af 1c3d f5e9 bbbc c784 d8bb
000000c0: 2ae7 d03d 4544 86bd 379e efbc c2d1 663d
000000d0: 2a0c 1bbe cd4e 6cbd 4bbb 01bd 85b3 e13c
000000e0: 079d 23be 0557 b8bd 01d8 8b3c d4cc e6bd
000000f0: 12a6 9e3b 88c6 b63d 7927 67bc 2eaa cd3b
0.14461602 0.15335383 0.11220454 0.0139874695 0.020783886 0.10061539 -0.018262798 -0.14476426
0.11258254 0.09448893 -0.17616631 -0.068285085 0.026729777 -0.09725154 0.05390478 0.10682928
-0.07344715 0.044708077 -0.1938196 -0.06334467 -0.050944462 -0.03858999 0.027006797 0.0048069386
0.007065392 -0.012007218 -0.052385725 0.086719446 0.014920895 -0.06033481 -0.023388654 0.109947465
0.11174174 0.118257314 -0.09687573 -0.096667215 0.056285106 0.098112255 0.21762247 0.06835595
-0.12982751 0.04037277 0.015835762 0.08063155 -0.027249105 0.03825334 -0.022938708 -0.006607625
0.10200341 -0.0655599 -0.029250247 0.056352384 -0.15141359 -0.057692338 -0.031672757 0.027551422
-0.1597787 -0.09000973 0.017070772 -0.112695366 0.0048415745 0.089245856 -0.014108532 0.0062763905

head.norm.weight f4 [64]
00000000: 809c 5d3f 2e8d 8c3f 7766 883f 8126 703f
00000010: fec7 8f3f 2f76 813f e24f 7a3f 2cb7 813f
00000020: 7a2a 813f a830 713f a9f1 773f 0b57 803f
00000030: a933 5e3f be6c 873f 9a2d 5d3f d788 773f
00000040: 3a6c 7a3f ee03 703f 6b3c 713f 4d76 763f
00000050: 6a36 7f3f dfd4 843f 0297 843f 30ab 773f
00000060: dfa5 863f d196 8b3f 7f1c 7d3f 09ab 663f
00000070: 2472 563f acc2 623f 56c7 7c3f c823 893f
00000080: c466 8b3f b034 6a3f 537c 753f 97ea 7f3f
00000090: 5c40 843f a92e 613f 8ea5 863f 074c 893f
000000a0: 1a3a 813f 20a7 753f af3d 7d3f a0b4 6e3f
000000b0: f1ff 7c3f 55f8 7e3f feb9 803f 1a4e 863f
000000c0: 0e99 773f 7bee 7c3f 6c52 6f3f 3fd7 833f
000000d0: c716 873f ec7a 8a3f 177f 883f 4b48 8e3f
000000e0: 4247 6f3f ea19 7a3f 8eac 763f 72e3 8a3f
000000f0: c4c1 543f 214a 663f 271a 763f cce6 513f
0.86566925 1.0980585 1.065627 0.9380875 1.1232908 1.0114192 0.9777814 1.0134025
1.0091088 0.9421487 0.9685312 1.0026563 0.8679758 1.058006 0.8639771 0.96693176
0.9782139 0.93755996 0.94232816 0.9627426 0.99692404 1.0377463 1.0358584 0.96745586
1.051937 1.09054 0.98871607 0.9010473 0.83767915 0.88578296 0.9874166 1.0714045
1.0890737 0.91486645 0.9589283 0.9996733 1.0332141 0.8796182 1.0519273 1.0726327
1.0095856 0.9595814 0.98922247 0.9324436 0.98828036 0.99597675 1.005676 1.0492585
0.9671792 0.9880139 0.9348514 1.0300063 1.0553826 1.0818763 1.0663785 1.1115812
0.93468106 0.9769579 0.9635705 1.0850661 0.8310816 0.8995686 0.96133655 0.81992793

head.norm.bias f4 [64]
00000000: 74d6 c73c 50b0 653e 0d44 3c3f eddf 0c3e
00000010: d227 b73e a558 483e b28b e7bc 9ab2 46bd
00000020: c072 fbbc 1ba0 7e3d 504b dfbd 4df7 b23d
00000030: 7e2c b93d 704f 523d 50f2 d0bd 43dc 913d
00000040: 6294 2cbe 1e6e 11bc f417 5a3d f396 84bd
00000050: 756c b0bd fd14 d2bc d9fd 2a3e 8b3c 6cbc
00000060: e5f1 fa3c 34cf ec3e 4a34 603c 11b0 c5bd
00000070: 77ff bcbd 8c5c d03d 7de5 a93e ec88 b43d
00000080: 7331 8f3e 9279 12be ef58 603e 5a86 ab3c
00000090: 1671 c13d b34d 90bd 5c0f 863e 4fbb 073c
000000a0: 9141 663e d844 7d3d 5785 013e 4aa3 013e
000000b0: 2639 0abd 5ec7 fcbd c131 c03e fd13 a43e
000000c0: c9c0 56bd 5c62 993e 92c2 153e 8800 053e
000000d0: 7cdd bc3d a21f 6d3d 0002 483d fad8 1dbb
000000e0: 20b3 48bd 0c44 cabd 7ae9 4e3e d912 303e
000000f0: 80bb eebd fd50 2bbb 78cc 01bd 89f3 593e
0.024394251 0.22430539 0.7354134 0.13757296 0.35772568 0.19565065 -0.028264854 -0.04851017
-0.030694366 0.062164407 -0.109030366 0.08738575 0.09041689 0.05134529 -0.102024674 0.0712209
-0.16853479 -0.008876352 0.0532455 -0.06474104 -0.086144365 -0.025644774 0.16698398 -0.014418731
0.030632922 0.46251833 0.013684342 -0.096527226 -0.092284136 0.10173902 0.33182898 0.08815178
0.27967414 -0.14304188 0.21908925 0.020938087 0.094453976 -0.0704607 0.26183593 0.008284404
0.22485949 0.061833233 0.12648521 0.12659946 -0.033745907 -0.12342714 0.3753796 0.320465
-0.052429948 0.29957855 0.14625004 0.12988484 0.09221932 0.057891496 0.048830032 -0.0024085627
-0.048998952 -0.0987626 0.20206252 0.1719469 -0.116568565 -0.0026140802 -0.031689137 0.21284308

head.norm.running_mean f4 [64]
00000000: a0c0 16be 6402 2b3e e2b0 c63d b7f0 c8bc
00000010: f826 2dbc 59b2 983e deb8 5ebd 886b e5bd
00000020: c72a 363e 65be d93e 6bab 2ebe 8681 403e
00000030: b9a9 dabe 7627 393e 486b 28be 342e a8bc
00000040: 4995 183e b534 ed3d b04e babe 1273 abbe
00000050: 3276 7b3e cf85 2bbc 09d7 f73b 7fc6 36be
00000060: d84f 70be 3d56 363d 0238 5fbe 1892 acbd
00000070: 124a 5bbe c321 93be 2076 16be 3dab e33d
00000080: 352a c63d 4312 b43e eb4d 62be 5930 93bc
00000090: cd55 10be ce35 c93d 412b 473e 0f26 1ebd
000000a0: a291 2dbd 43f0 873d ea8f 463e 2984 fd3e
000000b0: ff2d dcbd fb5b 9cbd 745b e33c c5cb 4cbd
000000c0: 2f0e 413e 145f 0cbe aa12 81be 4772 c5bd
000000d0: e953 94bd e28b e33d 0f9f de3b 58f7 003d
000000e0: 7104 bbbd 7eed d2bd 72cc aabe 28ba d2bd
000000f0: daf9 52be df32 143b 6e78 3e3e aaf0 97be
-0.14721918 0.1670013 0.097017065 -0.024528844 -0.010568373 0.29823568 -0.05437552 -0.112021506
0.17789756 0.42528072 -0.17057578 0.1879941 -0.42707613 0.1808146 -0.16447175 -0.020529844
0.14900698 0.11582319 -0.3638816 -0.3348623 0.24556807 -0.010468914 0.007563476 -0.17849158
-0.23467958 0.044515837 -0.21798709 -0.08426303 -0.21414974 -0.28736696 -0.14693499 0.111166455
0.09676019 0.35170183 -0.22100036 -0.01796739 -0.1409523 0.098247156 0.19450094 -0.038610514
-0.042375214 0.06637623 0.19390836 0.49514893 -0.107509606 -0.076347314 0.02775357 -0.049999017
0.18853067 -0.13708144 -0.25209552 -0.09640937 -0.07242567 0.11110665 0.0067938636 0.031485885
-0.091317065 -0.10299204 -0.33359104 -0.10289413 -0.20603123 0.002261333 0.18600628 -0.296758

head.norm.running_var f4 [64]
00000000: 8a54 383d ed43 8e3b 8c9a b83a 2560 413c
00000010: a1d2 4b3b ae7a b73c 30fa 0f3b c7d3 013c
00000020: 9b81 713c 82ab aa3d 2b48 9e3b a13c 0e3d
00000030: 8fda d53d 7696 843b e493 a33d 7f05 4b3b
00000040: 5ed9 773b d977 ba3b 9434 803c 9390 a33d
00000050: 98e1 613d eb61 253b 21e5 9f3b 4a81 b43c
00000060: c6bc d43c a620 aa3b 1e6a 853b c003 a33c
00000070: 98e9 a73d 2fee dd3c 1572 413b d156 673b
00000080: 38fe 373b fb7f 033d 1832 223b 6c2f 2c3b
00000090: 4d64 8b3d 28fa ed3b be4b 9f3a e538 b53a
000000a0: 3c4a 873b 9e0e c13c 7e59 1d3c 9a11 9e3d
000000b0: c453 8b3d aff9 303b 97f0 e63a bc71 193b
000000c0: 232b 6b3c 5993 1b3a 0659 1a3d a08b 263d
000000d0: 956e 8a3b 2f50 b83c 93f5 a73c 7bd6 aa3c
000000e0: 97f5 693b 4755 ad3a 5f03 3d3d 8051 343b
000000f0: 33bb 403d ceec be3c 2ad2 7d3d 631c 083d
0.045002498 0.0043415935 0.0014084144 0.011802708 0.0031100886 0.022397365 0.0021969192 0.007924027
0.014740373 0.08333494 0.0048303804 0.03472579 0.10442077 0.0040462567 0.07987192 0.0030978618
0.003781877 0.0056905565 0.015650071 0.0798656 0.055146784 0.0025235366 0.004879609 0.022034306
0.02596892 0.0051918803 0.004071488 0.01989925 0.08198851 0.027091114 0.002951746 0.003529955
0.002807511 0.032104474 0.0024749096 0.0026273383 0.0680624 0.007262487 0.001215331 0.001382616
0.0041287225 0.02356654 0.009603856 0.07718201 0.068030864 0.0027004292 0.0017619309 0.0023413738
0.014353546 0.0005934737 0.037682556 0.0406605 0.004224608 0.022499172 0.020502841 0.020854225
0.0035699361 0.0013224267 0.046145793 0.0027514398 0.047053527 0.023306277 0.061968006 0.033230197

body.block1.conv.weight f4 [64, 64, 3, 3]
00000000: 6e04 d0bc cc4f afbc c269 4dbc c006 b43c
00000010: 214f 19bd 0265 8b3b 93bf c93c 4f24 4abc
00000020: 45f9 cebc c1e5 263d b0e2 013d 91c9 9c3d
00000030: 2bad 6f3c 9eba 113d 1b05 2a3d e772 7bbd
00000040: 4df9 45bd e769 ccbc 2ca8 cfbb 6ce1 17bd
00000050: e570 dd3d 9905 63bb 8c40 0bbd 9c18 2cbb
00000060: 6007 41bd a87a ffbb a175 2f3d ed9f 583c
00000070: 239d 073d 4874 fe3c 635b 06bd 01eb c0bc
00000080: ad0b 31bc ce79 7ebc b9b4 37b9 461c b5bc
00000090: 88ba 443d b3cc 2b3d f5ed fc3c 7abc 27bd
000000a0: cc42 e83c 7aae d23c 9f6b aabb 69a9 c9bc
000000b0: 66b9 9bbd b38d 8cbd 87f5 4dbc dcb8 afbc
000000c0: 911d 55bd 3c3d 40bd ac42 c4bc 2128 62bd
000000d0: 7b40 dabc 4d71 573b b94b 113c 6370 f03c
000000e0: 228d e03c 1efb e0bc 1f46 c33c d34b 433b
000000f0: 64b8 463d eb49 d13c b6c8 82bd bc97 903c
00000100: 08b9 e93b b435 0b3d 3e6f 093d a4db 5f3c
00000110: 93b7 f23c 1289 0e3b 29d3 113d 280a 393d
00000120: 096b 9bbd c6a1 1fbd b13e 3abd cb5b 5abd
00000130: e82f e8bc aa00 3abc afbe aebb 4cf9 0fbd
00000140: 369d b2bb 5756 bebc a7c6 1dbd 92c0 e13b
00000150: 7c9e 5fbb af8e 6dbd d336 c8bc 5cbc 07bd
00000160: 121f 23bd b727 0dbc 6c34 453d 47ba 6f3d
00000170: f092 483c 2653 343d 142d be3c 47e5 76bc
00000180: e582 1e3b f234 fa3c aa0b 053d 7cac 03bd
00000190: 8eab cbbc faf6 7ebd 8f11 25bc 5765 9dbd
000001a0: 4f4a 48bd fa71 3ebc a3b9 25bd fae8 0e3c
000001b0: ec69 9abc fd40 d13c 9ccd edbc eac6 6c3c
000001c0: fef8 bb3c 73b9 26bc 8f0e f03c 098b f4bc
000001d0: 781a a0bb 717f 8c3c b9bd d3ba 9902 dd3b
000001e0: e303 523c 1300 d53c 5992 d73c 4802 d43b
000001f0: e97c bfbc caa5 28bd 3961 113d 4a8c 4fbc
00000200: 0473 703d b0f0 073d aee9 a23c 401c 213d
00000210: a642 0d3d 1ea1 123d a07a d0bb 9433 283c
00000220: 7ba7 b03b 4e31 2f3c e2db bf3c c494 28bd
00000230: f7c6 32bc ad59 53bc 9136 11bd acac d7bc
00000240: 7d95 813b 3cee 043b 407e 49bc a421 5d3b
00000250: 9f91 a8bc 07d3 933c e584 aabc ec4a 00bd
00000260: aa0b 18bc 4212 f93c 447d 063d a3d6 213b
00000270: 75cc de3c f7ea de3c b938 863b e5c8 023d
00000280: fa35 4b3c 9cf3 393d a2c0 5d3a 8cb3 713d
00000290: 7ace 8fba 4531 e139 30ba b63c 11cd 6b3a
000002a0: 3b52 a93c 82b9 493d a161 29bd 40ab 9839
000002b0: f9db 00bd 6fad eeba 12bb ec38 7cc8 783b
000002c0: 27f3 7c3c ec01 15bc d753 3939 8abc e93c
000002d0: 7ca9 a8bd 4315 8abd d486 3c3c 741b 54bd
000002e0: 243a bbbc df76 e7bc 4f30 37bd 05d0 19bd
000002f0: ad0b a03c 7da1 963d 049e be3c 945e f73c
00000300: c798 a03c 1800 f03c 73b8 c13c eb52 2ebc
00000310: aeb1 0fbd 2462 563d 0de5 833c a821 033d
00000320: dd38 4d3d bd8c 683d ccde a53c 75b3 16bc
00000330: dd75 3a3d 4e20 3a3c bec4 533d 5f60 c73b
00000340: 75de dcbc 99c7 81bc 2702 fd3b 35b2 b8bc
00000350: 42ab 57bc ea1e 9abc 90de 82bd bd09 3abd
00000360: 99fb 02bd 2073 563c 7290 f13c 081b 2abc
00000370: 77f2 023b 21d8 653c 0403 afbc f4a0 c4bc
00000380: ab66 75bc c858 71bd 32c2 25bd 0a43 7bbd
00000390: 12be 54bd 15b1 1bbd 0730 2ebd 1066 3fbd
000003a0: 981a c5b8 b098 3fbd 72bc 4abd 8eed 18bd
000003b0: 59a7 e13b f530 b3bc e9cb 4fbd 7122 013c
000003c0: 163d 67bd fa81 513c ad5b 45bc 244c 35ba
000003d0: 01c9 ad3c 77cb 263d 4a02 09bc 247d 56bc
000003e0: ea19 44bb 0758 373d b6e7 cebc 0200 c039
000003f0: 8748 b33c 0f6e 0d3b caf4 973c 9f17 8f3d
-0.025392737 -0.021400355 -0.012537422 0.021975875 -0.03742898 0.0042539844 0.024627483 -0.012337758
-0.025265345 0.040746454 0.031710327 0.07655633 0.014628689 0.035578363 0.041508775 -0.061388876
-0.048333455 -0.024952842 -0.0063371863 -0.037080213 0.108125485 -0.0034640788 -0.033997104 -0.0026259786
-0.047126174 -0.007796604 0.04283679 0.013221723 0.03310884 0.031061307 -0.032801997 -0.023549559
-0.010806006 -0.01553197 -0.00017519564 -0.022108208 0.048029453 0.041943263 0.030875186 -0.04095123
0.028352164 0.025717963 -0.0052008177 -0.024616914 -0.07603721 -0.068629645 -0.012570745 -0.021450453
-0.05203015 -0.046933398 -0.023957573 -0.05521405 -0.026642075 0.003287393 0.008868151 0.029350465
0.027411047 -0.027463492 0.023837147 0.0029799833 0.048515692 0.025547942 -0.06385939 0.017650478
0.007132653 0.033986762 0.033553354 0.013663206 0.02962855 0.002174918 0.03560177 0.0451757
-0.07588775 -0.03897264 -0.045469943 -0.053310197 -0.028343156 -0.011352697 -0.00533279 -0.035149857
-0.00545087 -0.02323453 -0.038519528 0.0068894112 -0.0034121564 -0.0579974 -0.024440205 -0.033138618
-0.039824553 -0.008615426 0.048145697 0.058527257 0.012242064 0.04402461 0.023214854 -0.015069312
0.0024186906 0.030542824 0.032481827 -0.032146916 -0.024862077 -0.062247254 -0.010074987 -0.07685345
-0.04889899 -0.011623854 -0.04046024 0.008722538 -0.018849336 0.025543684 -0.029028706 0.014451722
0.022945877 -0.0101760505 0.029303817 -0.029851453 -0.004885968 0.017150613 -0.0016154564 0.0067446944
0.0128183095 0.026001012 0.026314901 0.0064699985 -0.023374991 -0.041173734 0.03549311 -0.012667725
0.058703437 0.03318852 0.019886818 0.039333582 0.03448739 0.035798185 -0.0063622743 0.010266203
0.005391059 0.0106929075 0.023420278 -0.0411575 -0.010911695 -0.012899798 -0.03545243 -0.026327454
0.003954588 0.00202836 -0.012298167 0.0033741975 -0.02057725 0.018044962 -0.020815322 -0.03132145
-0.009280125 0.030404214 0.032834306 0.0024694584 0.027197102 0.02721165 0.0040961173 0.03192987
0.012403006 0.04539834 0.00084591855 0.05900912 -0.0010971569 0.00042952053 0.022305578 0.0008995096
0.020669093 0.04924918 -0.04135287 0.0002911929 -0.031459782 -0.0018209646 0.000112882015 0.0037961295
0.015438831 -0.0090946965 0.00017674208 0.028532285 -0.082354516 -0.067423366 0.011506755 -0.051783994
-0.022854872 -0.028254924 -0.044723805 -0.0375519 0.019536817 0.0735502 0.023268707 0.030196466
0.0196041 0.02929692 0.023647523 -0.010639886 -0.035081558 0.052339688 0.01610043 0.03201452
0.050103057 0.056774843 0.02024784 -0.009198059 0.04552256 0.011360241 0.0517013 0.0060844864
-0.026961545 -0.015842246 0.007721204 -0.022545913 -0.01316339 -0.01881357 -0.06390107 -0.045419443
-0.031978223 0.013088971 0.029487822 -0.010382421 0.0019980946 0.01402858 -0.021363743 -0.02400253
-0.014978091 -0.05892256 -0.040468402 -0.06134323 -0.051939078 -0.038010675 -0.04252627 -0.046728194
-9.3986455e-05 -0.046776474 -0.04949612 -0.037335925 0.0068864045 -0.02187393 -0.050731573 0.007881747
-0.05645474 0.0127873365 -0.012045783 -0.0006915948 0.02121401 0.040721383 -0.008362362 -0.013091359
-0.0029922673 0.044761684 -0.025256973 0.000366211 0.02188517 0.0021580493 0.018549342 0.06986927

body.block1.conv.bias f4 [64]
00000000: 314c 0c3d f0a6 213d 4914 18bd c9d4 96bc
00000010: 5922 ba3c 5ec1 a13b 7140 21bd a910 7dbb
00000020: 7866 013d 7d66 b0bb 4b82 2a3b 1db9 1d3c
00000030: ca82 c6bc b46a 603c 1975 06bd c4f7 373c
00000040: 379f 213d f337 2a3d cb07 183d 3d58 87bc
00000050: 62cf afbc e2f4 333d 7431 a4bc 31c3 d73c
00000060: ca0d 3fbc 9ceb 10bd f484 723c 3d99 013d
00000070: e672 05bd 5d2a edbc 0de1 95bb 39ac 983c
00000080: 0f3c ae3c 080c 6c3c 569b 19bd 5c85 463d
00000090: 6914 e33b 73b8 c13c 0375 f5bc 5c97 1c3b
000000a0: 1597 c5bb d73b 91bc 25e9 2e3c 84d7 85bc
000000b0: c2d2 3f3c 70e7 0b3d f2e2 5bbc 524b ee3c
000000c0: cc9a 22bd b281 913c ca73 9eba 9791 3e3d
000000d0: 6ec9 babc 305e ca3c e4ae ca3c 9d04 96bc
000000e0: 8e7d 17bd 3b81 81bb 1654 5f3c 7f09 123d
000000f0: 8717 323c afd8 dcbc 3239 2a3d cf40 b33b
0.03425235 0.039465845 -0.03712872 -0.01841201 0.022721456 0.0049363812 -0.039368097 -0.0038614667
0.031591862 -0.0053833113 0.0026017602 0.009626654 -0.024232287 0.013697315 -0.032826517 0.0112285055
0.03945848 0.041557264 0.037116807 -0.016521567 -0.021461193 0.04393471 -0.020043112 0.026338192
-0.011661002 -0.035380945 0.014802206 0.03164028 -0.03258028 -0.028950864 -0.0045739473 0.01863681
0.021268873 0.014407165 -0.037501656 0.048467025 0.0069299233 0.023647523 -0.029963022 0.0023893928
-0.0060299733 -0.01772873 0.010675703 -0.016338117 0.011707963 0.034156263 -0.013420807 0.02908865
-0.039698407 0.017762039 -0.0012088951 0.046525564 -0.022801127 0.024703115 0.024741597 -0.018312747
-0.036984973 -0.003952173 0.0136308875 0.035653587 0.010869867 -0.026958792 0.041558452 0.0054703723

body.block1.norm.weight f4 [64]
00000000: 4c8d 833f 7487 8a3f 707b 813f 3025 7c3f
00000010: 725e 853f 1507 893f 3c95 7d3f abf3 7e3f
00000020: e6c1 6a3f 73db 693f 2426 6e3f d69a 703f
00000030: 8065 7e3f c24a 863f ded5 703f cf36 873f
00000040: 27cf 713f 3c23 703f 2b5a 6c3f 5ec2 813f
00000050: d173 773f 3c59 8c3f ce41 753f fc2f 713f
00000060: 73a1 853f 704e 6c3f 6526 693f ae94 5d3f
00000070: fa0e 753f d834 803f d604 8c3f 2da6 7f3f
00000080: 10e0 823f e677 7c3f d596 823f 6694 7f3f
00000090: d316 773f f4fb 7a3f 7fd7 813f de31 773f
000000a0: 20f3 7f3f 4477 743f d8c4 753f ab1c 7e3f
000000b0: e162 7b3f 8a81 8a3f 3319 703f 7fe1 833f
000000c0: 8b83 803f ff0d 8b3f 3054 773f 06fc 7a3f
000000d0: d828 743f 0b78 773f 86a0 7a3f 7cfb 723f
000000e0: 8601 723f 156a 6b3f fd9a 853f ce72 843f
000000f0: d344 8f3f 8a7e 873f ff21 833f 33b5 773f
1.0277495 1.0822587 1.0115795 0.98494244 1.0419447 1.0705286 0.9905584 0.9959056
0.91702116 0.9135048 0.9302695 0.9398626 0.99373627 1.0491564 0.94076335 1.0563601
0.94456714 0.93803763 0.92325085 1.0137441 0.96661097 1.0964732 0.95803535 0.94213843
1.0439895 0.92307186 0.9107421 0.8655499 0.9572598 1.0016127 1.0938976 0.9986294
1.0224628 0.9862045 1.020228 0.99835813 0.965192 0.980407 1.0143889 0.96560466
0.99980354 0.95494485 0.96003485 0.99262494 0.9819775 1.0820782 0.9378845 1.0303191
1.0040144 1.0863646 0.96612835 0.9804081 0.9537482 0.96667546 0.9790119 0.94914985
0.94533575 0.91958743 1.0437924 1.0347536 1.1192878 1.0585492 1.024475 0.96760863

body.block1.norm.bias f4 [64]
00000000: 8f64 e93d 191a 163e 625e 193d 01ca f23d
00000010: 57eb 6a3e 247f cf3d 1766 813e 6878 573d
00000020: 60bd 993d 246c 85bd 8e81 8bbc 2693 bf3c
00000030: 9ecd 8fbb 4e90 233e f81a fd3d 794e bb3d
00000040: 131a 853d a693 3ebb 51e2 0cbc ad0c 623e
00000050: 4905 643d d3b9 5e3e 679c 3d3d 62f0 513e
00000060: e3de 793d 73c5 863c c053 a53d 293c 05bd
00000070: 9d7b d6bd efd2 6b3d f29e db3d 74b8 6a3d
00000080: a3d5 913d faa5 2b3e 17af 293d 1189 413e
00000090: babd ddbc 35f8 c23c 59b8 fd3c 95b1 203e
000000a0: cb7c 27bc c7a7 08bd 75b1 f53d b8f5 bc3d
000000b0: 2a81 d23b 60aa e7bd 7075 113e b62d df3d
000000c0: bce4 e73d 4607 9c3e 808e 3f3d ea21 7ebd
000000d0: 0c8f 753d 3e82 313e cf60 4f3d fce1 683d
000000e0: e45b 8a3d 776b 2f3d 2e12 e83c 6d95 843e
000000f0: 7001 1d3e 5635 813e ce03 f83d e5d2 4d3c
0.11396133 0.14658393 0.037443526 0.118549354 0.22941338 0.10131672 0.252732 0.052605063
0.075068235 -0.06514767 -0.01702955 0.023385596 -0.004388525 0.15973017 0.123586595 0.09145827
0.06499114 -0.0029079705 -0.00859888 0.22075148 0.055669103 0.21750574 0.046291735 0.20501855
0.061003577 0.016451573 0.08072615 -0.032528076 -0.10472796 0.05757421 0.10723676 0.057304814
0.07120826 0.16762534 0.041426744 0.18899943 -0.027068008 0.023799995 0.030971693 0.15692742
-0.010222624 -0.03336313 0.11996738 0.09226555 0.006424089 -0.11311793 0.14204955 0.108973905
0.113229245 0.304743 0.046766758 -0.06204406 0.059950873 0.1733484 0.050629433 0.05685614
0.06755808 0.042827096 0.028328981 0.25895253 0.1533258 0.25236005 0.12110101 0.012562488

body.block1.norm.running_mean f4 [64]
00000000: d22a 8dbf 4d0d a7bc 1215 b23f 5aff d0bf
00000010: 715e a43f 35fc 583f 8114 97bf 6381 bbbf
00000020: cac0 38bf 0806 ca3c 0f9e 8ebf 8eff ab3f
00000030: c8a1 983f de83 7bbf e368 adbe 9e07 98be
00000040: d8b5 f0bc f0fe 213f 7019 263e 9633 903e
00000050: 9f51 5e3f eece bebf 69dd 963f bc0c fa3d
00000060: 8e70 b3be 5f03 6fbf d4f9 21bf 3cae 853f
00000070: 43c4 98be 18b8 553d 75f6 583f 0446 713f
00000080: c9c7 84bf 3e4d b7be 94cc 12bf 5f67 47c0
00000090: 9a75 9a3e b396 acbd 9dfd de3e 0ecc be3f
000000a0: c114 133d f124 bb3e fafc 42bf bb2d ad3e
000000b0: a425 0e3f 9b06 e5bf 1e86 f5bf 1a5f 2b40
000000c0: c196 bc3e d5f4 0cc0 74a0 853e 7f5e 03bf
000000d0: 7f9b a43f 460a 9b3e f4a4 03c0 ea68 36bf
000000e0: 7830 b43a 827c 493e 710c 80bf 7296 59be
000000f0: e339 013c b217 d23d e592 c5bf ced4 1bbe
-1.1028693 -0.020392084 1.391268 -1.6327927 1.2841321 0.8475984 -1.1803132 -1.4648861
-0.7216917 0.024661079 -1.1141986 1.3437364 1.1924372 -0.9824809 -0.33869085 -0.2969331
-0.029383585 0.6327963 0.16220641 0.28164357 0.86843294 -1.49069 1.1786319 0.1220946
-0.3504681 -0.9336452 -0.6327183 1.0443797 -0.29837236 0.05217752 0.84751064 0.9424746
-1.037347 -0.3580112 -0.5734341 -3.1156843 0.30167848 -0.08427181 0.43552867 1.4906023
0.035908464 0.36551622 -0.7616726 0.33823952 0.55526185 -1.7892641 -1.9181554 2.6776795
0.36833766 -2.2024434 0.2609898 -0.51316065 1.2859954 0.30281276 -2.056943 -0.71253836
0.0013747355 0.19676402 -1.0003797 -0.21248797 0.007887336 0.10258426 -1.5435454 -0.15217897

body.block1.norm.running_var f4 [64]
00000000: 7053 f63f 2d63 dc3f 9eef cf3f 4624 db3f
00000010: 7fb6 863f 584f be40 19b8 6c3f 14d2 cd3f
00000020: 6d56 0440 9c81 bb3f 3986 783f bf8a 0340
00000030: 13a9 633f 116d 9240 c683 8c3f c5bb 443f
00000040: 9273 423f 6374 ff3f f265 f13f 1bdf 8d3f
00000050: 9531 473f 2b74 2f3f 9818 ce40 0b8c 0e3f
00000060: 8054 2a40 7b4f 5f3f fbd3 a53f cbf2 b240
00000070: f17b 9c3f 4bb1 143f a556 fa3e 5651 9c40
00000080: 3d61 893f a1c0 4c3f 9810 0740 2139 ea3f
00000090: 9ecd 1b40 9e17 0640 f966 b63f bf13 3f40
000000a0: d5bf ec3f abe3 9c3f 9760 633f eb67 9d3f
000000b0: 7710 1e3f 0192 1640 da26 0c40 c673 9d40
000000c0: 02f4 913f 1aec 6340 924b 903f 1921 583f
000000d0: 629d a140 d8ab a73f de58 963f 6458 c13f
000000e0: edbc 1b40 4cba 963f 1763 423f ad13 d33e
000000f0: 2e0b 5a40 f746 2b3f bf3f 993f 639c 3b40
1.9244213 1.7217766 1.6245 1.7120445 1.0524443 5.9471855 0.9246841 1.6079736
2.067775 1.4648929 0.9707981 2.0553434 0.8892986 4.575814 1.0977714 0.76849014
0.75957596 1.9957393 1.8859236 1.1083711 0.7781003 0.68536633 6.440502 0.5568244
2.6614075 0.8723065 1.2955316 5.592138 1.2225324 0.5808303 0.4889423 4.8849287
1.07328 0.7998143 2.1103878 1.8298684 2.4344249 2.0951915 1.4250175 2.9855802
1.8496042 1.2256979 0.8881926 1.2297338 0.61743873 2.3526614 2.1898713 4.9203825
1.140259 3.5612855 1.1273062 0.84425503 5.050462 1.3099318 1.174587 1.51051
2.433406 1.1775603 0.7593245 0.4122595 3.4069324 0.6690516 1.1972579 2.93142

body.block2.conv.weight f4 [64, 64, 3, 3]
00000000: 20e6 beba 0f56 0d3c 5324 773c 0911 d53c
00000010: 685e ab3c 915d 2a3b c560 3dbd 0f69 c6bc
00000020: 3bd2 01bd 13e1 09bd 539a bebc 14ca 7b3b
00000030: fbb9 e03c c2c2 40bc 0a28 013d 4594 313d
00000040: 6a9d 8cbc 901d 20bd 7807 3bbd 5293 2fbd
00000050: 92f9 42bd ed32 0d3d 0cf5 9a3c 56e2 79bb
00000060: 1875 263c 57e5 0fbc 4d80 48bd 2976 343c
00000070: a3b0 a93c a10b fd3c a7f7 33bc e97d 87bc
00000080: 5f6d 15bd 2991 41bd 70d5 45bc 8df2 34bd
00000090: 320a b6bd d982 dbbd 4dba d8bd b8ad 5a3d
000000a0: 4d64 2c3d ab23 b03d af37 ae3d e335 833c
000000b0: c63a 1ebd 760f a6bd ff9f 7abd 5df2 64bd
000000c0: 6b3b 323c f78b 07bd da38 4db9 18f4 173c
000000d0: fa02 aabc 2c06 06bd b3f2 a63d 4663 0cbc
000000e0: b4c1 873d a2df 5fbb 2f56 5dbd 3ee1 67bb
000000f0: e082 0c3d 0e98 f43c ef5e b3bb 3218 7b3d
00000100: 9f27 c43c 5a27 cb3d 67a4 603b fccc 1d3b
00000110: 3322 1d3d 9ca3 44bd 0fdb 663c 051a 853c
00000120: bd51 04bd 8613 27bd 9275 52bd b638 093d
00000130: 8d19 dbbc 4baf 233d 1cbb 273d 2da2 3c3c
00000140: bd81 6a3a 98af 753d ed9c f43c 3aa5 873b
00000150: ea8d 00bd c784 c23a 3544 4b3c 374b a2bc
00000160: 9d27 08bc 85d5 adbc a95c 08bd 8ada 523c
00000170: 480a 2b3c 4e58 db3b 6ac4 aebc e282 573b
00000180: 8774 f8ba c024 14bc e5af 0cbd e90d bfbc
00000190: 84c2 6ebc 8647 423c a8b2 c6bc 3c53 5cba
000001a0: d1ac 36bc ea57 403d 500f d43b 19fc 37bc
000001b0: 9b09 e4bc 9c5b 0ebc e2fb 0cbd ba62 69bd
000001c0: 7343 8b3c 3ffc ac3a 19f2 943d b0b8 723c
000001d0: 3f30 b0bb 3fcf 153d 8b3a 193d 4eec d63b
000001e0: 32b8 04bc 4998 76bc 7357 bdbc 23da c93b
000001f0: 08ae 76bc 30a9 d83c e3e9 a73d e4a0 2abd
00000200: 8dd6 c4bc 8dcb 87bb b4c7 0d3c 9605 043d
00000210: 3914 2e3c 8860 a23b d371 7f3c dfb8 9bbc
00000220: afc1 05bc bb80 b13c 9825 2f3d 00ba f3b9
00000230: 0e44 9bbc 95f6 f3bc 1895 49bd 4c0e 43bd
00000240: a24d 073d 120f ff3a ea72 763c 8644 12bd
00000250: d99c 8e3c 015e 453d 16f1 d43b 5d54 893d
00000260: b468 063d b36a 0d3d 8bd2 2e3d ba35 ce3b
00000270: 7947 c03c 1302 9fbc 2ba0 1bbd d025 adbb
00000280: 9309 19bd eeb3 a4bc aefc 73bd 9c43 0cbd
00000290: 6936 55bd 561b c4bc 7905 fdbc f54e 1cbd
000002a0: 19f4 babc 9e22 5c3c 0011 c6bc e22c 93bc
000002b0: 73d2 45bd fe1a 883c fe34 07bc bc71 ad3c
000002c0: 976a 1b3d 7120 b1bc a33c b0bd b41a f3bc
000002d0: ea28 903c 8a2c 28bc ff99 5fbd c66f 073d
000002e0: ef90 913a 754a 523d c7c5 053d 27de b1bc
000002f0: 7d46 203c 2cd8 023e 1703 cb3c 0389 7abc
00000300: 1804 5fbd 2d81 0fbd 862d 47bb e172 473d
00000310: 6baa 503d 222e 8cbc 2bfc 35bd 8ad6 bbbc
00000320: d2d9 2f3b bd50 f3bc 9797 813b a4f3 583a
00000330: b7eb ce39 0fd9 e3bc 9dbc b63c 34cd 0cbc
00000340: 3d90 93ba d851 32bd a596 b33b 6f14 0c3d
00000350: 858d 48bb 95b8 cbba ff23 6c3d 4be3 373c
00000360: bbeb 05bc 3714 42bd 5ed1 5b3c 4e9a 8abc
00000370: 64c5 1f3c 4c46 773d 69e5 8abd ae9b d4bb
00000380: 5b90 563c b152 8cbd 1c17 a2ba ca5b d33a
00000390: a46e 343d 22f1 083c 6c42 c2bc 8304 2e3d
000003a0: 92e6 b63c 2a99 063d 266c 873c bcae 643c
000003b0: 0328 3c3a 8e0d 2ebc f2d6 1bbd 00a8 f7bc
000003c0: d1ae 81bc b447 0cbd 1a5f 13bc d08c 0b3c
000003d0: 40d0 42bd 7dae 22bd efd0 c139 65a2 ab3c
000003e0: 9d49 fe3c 339e 82bc bae4 193d 81a2 963b
000003f0: e953 fa3b 9b5b 1dbd b4eb e7bc a554 e6bc
-0.0014564432 0.008626475 0.015084344 0.0260091 0.02091904 0.0025995711 -0.046234865 -0.024220018
-0.031694632 -0.033661913 -0.023266947 0.0038420008 0.027432432 -0.011765184 0.031532325 0.04335429
-0.017164905 -0.039090693 -0.04566142 -0.042865105 -0.04760129 0.034472395 0.018915676 -0.0038129291
0.010159753 -0.008782706 -0.048950482 0.0110145 0.02071411 0.030889334 -0.010984338 -0.01653953
-0.036481258 -0.047257576 -0.012074813 -0.044176627 -0.08888663 -0.107183166 -0.10582409 0.053388327
0.04208784 0.08600553 0.085067146 0.016016906 -0.03863027 -0.08108418 -0.06118774 -0.055895198
0.010878424 -0.033092465 -0.00019571502 0.009274505 -0.020753372 -0.03272073 0.0815176 -0.0085685905
0.06628743 -0.0034160395 -0.05403727 -0.0035382058 0.0343045 0.029857662 -0.0054739635 0.06130237
0.023944674 0.09919615 0.003427768 0.002407848 0.038362693 -0.048007593 0.014090314 0.016247759
-0.032304514 -0.040790103 -0.051381655 0.03350135 -0.026745582 0.039962094 0.040949926 0.011513275
0.0008945724 0.059981912 0.029859984 0.0041395696 -0.03138534 0.0014840596 0.012406399 -0.019811256
-0.008310226 -0.021219978 -0.033291493 0.012869487 0.010439463 0.0066938763 -0.021333892 0.0032884409
-0.0018955626 -0.009041965 -0.034347434 -0.023322063 -0.014572743 0.011857873 -0.024255112 -0.0008404737
-0.011149601 0.04695884 0.006471552 -0.011229538 -0.027836611 -0.008688834 -0.0344199 -0.05697892
0.016999936 0.0013197734 0.07272739 0.014814541 -0.005376845 0.0365746 0.037409347 0.0065589314
-0.008100556 -0.015050956 -0.023112988 0.006160037 -0.015056141 0.026447862 0.08198907 -0.041657344
-0.024028087 -0.004144138 0.00865357 0.03223189 0.010624939 0.004955355 0.015591103 -0.019009052
-0.008163854 0.021667829 0.04276046 -0.00046487153 -0.01895335 -0.029780665 -0.049214453 -0.047621056
0.03303302 0.0019459447 0.015042046 -0.03570988 0.017408775 0.048185352 0.0064984662 0.06705544
0.032814696 0.034525584 0.04268126 0.006293026 0.02347158 -0.019410169 -0.037994545 -0.0052840486
-0.037362646 -0.020105328 -0.059567146 -0.034244165 -0.052053843 -0.023938816 -0.030886399 -0.038161237
-0.022821473 0.013435988 -0.024178028 -0.017965738 -0.048296403 0.016614433 -0.00825238 0.021172397
0.03794345 -0.021621915 -0.086053155 -0.029675819 0.017597634 -0.010264525 -0.05459022 0.03306558
0.0011105816 0.05134054 0.03265932 -0.021712376 0.009782431 0.12777776 0.024781747 -0.015291455
-0.054447263 -0.0350353 -0.0030392124 0.04869354 0.050943773 -0.017111842 -0.04442994 -0.022929449
0.0026832712 -0.029701585 0.0039548385 0.00082760514 0.00039467003 -0.027813463 0.022306735 -0.008593846
-0.0011258196 -0.043535084 0.0054806047 0.034199174 -0.003060193 -0.0015542681 0.057651516 0.011223624
-0.008173878 -0.04738256 0.013416616 -0.016919281 0.009751651 0.060369775 -0.06782038 -0.006488285
0.01309594 -0.0685171 -0.0012366506 0.0016125378 0.044050828 0.008358272 -0.023713313 0.04248477
0.022326741 0.032860912 0.016531061 0.013957676 0.0007177593 -0.010623349 -0.038046785 -0.030231476
-0.01583043 -0.03424807 -0.008994842 0.008517459 -0.047561884 -0.039717186 0.00036967496 0.02095146
0.03104096 -0.015944576 0.037571646 0.0045970087 0.0076393974 -0.03841744 -0.028310634 -0.028116534

body.block2.conv.bias f4 [64]
00000000: 6d66 023d d7f4 97b8 e1e8 21bd 5310 ed3c
00000010: 4c1d 9dbc d3ea 153d b37c cbbc 6422 c9bc
00000020: 8bac a33c 1992 6fbc 4e68 0c3d 4562 103d
00000030: f700 573c 0e41 d83c 5d8c e93b 3195 cbbc
00000040: 1b72 24bd 7053 8aba 7019 f0bc d690 8abc
00000050: 86d3 85bc 6019 0f3d 4087 743b d41a 4abd
00000060: 284f 073d 3eab 3c39 be37 263d bd5e 9e3c
00000070: 6840 2c3c 1e0c aebc f0c2 183d adc6 89bc
00000080: e437 253d a9e8 b53c bb6d 133d 7c0d 873c
00000090: fa59 b3bc af5f 91ba bc7a 083c f0a4 96bc
000000a0: e8ef 3cbc a45d c4ba 2864 b9bc d6cb 49bc
000000b0: b20d 103d aa84 17bd 068c bb3c 931d dcbc
000000c0: 79bc 15bd 4c91 753c cc7b 1d3c 7831 9cbc
000000d0: e646 0a3d 4bac 08bd beb3 0c3d 79e4 6ebc
000000e0: 9e28 0bbd 515d b4bb bfad e83c d448 e1bb
000000f0: 0a3b febc 5d96 d2bc 688a 903c 1033 3abd
0.031835962 -7.245846e-05 -0.03952873 0.028938448 -0.019179009 0.0366009 -0.024839735 -0.024552532
0.019979736 -0.014622235 0.03427916 0.035249967 0.013122789 0.026398208 0.0071273283 -0.024851413
-0.040147882 -0.0010553431 -0.029309005 -0.016914766 -0.016336214 0.03493631 0.003731206 -0.04934199
0.033034474 0.0001799287 0.040580504 0.019332284 0.0105134025 -0.021246012 0.037295282 -0.016818369
0.040336505 0.022205668 0.03599332 0.016485922 -0.02189349 -0.0011091138 0.008330043 -0.018389195
-0.0115318075 -0.001498152 -0.022630766 -0.012316665 0.03516931 -0.036991753 0.022893917 -0.02686957
-0.036556695 0.014988255 0.009612035 -0.019066557 0.03375902 -0.033367436 0.034351103 -0.014580839
-0.033974282 -0.0055042882 0.028403161 -0.006875137 -0.031034011 -0.025706464 0.017644122 -0.045458853

body.block2.norm.weight f4 [64]
00000000: b822 833f 6eca 7a3f fda2 823f 8e54 893f
00000010: 801d 713f ca65 803f 1f1d 7e3f 31d7 873f
00000020: 9596 673f 0925 6e3f e963 653f 21e7 673f
00000030: 57aa 823f 00e4 713f 08c8 783f 3d29 833f
00000040: 1fae 7b3f 8cb4 753f b779 823f 24d9 6f3f
00000050: 3730 6f3f 4283 833f 2263 803f 08a8 893f
00000060: 0129 813f c1be 6d3f 0ac3 683f 72ae 823f
00000070: 5540 763f 97dd 703f 040a 813f ff8f 883f
00000080: 687a 693f 174b 7e3f 34dd 833f 79ab 803f
00000090: b41e 783f 0cf2 753f 664c 713f a889 8e3f
000000a0: a8a8 843f 2927 873f ffbd 733f a86d 853f
000000b0: d965 793f d70f 6f3f 9499 7d3f 4025 813f
000000c0: 154e 833f 7156 6e3f a322 7e3f 8647 7f3f
000000d0: cffd 8f3f 6a87 833f 1357 903f e370 7c3f
000000e0: 5bdf 723f ba13 703f c265 843f e0d6 823f
000000f0: 8f2e 833f 4627 813f 8023 793f 890c 713f
1.024497 0.97965133 1.020599 1.0728929 0.9418564 1.0031064 0.99263185 1.0612546
0.90464145 0.9302526 0.89605576 0.9058705 1.0208234 0.94488525 0.97180223 1.024696
0.9831256 0.9597862 1.0193394 0.93690705 0.93432945 1.0274432 1.0030253 1.0754404
1.0090638 0.9286919 0.90922606 1.0209486 0.9619191 0.9408812 1.0081182 1.0668944
0.912024 0.9933333 1.0301881 1.0052329 0.9692185 0.9607246 0.942572 1.1135759
1.036397 1.0558826 0.95211786 1.042409 0.9742103 0.93383545 0.99062467 1.0089493
1.0258204 0.9310065 0.992716 0.9971851 1.1249331 1.02757 1.1276573 0.9860975
0.94872063 0.937801 1.0343554 1.0221825 1.0248584 1.009011 0.97319794 0.9415975

body.block2.norm.bias f4 [64]
00000000: 003f 713e 69e7 413e bff4 023e 9175 b93d
00000010: 0c5e bc3d 1e37 a63e 70ee 833e e16e 303c
00000020: ed5a 283e 8012 843c 6e5f 1d3d 4841 1a3c
00000030: 269e 5c3d 9be3 9d3d 4b21 773d 1373 03bd
00000040: 3d8d e33c 6510 e53d 975d 27bd 43fc 093e
00000050: 99c2 b63d d61c 98bc d77c c03c b979 733e
00000060: 4c56 ea3d 2a8c 283d 55bf 283d 0f7e 47bd
00000070: ae8a 1c3d fd77 ea3d aa21 f03d 14bf 343e
00000080: 205e 72bd e4a1 283e 0c0e 933e 58ee 183e
00000090: d1da a43d 56a2 9dbd 05ef b13d 4724 303e
000000a0: 3d2a 333e 5ede fc3d e166 c23d b4f3 d93d
000000b0: b36a e53b f7af 023d 5b22 d83a 3d1c 893d
000000c0: 8a3d c73d 86a1 893d 1dcb 7b3d d748 143e
000000d0: a99e 803d 449f 523b a8cc 5e3e fd79 7d3d
000000e0: 1547 413d f40c 1e3e 3b64 d43d 830a 833e
000000f0: a821 823c a9fb dd3d 5ad5 ca3c 16a9 f23c
0.23559189 0.18935932 0.12788676 0.09055627 0.091976255 0.32463926 0.2576785 0.010768623
0.16440935 0.016122103 0.038421087 0.009414978 0.05386176 0.07709428 0.060334485 -0.032092165
0.027777309 0.11184768 -0.04086074 0.13475136 0.08923835 -0.018568438 0.023497028 0.23776902
0.11442241 0.041149296 0.041198093 -0.048704203 0.038218193 0.11448667 0.11725171 0.17651016
-0.059171796 0.16468006 0.28721654 0.14934671 0.080495484 -0.07696979 0.086881675 0.17201339
0.17496581 0.12347101 0.09492279 0.10642186 0.007001245 0.031906094 0.0016489731 0.06694839
0.097285345 0.06720261 0.061473 0.14480911 0.06280262 0.0032138387 0.21757758 0.061883915
0.04718693 0.15434629 0.1037068 0.25593957 0.01588519 0.10839016 0.024759937 0.029621642

body.block2.norm.running_mean f4 [64]
00000000: 780a 85bf 9f53 25bf 18cf 113f 0093 623e
00000010: 3207 67bf 7bee 29bf 4db7 f4bf 8ac2 66be
00000020: 5926 e53c 874f 61bf 5dec 19bf ca6d ad3f
00000030: ce00 0a3f 8f6b 1e3f ecf6 953e b555 17bf
00000040: 16fe a83f 8c87 a1bf 198c bd3f 17d9 043f
00000050: b5af 01bf 6598 a33f d5e1 ac3f 66fe 99be
00000060: 1e6a c23e 135f 053e 5b95 2f3f 910a 25bf
00000070: e7de 6cbf 99dd 71bf d3ca 6ebd 9380 a2bf
00000080: 0880 fb3f 6785 d7be bb80 543f 1b5e f6be
00000090: e021 babd 8877 da3f 78db 363f 1885 34be
000000a0: 8abc da3d c9ad 2f3f caa3 823e 54dd 7bbf
000000b0: ca90 8bbd 78ce 073f 159b 9a3f 873b 87bf
000000c0: 885e 54bf c925 b7bf 2241 aebe 77bc c73d
000000d0: dfb7 74bf 25c8 23bf da33 083f 0849 1dbf
000000e0: 9c4a 6e3f 33cc 52bf 0b34 98be 620d 5dbf
000000f0: bc39 6cbe 39d8 b33a 8c5b 4ebf 2fd6 b6bb
-1.039382 -0.6458072 0.56956625 0.22126389 -0.90245354 -0.6637952 -1.9118439 -0.22535148
0.027972387 -0.88011974 -0.60126287 1.354913 0.5390748 0.6188287 0.2928995 -0.59115154
1.3202541 -1.2619491 1.480838 0.5189375 -0.5065873 1.2780882 1.3506418 -0.30076903
0.37971586 0.13024549 0.68587273 -0.6446925 -0.9252762 -0.94478756 -0.058298897 -1.2695488
1.9648447 -0.42093965 0.8300893 -0.48118672 -0.090884924 1.7067728 0.7142863 -0.17628896
0.10680492 0.6862455 0.25515586 -0.98384595 -0.06814726 0.5304942 1.2078577 -1.0565041
-0.82956743 -1.4308406 -0.34034067 0.09752744 -0.95593065 -0.6397727 0.5320412 -0.6143956
0.93082595 -0.82342833 -0.29727206 -0.86348546 -0.23068899 0.0013721056 -0.8060844 -0.005579732

body.block2.norm.running_var f4 [64]
00000000: 66a4 663e bc5a 1a3f d798 3540 a536 df3f
00000010: b696 cc3f 1bd4 0340 4bcf 773f d8b1 8c3f
00000020: 279b 293f 15c9 1e3f 01ed 173f adc3 1d40
00000030: e56a dd3f d9dc 5e3f 01d6 4a3f 354a c93f
00000040: da5c 0240 849c 8e3f 99cb 0e40 5714 563f
00000050: 0cc0 d43f 605c c23f 4448 1040 c0fe 9d3f
00000060: b998 5640 bea5 813f cf62 ee3f 51fb 4340
00000070: 3963 2e3f ed92 363f 388e 2f3f 7d69 0941
00000080: 4912 6440 d9ed f53f 8140 753f 1a76 903f
00000090: 8f2a f13f 0a85 2940 e857 d93f d15b 0040
000000a0: 5846 1041 7912 2c3f 0749 253f f1b0 1640
000000b0: c5e5 af3f 609c cf3f 8f73 0040 3df2 e53e
000000c0: 2109 fd3f 29be ed3e 5bf3 383f 3594 783f
000000d0: 76b9 bd3f 948d 3d3f b7ef 9c3f 19a4 993f
000000e0: ca03 9c3f 047a e93e 2a01 bd3f 901d b93f
000000f0: ffc9 de3f 3496 9c40 7fa9 1540 d250 4e3f
0.2252365 0.602947 2.8374536 1.7438551 1.5983493 2.059821 0.9680068 1.0991774
0.6625237 0.62025577 0.59346014 2.465068 1.7298247 0.87055737 0.79232794 1.5725771
2.0369172 1.1141515 2.2311766 0.83624786 1.6621108 1.5184441 2.2544107 1.2343369
3.3530715 1.0128706 1.8623904 3.0622141 0.6812015 0.7131794 0.68576384 8.588254
3.563616 1.921321 0.9580155 1.1286042 1.8841113 2.648745 1.6979952 2.005604
9.017174 0.6721569 0.64564556 2.3545496 1.3741995 1.6219597 2.0070531 0.44911376
1.9768411 0.46434143 0.7224633 0.97101146 1.4822223 0.74044156 1.2260655 1.2003204
1.2188656 0.45600903 1.476598 1.4462147 1.7405394 4.8933353 2.3384702 0.8059207

body.block3.conv.weight f4 [64, 64, 3, 3]
00000000: 7e84 3f3d 05d2 863d 24ec 2a3d 0a7d 98bd
00000010: f239 8fbd fccd a9bd 10da c9bd 106a 92ba
00000020: ce69 533d 7cfa 93bc 0e8a 40bd 9dbd 77bc
00000030: f590 883d ada8 57bd 7dbf 2bbc 4d59 0fbd
00000040: 82e4 89bd a14b 40bd fa7d 373c dfcb 9d3b
00000050: 8e78 df3c 60c3 8dbb b22c 323d 1bbd 3f3d
00000060: 6b6a 1ebc ba28 6e3d 6bc0 843d d776 493d
00000070: 87d5 5b3d e83c 973b e0b1 2c3d b021 0e3d
00000080: 87f2 73bc 7275 debb c630 21bd f685 b0bd
00000090: d4ae 03bd bfcf 08bd 2a43 0abd da5d 633c
000000a0: 4e31 22bd 42bb 41bd 4da0 ae3d 16f8 9fbc
000000b0: b050 5fbd b116 4b3d e051 363d 2198 893d
000000c0: aabf 5b3d f3bf f73c 9459 98bc 288c a9bc
000000d0: 8bca 573c 2ed0 2fbb d063 8a3d f0e3 43ba
000000e0: 403c fd3c 35a7 9e3c 4495 d93c c5d7 0a3d
000000f0: 84db 523d 2314 003c cca5 033d b707 42bd
00000100: 2951 40bd 7da1 93bd 1e58 a0bc ac12 1bbd
00000110: 75ee 5e3c 8849 b6bc bb75 34bd ab8b b6bd
00000120: 7caa 86bc ca7f 263c ac36 803b b926 1fbc
00000130: d073 d03c 6c70 2c3d 96c1 81bc f218 673c
00000140: 1d87 0fbc b2ca 4e3d aaf6 80bd 96cc 8bbc
00000150: f6f5 75bc e2dd 1cbd 9366 553c a148 b2bb
00000160: 8915 ab3b b737 703d 2e42 183d fcad 903d
00000170: ad61 313d af37 9bba c495 5d3c efb6 543d
00000180: ac3c 02bd 98e2 1d3a 0bae ab3b b6c3 933c
00000190: bb8d d6bc 0a56 6fbc 92fa 8a3c 226e 823b
000001a0: e795 3a3a 4b35 003b efbd 193d 51a0 b2bc
000001b0: 0c0c c33c 8ee7 dd3c afd7 343c abf7 05bd
000001c0: 1079 fdbc 1d0d 463c 80ce 14bd 5a8f cfbc
000001d0: 6a30 893c 4996 d4bc bbdd 1fbd e6fc b8bc
000001e0: 70e3 73bc bcb8 f737 b313 e43b 2229 d3bc
000001f0: c3b2 c8bc f1be ca3c e60a 7f3d 13f9 483d
00000200: ebd7 e3bc 450e 843b f2c2 9f3c 8b49 78bd
00000210: 4ff5 bd3c 1923 2a3c 4f66 5e3c bfb3 4f3d
00000220: 445d 353d 6a74 083d 1532 42bd 19e6 0bbd
00000230: 9304 a5bc 765d ad3c 50e4 ee3c b97f 663c
00000240: fecd fbbb ea9e 5fbd 452d a63d cd44 ee3b
00000250: 1502 5f3d e2ed 463d ce3f 1cbd 3458 6a3d
00000260: aedb b03d 9ae0 dd39 00e0 79bc e696 a0bc
00000270: 8664 263d 88a0 0ebc 0af5 863c cb1a 703d
00000280: 0551 893c 62b7 473a a1d3 fdbc a8a4 07bc
00000290: 37d0 2fbd 0e90 ffbc d509 643c a0df e2ba
000002a0: 4005 733a 5bc5 d13c 3527 6b3d 15c0 983c
000002b0: 7c40 e53a 46b1 2bbc 068b 9abb 4181 cabc
000002c0: 8641 c03c b7cb 2c3d 11b0 adbc 09ba 373d
000002d0: e890 4d3c 4e3b e2bc f4e5 16bd c868 823c
000002e0: d8b3 59bc 146f 94bd 7839 ee3c fe79 913d
000002f0: aee2 b03b c645 a63c 36f6 823c 3c52 283d
00000300: 9feb 13bd d2b6 2bbb dc2f 35ba d0dd 68bd
00000310: 331f 1bbd cb98 9bbd 0162 2a3b da21 783c
00000320: 44e7 683c f6f8 2c3d 2056 59bc bcd2 933d
00000330: 08d3 453d 1616 5d3c f695 933c f666 ac3c
00000340: 3505 3b3d b863 b43d abd9 7e3c 04b5 8c3d
00000350: 7f62 ac3d 0eb8 c5bd 6977 90bd e959 7cbc
00000360: e345 a1bc 883c a9bc edaf f83c 918f 26bd
00000370: fea6 193d 1612 453d dbe4 21bd fbb0 253d
00000380: ef75 813d 0c83 44bd 8d42 8a3c c792 af3c
00000390: 47a4 713c a803 dd3c ca17 a83c 6cad 6e3d
000003a0: b2a8 3c3d d79a 123d 2851 3f3d aa49 963d
000003b0: 43ab 2fbc 3f58 003d 39d6 a83c 90df 583d
000003c0: 7f01 45bc 09bd f3bc 34c9 75bb e9fd 993c
000003d0: 8ee3 28bd 0d99 2cbd 863c e73c 5674 3cba
000003e0: ade4 2fbb 4f27 083c eb25 adbc 75bc e83c
000003f0: 3050 dcbb ff6a 623d e72f d8bc a780 443d
0.046757214 0.06583027 0.041729107 -0.07445724 -0.06993474 -0.082912415 -0.09856045 -0.0011170525
0.051614575 -0.018063776 -0.04700666 -0.015120891 0.06668273 -0.052651096 -0.010482666 -0.034997273
-0.067330375 -0.046947125 0.011199469 0.004815563 0.027279165 -0.004326269 0.043499656 0.046811204
-0.009668927 0.05814431 0.06482013 0.0491856 0.053670432 0.004615415 0.042161822 0.034700096
-0.014889366 -0.006788903 -0.039353155 -0.08619301 -0.03214915 -0.033401247 -0.03375546 0.013877356
-0.039597802 -0.047297724 0.08526669 -0.019527476 -0.05452031 0.049582187 0.044511676 0.067184694
0.053649582 0.030242896 -0.018597402 -0.020696715 0.013170849 -0.0026826966 0.06757319 -0.0007472625
0.030912519 0.01936684 0.026560433 0.03389718 0.051478878 0.007817301 0.032140538 -0.04737064
-0.0469524 -0.07208536 -0.019573268 -0.037859604 0.013606657 -0.02225186 -0.04405759 -0.08913358
-0.016438715 0.010162303 0.0039127674 -0.009713822 0.025445849 0.0420994 -0.01583938 0.0141050685
-0.008760241 0.050486274 -0.062970474 -0.017065328 -0.015012255 -0.03829754 0.013024944 -0.005440787
0.005221073 0.058646884 0.03717249 0.07064435 0.04330604 -0.0011842157 0.013524476 0.05193227
-0.031796142 0.000602284 0.0052392534 0.018037658 -0.02619063 -0.014607916 0.016965184 0.003980414
0.0007117674 0.0019563015 0.03753465 -0.02180496 0.023809455 0.027087953 0.011037751 -0.032706898
-0.030941516 0.012088087 -0.036329746 -0.02533691 0.016746718 -0.025950568 -0.039029818 -0.022581529
-0.014885768 2.9530718e-05 0.006960356 -0.02577645 -0.024499303 0.024749251 0.062266253 0.04906566
-0.027812919 0.0040300214 0.019502137 -0.06061701 0.023188261 0.0103843445 0.013574197 0.05070853
0.0442784 0.033314146 -0.047411043 -0.034154985 -0.020143783 0.02116273 0.029161602 0.014068537
-0.0076844683 -0.05459491 0.08114103 0.0072713853 0.054445345 0.048566706 -0.038146786 0.057213023
0.086356506 0.00042319746 -0.01525116 -0.019603204 0.04062321 -0.008705266 0.016474266 0.0586193
0.016762266 0.0007618574 -0.030984702 -0.008279003 -0.04292318 -0.03119662 0.01391836 -0.0017309077
0.00092704967 0.025606802 0.057410438 0.01864628 0.0017490531 -0.010479277 -0.00471628 -0.024719836
0.023468744 0.042186465 -0.021202119 0.04485515 0.012546755 -0.02761617 -0.036840394 0.015919104
-0.013287507 -0.07247749 0.029080138 0.07103346 0.005398116 0.020296942 0.015986543 0.04109405
-0.036113378 -0.0026201499 -0.00069117337 -0.056852162 -0.03787155 -0.07597502 0.0025998356 0.01514479
0.014215294 0.042229615 -0.013265163 0.07217929 0.04829696 0.013494035 0.018015843 0.02104519
0.045659263 0.08808082 0.015554826 0.068704635 0.08417224 -0.09654246 -0.07054026 -0.015402296
-0.019686645 -0.020658746 0.030357325 -0.04066426 0.03751277 0.04811295 -0.039524894 0.040451985
0.06321322 -0.04797654 0.016877437 0.021432294 0.014748639 0.026979282 0.020519156 0.058270857
0.046059318 0.035792198 0.046708256 0.07338269 -0.010721984 0.031334158 0.020609962 0.05294758
-0.0120242825 -0.029753225 -0.003750396 0.018797832 -0.041232638 -0.042138148 0.028227102 -0.0007188966
-0.0026839182 0.008310153 -0.021136245 0.028410176 -0.0067234263 0.05527782 -0.02639003 0.047974255

body.block3.conv.bias f4 [64]
00000000: 63d9 4b3c 4575 09bd dbae f8bc 7838 5bbd
00000010: 6831 1abb b804 bc3c 64b0 1abc 18b3 67bc
00000020: a995 4c3c 7aa7 ba3a 1c26 343b e68e 823b
00000030: 20f1 233d eb4b 553c 4abd 09bd 0b01 153d
00000040: 3036 f2bb d16a fb3b a809 8a3b 4e23 0b3c
00000050: 2697 86bc 448d b33c bef5 823c bad5 903c
00000060: e3e9 783c aca4 d4bb 9494 23bc 6dcb 06bd
00000070: e82a ce39 f6c2 4c3c 53dc ea3c 9f62 893c
00000080: 170c cabc 46f8 3e3c 09b8 8dbc 0a1b 22bd
00000090: 1cc1 1ebd c04f c23a 0894 463b ac87 98bb
000000a0: 6926 9fbc 9da7 613c 8f25 563c 712e d2bc
000000b0: dc15 203d b348 c4bc 3d2e 41bc e7c7 5ebc
000000c0: 5854 dd3c ecf7 f9bc 6b53 c63c 1cd7 fa3c
000000d0: 91de c7bb 5db0 293d 1b47 053c 97f9 613c
000000e0: 334d e4bc 42ba 4e3d 3ae1 1e3d 1e93 093c
000000f0: 4cdf 46bb 1de5 e13c b50f caba bb80 503c
0.012441966 -0.033559103 -0.030356815 -0.05352065 -0.0023527984 0.022951469 -0.009441469 -0.01414182
0.012486854 0.0014240586 0.0027488535 0.00398432 0.040024877 0.013018589 -0.033627786 0.036377948
-0.0073917136 0.0076726456 0.004212577 0.008492304 -0.016429495 0.021917947 0.01598632 0.017680038
0.015192482 -0.006489357 -0.009984154 -0.032908846 0.0003932335 0.012497654 0.028669512 0.016770659
-0.024663968 0.011655873 -0.017299669 -0.039576568 -0.038758382 0.0014824793 0.0030300636 -0.004654845
-0.019427495 0.013772872 0.013070478 -0.02565691 0.039083347 -0.023960447 -0.011790809 -0.013597465
0.027017757 -0.030513726 0.024209699 0.03062015 -0.00609953 0.04142796 0.008134629 0.013792417
-0.027868843 0.050470598 0.03878901 0.008396892 -0.0030345498 0.02757507 -0.0015416058 0.012726004
