TrainedModels/0035-sample/scale_factor=0.850000,alpha=10/4/netD.pth (torch, 467478 bytes, 25 tensors)

head.conv.weight f4 [64, 4, 3, 3]
0.006050073 0.028343992 0.012469161 -0.029623438 -0.0019134615 -0.00037337045 0.022427501 0.008608085
-0.025226932 0.022119008 0.05799526 0.08950565 0.02357033 0.011535143 0.095253825 -0.003848115
0.0067807515 0.06228602 -0.01336655 -0.023814276 -0.02121248 -0.077846505 -0.030476118 -0.011760858
-0.06885834 -0.03990388 -0.043482676 0.0004074966 0.0031971745 -0.0077490225 0.0015746104 0.04105314
-0.006788992 -0.015720082 -0.006273572 0.011489888 -0.049897145 -0.03850176 0.016291872 0.04016393
0.023389373 -0.00785565 0.061913963 0.014656683 0.00043926702 0.07038231 0.013310641 0.03996305
0.076156095 0.0007397413 0.0165368 0.041850578 0.0003548066 0.005189148 -0.042618256 -0.02145248
-0.043955356 0.03495776 -0.045078423 -0.0149919 0.018767321 -0.021483762 -0.028859874 0.0339433
0.027260546 -0.011996641 0.038234334 -0.013343665 0.036568075 0.00599306 0.0011942155 0.06734426
-0.032791246 0.00704413 -0.050876286 -0.017924894 -0.03087369 -0.028567888 0.004791429 -0.00782305
-0.032984443 -0.05156071 0.007503552 0.033971164 0.018296203 0.046833485 0.024277283 0.04044631
0.020593243 0.05794908 -0.05366367 -0.017190957 0.0005661928 -0.008151149 0.0013147724 0.016026052
0.01711202 0.00088049925 0.028761152 -0.0087005105 0.05087727 0.022782763 -0.014120534 0.038521945
0.036615334 0.0019561949 0.041838016 0.042594828 -0.024150554 0.018186556 0.02928029 0.014847895
0.024993416 0.007267733 0.009795922 -0.0012020427 0.043897912 -0.04568919 -0.013263145 0.015389533
0.01356032 0.014015877 0.0036344714 0.0295109 0.030502466 0.017193256 -0.049150262 -0.013639885
-0.019429032 -0.014702755 0.0145995775 0.023788827 -0.022698602 -0.008972082 0.025571765 -0.028620027
0.017958796 0.032473616 0.002914969 0.024459647 -0.03944541 0.0013446477 0.06823433 -0.02669041
0.0039496673 0.03911514 0.038453702 -0.055048026 -0.0020198305 0.05926821 -0.036120262 -0.0007608985
0.029452635 -0.0028088614 0.06006722 -0.016999675 -0.02740957 -0.0028589366 -0.022973279 -0.0068290196
-0.029423892 0.033033952 -0.006309895 0.017690066 0.016531821 -0.0076328185 0.024131637 0.00018071277
-0.020859068 -0.023254447 -0.018402144 0.021266032 0.091092885 0.016442457 0.00634559 -0.035272013
-0.0043326863 0.042589877 -0.03671047 0.012208272 0.007533526 -0.012507527 0.01600245 0.019909013
-0.01735116 0.00496888 -0.02567734 -0.024883293 0.019227393 -0.008287876 0.023497086 0.059297476
0.008806495 -0.013069133 -0.015196649 -0.000587642 0.02484329 -0.02630551 0.0069546984 0.0020688067
0.018249786 0.02080479 -0.029549085 -0.01755951 -0.019859608 0.044076595 0.009170276 0.026659815
-0.017909631 -0.026634645 0.0062865024 0.046839103 0.01265707 -0.036534507 0.0049220626 0.037658036
0.0035374474 0.015665606 -0.00045976017 -0.0068379794 -0.024317717 -0.0029093015 -0.0122620175 -0.008799832
0.028367924 0.012194677 -0.0055747577 0.0129933385 -0.028950978 -0.0052055004 0.0070043174 -0.032340314
0.012094471 0.022000065 0.016115397 0.0013190305 0.040032122 -0.028854284 0.014718924 0.012880146
-0.027588593 0.021520602 -0.019173283 0.029615762 -0.008759005 -0.08229952 0.13832942 -0.036353543
-0.023075191 -0.011209449 0.02535194 -0.029410947 0.0064602154 -0.031086717 0.017596105 0.026269682
00000000: b13f c63b a931 e83c 744b 4c3c daac f2bc
00000010: 1dcd faba efc0 c3b9 e1b9 b73c ed08 0d3c
00000020: b6a8 cebc ec32 b53c 708c 6d3d bd4e b73d
00000030: 9116 c13c e5fd 3c3c 7014 c33d a830 7cbb
00000040: 1131 de3b a01f 7f3d 60ff 5abc 2816 c3bc
00000050: cbc5 adbc fd6d 9fbd 0da9 f9bc 9db0 40bc
00000060: 9a05 8dbd 4072 23bd e41a 32bd 45a5 d539
00000070: b087 513b 83eb fdbb 2863 ce3a 5627 283d
00000080: 3176 debb 67c7 80bc 8992 cdbb 1540 3c3c
00000090: f360 4cbd 06b4 1dbd 8876 853c ef82 243d
000000a0: 129b bf3c fcb4 00bc 7f99 7d3d 9622 703c
000000b0: 6c4d e639 9a24 903d e014 5a3c 4cb0 233d
000000c0: baf7 9b3d 33eb 413a 2f78 873c 836b 2b3d
000000d0: 5605 ba39 ba09 aa3b 7b90 2ebd 1dbd afbc
000000e0: 880a 34bd de2f 0f3d 27a4 38bd 96a0 75bc
000000f0: edbd 993c b7fe afbc 8b6b ecbc 2108 0b3d
00000100: 8251 df3c 8f8d 44bc 9b9b 1c3d 639f 5abc
00000110: 68c8 153d 6e61 c43b 3987 9c3a caeb 893d
00000120: 1d50 06bd 72d2 e63b a763 50bd 3ad7 92bc
00000130: d2ea fcbc 3407 eabc 6b01 9d3b 402c 00bc
00000140: b21a 07bd 5331 53bd 5be0 f53b 5925 0b3d
00000150: ebe1 953c 78d4 3f3d 27e1 c63c 08ab 253d
00000160: 29b3 a83c 045c 6d3d 70ce 5bbd 0dd4 8cbc
00000170: 8e6c 143a 668c 05bc 7154 ac3a 1149 833c
00000180: 822e 8c3c 4ed1 663a 829c eb3c 968c 0ebc
00000190: af64 503d eba2 ba3c d059 67bc 30c9 1d3d
000001a0: f6f9 153d 8133 003b 575e 2b3d ea77 2e3d
000001b0: 62d7 c5bc f9fb 943c 38dd ef3c 9644 733c
000001c0: febe cc3c 2a26 ee3b 137f 203c dc8d 9dba
000001d0: 4cce 333d 9724 3bbd aa4d 59bc 6124 7c3c
000001e0: 1b2c 5e3c d9a2 653c 5030 6e3b d8c0 f13c
000001f0: 4fe0 f93c dfd8 8c3c c951 49bd d379 5fbc
00000200: a229 9fbc d3e3 70bc 1133 6f3c c9e0 c23c
00000210: 6bf2 b9bc a4ff 12bc e17b d13c 8c74 eabc
00000220: 531e 933c 0e03 053d 1109 3f3b 995f c83c
00000230: 8391 21bd e43e b03a 71be 8b3d d9a5 dabc
00000240: 366c 813b 3237 203d a181 1d3d 0a7a 61bd
00000250: 225f 04bb 39c3 723d d7f2 13bd 0977 47ba
00000260: a746 f13c e014 38bb 0c09 763d e742 8bbc
00000270: 098a e0bc ff5c 3bbb 7532 bcbc f8c5 dfbb
00000280: 600a f1bc 9c4e 073d 3cc3 cebb c2ea 903c
00000290: be6d 873c b91c fabb b6af c53c b77d 3d39
000002a0: a3e0 aabc 1c80 bebc 18c0 96bc 1a36 ae3c
000002b0: e88e ba3d 55b2 863c abee cf3b 6379 10bd
000002c0: 35f9 8dbb b972 2e3d b85d 16bd 3405 483c
000002d0: ccdb f63b 5fec 4cbc 9217 833c 3a18 a33c
000002e0: 0524 8ebc fdd1 a23b 4959 d2bc 0cd8 cbbc
000002f0: c482 9d3c dfc9 07bc f67c c03c e9e1 723d
00000300: 1e49 103c eb1f 56bc 5efb 78bc fd0b 1aba
00000310: 2884 cb3c a77e d7bc 3de4 e33b d194 073b
00000320: 9380 953c cf6e aa3c ec10 f2bc f6d8 8fbc
00000330: 9eb0 a2bc a989 343d ed3e 163c af65 da3c
00000340: 38b7 92bc e630 dabc 01ff cd3b 5cda 3f3d
00000350: 995f 4f3c 35a5 15bd 4149 a13b 503f 1a3d
00000360: 85d4 673b 2855 803c f70b f1b9 2111 e0bb
00000370: f335 c7bc fba9 3ebb a1e6 48bc 2c2d 10bc
00000380: d963 e83c 2fcc 473c 75ac b6bb 03e2 543c
00000390: 9a2a edbc e792 aabb 7984 e53b 4777 04bd
000003a0: e327 463c 7b39 b43c 7004 843c 52e3 ac3a
000003b0: b9f8 233d d25f ecbc a427 713c 3f07 533c
000003c0: 7901 e2bc f94b b03c 4a11 9dbc c19c f23c
000003d0: ee81 0fbc a78c a8bd 3aa6 0d3e 74e7 14bd
000003e0: 2f08 bdbc d6a7 37bc dfae cf3c 3aef f0bc
000003f0: 37b0 d33b 92a9 febc b525 903c 8433 d73c

head.conv.bias f4 [64]
-0.12298504 0.14106716 -0.077667944 0.11370009 -0.11395708 -0.16596302 -0.0016289601 0.10220181
0.06002881 0.120745584 0.030903682 -0.009977539 0.002347376 -0.02044406 -0.1475498 0.10339709
-0.1369599 0.13521619 0.02571874 0.0077517666 0.052943062 0.12819049 -0.099821046 -0.11882995
0.004196805 0.03953262 -0.075898774 -0.049493928 -0.048650473 -0.16765025 -0.092210144 -0.0013597115
0.075491 -0.11262439 -0.019648286 -0.18455379 -0.06374954 -0.05974812 -0.12465873 -0.06840683
0.06871064 -0.048183493 0.09843923 -0.14390671 -0.07822394 -0.08360397 -0.14689992 -0.14817438
-0.039309748 0.004122681 -0.053451505 0.12526289 0.18901818 0.042593993 -0.028890021 0.11136899
-0.11053135 0.1600936 -0.008296266 0.17461956 -0.12155482 0.10031449 0.043384165 0.04663628
00000000: 95df fbbd e973 103e 5f10 9fbd 98db e83d
00000010: 5462 e9bd 36f2 29be d582 d5ba 2f4f d13d
00000020: c5e0 753d 7649 f73d b829 fd3c d578 23bc
00000030: 6fd6 193b 4d7a a7bc 4b17 17be dbc1 d33d
00000040: 373f 0cbe 1d76 0a3e 1bb0 d23c 8802 fe3b
00000050: d3da 583d 5e44 033e fa6e ccbd 1e5d f3bd
00000060: 5a85 893b f5ec 213d d170 9bbd 25ba 4abd
00000070: b845 47bd 82ac 2bbe acd8 bcbd 5938 b2ba
00000080: 079b 9a3d 9ea7 e6bd 71f5 a0bc abfb 3cbe
00000090: 1e8f 82bd 72ba 74bd 144d ffbd e118 8cbd
000000a0: 2ab8 8c3d 0e5c 45bd 829a c93d 485c 13be
000000b0: e033 a0bd 8f38 abbd ef6c 16be 06bb 17be
000000c0: 4203 21bd 8e17 873b f7ef 5abd ea44 003e
000000d0: fb8d 413e 0a77 2e3d c4aa ecbc 6d15 e43d
000000e0: 435e e2bd 94ef 233e 10ed 07bc 78cf 323e
000000f0: bcf1 f8bd af71 cd3d 98b3 313d af05 3f3d

head.norm.weight f4 [64]
1.0771722 0.9676338 0.9049387 0.9844345 1.0114601 0.9220797 1.1367048 0.9809399
0.8726947 1.0095226 1.0113187 0.9510905 0.9881901 1.0759605 0.874298 0.9240269
0.8944216 0.9792949 0.93652475 1.0603923 0.89263964 0.93805385 0.9456171 1.0407274
0.92714304 0.90681994 0.9567112 0.8987832 1.148248 1.0973355 0.9786944 1.0740446
0.90477115 1.0838203 0.86693126 0.8897833 0.8679266 0.97937506 0.9842349 0.88259494
0.997093 1.01654 1.1985208 0.9180921 1.0505054 0.91547596 0.91801953 1.0292423
1.0979488 1.0250922 0.94756496 0.93650824 1.116136 1.0665182 0.97914344 0.8933911
0.97118723 0.875032 1.1943483 0.9811551 0.99827975 1.1632222 0.83974135 1.039228
00000000: c7e0 893f d9b6 773f 10aa 673f e603 7c3f
00000010: 8677 813f 6a0d 6c3f 8b7f 913f e11e 7b3f
00000020: eb68 5f3f 0938 813f e472 813f ab7a 733f
00000030: 07fa 7c3f 13b9 893f fed1 5f3f 078d 6c3f
00000040: d0f8 643f 12b3 7a3f 16c0 6f3f efba 873f
00000050: 0884 643f 4c24 703f f613 723f 8e36 853f
00000060: 3f59 6d3f 5a25 683f 06eb 743f a816 663f
00000070: caf9 923f 7d75 8c3f b78b 7a3f 4b7a 893f
00000080: 159f 673f a0ba 8a3f 35ef 5d3f d7c8 633f
00000090: 7030 5e3f 53b8 7a3f d2f6 7b3f bef1 613f
000000a0: 7d41 7f3f fc1d 823f 2169 993f 1508 6b3f
000000b0: f676 863f a25c 6a3f 5403 6b3f 36be 833f
000000c0: 9689 8c3f 3936 833f 9e93 723f 01bf 6f3f
000000d0: 8bdd 8e3f ab83 883f 25a9 7a3f 47b5 643f
000000e0: ba9f 783f 1902 603f 68e0 983f fb2c 7b3f
000000f0: 438f 7f3f 77e4 943f 4af9 563f 6c05 853f

head.norm.bias f4 [64]
-0.013364406 -0.09435373 -0.049799424 -0.034256354 -0.021483883 -0.0621384 -0.0033363164 0.066141516
-0.040518157 -0.034276854 0.068835 0.0006300567 -0.019976422 0.1504269 0.02386537 -0.09191929
0.00369262 -0.07154622 -0.09591546 -0.07001931 -0.058150314 -0.032260537 0.017789537 0.061352678
-0.013166997 0.005778657 0.005632253 0.0903025 0.061426908 0.046884887 0.10054496 -0.02880545
-0.07713149 -0.0026570733 -0.032425348 0.05325734 -0.04491445 -0.019473754 -0.006550535 -0.049606357
-0.09605299 0.01945907 0.3374342 0.27685413 0.12034269 -0.05608733 -0.004488243 -0.0053520384
0.38487452 -0.083436996 -0.07023635 0.38748658 0.019626603 -0.00971612 0.05225038 -0.019701706
-0.0076012285 0.004887046 0.15923129 -0.06948109 0.21055132 0.30450964 -0.054700144 0.16270675
00000000: 62f6 5abc 873c c1bd 7bfa 4bbd 6450 0cbd
00000010: f8fe afbc d684 7ebd 1aa6 5abb 3475 873d
00000020: 5ef6 25bd e365 0cbd 5df9 8c3d 642a 253a
00000030: 98a5 a3bc 8209 1a3e 4f81 c33c 2e40 bcbd
00000040: e2ff 713b d386 92bd 536f c4bd 4966 8fbd
00000050: 062f 6ebd a023 04bd 5dbb 913c f24c 7b3d
00000060: 63ba 57bc e35a bd3b c38e b83b 84f0 b83d
00000070: c89a 7b3d 5e0a 403d 84ea cd3d 68f9 ebbc
00000080: 1df7 9dbd 4b22 2ebb 71d0 04bd 5e24 5a3d
00000090: 37f8 37bd 6c87 9fbc dfa5 d6bb 0930 4bbd
000000a0: 6eb7 c4bd a168 9f3c 2dc4 ac3e d3bf 8d3e
000000b0: 3a76 f63d d4bb 65bd 1c12 93bb 2760 afbb
000000c0: 460e c53e 04e1 aabd 13d8 8fbd a464 c63e
000000d0: f8c7 a03c 5c30 1fbc 7f04 563d 7965 a1bc
000000e0: ba13 f9bb 8323 a03b 870d 233e 1a4c 8ebd
000000f0: c49a 573e b0e8 9b3e 420d 60bd 999c 263e

head.norm.running_mean f4 [64]
-0.22355184 -0.0025532343 -0.09700205 0.022567002 -0.16039279 -0.19847766 0.0024180354 0.06338635
0.029218873 0.14661473 0.0552353 0.023195628 -0.062471837 -0.083459765 -0.2901295 0.04669169
-0.15204898 0.07037535 0.011494165 -0.018536188 0.047667272 0.12236233 -0.16274284 -0.27874422
0.014896187 0.026796574 -0.090579174 -0.09820634 -0.054042928 -0.24455932 -0.30077016 0.059358172
-0.0838618 0.10078297 -0.10576856 -0.35190323 -0.23286006 -0.3834762 -0.0799299 -0.17048505
-0.09343165 0.09198276 0.13029529 -0.117256954 -0.04196791 0.019605318 -0.19636032 0.03917227
-0.04785894 -0.013826655 -0.110001594 0.17840238 0.10701329 -0.05528415 -0.078405015 -0.022018617
-0.20669295 0.027555604 -0.1117704 0.2329191 -0.15865262 0.07003696 -0.0061417553 -0.011135146
00000000: c6ea 64be 2a54 27bb 03a9 c6bd 6fde b83c
00000010: 023e 24be ba3d 4bbe e777 1e3b b4d0 813d
00000020: 6b5c ef3c 2c22 163e 693e 623d c204 be3c
00000030: 78e2 7fbd f4ec aabd db8b 94be c93f 3f3d
00000040: bab2 1bbe f420 903d 0652 3c3c 34d9 97bc
00000050: c23e 433d 1a99 fa3d 0fa6 26be 90b7 8ebe
00000060: 230f 743c 7d84 db3c 9381 b9bd 6820 c9bd
00000070: 1e5c 5dbd c26d 7abe 8cfe 99be 8e21 733d
00000080: bcbf abbd 4d67 ce3d 309d d8bd a92c b4be
00000090: de72 6ebe fe56 c4be 4ab2 a3bd a293 2ebe
000000a0: 1859 bfbd 7561 bc3d 216c 053e 6a24 f0bd
000000b0: 8be6 2bbd 559b a03c ae12 49be 1a73 203d
000000c0: bc07 44bd 3289 62bc 8448 e1bd 1daf 363e
000000d0: c929 db3d a271 62bd cf92 a0bd 6360 b4bc
000000e0: 51a7 53be 4abc e13c e1e7 e4bd 5882 6e3e
000000f0: d575 22be 8a6f 8f3d c740 c9bb 3070 36bc

head.norm.running_var f4 [64]
0.0018921698 0.03565591 0.038315214 0.005939098 0.013633371 0.0038603756 0.0035599023 0.0038538752
0.053290572 0.0030616757 0.0023907071 0.0033025648 0.0110008875 0.0021519198 0.04035258 0.010656619
0.045073636 0.010705773 0.029275136 0.0043350807 0.0066486746 0.010564257 0.011681833 0.001790611
0.0140859755 0.0078385 0.0029987888 0.005689143 0.0019984923 0.0049639465 0.024154106 0.007879096
0.094683625 0.022915704 0.07550314 0.055716604 0.052845303 0.032251135 0.0031067994 0.03036198
0.0061303866 0.012446446 0.0013748874 0.0004839915 0.0031212957 0.0061410298 0.008797354 0.0026613395
0.00091701344 0.025529355 0.009084743 0.0004459894 0.0034264263 0.013813729 0.0021733637 0.03642431
0.011464585 0.05661299 0.0016817066 0.005415474 0.00053360243 0.0009101938 0.019391052 0.0013171638
00000000: af02 f83a ee0b 123d 6af0 1c3d c49c c23b
00000010: 815e 5f3c 5bfe 7c3b 404d 693b 4c91 7c3b
00000020: 3747 5a3d 65a6 483b 69ad 1c3b d86f 583b
00000030: 113d 343c 3907 0d3b bf48 253d 1a99 2e3c
00000040: 229f 383d 4467 2f3c 69d2 ef3c 4b0d 8e3b
00000050: 20dd d93b b515 2d3c 2965 3f3c efb2 ea3a
00000060: ddc8 663c 0d6d 003c 5487 443b fe6b ba3b
00000070: 23f9 023b 9aa8 a23b d5de c53c 5317 013c
00000080: 7de9 c13d b7b9 bb3c 64a1 9a3d 1837 643d
00000090: 5174 583d c419 043d 729b 4b3b b0b9 f83c
000000a0: 69e1 c83b 2eec 4b3c 9135 b43a 3dc0 fd39
000000b0: a78e 4c3b b13a c93b c722 103c de69 2e3b
000000c0: bb63 703a f022 d13c 2dd8 143c afd3 e939
000000d0: e58d 603b fb52 623c fe6e 0e3b a831 153d
000000e0: f4d5 3b3c 06e3 673d b66c dc3a 4a74 b13b
000000f0: 74e1 0b3a 129a 6e3a fcd9 9e3c afa4 ac3a

body.block1.conv.weight f4 [64, 64, 3, 3]
-0.0060314047 -0.047085606 0.0051655923 0.02319834 -0.027956039 -0.01810526 -0.012851325 -0.009924868
-0.060620792 -0.0090649035 -0.010763169 -0.03947651 0.027827224 -0.007888342 0.0047242325 -0.01363938
0.046288453 0.011214759 -0.02500147 -0.032894555 -0.029990265 0.0091511365 -0.015376535 -0.030806314
0.0270169 0.014712015 -0.0048775007 0.0053990074 -0.016494175 0.01930938 -0.044291403 0.029350063
0.004886429 0.041863393 -0.0029517608 0.004355431 0.053703293 0.030185312 -0.0022052452 -0.021192538
0.0132326605 -0.004180247 0.025667714 0.0098812785 0.023552144 0.009895473 -0.0049586664 0.021401834
0.03121475 0.01914686 0.0061799753 -0.016240537 0.017348135 0.04012037 0.023368139 0.03561571
0.025124466 0.075453304 0.056675266 0.024528945 0.047487553 0.02935912 -0.013006557 0.0153063
0.00577452 -0.0054657455 -0.028732011 -0.04978801 -0.018874034 -0.013713353 -0.038329326 -0.005056555
0.008795975 -0.00034402777 -0.026272029 0.030893609 0.026078401 0.011452967 0.0019898168 0.033854626
0.033623524 -0.02968718 -0.04710553 0.033172768 -0.05631031 -0.0035152906 -0.05397438 -0.01810785
-0.035021715 -0.011765356 -0.026396459 -0.017394574 -0.0054883696 -0.0028494317 -0.019822972 -0.023166373
-0.00682617 0.004514643 -0.04154083 -0.051168688 0.011743355 0.016535869 -0.072389565 -0.017744342
0.0013445771 -0.01134865 0.033062432 0.022612404 -0.046797946 -0.033414207 -0.021834869 -0.0054983343
-0.042997174 -0.011509068 -0.033531148 0.00051335077 -0.014531742 -0.042842567 -0.039555006 0.058283787
-0.0141352005 -0.03055157 0.034807008 -0.05285169 0.010050619 0.0962292 -0.004195545 0.03841109
0.0075509935 0.037459575 0.032773852 0.010816968 0.009535416 0.040599264 -0.008685675 0.0018887708
0.0150660975 0.049747944 0.02577807 0.008608455 0.014187235 -0.01604399 0.016624168 0.029178713
0.0075647635 0.010831298 0.007078909 -0.013775264 0.024641046 0.020760207 0.012423504 0.006720809
0.0093751745 0.018600376 -0.015191503 -0.01731136 -0.008078516 -0.0009851911 -0.043310743 0.07546454
-0.030835878 0.01845376 -0.005477399 -0.02573349 -0.019413257 -0.036637567 0.004431108 -0.021715138
-0.018482558 -0.008541752 -0.054288365 0.005417716 0.008631398 0.061534446 -0.0002171662 0.09003653
0.030746363 0.053855952 0.0738262 0.082619935 0.022610454 0.051188793 0.0103300465 -0.00923465
-0.010039093 -0.024287036 0.016695317 0.010306141 0.024497861 0.022729123 -0.011532278 0.012330645
-0.0014010574 -0.0120196985 -0.02159172 0.0077319555 0.007553539 0.012336426 -0.0079140235 -0.0158392
0.0001236389 0.002125847 0.027510967 0.025783537 0.024106506 0.028590726 0.029740036 -0.036453042
0.005751477 -0.013155197 -0.021972097 0.014806766 -0.031975236 0.022621946 0.0125198085 0.0411794
0.030273806 0.0308444 0.01762667 -0.023338802 0.028417781 0.03422974 -0.0167302 0.047445264
0.0029678766 0.0038596385 -0.005177281 0.0029797012 0.023135036 0.030795338 0.002232454 0.07109725
0.036116607 0.00894856 -0.020312572 0.011111513 -0.009470648 0.035278052 0.014762996 0.07102172
0.040130172 0.03179846 0.03336394 -0.010435673 -0.006327236 0.00019734855 0.03503366 -0.011562647
-0.0033832479 -0.0033809803 0.008619965 -0.027495392 0.04053233 -0.018362373 0.031434223 0.0045904317
00000000: 17a3 c5bb d6dc 40bd 2144 a93b 720a be3c
00000010: 1004 e5bc 7b51 94bc 5d8e 52bc ea9b 22bc
00000020: 824d 78bd f684 14bc 0158 30bc 1fb2 21bd
00000030: ebf5 e33c 1b3e 01bc bccd 9a3b b577 5fbc
00000040: f698 3d3d 1cbe 373c e2cf ccbc 71bc 06bd
00000050: 25ae f5bc a6ee 153c dded 7bbc 865d fcbc
00000060: 8c52 dd3c aa0a 713c 71d3 9fbb 28ea b03b
00000070: cb1e 87bc b42e 9e3c e76a 35bd 8b6f f03c
00000080: 561e a03b f378 2b3d 5472 41bb 01b8 8e3b
00000090: fcf7 5b3d 3047 f73c e085 10bb f99b adbc
000000a0: cdcd 583c 74fa 88bb 1945 d23c 16e5 213c
000000b0: 6df0 c03c 9f20 223c 4f7c a2bb e652 af3c
000000c0: 13b6 ff3c e0d9 9c3c 6481 ca3b e00a 85bc
000000d0: ad1d 8e3c 4255 243d 8a6e bf3c c7e1 113d
000000e0: d3d1 cd3c 4387 9a3d 5324 683d edf0 c83c
000000f0: 4f82 423d 8a82 f03c 7419 55bc 46c7 7a3c
00000100: 2f38 bd3b ff19 b3bb 655f ebbc 83ee 4bbd
00000110: b89d 9abc f9ad 60bc 36ff 1cbd 75b1 a5bb
00000120: fe1c 103c a05e b4b9 7038 d7bc 9814 fd3c
00000130: 5fa2 d53c 3aa5 3b3c 9667 023b 26ab 0a3d
00000140: d2b8 093d 8732 f3bc baf1 40bd 2be0 073d
00000150: a4a5 66bd ca60 66bb 3d14 5dbd ea56 94bc
00000160: ee72 0fbd 7bc3 40bc 633d d8bc 117f 8ebc
00000170: c8d7 b3bb 88bd 3abb c963 a2bc 68c7 bdbc
00000180: 10ae dfbb 92ef 933b b826 2abd 4296 51bd
00000190: 3367 403c 3b76 873c fb40 94bd 955c 91bc
000001a0: 853c b03a b0ef 39bc 796c 073d a63d b93c
000001b0: 34af 3fbd 56dd 08bd 0adf b2bc 5f2b b4bb
000001c0: ce1d 30bd 8890 3cbc f557 09bd 6392 063a
000001d0: 8b16 6ebc b07b 2fbd 6e04 22bd fbba 6e3d
000001e0: 5497 67bc 4947 fabc cb91 0e3d 047b 58bd
000001f0: 5aab 243c d113 c53d c87a 89bb f254 1d3d
00000200: 536e f73b 366f 193d e03d 063d a739 313c
00000210: 6f3a 1c3c 6a4b 263d 5d4e 0ebc a290 f73a
00000220: cbd7 763c 80c4 4b3d 882c d33c 7a0a 0d3c
00000230: 9471 683c b06e 83bc 682f 883c 3208 ef3c
00000240: d6e1 f73b c275 313c 31f6 e73b a5b1 61bc
00000250: 05dc c93c 4f11 aa3c f48b 4b3c 3b3a dc3b
00000260: 559a 193c d15f 983c c8e5 78bc 8ed0 8dbc
00000270: c15b 04bc 8721 81ba 9b66 31bd 278d 9a3d
00000280: 869b fcbc 572c 973c c17b b3bb 0acf d2bc
00000290: 8d08 9fbc 4611 16bd d432 913b f2e3 b1bc
000002a0: bc68 97bc b4f2 0bbc 7a5d 5ebd 1987 b13b
000002b0: b56a 0d3c 8b0b 7c3d 1cb7 63b9 1265 b83d
000002c0: ccdf fb3c 0f98 5c3d 3132 973d a434 a93d
000002d0: 8f39 b93c 57ab 513d 5b3f 293c ee4c 17bc
000002e0: 027b 24bc 9bf5 c6bc 9ec4 883c 17db 283c
000002f0: bdaf c83c 6d32 ba3c e1f1 3cbc 7906 4a3c
00000300: afa3 b7ba 45ee 44bc 1ee1 b0bc 585c fd3b
00000310: ad83 f73b b91e 4a3c d2a9 01bc 36c1 81bc
00000320: 11a5 0139 cb51 0b3b ae5e e13c ff37 d33c
00000330: 027b c53c 1937 ea3c 60a1 f33c c94f 15bd
00000340: e376 bc3b e588 57bc d4fe b3bc 1498 723c
00000350: 77f8 02bd a951 b93c e21f 4d3c bbab 283d
00000360: c600 f83c 65ad fc3c ce65 903c 0431 bfbc
00000370: 68cc e83c 7c34 0c3d c60d 89bc f755 423d
00000380: b580 423b fdf1 7c3b 2ea6 a9bb 1747 433b
00000390: b085 bd3c 8146 fc3c 5d4e 123b 6f9b 913d
000003a0: 02ef 133d fb9c 123c 8d66 a6bc 100d 363c
000003b0: c72a 1bbc b87f 103d 7ee0 713c d673 913d
000003c0: 895f 243d 1a3f 023d a0a8 083d 63fa 2abc
000003d0: b454 cfbb 59ef 4e39 747f 0f3d 4271 3dbc
000003e0: 7bb9 5dbb 7093 5dbb c13a 0d3c 043e e1bc
000003f0: 3a05 263d b06c 96bc 2cc1 003d 556b 963b

body.block1.conv.bias f4 [64]
0.0014317516 9.2556904e-05 -0.025209412 0.021721782 -0.012992964 0.023564281 0.030961353 0.0144540025
0.027309392 -0.028646793 0.02703067 -0.026287206 0.031838283 0.027893698 0.016707629 -0.027205495
-0.019132636 -0.0074807215 0.033988018 -0.041592203 0.03838277 0.015986644 -0.007992451 0.037866957
0.018058201 0.018441632 0.03665861 0.0055750497 -0.017516429 0.03966065 0.036807794 -0.039507695
0.03486497 -0.005130948 -0.036741927 0.03198102 0.0202168 0.027018417 -0.036311157 -0.010322722
0.0069334763 0.019404143 -0.012826851 -0.04176818 0.013304514 0.029939562 -0.020007357 0.02335043
0.03187966 -0.02953168 -0.009167374 -0.029579425 -0.037243508 0.0057940786 0.029616714 -0.02348015
-0.0075987093 0.039885357 0.017834734 0.017037595 -0.013570609 0.006959574 -0.017215313 0.040177625
00000000: 9da9 bb3a 1c1b c238 f883 cebc e1f1 b13c
00000010: 71e0 54bc e109 c13c aaa2 fd3c 7bd0 6c3c
00000020: f2b7 df3c aeac eabc 6c6f dd3c 4458 d7bc
00000030: dc68 023d 5381 e43c 70de 883c 0fde debc
00000040: 0cbc 9cbc d720 f5bb 0537 0b3d 965c 2abd
00000050: 4037 1d3d 6cf6 823c c5f2 02bc 621a 1b3d
00000060: cbee 933c e812 973c 5727 163d e8ae b63b
00000070: 9d7e 8fbc 3573 223d c5c3 163d d2d2 21bd
00000080: 92ce 0e3d 8321 a8bb b47e 16bd 88fe 023d
00000090: b49d a53c ba55 dd3c 02bb 14bd a220 29bc
000000a0: 3732 e33b 70f5 9e3c b627 52bc 1c15 2bbd
000000b0: 2dfb 593c d043 f53c 78e6 a3bc 6749 bf3c
000000c0: 3f94 023d 6cec f1bc c132 16bc 8d50 f2bc
000000d0: a68c 18bd 41dc bd3b c09e f23c 7259 c0bc
000000e0: 98fe f8bb d45e 233d 261a 923c 6d92 8b3c
000000f0: 4257 5ebc 230d e43b 2107 8dbc 4b91 243d

body.block1.norm.weight f4 [64]
1.0058905 1.0227557 0.93005985 0.9960615 0.9596193 1.0305141 0.946468 1.0319656
1.0665115 1.011481 0.98542583 1.1089796 0.96477896 0.9931 1.0130827 0.9926275
0.95556486 1.0707382 0.9354103 1.050751 1.0736816 0.9935517 1.071305 0.99371827
1.0043228 0.9419027 0.98316723 0.8887444 0.8885304 0.9699571 1.0151608 0.9741779
0.94376117 1.065305 0.97500247 1.0177335 1.043893 1.0115722 0.97738427 1.0063096
0.90841657 0.9698938 0.9991009 1.0034697 1.0380551 0.9951849 0.9506701 0.9779197
0.9971726 0.9124602 1.02818 0.9982009 1.0256494 0.9820618 0.9564307 1.1043477
1.0357385 1.0528972 0.9872364 1.0768403 1.0462283 1.0914965 0.9338563 1.0216439
00000000: 05c1 803f a9e9 823f 6718 6e3f e3fd 7e3f
00000010: 9ca9 753f e3e7 833f ba4b 723f 7317 843f
00000020: 7383 883f 3678 813f de44 7c3f 0bf3 8d3f
00000030: c1fb 763f cd3b 7e3f b2ac 813f d61c 7e3f
00000040: e69f 743f f30d 893f 0d77 6f3f 027f 863f
00000050: 666e 893f 6759 7e3f 8620 893f 5264 7e3f
00000060: a68d 803f 8920 713f d9b0 7b3f c184 633f
00000070: ba76 633f 1c4f 783f caf0 813f b963 793f
00000080: 559a 713f ea5b 883f c399 793f 1745 823f
00000090: 499e 853f 337b 813f db35 7a3f c1ce 803f
000000a0: fd8d 683f f64a 783f 14c5 7f3f b271 803f
000000b0: fdde 843f 70c4 7e3f 1e5f 733f f258 7a3f
000000c0: b446 7f3f fe96 693f 679b 833f 188a 7f3f
000000d0: 7b48 833f 6768 7b3f a4d8 743f 445b 8d3f
000000e0: 1493 843f 56c5 863f 86bb 7c3f e7d5 893f
000000f0: cfea 853f 28b6 8b3f 3511 6f3f 3ac5 823f

body.block1.norm.bias f4 [64]
0.051765773 0.12752932 -0.08340648 -0.11962087 -0.010201845 0.088675074 -0.045169577 0.056506284
0.117502205 -0.037817407 0.04716952 -0.11962097 0.014500839 0.023445299 0.053677596 -0.10076984
0.22135502 0.12620136 0.051286444 -0.08709756 0.13093731 -0.057838447 -0.0149713615 -0.022514347
0.026659038 -0.07106369 0.10568918 -0.04454915 -0.013681356 0.3048423 -0.08876349 0.06971896
-0.06536211 0.024213703 0.029754603 0.102716915 0.049340796 0.29543093 0.011184357 -0.09878465
-0.10531459 -0.009766995 0.022455737 0.15263586 0.057340175 0.0785351 0.022537647 0.10922011
0.009172579 -0.00020042445 0.018703101 0.13722375 0.12331796 -0.1516346 0.024653722 0.037364483
0.265844 0.031113088 0.07838464 0.013285969 0.055150643 0.05213184 0.00062618154 0.09132472
00000000: 5908 543d 0c97 023e 04d1 aabd c9fb f4bd
00000010: a425 27bc 479b b53d bc03 39bd 2273 673d
00000020: ffa4 f03d 6de6 1abd d434 413d d7fb f4bd
00000030: ed94 6d3c 5b10 c03c 0add 5b3d 6b60 cebd
00000040: e4aa 623e ee3a 013e bc11 523d 3560 b2bd
00000050: 6e14 063e 02e8 6cbd 714a 75bc 0270 b8bc
00000060: 0e64 da3c d789 91bd 9273 d83d 2b79 36bd
00000070: c427 60bc 4a14 9c3e a2c9 b5bd d0c8 8e3d
00000080: 92dc 85bd d15b c63c edbf f33c 3f5d d23d
00000090: 9319 4a3d b942 973e 983e 373c 9b4f cabd
000000a0: 2daf d7bd bf05 20bc 18f5 b73c 934c 1c3e
000000b0: 88dd 6a3d 03d7 a03d dfa0 b83c cbae df3d
000000c0: 9648 163c 0729 52b9 3f37 993c 6284 0c3e
000000d0: 208e fc3d 1a46 1bbe 9af6 c93c 800b 193d
000000e0: b41c 883e e0e0 fe3c 2088 a03d 65ad 593c
000000f0: a4e5 613d 3288 553d 5526 243a 7408 bb3d

body.block1.norm.running_mean f4 [64]
0.32114956 0.02361865 0.9846653 1.1119368 1.6986783 -0.73150355 1.2851781 0.07252589
0.13814645 -0.29679942 0.59067357 1.4504979 0.7111135 -0.014393334 0.010536239 1.2637463
0.58511215 -1.0382599 1.9303157 1.5692276 -0.5369444 0.088341 -0.14903957 1.566736
-0.4801246 -0.18493083 0.33275217 1.1048299 0.95306057 0.2673115 0.48053846 0.47963005
1.8478367 -0.7902391 0.72189504 0.29658246 -0.59003264 -0.45964816 0.04179933 1.0282934
0.48946992 -0.87760454 0.061856166 0.33517593 -0.49871647 -0.33205917 0.6562154 0.15534005
-0.122443505 0.04094155 0.3439706 -0.18919879 0.31135258 1.4495825 0.98632383 -1.569589
-0.5393408 -0.26646033 -0.26518202 0.14241083 -0.25918728 -0.1387433 0.99876654 -0.19630232
00000000: b76d a43e e67b c13c 0613 7c3f f253 8e3f
00000010: 4a6e d93f d143 3bbf b780 a43f 7488 943d
00000020: 4376 0d3e 18f6 97be 6236 173f eaa9 b93f
00000030: 890b 363f 05d2 6bbc 30a0 2c3c 70c2 a13f
00000040: e9c9 153f b3e5 84bf 9614 f73f 73dc c83f
00000050: 3075 09bf 20ec b43d d49d 18be ce8a c83f
00000060: e4d2 f5be 825e 3dbe 7e5e aa3e 116b 8d3f
00000070: c7fb 733f 0edd 883e 2309 f63e 1292 f53e
00000080: ea85 ec3f 1c4d 4abf 1dce 383f a8d9 973e
00000090: 610c 17bf 0157 ebbe c635 2b3d 1e9f 833f
000000a0: cd9b fa3e b1aa 60bf e45c 7d3d 2e9c ab3e
000000b0: c457 ffbe a903 aabe bcfd 273f 7611 1f3e
000000c0: a9c3 fabd 54b2 273d ea1c b03e 54bd 41be
000000d0: 9b69 9f3e eb8b b93f b87f 7c3f 4be8 c8bf
000000e0: 3d12 0abf 7d6d 88be f0c5 87be 25d4 113e
000000f0: 32b4 84be b912 0ebe 2aaf 7f3f 7a03 49be

body.block1.norm.running_var f4 [64]
1.2437717 0.8797367 4.8249216 4.3399606 7.567884 0.6375697 5.035632 0.8847279
1.5310247 1.7525831 1.3990189 5.7534018 2.8831246 0.8514135 1.4445211 1.8736944
2.3642588 1.516985 9.525527 4.267896 2.4586952 2.509205 2.0785422 2.9452097
1.4470866 0.74795485 1.102487 3.5293095 2.9630678 0.57149655 1.5420257 0.9089301
6.3707976 1.545757 1.4909464 0.60291284 0.8523339 0.5914872 1.0401163 1.361016
0.79604876 1.9677626 1.2826412 1.4616376 0.6230663 1.2039845 2.0778487 0.81525314
1.1749575 0.6130242 1.1195731 1.2678863 1.8540092 3.2992384 2.2016168 4.3988175
2.131482 0.6924348 0.81580347 1.1626769 0.5565696 1.4090885 4.0589523 0.4695276
00000000: e933 9f3f 6d36 613f c265 9a40 f5e0 8a40
00000010: 1b2c f240 c537 233f e623 a140 877d 623f
00000020: 9ef8 c33f a554 e03f 0d13 b33f de1b b840
00000030: 1d85 3840 3cf6 593f 11e6 b83f 38d5 ef3f
00000040: 0450 1740 912c c23f 8f68 1841 9b92 8840
00000050: 435b 1d40 d196 2040 d606 0540 517e 3c40
00000060: 223a b93f f879 3f3f 4b1e 8d3f 35e0 6140
00000070: e7a2 3d40 994d 123f 1961 c53f a5af 683f
00000080: 93dd cb40 5edb c53f 55d7 be3f 7f58 1a3f
00000090: 8e32 5a3f b56b 173f 8822 853f c635 ae3f
000000a0: dac9 4b3f a5df fb3f 962d a43f f116 bb3f
000000b0: 4681 1f3f 2a1c 9a3f 79fb 0440 6eb4 503f
000000c0: 0265 963f 27ef 1c3f 2c4e 8f3f 194a a23f
000000d0: 2c50 ed3f b926 5340 4ae7 0c40 1dc3 8c40
000000e0: 336a 0840 6843 313f 7fd8 503f 99d2 943f
000000f0: 587b 0e3f 035d b43f f0e2 8140 ec65 f03e

body.block2.conv.weight f4 [64, 64, 3, 3]
0.031323943 0.011764358 0.031874917 -0.031820495 -0.0025731781 0.027226709 0.04193793 -0.013507012
-0.0017886021 -0.0014676693 0.027205592 0.004613097 -0.030165594 -0.0055501317 0.013222751 -0.0063807582
-0.011293338 -0.028344272 -0.0544124 -0.0016083668 0.012048322 -0.0072476477 0.03982503 0.037364587
0.007776999 0.027410893 0.07439648 -0.0018439023 0.0073465416 -0.03188133 -0.0022356133 -0.04871819
-0.013422816 0.017660502 -0.018241828 0.0032115907 0.02399675 0.025384456 0.031652514 0.02852384
-0.0064991824 -0.01438352 0.012579665 0.019570246 0.007338603 -0.057685938 0.0040216213 0.04055893
-0.033151016 -0.01458098 -0.04463194 0.0036076629 -0.05552519 0.007613391 0.04331147 0.03678737
0.00070394797 -0.0054760627 -0.0153919775 0.005976485 -0.007621006 0.01922186 0.014617812 -0.08068633
-0.006597035 -0.04130791 -0.084615335 -0.07860611 -0.07088755 -0.039877467 -0.035178903 -0.03611268
0.029459465 -0.0023762912 0.012402837 0.013766179 0.024847122 0.03370445 -0.03904108 0.021178339
0.05339776 0.055493213 0.02711357 0.051877722 0.018337974 0.010534323 0.011995681 0.016554356
0.022422858 0.013898988 0.02267415 0.016934307 0.033489555 -0.014743312 0.038406953 0.0042422656
0.030450378 0.017680982 0.014323838 -0.010542778 -0.01883997 -0.002843195 -0.04307842 0.015848592
8.373508e-05 -0.014093454 -0.037592173 0.012673561 -0.019802185 -0.03130669 -0.0060897237 0.018223213
-0.06336221 -0.046186477 0.01196893 -0.028611656 0.002294398 0.020636613 0.0038183534 -0.039116643
0.028758861 -0.038080566 -0.005533444 -0.0014966938 0.0032146827 -0.016628053 0.054163005 0.03333569
0.05230846 0.079668015 0.015658578 0.024650276 -0.03855201 -0.038628623 -0.011714616 -0.035079338
-0.005578452 -0.028204795 -0.045252375 -0.024388546 0.064529896 0.0018676968 -0.009778298 -0.020880215
-0.012711773 0.047244556 0.016424673 -0.035669364 -0.028092977 -0.02174457 -0.008346075 0.023345033
-0.019468985 0.000443536 0.0028181039 0.0071206065 0.027987977 -0.0023084562 -0.019230591 0.02184671
0.049715675 0.037343685 -0.0426418 0.012453282 0.014877567 0.02174446 -0.013292914 -0.017755223
0.035815503 0.07002891 0.0434757 -0.0013926893 0.059702188 0.012049225 0.038040373 -0.011467605
-0.0018191555 -0.026042376 0.0041174917 -0.017919028 0.02338919 0.010228011 0.018674335 0.0038879355
0.020395163 0.0026627602 0.023845728 0.045520976 0.03296592 -0.0076171667 -0.03582687 0.002177672
-0.04050609 -0.014940813 -0.009206333 0.0036909224 -0.033707175 0.024674494 -0.03167642 -0.02840671
-0.04642526 0.050215892 0.03044237 -0.02602521 0.0112787215 0.03196478 -0.004727219 0.02461978
0.046727143 0.015592208 0.036804814 0.021520976 -0.029390547 -0.031187044 0.0019626627 -0.027500609
0.0478502 -0.0007842884 -0.049281746 -0.03141161 -0.024921106 0.015648874 0.030937381 -0.042521
0.0035788226 -0.022863263 0.0018775116 0.013479592 0.0039020479 -0.04350178 -0.06372479 0.002695529
0.0014972872 -0.00015859184 0.0285412 0.015731074 0.029461121 0.019489076 -0.004146516 0.03288389
0.01809687 -0.001386666 -0.0077691223 0.035162613 0.058104135 0.012092692 0.04880558 0.07268752
0.041927062 0.012632985 -0.010721673 -0.0073905685 0.002434085 -0.04320366 -0.032450847 -0.03711376
00000000: 894d 003d 4bbf 403c 468f 023d 3556 02bd
00000010: c4a2 28bb 8c0a df3c 1bc7 2b3d 844c 5dbc
00000020: 876f eaba cf5e c0ba 43de de3c 7629 973b
00000030: d61d f7bc e1dd b5bb 3da4 583c ae15 d1bb
00000040: b107 39bc 3f32 e8bc 89df 5ebd d6cf d2ba
00000050: 5366 453c ad7d edbb 921f 233d 9c0b 193d
00000060: 32d6 fe3b cf8c e03c 2f5d 983d 18af f1ba
00000070: 42bb f03b ff95 02bd 5e83 12bb ba8c 47bd
00000080: 5feb 5bbc c2ac 903c e36f 95bc 8d79 523b
00000090: d594 c43c 10f3 cf3c 11a6 013d d4aa e93c
000000a0: 18f7 d4bb dba8 6bbc f01a 4e3c c851 a03c
000000b0: aa78 f03b 1748 6cbd cec7 833b 1f21 263d
000000c0: 5cc9 07bd 10e5 6ebc fbcf 36bd 8a6e 6c3b
000000d0: 626e 63bd c179 f93b 5e67 313d 5aae 163d
000000e0: 2689 383a 8b70 b3bb a22e 7cbc 64d6 c33b
000000f0: a2b9 f9bb 2a77 9d3c 8c7f 6f3c e03e a5bd
00000100: f12b d8bb 7c32 29bd ce4a adbd 3dfc a0bd
00000110: 7e2d 91bd 8e56 23bd c117 10bd e4ea 13bd
00000120: fa54 f13c 8dbb 1bbb 4535 4b3c 8a8b 613c
00000130: 318c cb3c ad0d 0a3d 8ae9 1fbd 327e ad3c
00000140: 9cb7 5a3d da4c 633d 471d de3c bc7d 543d
00000150: 8539 963c 2798 2c3c 8889 443c 009d 873c
00000160: 24b0 b73c 95b8 633c 24bf b93c d1b9 8a3c
00000170: 582c 093d ef8d 71bc 9c50 1d3d b402 8b3b
00000180: 1273 f93c b5d7 903c 88ae 6a3c 9ebb 2cbc
00000190: 4856 9abc e654 3abb ff72 30bd e8d4 813c
000001a0: ee9a af38 3be8 66bc 40fa 19bd c5a4 4f3c
000001b0: 3138 a2bc 723b 00bd 4e8c c7bb d948 953c
000001c0: 0cc4 81bd 082e 3dbd 5519 443c fe62 eabc
000001d0: 9c5d 163b 1d0e a93c 573d 7a3b c638 20bd
000001e0: b497 eb3c 5efa 1bbd e551 b5bb b62c c4ba
000001f0: 6dad 523b 8e37 88bc 07da 5d3d 018b 083d
00000200: 6541 563d fc28 a33d 6b46 803c 60ef c93c
00000210: b6e8 1dbd 0c39 1ebd a9ee 3fbc 5aaf 0fbd
00000220: 72cb b6bb be0d e7bc 8e5a 39bd 7dca c7bc
00000230: 4028 843d 81cd f43a 2835 20bc fc0c abbc
00000240: 0a45 50bc 8283 413d 098d 863c 0a1a 12bd
00000250: 3e23 e6bc ab21 b2bc fabd 08bc 153e bf3c
00000260: 6c7d 9fbc 658a e839 f0af 383b fa53 e93b
00000270: 0b47 e53c 7849 17bb 7989 9dbc dff7 b23c
00000280: aaa2 4b3d b1f5 183d 2ba9 2ebd da08 4c3c
00000290: 0ac1 733c 7021 b23c 86ca 59bc 6773 91bc
000002a0: 47b3 123d 516b 8f3d 9313 323d e68a b6ba
000002b0: 488a 743d 1d6a 453c 39d0 1b3d 9fe2 3bbc
000002c0: bb70 eeba d256 d5bc 06ec 863b edca 92bc
000002d0: b09a bf3c 6393 273c ebfa 983c bccc 7e3b
000002e0: c213 a73c b481 2e3b 1e58 c33c 3474 3a3d
000002f0: 4607 073d 6d99 f9bb 32bf 12bd 46b7 0e3b
00000300: b7e9 25bd 50ca 74bc 29d6 16bc 67e3 713b
00000310: 8910 0abd 2a22 ca3c 22bf 01bd 30b5 e8bc
00000320: 6a28 3ebd 2eaf 4d3d 4762 f93c d232 d5bc
00000330: 63ca 383c 80ed 023d cae6 9abb 6caf c93c
00000340: f664 3f3d 7676 7f3c a5c0 163d c24c b03c
00000350: 72c4 f0bc f97b ffbc 04a0 003b f548 e1bc
00000360: 92fe 433d b498 4dba a8db 49bd 76a9 00bd
00000370: 5927 ccbc 1132 803c 6470 fd3c 802a 2ebd
00000380: ae8a 6a3b bd4b bbbc d616 f63a 82d9 5c3c
00000390: 80b9 7f3b ec2e 32bd 2582 82bd 79a7 303b
000003a0: 9f40 c43a ac4b 26b9 3ccf e93c 74de 803c
000003b0: 7358 f13c 8ea7 9f3c 7fdf 87bb 42b1 063d
000003c0: e33f 943c cac0 b5ba 1f94 febb ac06 103d
000003d0: 9afe 6d3d 6d20 463c 5ce8 473d 32dd 943d
000003e0: b6bb 2b3d 94fa 4e3c f5a9 2fbc 952c f2bb
000003f0: 2b85 1f3b 52f6 30bd 2eeb 04bd 9904 18bd

body.block2.conv.bias f4 [64]
-0.011375281 -0.0065507703 -0.019332342 -0.0062963734 0.027218126 0.034502313 0.03863117 0.0038705764
-0.025144482 -0.028624257 -0.040715653 -0.025526261 -0.026848806 -0.038581565 -0.018460734 -0.018905591
0.0119325165 -0.011436352 0.005210248 -0.019681918 0.011476013 0.03227604 0.036630236 0.033836745
0.019563131 0.025165271 0.009243579 0.017532162 -0.037725963 -0.00017184715 0.018705253 0.018238174
-0.023876179 -0.023131736 -0.027411466 -0.0034989468 -0.0021001745 -0.0026188074 0.02068035 -0.038732965
-0.031237187 -0.008844732 0.037530314 -0.028948605 -0.0238181 -0.033704612 0.04143098 0.025816904
0.009007057 0.039081886 -0.007478634 0.03207988 -0.032109562 0.040099744 -0.0018349783 -0.023846164
-0.035962977 0.011493996 0.035586644 -0.022945076 -0.045534782 -0.01576634 0.006557848 0.028442906
00000000: 635f 3abc d8a7 d6bb dc5e 9ebc cf51 cebb
00000010: 8cf8 de3c 4c52 0d3d b83b 1e3d 7fa9 7d3b
00000020: cdfb cdbc 6b7d eabc 75c5 26bd 731c d1bc
00000030: 07f2 dbbc b407 1ebd f73a 97bc e6df 9abc
00000040: 9a80 433c 895f 3bbc baba aa3b f93b a1bc
00000050: e305 3c3c e233 043d 9609 163d 6698 0a3d
00000060: dc42 a03c 6627 ce3c 6172 173c 9c9f 8f3c
00000070: 8a86 1abd de31 34b9 c23b 993c 3968 953c
00000080: fa97 c3bc c47e bdbc 038e e0bc 964e 65bb
00000090: 15a3 09bb 4ca0 2bbb d669 a93c 75a6 1ebd
000000a0: 21e5 ffbc 7fe9 10bc 63b9 193d a025 edbc
000000b0: 2d1e c3bc d90d 0abd 88b3 293d f97d d33c
000000c0: 5692 133c 5414 203d 540f f5bb 3166 033d
000000d0: 5185 03bd a13f 243d a883 f0ba 0859 c3bc
000000e0: ea4d 13bd 5051 3c3c 4dc3 113d 50f7 bbbc
000000f0: ae82 3abd 6928 81bc 37e3 d63b 1901 e93c

body.block2.norm.weight f4 [64]
0.9335292 1.0392241 0.8375217 1.0151256 0.95799696 1.0021532 0.8543366 0.9425321
0.9403553 1.0584685 0.997176 0.9887084 1.035575 1.0431514 0.99513626 1.1332893
1.0051718 0.9959675 0.9779848 0.98306435 1.0331979 0.97465193 1.0328381 0.9394593
0.93931645 0.9090095 1.0554296 1.0012684 0.91972774 0.9854143 1.0394216 1.0607654
1.0531718 0.9623989 1.0194606 0.99357 1.0329413 0.978305 1.0029441 1.0312121
1.050742 1.0364499 0.9650783 0.9652281 1.033594 0.9506157 0.95225894 1.0134323
0.9695607 1.031228 0.9970551 1.0093741 1.0023807 1.0790052 0.98560727 0.94685495
1.0009224 1.0085986 0.95225644 1.0257897 0.96198094 0.96103 0.9514699 1.0511438
00000000: c5fb 6e3f 4c05 853f d267 563f a3ef 813f
00000010: 4a3f 753f 8e46 803f ceb5 5a3f c949 713f
00000020: 20bb 703f e57b 873f ed46 7f3f fe1b 7d3f
00000030: b98d 843f fc85 853f 40c1 7e3f a00f 913f
00000040: 78a9 803f baf7 7e3f 365d 7a3f 1baa 7b3f
00000050: d43f 843f ca82 793f 0a34 843f 6880 703f
00000060: 0b77 703f d9b4 683f 5118 873f 9029 803f
00000070: 4773 6b3f 1d44 7c3f c40b 853f 29c7 873f
00000080: 55ce 863f c65f 763f af7d 823f 9b5a 7e3f
00000090: 6c37 843f 3272 7a3f 7960 803f c2fe 833f
000000a0: b77e 863f 64aa 843f 5f0f 773f 3019 773f
000000b0: cf4c 843f 8d5b 733f 3ec7 733f 26b8 813f
000000c0: 2135 783f 47ff 833f 013f 7f3f 2c33 813f
000000d0: 034e 803f d81c 8a3f c250 7c3f 1665 723f
000000e0: 3a1e 803f c219 813f 14c7 733f 144d 833f
000000f0: 6244 763f 1006 763f 8893 733f e18b 863f

body.block2.norm.bias f4 [64]
0.14203154 0.037864394 -0.034399293 0.19845396 -0.057401262 0.02731875 -0.045368616 0.21607216
0.1405295 0.1541654 0.08754631 0.14274025 0.13331063 0.13199826 0.111388296 0.12414519
0.17876142 0.07739899 0.068663225 -0.052449852 0.021593392 0.19923528 0.04995104 0.04751061
0.03924007 0.028467214 0.18321547 0.13249463 -0.0106642 0.113800876 0.026428247 0.11607607
0.12898791 0.025347736 0.07502174 0.035211142 0.119636305 0.17720024 -0.05769832 0.09625715
0.2208987 0.06802087 -0.021776926 0.10087971 0.0028012714 0.092636995 0.044399675 0.07183758
0.00651174 0.09559916 0.1254998 0.024387764 0.051775083 0.15423517 0.101423785 0.051185723
0.06490001 0.014992174 0.07188751 0.14740139 -0.011161362 0.020321397 -0.007137952 0.046870563
00000000: b770 113e b217 1b3d 46e6 0cbd 8437 4b3e
00000010: 961d 6bbd 92cb df3c 71d4 39bd 0542 5d3e
00000020: f7e6 0f3e 89dd 1d3e 7b4b b33d 802a 123e
00000030: 9582 083e 8d2a 073e 8c1f e43d d53f fe3d
00000040: 3c0d 373e 5d83 9e3d 4e9f 8c3d a8d5 56bd
00000050: a0e4 b03c 5504 4c3e 7699 4c3d 7c9a 423d
00000060: 32ba 203d 1334 e93c d69c 3b3e acac 073e
00000070: e6b8 2ebc 6f10 e93d 0d80 d83c 4ab9 ed3d
00000080: 6815 043e 0ea6 cf3c ffa4 993d 8f39 103d
00000090: e103 f53d fb73 353e 1355 6cbd 7822 c53d
000000a0: 4533 623e 874e 8b3d 8665 b2bc 059a ce3d
000000b0: 8995 373b 77b8 bd3d 6fdc 353d 951f 933d
000000c0: 6f60 d53b 7ec9 c33d 0583 003e d9c8 c73c
000000d0: 1c12 543d d3ef 1d3e 46b7 cf3d 1fa8 513d
000000e0: 4cea 843d bca1 753c c239 933d 64f0 163e
000000f0: 25de 36bc 0f79 a63c 7be5 e9bb 59fb 3f3d

body.block2.norm.running_mean f4 [64]
1.0064908 0.08706785 1.8258538 0.3981024 0.95112646 0.15784651 0.03460972 -1.0213376
-0.3358945 -1.1055902 -0.58700705 0.5906986 -0.9743884 -0.23537263 1.2379844 0.10747026
0.0885115 0.19803455 -0.34909195 -0.2054305 1.2123979 -0.1332259 0.22029792 0.91477996
0.4252495 0.75386363 -0.61506146 0.9727438 1.3981413 -0.59710324 -0.20794155 -1.0315554
-0.0017614821 0.49391848 0.6383823 0.43281847 -0.5739755 0.016946493 0.27744964 -0.8038506
-0.21319471 0.39312673 0.80173326 0.5066064 1.8974129 0.44142124 0.63439345 0.29797763
-0.4280333 -0.7351774 0.020776944 1.2215018 1.2275486 -0.31465337 -0.057721317 0.46610233
1.1428485 1.1061163 1.2497942 -0.26067162 0.12657139 0.71646744 0.75545913 -0.33114177
00000000: b1d4 803f a150 b23d 94b5 e93f 14d4 cb3e
00000010: 067d 733f 84a2 213e ecc2 0d3d 31bb 82bf
00000020: 5dfa abbe fb83 8dbf 1846 16bf 0638 173f
00000030: 8571 79bf 8605 71be 4676 9e3f 5e19 dc3d
00000040: 8445 b53d 92c9 4a3e 2ebc b2be 5f5c 52be
00000050: db2f 9b3f 5f6c 08be c795 613e 052f 6a3f
00000060: 4dba d93e 35fd 403f ab74 1dbf bd05 793f
00000070: 4bf6 b23f c2db 18bf a1ee 54be 020a 84bf
00000080: 88e1 e6ba e2e2 fc3e 066d 233f 629a dd3e
00000090: 0ff0 12bf 5fd3 8a3c e10d 8e3e 27c9 4dbf
000000a0: b74f 5abe e847 c93e 643e 4d3f f5b0 013f
000000b0: 6dde f23f f701 e23e 9c67 223f 8690 983e
000000c0: 2e27 dbbe 9634 3cbf 6934 aa3c 2c5a 9c3f
000000d0: 5020 9d3f 3f1a a1be 306d 6cbd f7a4 ee3e
000000e0: dc48 923f 3895 8d3f 42f9 9f3f c076 85be
000000f0: ee9b 013e 696a 373f c565 413f 6a8b a9be

body.block2.norm.running_var f4 [64]
0.8896282 0.4978896 4.269623 0.7292041 2.3309886 2.720778 0.5609002 1.270617
1.6635977 1.779396 1.2337317 0.8469478 0.6230623 0.9595296 1.2629132 1.6224897
0.4544075 0.6726091 6.7022295 1.9813329 1.5219307 0.800096 0.50816983 3.7749803
1.312458 0.43118227 0.6590636 1.6080023 3.717662 1.2679169 0.4562286 1.6008803
0.8764888 1.0766033 2.134848 0.93448454 2.3284853 0.877947 1.2169906 3.6713657
0.86658823 1.5677223 2.2376409 1.4531735 8.703129 1.058333 1.6093338 0.84903157
1.8125846 1.5466086 2.011286 2.8191748 2.1545372 4.574608 1.1213491 1.6922129
1.4800912 1.159554 0.5559679 0.9201769 0.61721337 1.7350467 1.2537906 0.4050703
00000000: acbe 633f 63eb fe3e c0a0 8840 1fad 3a3f
00000010: eb2e 1540 3a21 2e40 2897 0f3f 94a3 a23f
00000020: c5f0 d43f 40c3 e33f ecea 9d3f 92d1 583f
00000030: 0381 1f3f bba3 753f 24a7 a13f bead cf3f
00000040: 1aa8 e83e 1c30 2c3f aa78 d640 519c fd3f
00000050: a0ce c23f 17d3 4c3f 6b17 023f 4799 7140
00000060: a0fe a73f ecc3 dc3e 64b8 283f 05d3 cd3f
00000070: 2dee 6d40 1a4b a23f cc96 e93e a5e9 cc3f
00000080: 9261 603f 23ce 893f 5aa1 0840 613a 6f3f
00000090: e705 1540 22c1 603f 59c6 9b3f a8f7 6a40
000000a0: bad8 5d3f 20ab c83f 8235 0f40 9701 ba3f
000000b0: 0440 0b41 7577 873f a6fe cd3f 225a 593f
000000c0: c602 e83f 45f7 c53f e9b8 0040 5c6d 3440
000000d0: f0e3 0940 3063 9240 5e88 8f3f 6f9a d83f
000000e0: a173 bd3f 446c 943f ea53 0e3f b790 6b3f
000000f0: b201 1e3f 0316 de3f 367c a03f 6065 cf3e

body.block3.conv.weight f4 [64, 64, 3, 3]
0.000906912 -0.016138168 -0.00048712658 -0.0010671223 -0.04396504 -0.029045401 -0.06554915 -0.06226856
-0.06337539 0.00060164696 0.03288686 0.022805821 0.010809162 -0.011934136 0.03927614 -0.007898639
-0.0063146907 0.0039437152 -0.02670767 -0.0025346745 -0.019942688 -0.017608367 -0.0010153014 0.017840024
-0.051638227 0.014475414 -0.006760707 -0.056982674 0.008479773 -0.01838087 0.03127201 -0.015267728
-0.047386482 0.051518682 0.00012463151 -0.0018495935 0.018435458 0.029697586 0.046349313 0.031631816
0.035886522 0.039157078 -0.015304078 0.039345965 0.021062825 -0.0060433038 -0.04325697 -0.013826533
-0.005399605 -0.018990135 0.0011263224 -0.036643036 -0.018441694 -0.068308465 0.0126560135 0.017418325
0.031193161 -0.006641796 -0.011631145 0.00028176382 0.0031038339 0.00078196236 0.047123298 0.020563647
0.019681465 -0.07252826 0.036497787 0.009970939 -0.06492767 0.009719549 -0.015632393 -0.0093875965
-0.0077238735 -0.0074085514 0.0032632626 -0.031857096 -0.0036568178 0.005037014 -0.00809321 0.034941845
0.040419888 0.050218623 0.04549508 0.030797742 0.02772475 0.04054077 0.0096789785 0.062051054
0.05083132 0.050723057 0.049130216 0.051395245 0.0439792 -0.014278471 0.04713528 0.047731258
0.023005253 0.016073758 0.032268483 -0.019412808 -0.013035311 -0.02429972 -0.06734909 0.026285265
-0.026913783 -0.013131026 0.042687006 0.02455919 0.050671123 0.05153157 0.034802843 0.04867042
0.051402286 0.011169733 -0.037054256 0.07668737 0.07077717 -0.07357266 0.00987581 0.041057423
-0.04794545 0.0056950045 0.034223836 -0.064347476 0.020342797 0.014552462 0.0011420996 -0.018048016
0.017167468 -0.043787558 -0.02093641 0.04174483 -0.01021931 0.002897885 0.015686957 -0.054079406
-0.024604805 0.043655865 0.005013239 0.031627003 0.009684239 -0.06307774 -0.020650348 -0.014189571
0.023961011 -0.00694474 0.080136865 0.010288903 -0.005836627 0.06700529 0.013525928 -0.015979841
0.037264355 0.013565988 0.020507017 0.011603937 0.004158861 0.004271421 0.018627394 -0.010712307
0.06575905 -0.016687563 0.037817974 -0.009611864 -0.0041644154 0.042441458 -0.015540963 0.041504804
0.033171043 -0.0013546223 0.0471635 -0.00071636593 0.028250456 -0.011604399 -0.016348349 -0.008934436
-0.024897926 -0.028763622 0.013404209 0.0002642732 -0.06088477 -0.028597614 0.011399138 0.012285335
-0.008691965 0.01348793 -0.030340414 -0.022004751 0.016822949 0.032862145 0.046559047 0.028891407
-0.013730054 0.032774016 0.026997136 0.0041872775 0.046310637 0.005004805 -0.015975699 0.016775494
-0.026651883 -0.009123993 -0.003914306 -0.011306448 -0.029931616 0.026130563 0.03454043 0.0322905
0.017728984 -0.016215393 -0.0067059635 0.008374517 0.03992951 -0.012202187 0.03913416 0.041527443
0.084020875 0.013637041 0.046801202 0.037407093 0.038828325 0.045415793 0.06598586 0.031745106
0.0072797798 -0.0074424646 0.05710066 0.059912946 -0.0016773582 0.039419778 0.0038331596 -0.01906818
0.01120201 -0.015584215 0.15688144 0.045338776 0.031011868 0.07223103 -0.011318515 0.043828864
0.11690651 0.065320544 0.06412783 -0.017677628 -0.012264504 0.04168612 0.030890435 -0.0015006758
-0.011799644 0.0015023928 0.03155214 0.010625325 0.009025268 -0.02736211 -0.013288844 -0.00647223
00000000: d6bd 6d3a 3134 84bc 0665 ffb9 afde 8bba
00000010: b014 34bd 9ff0 edbc a23e 86bd 510d 7fbd
00000020: f5ca 81bd d8b7 1d3a 5fb4 063d 46d3 ba3c
00000030: e918 313c 6587 43bc 05e0 203d 4b69 01bc
00000040: 77eb cebb 483a 813b 0bca dabc c81c 26bb
00000050: d95e a3bc 6c3f 90bc dd13 85ba 3e25 923c
00000060: 9b82 53bd 492a 6d3c ec88 ddbb aa66 69bd
00000070: bfee 0a3c 7a93 96bc 1417 003d 7e25 7abc
00000080: 5418 42bd 4105 533d 84af 0239 0f6e f2ba
00000090: f505 973c 5a48 f33c c7d8 3d3d 5d90 013d
000000a0: bffd 123d 2c63 203d f5bd 7abc 3c29 213d
000000b0: f28b ac3c e806 c6bb 382e 31bd af88 62bc
000000c0: 2bef b0bb 3391 9bbc 1ca1 933a 0217 16bd
000000d0: 0913 97bc 4fe5 8bbd 2b5b 4f3c e0b0 8e3c
000000e0: cd88 ff3c 6ca3 d9bb 8f90 3ebc b3b9 9339
000000f0: b169 4b3b 9bfc 4c3a 5c04 413d 1875 a83c
00000100: 063b a13c b289 94bd b47e 153d 265d 233c
00000110: ccf8 84bd be3e 1f3c 810f 80bc 6fce 19bc
00000120: 8c18 fdbb 6fc3 f2bb 76dc 553b 967c 02bd
00000130: 39a7 6fbb 890d a53b 6299 04bc 2e1f 0f3d
00000140: 538f 253d 0bb2 4d3d 0d59 3a3d 8c4b fc3c
00000150: 041f e33c 140e 263d 9494 1e3c 3f29 7e3d
00000160: 8134 503d fbc2 4f3d c43c 493d d283 523d
00000170: 8923 343d 3ff0 69bc ec10 413d da81 433d
00000180: 8375 bc3c 1dad 833c f52b 043d 9c07 9fbc
00000190: 0f92 55bc 3510 c7bc 52ee 89bd 3254 d73c
000001a0: 4b7a dcbc 8423 57bc 92d8 2e3d 5b30 c93c
000001b0: 868c 4f3d c412 533d 6d8d 0e3d a25a 473d
000001c0: 348b 523d 4101 373c 34c6 17bd 450e 9d3d
000001d0: 9ff3 903d 43ad 96bd 26ce 213c d42b 283d
000001e0: 7362 44bd 299d ba3b 4b2e 0c3d 9cc8 83bd
000001f0: f0a5 a63c 736d 6e3c 81b2 953a 6fd9 93bc
00000200: caa2 8c3c 955a 33bd d682 abbc a0fc 2a3d
00000210: e56e 27bc 71ea 3d3b ef81 803c 5e82 5dbd
00000220: 0490 c9bc 7ed0 323d 1946 a43b 518b 013d
00000230: a4aa 1e3c e72e 81bd eb2a a9bc 607b 68bc
00000240: e249 c43c b490 e3bb cc1e a43d c992 283c
00000250: 2d41 bfbb 123a 893d db9b 5d3c 28e8 82bc
00000260: 82a2 183d e143 5e3c 55fe a73c 701e 3e3c
00000270: 0e47 883b 47f7 8b3b 7a98 983c ac82 2fbc
00000280: aeac 863d 5bb4 88bc 05e7 1a3d 147b 1dbc
00000290: a675 88bb 18d7 2d3d 869f 7ebc f100 2a3d
000002a0: 5cde 073d 958d b1ba 842e 413d 81ca 3bba
000002b0: 806d e73c 6120 3ebc f9ec 85bc be61 12bc
000002c0: bcf6 cbbc b0a1 ebbc 549d 5b3c 268e 8a39
000002d0: 4f62 79bd 8b45 eabc 73c3 3a3c 6e48 493c
000002e0: be68 0ebc 7bfc 5c3c 768c f8bc 4f43 b4bc
000002f0: 48d0 893c 759a 063d b3b4 3e3d acad ec3c
00000300: 05f4 60bc 0c3e 063d 1929 dd3c 6e35 893b
00000310: 39b0 3d3d 59ff a33b 78df 82bc c36c 893c
00000320: 0d55 dabc cd7c 15bc 9443 80bb ae3e 39bc
00000330: 2633 f5bc c30f d63c 447a 0d3d 0b43 043d
00000340: 603c 913c 25d6 84bc b3bd dbbb 4535 093c
00000350: 208d 233d afeb 47bc 244b 203d ae18 2a3d
00000360: 2313 ac3d e56d 5f3c 9eb2 3f3d 2e38 193d
00000370: 730a 1f3d e905 3a3d 9823 873d 2807 023d
00000380: 388b ee3b ebdf f3bb 62e2 693d 4767 753d
00000390: cdda dbba a276 213d bf35 7b3b df34 9cbc
000003a0: a388 373c ef54 7fbc 87a5 203e 27b5 393d
000003b0: 9a0c fe3c dded 933d 4b71 39bc e585 333d
000003c0: ae6c ef3d c7c6 853d 7455 833d acd0 90bc
000003d0: 0ff1 48bc 11bf 2a3d f00d fd3c 53b2 c4ba
000003e0: 4b53 41bc f0eb c43a d13c 013d d815 2e3c
000003f0: b8de 133c 8126 e0bc 74b9 59bc 0015 d4bb

body.block3.conv.bias f4 [64]
0.0038282177 0.019133324 -0.023080138 0.035904434 0.0060691657 0.035746925 -0.027593307 -0.03566368
0.04424773 -0.008195932 0.011975762 -0.017473727 0.02284736 -0.019600261 0.009475536 -0.017049544
-0.03153401 -0.027353035 0.019143965 0.03516373 -0.0021691727 0.0269526 -0.00862875 0.0030782716
0.044271313 0.022816839 0.028843407 -0.005683405 -0.027088365 0.0016306501 0.002758968 -0.030951798
0.007119397 0.016355498 -0.009603422 -0.04811315 0.013149618 0.035205234 0.03879867 0.0077649774
0.0076236385 -0.0011155149 -0.04106781 0.0017662097 0.02103113 0.022704603 -0.022608344 -0.014794897
-0.008087335 0.029135827 -0.04594442 -0.06250071 -0.01352417 0.03931387 -0.0007878647 -0.008130392
-0.00034599088 -0.0002238359 0.009119045 -0.005043176 -0.023920165 -0.02775605 0.03782907 0.014192669
00000000: d6e2 7a3b 7dbd 9c3c 8f12 bdbc 8710 133d
00000010: dadf c63b 5e6b 123d 5c0b e2bc 1414 12bd
00000020: 1c3d 353d 3b48 06bc fd35 443c 1025 8fbc
00000030: 632a bb3c ba90 a0bc 473f 1b3c 7cab 8bbc
00000040: ce29 01bd 7913 e0bc ced3 9c3c d807 103d
00000050: ae28 0ebb b3cb dc3c 9a5f 0dbc d4bc 493b
00000060: d655 353d 61ea ba3c 0249 ec3c db3b babb
00000070: 6be8 ddbc 8abb d53a cdcf 343b a08e fdbc
00000080: d549 e93b f7fb 853c ac57 1dbc 4b12 45bd
00000090: 7f71 573c 5d33 103d 5beb 1e3d 5a71 fe3b
000000a0: b7cf f93b 7836 92ba b836 28bd 2a80 e73a
000000b0: 7a49 ac3c 01ff b93c 2235 b9bc 4c66 72bc
000000c0: be80 04bc 42ae ee3c 3730 3cbd 5f00 80bd
000000d0: 7b94 5dbc 9507 213d b488 4eba 5635 05bc
000000e0: 1c66 b5b9 7eb5 6ab9 0c68 153c 3a41 a5bb
000000f0: 39f4 c3bc a860 e3bc a8f2 1a3d 5e88 683c
