TrainedModels/0035-sample/scale_factor=0.850000,alpha=10/1/netG.pth (torch, 130902 bytes, 26 tensors)

head.conv.weight f4 [32, 4, 3, 3]
-0.026004177 -0.011261713 -0.029328248 -0.052594367 -0.04065851 0.004978397 0.0706389 -0.013940515
-0.017357444 0.015289647 -0.009013529 0.017435212 0.0088966675 0.01869206 -0.014038788 0.117229685
0.008028113 0.018830389 -0.007747258 -0.009432803 0.04098273 0.014791229 -0.008266105 -0.010008406
0.07744784 -0.004542876 -0.004926963 0.00034943802 -0.0115320245 0.0063413884 0.030990226 -0.024829602
0.016076108 0.094996594 -0.018079193 -0.005625822 0.014137763 -0.014339365 -0.007128445 0.0038100649
0.012962835 -0.010591999 -0.017378429 0.012172749 0.005289802 0.013770813 0.0134080695 -0.012218605
0.00010551927 0.040531658 -0.043557927 -0.034371063 0.0064002606 0.01238204 0.05732128 0.04322779
0.00070979784 -0.013600458 0.00876005 -0.033012595 -0.07932958 0.017877046 0.0109596485 -0.055528626
-0.05072623 0.0072268425 0.0035945 0.060349297 -0.009066041 -0.04347775 0.05242686 0.0054432363
-0.042407755 -0.016830921 -0.014311456 -0.0751257 -0.048162036 -0.04244849 -0.026863657 -0.06869451
0.012938929 0.048635267 0.034671098 -0.0069451574 0.022559632 0.005159671 -0.044028696 -0.050218068
-0.005688031 0.0017418328 0.055873588 -0.012154501 -0.023757927 0.04891234 0.008898109 -0.060777187
-0.01856892 -0.0024463516 0.050210454 -0.047790132 -0.0076454976 0.028170113 0.004328446 0.027854363
-0.026955344 0.08359985 0.030065125 0.056540783 -0.00040567917 0.027443485 0.06590015 0.0011066867
0.015024987 0.0287011 0.01141863 0.0071295938 -0.03478458 0.008004646 0.020856967 0.059799764
-0.020283325 -0.02374469 0.011586069 -0.040096894 -0.07028414 -0.07116059 -0.005571556 0.015386938
0.06982515 -0.0078024436 -0.03245256 -0.044548456 0.005687129 0.014276003 -0.05250313 -0.026608203
-0.044134106 0.019639922 -0.022315029 0.029711215 0.023205196 -0.0027740651 0.009371312 -0.09658307
-0.02757199 -0.014436865 0.009356383 -0.04520858 -0.044199955 -0.005569727 -0.08436374 -0.027618466
0.061310824 -0.0050908537 0.0002173061 -0.03758897 -0.008352946 -0.008213328 -0.04180474 -0.0016832255
-0.031154618 0.033821862 0.022361252 0.04334345 0.0020169232 -0.050395116 0.004112111 -0.008980078
-0.028616698 -0.011837516 0.082024336 -0.025927072 0.006125479 -0.0027807169 0.01755786 0.026217515
0.00019460822 -0.012599396 0.012192847 0.050936677 -0.0055573457 0.010310667 0.04632703 0.034178175
0.042123947 0.007798942 0.017432421 -0.005610259 -0.008073668 -0.007121241 -0.030126464 0.05502777
0.0068469327 0.010124387 0.015121029 0.013514449 0.0069076084 0.013123522 -0.005983411 -0.02108631
0.09529373 0.030080862 -0.029161172 0.002280905 0.029317077 -0.024036603 -0.004134772 -0.008682458
-0.08459112 0.015282569 -0.03578322 -0.017315941 -0.022705656 -0.023083534 0.00788493 -0.037751626
-0.07964537 0.007646171 -0.0017755642 -0.004002371 -0.010921929 -0.001600761 -0.021007739 -0.005765677
-0.02935639 -0.0017347421 0.045722738 0.011393151 0.040998124 0.033044603 0.0031329868 0.004326892
0.041507207 0.0052572256 -0.07298436 0.061119225 -0.0043905224 -0.011840698 0.009063244 -0.037621435
-0.036406346 0.001008755 -0.014345832 -0.09417597 -0.0063566254 0.035403386 -0.004785789 0.039858606
0.038161527 0.017219277 -0.004411262 0.0101642925 -0.022368357 -0.016778922 0.041118477 -0.020233596
00000000: b606 d5bc 0c83 38bc cb41 f0bc 316d 57bd
00000010: 8a89 26bd d221 a33b 21ab 903d c266 64bc
00000020: 3331 8ebc 6d81 7a3c 7bad 13bc 4ad4 8e3c
00000030: 54c3 113c 1720 993c f202 66bc 1e16 f03d
00000040: 5988 033c 3042 9a3c b6dc fdbb 0b8c 1abc
00000050: 82dd 273d e956 723c 8f6e 07bc 4cfa 23bc
00000060: f99c 9e3d 68dc 94bb 5c72 a1bb c734 b739
00000070: d1f0 3cbc 6ccb cf3b 37df fd3c 7367 cbbc
00000080: 0bb2 833c 938d c23d d11a 94bc d158 b8bb
00000090: 13a2 673c a8ef 6abc bb95 e9bb 48b2 793b
000000a0: 1262 543c 108a 2dbc 355d 8ebc 3670 473c
000000b0: 1356 ad3b fa9e 613c 85ad 5b3c 8b30 48bc
000000c0: 3a4a dd38 8604 263d cc69 32bd acc8 0cbd
000000d0: 47b9 d13b 0ade 4a3c b8c9 6a3d a00f 313d
000000e0: ba11 3a3a 75d4 5ebc 5086 0f3c 3738 07bd
000000f0: 8c77 a2bd e272 923c 1990 333c fc71 63bd
00000100: 4fc6 4fbd 26cf ec3b b491 6b3b d330 773d
00000110: bb89 14bc ba15 32bd 8cbd 563d 2d5d b23b
00000120: c1b3 2dbd 00e1 89bc 997a 6abc 81db 99bd
00000130: 8e45 45bd 78de 2dbd 2c11 dcbc b5af 8cbd
00000140: cdfd 533c c635 473d 4803 0e3d 3494 e3bb
00000150: face b83c 7512 a93b 6f57 34bd 76b1 4dbd
00000160: aa62 babb 364e e43a b4db 643d ac23 47bc
00000170: fc9f c2bc 4e58 483d 60c9 113c 80f1 78bd
00000180: d91d 98bc f852 20bb 7aa9 4d3d 96bf 43bd
00000190: 1587 fabb 02c5 e63c a3d5 8d3b d52e e43c
000001a0: 74d1 dcbc 6636 ab3d 234b f63c 4f97 673d
000001b0: 56b1 d4b9 29d1 e03c a8f6 863d 3e0e 913a
000001c0: 5d2b 763c 921e eb3c 3515 3b3c 5e9f e93b
000001d0: 477a 0ebd eb25 033c 3bdc aa3c 99f0 743d
000001e0: 3729 a6bc 3984 c2bc 7fd3 3d3c a43c 24bd
000001f0: 22f1 8fbd a5bc 91bd 9991 b6bb 7f19 7c3c
00000200: 7d00 8f3d a4ab ffbb faec 04bd 7178 36bd
00000210: 195b ba3b e6e5 693c 860d 57bd 72f9 d9bc
00000220: f7c5 34bd e7e3 a03c 02ce b6bc ef64 f33c
00000230: d318 be3c 17cd 35bb 228a 193c 58cd c5bd
00000240: a7de e1bc 9a88 6cbc 844b 193c a22c 39bd
00000250: 030b 35bd 4282 b6bb e6c6 acbd 1f40 e2bc
00000260: 0f21 7b3d 2dd1 a6bb a9dc 6339 e4f6 19bd
00000270: cbda 08bc 3291 06bc 723b 2bbd ad9f dcba
00000280: f837 ffbc cb88 0a3d f22e b73c e788 313d
00000290: 5b2e 043b 1c6b 4ebd e3be 863b 2d21 13bc
000002a0: 916d eabc 24f2 41bc 60fc a73d 0365 d4bc
000002b0: 3eb8 c83b b03c 36bb 80d5 8f3c 1dc6 d63c
000002c0: bf0f 4c39 b26d 4ebc 82c4 473c faa2 503d
000002d0: 651a b6bb 12ee 283c 69c1 3d3d 6afe 0b3d
000002e0: 298a 2c3d 448e ff3b 70ce 8e3c 43d6 b7bb
000002f0: 6b47 04bc 4d59 e9bb c6cb f6bc cd64 613d
00000300: 3c5c e03b c2e0 253c 31be 773c b56b 5d3c
00000310: 3859 e23b 0a04 573c 7d10 c4bb 32bd acbc
00000320: 5c29 c33d 246c f63c 69e3 eebc 3c7b 153b
00000330: 5e2a f03c 69e8 c4bc fb7c 87bb de40 0ebc
00000340: 1c3e adbd be63 7a3c 6d91 12bd 29da 8dbc
00000350: 3601 babc ae19 bdbc cb2f 013c 73a1 1abd
00000360: 1d1d a3bd bb8c fa3b 0cba e8ba 5226 83bb
00000370: e4f1 32bc a0d0 d1ba 6c18 acbc 01ee bcbb
00000380: d07c f0bc 4960 e3ba c447 3b3d 57aa 3a3c
00000390: a6ed 273d c759 073d cc52 4d3b 9ac8 8d3b
000003a0: 7603 2a3d ce44 ac3b d378 95bd 2758 7a3d
000003b0: 5fde 8fbb 7dff 41bc 007e 143c ef18 1abd
000003c0: d21e 15bd 3338 843a c80a 6bbc 55df c0bd
000003d0: 3d4b d0bb 2403 113d 1cd2 9cbb c742 233d
000003e0: 434f 1c3d 710f 8d3c 598c 90bb 2288 263c
000003f0: d83d b7bc f373 89bc d96b 283d edc0 a5bc

head.conv.bias f4 [32]
0.0147224255 -0.12665977 0.06491094 0.104085915 -0.14543568 -0.17486237 0.14590137 0.11539795
-0.0784405 -0.18752858 0.0042265765 -0.005058779 -0.12444638 0.1353399 0.0901439 0.022250194
-0.016101312 0.11272757 0.13933966 -0.057189345 0.1823236 -0.07902565 -0.09751963 -0.0028844557
-0.023746336 -0.08405285 0.077607885 -0.054206107 0.082910754 0.0011090776 -0.03343243 -0.102282465
00000000: 5436 713c 19b3 01be 07f0 843d ff2a d53d
00000010: 17ed 14be 1f0f 33be 2b67 153e c355 ec3d
00000020: 6aa5 a0bd 7e07 40be 187f 8a3b 1dc4 a5bb
00000030: bedd febd 8b96 0a3e 5d9d b83d 0a46 b63c
00000040: e6e6 83bc b6dd e63d 0eaf 0e3e 603f 6abd
00000050: 0ab3 3a3e 33d8 a1bd 5fb8 c7bd 2309 3dbb
00000060: ad87 c2bc e723 acbd e2f0 9e3d 3907 5ebd
00000070: 1dcd a93d 785e 913a 72f0 08bd 7879 d1bd

head.norm.weight f4 [32]
0.9556802 0.9070499 1.0543716 0.97740126 0.92833674 0.94422525 0.9907501 1.0035052
0.97865057 0.9738328 1.0466771 0.9861354 1.0236363 0.9604773 1.0886754 1.0706195
1.0736034 0.96182764 1.0274161 0.9348893 0.9705407 0.9665969 0.92088383 1.0424687
1.0164315 1.001454 0.9339693 1.0839856 1.0376686 0.96752536 0.9635146 1.0299711
00000000: 75a7 743f 6c34 683f a6f5 863f f836 7a3f
00000010: 7aa7 6d3f bfb8 713f cca1 7d3f dc72 803f
00000020: d888 7a3f 1b4d 793f 84f9 853f 5f73 7c3f
00000030: 8406 833f d7e1 753f b759 8b3f 0f0a 893f
00000040: d66b 893f 563a 763f 5f82 833f e854 6f3f
00000050: 5b75 783f e572 773f 0bbf 6b3f 9d6f 853f
00000060: 6d1a 823f a52f 803f 9d18 6f3f 0ac0 8a3f
00000070: 53d2 843f beaf 773f e5a8 763f 18d6 833f

head.norm.bias f4 [32]
-0.040138405 -0.11501384 -0.009531354 -0.061703462 -0.08173128 -0.050616764 -0.07743444 -0.0122079905
-0.008192947 -0.003223084 -0.01742677 -0.04280231 0.013441302 -0.06465228 -0.015422828 -0.03991337
-0.009007858 -0.09405859 -0.053577457 0.006365996 -0.06385858 -0.0017536563 -0.009714657 -0.035654828
-0.033521328 -0.08803613 -0.022433648 -0.026475104 -0.027400749 -0.0008526808 0.033485584 0.037131634
00000000: 2b68 24bd 608c ebbd 6529 1cbc c5bc 7cbd
00000010: bb62 a7bd 8653 4fbd f395 9ebd 0604 48bc
00000020: b63b 06bc 603a 53bb 96c2 8ebc 7a51 2fbd
00000030: e838 5c3c 6a68 84bd 07b0 7cbc 347c 23bd
00000040: b295 13bc caa1 c0bd 0974 5bbd d899 d03b
00000050: 4ac8 82bd f1da e5ba 3a2a 1fbc cc0a 12bd
00000060: a94d 09bd 494c b4bd c5c6 b7bc 51e2 d8bc
00000070: 8977 e0bc 7186 5fba 2e28 093d 5717 183d

head.norm.running_mean f4 [32]
-0.02222431 -0.12308919 0.14623472 0.11890693 -0.07425209 -0.22710596 0.1569311 0.16209377
-0.060572144 -0.21197096 0.12902369 0.07445647 -0.14076552 0.1666233 0.120826244 0.040400967
0.124201775 0.12828086 0.024876993 -0.07335232 0.18118139 -0.11086779 -0.086526744 -0.023224652
0.061389145 -0.16470338 0.09102367 -0.011936706 0.06472963 0.020368192 -0.075043604 -0.13723959
00000000: c20f b6bc 2f16 fcbd 8ebe 153e 7a85 f33d
00000010: 7b11 98bd 778e 68be 8cb2 203e e9fb 253e
00000020: 7f1a 78bd ea0e 59be c91e 043e a27c 983d
00000030: d624 10be 4c9f 2a3e c073 f73d 7c7b 253d
00000040: 805d fe3d 0f5c 033e d6ca cb3c be39 96bd
00000050: 9d87 393e a70e e3bd ef34 b1bd a041 bebc
00000060: 2f73 7b3d 01a8 28be 9e6a ba3d 2c92 43bc
00000070: f890 843d 32db a63c 76b0 99bd 8988 0cbe

head.norm.running_var f4 [32]
0.004828544 0.00137501 0.008527337 0.0046067256 0.0055016503 0.01066589 0.002395827 0.0077817366
0.0006421383 0.0031378956 0.037939955 0.004480523 0.010195581 0.005752774 0.0079367375 0.011932014
0.022398684 0.00171138 0.017284751 0.0050609023 0.0013881992 0.004045382 0.0022297716 0.011895607
0.015383252 0.005234707 0.0012668585 0.0056179995 0.00750443 0.0043659187 0.0044243475 0.0022237499
00000000: c338 9e3b ae39 b43a 3eb6 0b3c 04f4 963b
00000010: 3047 b43b fcbf 2e3c 4f03 1d3b f0fd fe3b
00000020: 2c55 283a 27a5 4d3b ed66 1b3d 5ad1 923b
00000030: 5e0b 273c c481 bc3b 1709 023c 7e7e 433c
00000040: 727d b73c 6250 e03a c098 8d3c edd5 a53b
00000050: 3cf4 b53a 208f 843b 5c21 123b cbe5 423c
00000060: 090a 7c3c e887 ab3b b80c a63a 3217 b83b
00000070: b9e7 f53b fb0f 8f3b 1efa 903b 55bc 113b

body.block1.conv.weight f4 [32, 32, 3, 3]
0.019166175 0.007151718 0.016424047 0.0018630803 0.05526091 0.01409461 0.026615242 0.024226747
-0.017923703 -0.007516358 -0.021674963 0.002315305 -0.0073394612 0.008900544 0.02419509 0.00944364
-0.004842022 0.041725054 0.03071747 0.038711686 -0.061969776 0.014329195 -0.008676518 -0.02861432
-0.014560466 -0.029198457 -0.11759667 0.02100899 -0.00967346 -0.033533536 -0.010864724 -0.027953064
-0.05170477 -0.009948217 -0.0014887261 -0.032945093 0.024380134 -0.009568622 -0.0007733388 0.011583244
-0.002056689 -0.02243586 -0.056617115 0.022532342 -0.0295645 -0.029562857 9.295713e-05 -0.043505944
0.012103568 -0.002256088 0.03566419 -0.011742717 -0.008200684 0.01393454 -0.03205424 -0.041722685
-0.011818464 0.013045227 -0.037535235 0.0072822645 -0.025526052 -0.0058225533 0.002361723 0.024238875
-0.05006052 -0.09321425 0.018580036 -0.013730656 -0.042467862 -0.003960677 0.046145033 -0.04706423
0.019099558 -0.0015060388 -0.02132653 0.031617843 -0.029709527 -0.025473239 -0.00096740696 0.0142753795
-0.0075656213 0.042575363 -0.030780202 -0.031251263 -0.0061967294 0.028303564 0.048069786 -0.04656587
-0.047956936 -0.010057036 -0.014688168 -0.034858968 -0.0044640405 0.015339717 0.04490937 -0.012182042
-0.036718894 -0.011361541 -0.0018760705 -0.037231535 -0.017021177 -0.0068444163 -0.063949674 -0.026822496
-0.0453521 0.01418652 0.011979251 0.020496715 0.018166022 -0.02349448 -0.03191761 0.0725777
0.045078095 -0.026645772 0.0035456102 -0.0126362 -0.0803244 -0.024484688 0.0050235144 -0.0014828417
0.02349279 -0.01705971 0.034058817 -0.010743863 0.003665806 0.006046981 -0.037141923 -0.04756004
-0.16303639 -0.03339331 0.0050024353 -0.05527112 -0.02328681 0.021559387 -0.012897171 0.011473197
0.0017420973 -0.02440012 -0.003946539 -0.02771638 -0.06599206 0.021939069 0.016546633 -0.030901134
0.009146646 -0.003561282 -0.08282303 0.04839531 0.0190271 -0.013940719 -0.01825261 -0.03851444
-0.0874409 -0.0067888997 -0.017967377 0.024868462 -0.018349834 0.0074589564 0.04494063 -0.022698438
-1.0280606e-05 0.018084327 -0.054114316 -0.026074309 -0.0017444665 0.033429828 0.034506902 -0.003929738
0.020373413 0.009368545 0.048652478 0.030618204 0.04213084 -0.019487796 0.043401256 0.018722529
-0.0072087757 0.017259957 -0.0038940874 -0.024875376 -0.01893441 -0.008893177 -0.05055242 0.027014324
0.034750782 -0.018644834 0.02767206 0.02054961 0.027314976 -0.011090815 -0.046553705 -0.0016360581
-0.031964414 0.011720611 0.031931687 0.0071253907 -0.00072809344 0.030129218 0.062277287 0.025889872
0.012970974 -0.00070038653 0.009723857 -0.02439393 -0.019584563 -0.0065416093 -0.040468667 -0.022516225
-0.028735438 -0.11305549 0.039660838 -0.012551708 -0.067468636 -0.029902771 0.043373816 -0.048216965
-0.024589496 -0.033212095 -0.10084779 -0.012157171 -0.024466116 0.0033028664 -0.01460823 -0.021217603
-0.06462843 0.03581609 0.026156636 0.0061717425 0.016375707 -0.021000002 0.0053048534 0.038765337
0.022601107 0.070363574 0.015357546 0.0052240323 -0.006991759 -0.019941585 -0.017477399 0.00484996
-0.008181665 -0.032796554 -0.006076576 -0.013906898 -0.01806596 -0.0023845874 -0.017841786 -0.036301587
-0.030345872 -0.021400858 0.031404074 0.0011620107 0.03084076 -0.01821875 -0.10560123 0.015622535
00000000: 6202 9d3c f558 ea3b b98b 863c 9a32 f43a
00000010: 4459 623d 14ed 663c 3508 da3c 2c77 c63c
00000020: bbd4 92bc c84b f6bb b18f b1bc 5fbc 173b
00000030: dd7f f0bb 96d3 113c c834 c63c 7fb9 1a3c
00000040: d3a9 9ebb e4e7 2a3d 34a3 fb3c 2590 1e3d
00000050: 05d4 7dbd 00c5 6a3c f427 0ebc 9468 eabc
00000060: 058f 6ebc 9a31 efbc 86d6 f0bd 0c1b ac3c
00000070: 6f7d 1ebc 765a 09bd f501 32bc d3fd e4bc
00000080: 62c8 53bd d9fd 22bc 5c21 c3ba 6ff1 06bd
00000090: d9b8 c73c b6c5 1cbc e3b9 4aba a6c7 3d3c
000000a0: 84c9 06bb 69cb b7bc 59e7 67bd bf95 b83c
000000b0: 4031 f2bc ce2d f2bc fbf1 c238 4a33 32bd
000000c0: 0b4e 463c e0da 13bb 9d14 123d 8664 40bc
000000d0: 295c 06bc b24d 643c 4f4b 03bd 68e5 2abd
000000e0: 3ba2 41bc a6bb 553c 8cbe 19bd 10a0 ee3b
000000f0: 031c d1bc 1ecb bebb 23c7 1a3b 9b90 c63c
00000100: 430c 4dbd 1de7 bebd 2935 983c 8cf6 60bc
00000110: c8f2 2dbd 91c8 81bb 9302 3d3d 6cc6 40bd
00000120: ad76 9c3c 4766 c5ba fab4 aebc b681 013d
00000130: 6561 f3bc 41ad d0bc 9599 7dba 48e3 693c
00000140: 08e9 f7bb 8163 2e3d c326 fcbc 5301 00bd
00000150: ef0d cbbb e0dc e73c d3e4 443d dbbb 3ebd
00000160: 7e6e 44bd 44c6 24bc a4a6 70bc 47c8 0ebd
00000170: 1647 92bb 7053 7b3c e3f2 373d 3097 47bc
00000180: 8d66 16bd c225 3abc 7be6 f5ba 1880 18bd
00000190: ff6f 8bbc 2047 e0bb 0cf8 82bd daba dbbc
000001a0: 20c3 39bd 946e 683c 9f44 443c bae8 a73c
000001b0: e9d0 943c 7f77 c0bc 0abc 02bd 9ea3 943d
000001c0: cfa3 383d 3c48 dabc 785d 683b 1008 4fbc
000001d0: 1e81 a4bd 1d94 c8bc 4b9c a43b e95b c2ba
000001e0: f473 c03c cec0 8bbc 4281 0b3d 0707 30bc
000001f0: 053e 703b c125 c63b 2122 18bd 51ce 42bd
00000200: 03f3 26be 6cc7 08bd 78eb a33b f863 62bd
00000210: fbc3 bebc 509d b03c a84e 53bc 13fa 3b3c
00000220: 1657 e43a c3e2 c7bc f851 81bb 760d e3bc
00000230: d826 87bd 90b9 b33c ce8c 873c 6024 fdbc
00000240: d0db 153c 6664 69bb 1f9f a9bd 293a 463d
00000250: b9de 9b3c 9d67 64bc 7f86 95bc 51c1 1dbd
00000260: 3714 b3bd 6b75 debb 5230 93bc f2b8 cb3c
00000270: 6452 96bc 436a f43b ab13 383d 13f2 b9bc
00000280: de7a 2cb7 9525 943c f9a6 5dbd ca99 d5bc
00000290: 95a6 e4ba b7ed 083d 1c57 0d3d 08c5 80bb
000002a0: 25e6 a63c 877e 193c d247 473d 07d3 fa3c
000002b0: 6391 2c3d dfa4 9fbc 84c5 313d fd5f 993c
000002c0: 9837 ecbb c164 8d3c f233 7fbb 72c7 cbbc
000002d0: 561c 9bbc b0b4 11bc 0e10 4fbd 254d dd3c
000002e0: d656 0e3d 0dbd 98bc 84b0 e23c a857 a83c
000002f0: a8c3 df3c 40b6 35bc 19af 3ebd 0071 d6ba
00000300: 1eed 02bd ce07 403c cdca 023d 1c7c e93b
00000310: 86dd 3eba 8dd1 f63c 7816 7f3d ff16 d43c
00000320: 3584 543c 259a 37ba d050 1f3c c7d5 c7bc
00000330: ce6f a0bc ff5a d6bb 79c2 25bd f273 b8bc
00000340: 9566 ebbc a389 e7bd 6773 223d aea5 4dbc
00000350: ff2c 8abd a8f6 f4bc bea8 313d 277f 45bd
00000360: e96f c9bc 6809 08bd 4989 cebd df2e 47bc
00000370: 2a6d c8bc e774 583b 5c57 6fbc 8ad0 adbc
00000380: e95b 84bd e4b3 123d 7146 d63c 543c ca3b
00000390: 5926 863c 3208 acbc 56d4 ad3b 67c8 1e3d
000003a0: f525 b93c c71a 903d 379e 7b3c 5c2e ab3b
000003b0: 201b e5bb 895c a3bc c32c 8fbc 6aec 9e3b
000003c0: 640c 06bc ae55 06bd 041e c7bb c2d9 63bc
000003d0: 10ff 93bc bd46 1cbb f028 92bc f9b0 14bd
000003e0: e897 f8bc da50 afbc 8fa1 003d 9c4e 983a
000003f0: c3a5 fc3c 7d3f 95bc 7545 d8bd a9f5 7f3c

body.block1.conv.bias f4 [32]
-0.06323314 0.001073241 0.003847092 -0.06080329 -0.001602396 0.0019159488 0.070705764 -0.024923246
0.009325343 0.007425313 0.049647752 -0.024362165 -0.07281409 -0.037631985 -0.032338593 0.05324323
0.047360767 0.08416792 0.038743276 -0.071708806 -0.009253318 0.06099 -0.04150282 -0.07951378
-0.062094644 -0.07563042 0.040585652 -0.074905396 -0.0027273835 0.011434782 -0.068404235 0.0017308331
00000000: 6080 81bd feab 8c3a 7e1f 7c3b df0c 79bd
00000010: 7d07 d2ba 9320 fb3a 2fce 903d d62b ccbc
00000020: 53c9 183c 0a50 f33b 715b 4b3d 2a93 c7bc
00000030: 8e1f 95bd ff23 1abd 7975 04bd 9315 5a3d
00000040: 5dfd 413d 3b60 ac3d 45b1 1e3d 11dc 92bd
00000050: 3b9b 17bc a6d0 793d dcfe 29bd 1fd8 a2bd
00000060: f456 7ebd 1fe4 9abd 243d 263d 0068 99bd
00000070: e7bd 32bb f458 3b3c 8517 8cbd 1fdd e23a

body.block1.norm.weight f4 [32]
0.9967231 0.98650295 1.0221595 1.1080537 1.0019976 1.145015 0.9859989 1.1077348
1.0929048 0.99235356 0.9217547 1.0254155 1.0661179 0.9386098 0.97483957 0.9663249
1.0213568 0.9587509 0.9745066 0.9036836 0.957924 0.9450437 0.93882346 1.07267
0.8968654 0.9953594 0.91982913 0.91572857 1.0721225 0.9398222 1.0049171 0.9720447
00000000: 3f29 7f3f 758b 7c3f 1fd6 823f b4d4 8d3f
00000010: 7541 803f da8f 923f 6d6a 7c3f 41ca 8d3f
00000020: 4ee4 8b3f e20a 7e3f 1ef8 6b3f d140 833f
00000030: 8d76 883f bb48 703f 168f 793f 1261 773f
00000040: d2bb 823f b370 753f 4479 793f cf57 673f
00000050: 823a 753f 62ee 713f bc56 703f 404d 893f
00000060: f998 653f e0cf 7e3f ec79 6b3f 306d 6a3f
00000070: 4f3b 893f 3098 703f 20a1 803f ecd7 783f

body.block1.norm.bias f4 [32]
-0.06381515 -0.071136065 -0.0014295343 -0.12613718 -0.04747747 -0.108171985 0.0026597686 -0.07271118
-0.046191208 -0.047769748 -0.08329904 -0.10363144 -0.020510664 -0.02931324 -0.0027663258 -0.014721547
-0.023826562 0.036486056 -0.0019330042 -0.013552464 -0.064125225 -0.05569261 -0.14030209 0.0010212265
-0.0762232 -0.052647986 -0.08270442 -0.033778764 -0.13186331 -0.097804986 -0.057650637 -0.023553073
00000000: 84b1 82bd c9af 91bd 365f bbba 1b2a 01be
00000010: bc77 42bd 4689 ddbd 834f 2e3b 99e9 94bd
00000020: fe32 3dbd 36aa 43bd b098 aabd b83c d4bd
00000030: fb05 a8bc 5222 f0bc 3f4b 35bb a532 71bc
00000040: ec2f c3bc 6772 153d dc5c fdba 270b 5ebc
00000050: 1654 83bd ef1d 64bd 5aab 0fbe adda 853a
00000060: e91a 9cbd 6aa5 57bd ef60 a9bd 9a5b 0abd
00000070: 2d07 07be fb4d c8bd 1323 6cbd 60f2 c0bc

body.block1.norm.running_mean f4 [32]
-0.7630682 0.34709334 -0.70465016 -0.85941195 0.22225603 -0.2242229 -1.0286145 -0.9526882
-1.2483029 -0.16325712 0.84040266 0.6732442 -0.7495639 0.40126756 -0.2714453 -1.0029821
-1.1090466 -0.8787732 -0.722616 0.7251857 0.6169946 -0.11808551 0.7469448 -0.67058545
0.20235649 0.1256521 -0.8676173 0.34756798 -0.88297087 0.4882772 1.0271027 -1.0245714
00000000: 7058 43bf 38b6 b13e f463 34bf 6c02 5cbf
00000010: 1697 633e b09a 65be a4a9 83bf 60e3 73bf
00000020: 64c8 9fbf e02c 27be a124 573f bb59 2c3f
00000030: 6be3 3fbf f172 cd3e e1fa 8abe b861 80bf
00000040: 3df5 8dbf 48f7 60bf 5dfd 38bf c5a5 393f
00000050: 5cf3 1d3f d1d6 f1bd c637 3f3f 7dab 2bbf
00000060: 8a36 4f3e f2aa 003e 2b1c 5ebf 6ef4 b13e
00000070: 610a 62bf 78ff f93e 1a78 833f 2825 83bf

body.block1.norm.running_var f4 [32]
0.83330137 0.21101171 0.79087454 0.6979267 0.32620633 1.117562 2.0565882 0.6875713
0.51252234 0.30343792 0.4576563 0.6852617 0.43445298 0.37156495 0.52923125 0.5817923
0.65215945 0.31635323 0.80436283 0.833652 0.34484768 1.2629616 0.44735 0.582388
0.26175967 0.2788439 0.8449389 0.7376248 1.2126004 0.17893907 0.3767737 0.43740696
00000000: 3d53 553f 7413 583e c176 4a3f 53ab 323f
00000010: 8404 a73e 460c 8f3f 249f 0340 ac04 303f
00000020: aa34 033f 375c 9b3e ed51 ea3e 506d 2f3f
00000030: 9f70 de3e c33d be3e b37b 073f 57f0 143f
00000040: ecf3 263f 0df9 a13e b9ea 4d3f 386a 553f
00000050: e08f b03e baa8 a13f 0f0b e53e 6117 153f
00000060: 5d05 863e a1c4 8e3e ea4d 583f fbd4 3c3f
00000070: 7d36 9b3f ce3b 373e 7be8 c03e cef3 df3e

body.block2.conv.weight f4 [32, 32, 3, 3]
-0.09788039 -0.069469124 -0.048100546 -0.0446437 -0.03669417 0.0009813779 0.0075469036 0.025310526
-0.013622707 -0.007988007 0.015511819 0.050497856 -0.0034528463 -0.03135118 0.0033154495 -0.025710251
-0.034039415 -0.006177523 -0.03980742 -0.0040356866 0.008847689 -0.012199049 0.012071656 0.005937549
0.007896236 -0.019125467 -0.007008697 0.07404835 0.022363469 -0.0015056968 0.046816006 0.0413565
-0.02314278 0.023345502 0.03273004 -0.0018258111 -0.0053323405 -0.023303602 0.02883674 -0.06755749
-0.031617314 0.002211986 -0.023806311 0.014776272 0.02266892 -0.034405373 -0.03496943 -0.06066505
-0.003275526 0.021031315 0.046657905 0.0024060789 -0.004205958 0.018668775 -0.04201984 -0.020466706
-0.037169162 -0.025655653 -0.014415953 -0.014048285 -0.012395238 -0.013195018 -0.06593018 -0.009239199
0.0005744812 -0.080013104 0.047328465 -0.0050205765 0.014652447 0.01185373 0.046026774 0.031157678
-0.08988453 -0.075883895 -0.066261716 0.024060212 -0.013828445 0.011081259 -0.04360937 -0.0042810985
0.012489579 0.0004777696 0.02159592 0.047460537 -0.017460693 0.021874985 0.0071121836 -0.022583393
-0.03436776 -0.03171497 0.045221753 0.0058293613 0.041160725 -0.008323502 0.059362415 0.02898995
-0.0225198 0.059669226 0.07433929 0.015095823 -0.008193826 0.0056738267 -0.010970947 0.002096244
-0.067815036 -0.030473324 0.010789934 -0.013826612 -0.029772682 -0.014785986 0.034772288 -0.025158936
0.008167815 -0.014643558 -0.03795088 0.006232405 0.0048605218 0.011731573 -0.019762648 0.01679971
-0.045494936 -0.012128999 0.0128903035 -0.025228264 0.01261558 0.03818999 -0.0053191753 -0.06706724
0.034367528 -0.03936266 -0.022301957 0.021454608 -0.008858294 0.02738858 -0.02472998 -0.02382999
-0.03607608 -0.09436461 -0.034912042 -0.04863928 -0.0061055003 -0.062984526 -0.01597751 0.0125585515
-0.06465524 -0.032528665 -0.033382155 -0.026286645 0.004910453 0.016944833 -0.042457897 -0.0001909765
-0.097744964 -0.02993549 -0.016130984 -0.09855009 0.020668777 0.010276541 -0.02048659 -0.021382568
-0.028872952 -0.035832163 0.002479599 -0.016969856 -0.02007433 0.018585457 -0.009156578 -0.036386162
-0.03342429 0.007491115 -0.029630607 0.027555583 0.0025657061 0.034615807 -0.0052899597 -0.003668222
-0.013723343 -0.06623564 -0.027109694 0.021780131 0.004561055 -0.015149272 -0.020981649 0.021678492
0.042973418 0.009594161 -0.012586375 -0.015182661 -0.02951081 0.0047909636 -0.011777057 -0.006125203
0.015606077 0.016490683 0.0016013917 -0.023181006 -0.00876261 -0.022973267 0.043205302 0.042002928
0.0006567085 0.017233979 0.016498525 0.03486163 -0.0015483908 0.023096247 0.022155682 -0.01618089
0.031612646 -0.004950659 0.016180288 -0.002646607 -0.014897415 -0.05890018 -0.03245211 -0.032216053
-0.0042317337 -0.024847433 0.008978856 0.008616681 0.02543557 0.046142485 -0.0021137316 -0.006484958
0.021799719 -0.014377354 -0.013779712 0.025770618 -0.0002302058 -0.012856819 0.016586157 -0.031385154
-0.007652058 -0.0013342059 0.0725091 0.0294195 -0.0101546515 0.0072373226 -0.017945727 -0.04463128
0.0019688453 -0.046025116 -0.09640333 0.032826032 -0.0044467854 0.00537356 -0.024788108 -0.044462133
-0.025281696 -0.063921496 -0.046547208 0.020027839 -0.009601047 -0.007218569 -0.06258697 0.013297259
00000000: 8475 c8bd d445 8ebd 1405 45bd 50dc 36bd
00000010: a04c 16bd 94a1 803a 044c f73b 0558 cf3c
00000020: c631 5fbc 21e0 02bc 4925 7e3c d7d6 4e3d
00000030: 2649 62bb 186a 00bd 0348 593b 4e9e d2bc
00000040: ea6c 0bbd d26c cabb 1b0d 23bd cb3d 84bb
00000050: e6f5 103c 85de 47bc 32c8 453c c58f c23b
00000060: 375f 013c 03ad 9cbc 36a9 e5bb a9a6 973d
00000070: 9833 b73c cd5a c5ba 24c2 3f3d 6f65 293d
00000080: ed95 bdbc 113f bf3c ef0f 063d 0e50 efba
00000090: eaba aebb 32e7 bebc 073b ec3c 955b 8abd
000000a0: 2881 01bd f8f6 103b 7405 c3bc 2d18 723c
000000b0: 2cb4 b93c a6ec 0cbd 1b3c 0fbd ea7b 78bd
000000c0: 35aa 56bb dd49 ac3c 5c1c 3f3d 4eaf 1d3b
000000d0: 22d2 89bb 42ef 983c ff1c 2cbd cba9 a7bc
000000e0: b13e 18bd ce2b d2bc e430 6cbc c72a 66bc
000000f0: 6515 4bbc eb2f 58bc 6706 87bd 0260 17bc
00000100: c898 163a e9dd a3bd 7edb 413d a683 a4bb
00000110: d110 703c 2636 423c 9286 3c3d 633e ff3c
00000120: 6115 b8bd 0469 9bbd 39b4 87bd ec19 c53c
00000130: b490 62bc 2b8e 353c bd9f 32bd 7548 8cbb
00000140: 17a1 4c3c 267d fa39 ede9 b03c fb65 423d
00000150: ba09 8fbc 2b33 b33c 520d e93b cf00 b9bc
00000160: 35c5 0cbd 8ee7 01bd 723a 393d 3a04 bf3b
00000170: 2698 283d 4c5f 08bc 0126 733d 557c ed3c
00000180: 727b b8bc b867 743d 333f 983d 7954 773c
00000190: 663f 06bc 82eb b93b 7dbf 33bc 2361 093b
000001a0: 9ce2 8abd 31a3 f9bc 43c8 303c 0489 62bc
000001b0: d7e5 f3bc ec40 72bc 636d 0e3d 1d1a cebc
000001c0: 4dd2 053c 89eb 6fbc 6272 1bbd 3439 cc3b
000001d0: 0345 9f3b c935 403c 47e5 a1bc 8c9f 893c
000001e0: e658 3abd b6b8 46bc da31 533c 81ab cebc
000001f0: 94b1 4e3c 1b6d 1c3d 7a4c aebb 8d5a 89bd
00000200: f7c4 0c3d be3a 21bd 98b2 b6bc 93c1 af3c
00000210: 6122 11bc 045e e03c 8796 cabc 1c37 c3bc
00000220: 83c4 13bd 3c42 c1bd eeff 0ebd fb39 47bd
00000230: a610 c8bb 08fe 80bd 44e3 82bc 62c2 4d3c
00000240: f769 84bd c73c 05bd babb 08bd 1757 d7bc
00000250: dee7 a03b e4cf 8a3c 55e8 2dbd dd40 48b9
00000260: 832e c8bd 463b f5bc 2025 84bc a1d4 c9bd
00000270: 9151 a93c f05e 283c 7ed3 a7bc 7f2a afbc
00000280: f886 ecbc bfc4 12bd c580 223b 5e04 8bbc
00000290: ec72 a4bc 8740 983c 7905 16bc a809 15bd
000002a0: e9e7 08bd 0778 f53b e3bb f2bc 3fbc e13c
000002b0: 6825 283b 4ec9 0d3d 6657 adbb 8e66 70bb
000002c0: dfd7 60bc 8da6 87bd 2615 debc 3f6c b23c
000002d0: e774 953b a734 78bc b5e1 abbc 1897 b13c
000002e0: e504 303d d430 1d3c 1537 4ebc b2c0 78bc
000002f0: a7c0 f1bc 84fd 9c3b 8ff4 40bc edb5 c8bb
00000300: a2b0 7f3c 7817 873c cae5 d13a 18e6 bdbc
00000310: 0d91 0fbc 6f32 bcbc 0bf8 303d 430b 2c3d
00000320: f626 2c3a 462e 8d3c ea27 873c 12cb 0e3d
00000330: 60f3 caba 5734 bd3c d57f b53c c98d 84bc
00000340: 437c 013d 2339 a2bb 868c 843c b372 2dbb
00000350: 4a14 74bc 5141 71bd 81ec 04bd fbf4 03bd
00000360: 5baa 8abb d88c cbbc 0d1c 133c fb2c 0d3c
00000370: 425e d03c e7ff 3c3d 8886 0abb c57f d4bb
00000380: 5395 b23c fe8e 6bbc 4dc4 61bc e71c d33c
00000390: 6663 71b9 68a5 52bc b1df 873c b88d 00bd
000003a0: 1dbe fabb 85e0 aeba a77f 943d 2a01 f13c
000003b0: b25f 26bc 1027 ed3b eb02 93bc 4acf 36bd
000003c0: be07 013b d584 3cbd 1c6f c5bd 9774 063d
000003d0: 57b6 91bb b014 b03b 6e10 cbbc ed1d 36bd
000003e0: 8f1b cfbc 46e9 82bd 49a8 3ebd 6c11 a43c
000003f0: b64d 1dbc bf89 ecbb 992d 80bd bfdc 593c

body.block2.conv.bias f4 [32]
-0.0589997 0.043996673 0.030408248 0.018656412 0.01290781 0.016584974 -0.031577904 0.02486199
-0.024523098 0.02558615 0.062490027 -0.026014334 0.009634681 -0.042369068 -0.046451904 -0.0019511016
0.032508086 -0.014222979 -0.048840743 0.012207239 0.0078672655 -0.03981081 0.029144729 0.008719891
-0.0033786597 -0.014053633 -0.01104085 -0.01689253 -0.0478018 -0.042510957 -0.06660839 0.038940117
00000000: aba9 71bd db35 343d b81a f93c 55d5 983c
00000010: 477b 533c 36dd 873c d557 01bd 5fab cb3c
00000020: aae4 c8bc 0c9a d13c 8bf5 7f3d 031c d5bc
00000030: c8da 1d3c 308b 2dbd 5a44 3ebd 1bbc ffba
00000040: 3327 053d 7f07 69bc 3b0d 48bd df00 483c
00000050: b4e5 003c a910 23bd edc0 ee3c e0dd 0e3c
00000060: 816c 5dbb 3641 66bc aee4 34bc 3462 8abc
00000070: d2cb 43bd f81f 2ebd fb69 88bd ac7f 1f3d

body.block2.norm.weight f4 [32]
0.990074 1.0280455 0.9404954 1.0097091 1.0170338 1.0387597 0.9712728 1.0174716
0.92813665 0.9853835 1.0162894 0.98612475 1.1046638 1.012248 1.0414926 0.9630144
1.0011461 0.9685745 0.99864393 1.1010832 0.94299954 0.9501836 1.0369691 1.0046306
1.0289159 1.029043 0.934121 1.039976 0.96588475 0.8774616 1.0184219 1.0053576
00000000: 7d75 7d3f ff96 833f 4ec4 703f 263e 813f
00000010: 2a2e 823f 14f6 843f 56a5 783f 823c 823f
00000020: 5d9a 6d3f 1842 7c3f c515 823f ac72 7c3f
00000030: a065 8d3f 5891 813f a14f 853f 1d88 763f
00000040: 8e25 803f 80f4 773f 21a7 7f3f 4bf0 8c3f
00000050: 6b68 713f 3b3f 733f 67bb 843f bc97 803f
00000060: 84b3 833f aeb7 833f 8e22 6f3f ef1d 853f
00000070: 3944 773f 53a1 603f a65b 823f 8faf 803f

body.block2.norm.bias f4 [32]
-0.08159212 -0.095489316 -0.083345935 -0.17474972 -0.05611395 -0.1375489 0.031425793 -0.013389155
-0.04826856 -0.08574598 -0.142311 -0.06401767 -0.08664097 -0.044226743 -0.01999133 -0.046464548
-0.095540956 0.024001973 -0.09626653 -0.16252641 -0.050418347 -0.05420713 -0.056564633 -0.09501216
-0.11183773 -0.09191731 -0.12999174 -0.039133362 -0.036721263 -0.09585451 -0.13512315 -0.046188604
00000000: c519 a7bd e78f c3bd 46b1 aabd 97f1 32be
00000010: bed7 65bd 9ed9 0cbe 55b8 003d 305e 5bbc
00000020: 41b5 45bd 979b afbd fab9 11be b21b 83bd
00000030: d270 b1bd 1a27 35bd dcc4 a3bc 9c51 3ebd
00000040: faaa c3bd c99f c43c 6327 c5bd 536d 26be
00000050: 7883 4ebd 4c08 5ebd 51b0 67bd bc95 c2bd
00000060: 2e0b e5bd 253f bcbd 8e1c 05be 4e4a 20bd
00000070: 0969 16bd 5f4f c4bd b95d 0abe 4330 3dbd

body.block2.norm.running_mean f4 [32]
-0.6400749 0.06567871 0.07045186 0.029945755 -0.42964476 0.4493263 -0.92896616 -0.1997184
-0.3546013 0.06289849 0.19703326 0.2666464 -0.1517808 0.30678353 0.15615743 -0.1867012
-0.09965516 -0.7571226 -0.16210634 -0.27616495 -0.36699897 -0.78950447 -0.16469517 0.04587092
0.2721172 0.13302319 0.31529227 -0.10826952 -1.2697375 -0.26829496 0.08774818 -0.32139584
00000000: f3db 23bf 8f82 863d 1149 903d cd50 f53c
00000010: 66fa dbbe 190e e63e bad0 6dbf fb82 4cbe
00000020: 4d8e b5be ecd0 803d 16c3 493e e085 883e
00000030: 6d6c 1bbe bb12 9d3e bce7 1f3e 992e 3fbe
00000040: 0118 ccbd c9d2 41bf 34ff 25be 7e65 8dbe
00000050: 4ae7 bbbe f71c 4abf daa5 28be 25e3 3b3d
00000060: f252 8b3e 3b37 083e fd6d a13e 69bc ddbd
00000070: c286 a2bf f55d 89be 51b5 b33d ff8d a4be

body.block2.norm.running_var f4 [32]
0.43535706 0.4640818 0.36284673 1.1314297 0.6010252 0.40264997 0.5432859 0.72342384
0.37626964 0.45189127 0.22654599 1.3968967 0.40590715 0.2805766 0.6348867 0.62271106
0.9292867 1.1314882 0.17756817 0.47793514 0.2794794 0.9596523 0.42080098 0.15560088
0.6965941 0.95904773 0.6753525 0.6237521 0.550343 1.3209498 0.47755662 0.6602458
00000000: 1fe7 de3e 219c ed3e 0cc7 b93e b0d2 903f
00000010: cadc 193f 2328 ce3e c914 0b3f 4e32 393f
00000020: 6aa6 c03e 4b5e e73e acfb 673e 83cd b23f
00000030: 10d3 cf3e bca7 8f3e ef87 223f fe69 1f3f
00000040: bce5 6d3f 9bd4 903f 6ed4 353e eab3 f43e
00000050: ed17 8f3e c6ab 753f 3a73 d73e d655 1f3e
00000060: fe53 323f 2784 753f e7e3 2c3f 38ae 1f3f
00000070: 47e3 0c3f e214 a93f 4d82 f43e de05 293f

body.block3.conv.weight f4 [32, 32, 3, 3]
-0.010736033 -0.058280766 -0.10828108 0.02229635 0.050903007 -0.012891249 0.030491607 0.030849405
0.039375562 0.037794385 0.06350499 0.034650158 -0.019627918 -0.039553214 0.011323936 -0.022976913
0.008058509 -0.020761777 0.01975606 0.030799072 0.023140976 0.02776364 0.010132635 -0.016119946
-0.02270932 0.016646476 -0.08429306 -0.0013154178 -0.009070846 0.030229814 0.026411498 -0.014006429
0.064633854 -0.027168453 -0.012919174 0.03603697 0.040131632 -0.017019797 0.0070878575 -0.013270937
-0.009832599 0.030393064 -0.0018580094 0.02183762 0.026505271 -0.018808674 -0.060155828 -0.01923402
-0.02236263 -0.02792318 0.049382832 0.005178885 -0.022302771 -0.002106085 -0.014685106 -0.052615494
-0.050483897 -0.0021861673 -0.02556535 0.030941905 0.0106948055 -0.018237965 0.03433276 -0.0071511203
-0.029210728 0.023467997 -0.0034586964 0.0046184435 0.05664401 -0.014700044 -0.037812207 0.009499063
-0.04357534 0.0227288 -0.015863085 -0.04342919 0.07059957 0.061480258 0.0069817724 0.0857839
0.038125236 0.043254435 0.01994577 0.03066809 0.00998075 -0.01058122 -0.036421143 -0.003486545
-0.0037858014 -0.018633645 0.038499154 0.017990507 -0.001001582 -0.026907353 0.021088213 -0.0015284307
-0.036162876 0.03253536 0.019695073 -0.020114021 0.0026630724 0.003263916 0.020016283 -0.010646469
-0.0241394 0.023478543 0.009826538 -0.010599179 -0.010851731 -0.01022264 -0.02633193 -0.010614906
-0.01622721 -0.007795412 0.08293677 -0.0025193288 0.0334718 0.05675279 0.0108537525 0.031839985
0.013590881 -0.034827765 -0.015226993 0.0034269656 -0.068525344 -0.027892532 -0.042558253 -0.038797006
-0.008655654 -0.02371069 -0.02517899 -0.081139475 -0.039157994 -0.015894113 -0.020076685 0.0162068
0.034329113 -0.0121502355 0.00012744256 0.05586234 0.02611069 -0.011706572 -0.015852557 0.04199026
0.054494247 -0.006986466 0.023332024 -0.013803696 -0.046927396 -0.0016419678 -0.06921768 -0.032066304
-0.044136673 -0.0064696674 -0.03800071 -0.0867907 0.0077166483 -0.04042583 -0.028801445 0.027941672
0.010870442 0.049089942 -0.019621465 -0.034773476 -0.009031932 0.0049616555 -0.00875278 0.021667708
-0.026771888 -0.0112532135 0.026233079 0.0786623 0.032660518 0.05693768 0.019277422 0.012476128
-0.023170887 0.0028372793 -0.007922018 -0.0019248407 -0.021436408 -0.0008998427 -0.083649226 -0.015858948
0.02334477 -0.017255733 -0.104206964 0.006661666 0.012191978 -0.021410173 -0.05811574 -0.021183265
0.023406835 -0.0047440296 -0.028521836 0.023017948 0.032435745 -0.0059603904 0.03409034 -0.017575901
-0.024986418 0.040832903 0.0116677545 -0.017860912 0.010385656 0.022687858 0.02762641 -0.08712411
-0.042727318 -0.0047023473 -0.049721412 -0.016500216 0.022136716 -0.026954658 -0.02132514 0.022611612
0.020074975 -0.05029699 -0.030424042 0.013503586 -0.030476633 0.006266918 -0.0033988405 -0.04589354
0.043653738 0.004893561 -0.02536253 0.0062701507 -0.007885601 -0.05163147 0.01617629 0.009234634
-0.006510906 0.05695588 0.017880721 -0.044886142 0.016164841 0.014291462 -0.024835115 0.010646327
-0.030143613 -0.040654723 0.026283365 0.061901677 0.06339755 0.08014739 0.02256185 0.011862853
-0.0033650813 0.017555987 -0.04262907 -0.029459793 -0.0065990817 0.037713762 0.025214698 -0.010233194
00000000: 30e6 2fbc d0b7 6ebd 79c2 ddbd d6a6 b63c
00000010: ac7f 503d d135 53bc 89c9 f93c e4b7 fc3c
00000020: 4548 213d 49ce 1a3d e70e 823d 53ed 0d3d
00000030: baca a0bc 8d02 22bd 0888 393c 143a bcbc
00000040: d607 043c 9a14 aabc 76d7 a13c 564e fc3c
00000050: 2592 bd3c 9370 e33c 5a03 263c fa0d 84bc
00000060: e508 babc 315e 883c d7a1 acbd 196a acba
00000070: e39d 14bc 84a4 f73c ed5c d83c 397b 65bc
00000080: c15e 843d 6090 debc f1aa 53bc 809b 133d
00000090: 1161 243d 1a6d 8bbc 4241 e83b 586e 59bc
000000a0: e918 21bc e0fa f83c 7388 f3ba cfe4 b23c
000000b0: 9521 d93c a614 9abc f565 76bd aa90 9dbc
000000c0: d631 b7bc 27bf e4bc a745 4a3d a3b3 a93b
000000d0: 4db4 b6bc 3e06 0abb cd99 70bc 5883 57bd
000000e0: 34c8 4ebd cd45 0fbb 6d6e d1bc e179 fd3c
000000f0: 4439 2f3c c967 95bc 82a0 0c3d f253 eabb
00000100: 564b efbc f53f c03c 4cab 62bb 5056 973b
00000110: 8d03 683d 74d8 70bc f9e0 1abd f5a1 1b3c
00000120: 0e7c 32bd c031 ba3c 4df3 81bc cee2 31bd
00000130: 8296 903d b9d2 7b3d 5ac7 e43b 78af af3d
00000140: 3529 1c3d 902b 313d 5065 a33c a53b fb3c
00000150: 4d86 233c da5c 2dbc 562e 15bd 857e 64bb
00000160: 351b 78bb 96a5 98bc 4ab1 1d3d d460 933c
00000170: 8447 83ba cf6c dcbc 30c1 ac3c a055 c8ba
00000180: 861f 14bd cc43 053d 9057 a13c 29c6 a4bc
00000190: f186 2e3b 6ce7 553b 30f9 a33c 876e 2ebc
000001a0: febf c5bc 1356 c03c 7dff 203c 2ea8 2dbc
000001b0: 75cb 31bc dc7c 27bc 0fb6 d7bc 25ea 2dbc
000001c0: edee 84bc a870 ffbb c1da a93d 531b 25bb
000001d0: ba19 093d 9d75 683d f0d3 313c a56a 023d
000001e0: 49ac 5e3c 8fa7 0ebd a37a 79bc f196 603b
000001f0: 0457 8cbd e17e e4bc 9051 2ebd 9ce9 1ebd
00000200: 72d0 0dbc ec3c c2bc 2b44 cebc 742c a6bd
00000210: 2264 20bd 5f34 82bc dc77 a4bc 1fc4 843c
00000220: af9c 0c3d c811 47bc 1aa2 0539 e9cf 643d
00000230: 16e6 d53c eccc 3fbc 39dd 81bc fbfd 2b3d
00000240: 5c35 5f3d b9ee e4bb cd22 bf3c e628 62bc
00000250: f136 40bd 4c37 d7ba 00c2 8dbd f557 03bd
00000260: a8c8 34bd 81ff d3bb a2a6 1bbd 53bf b1bd
00000270: f0db fc3b 8e95 25bd 02f1 ebbc efe5 e43c
00000280: f019 323c 8912 493d 32bd a0bc a26e 0ebd
00000290: abfa 13bc 6295 a23b d267 0fbc 7a80 b13c
000002a0: b850 dbbc 665f 38bc c1e6 d63c b319 a13d
000002b0: 09c7 053d 7c37 693d afeb 9d3c ac68 4c3c
000002c0: dfd0 bdbc a6f1 393b 5acb 01bc f04a fcba
000002d0: 689b afbc 6ce3 6bba 4950 abbd a0ea 81bc
000002e0: 883d bf3c e55b 8dbc 766a d5bd 1b4a da3b
000002f0: ddc0 473c 6364 afbc c50a 6ebd 8788 adbc
00000300: b1bf bf3c ce73 9bbb a0a6 e9bc 2390 bc3c
00000310: 58db 043d 614f c3bb 50a2 0b3d 56fb 8fbc
00000320: 51b0 ccbc 6740 273d 1c2a 3f3c 0c51 92bc
00000330: 9928 2a3c e3db b93c c850 e23c 206e b2bd
00000340: d702 2fbd 2616 9abb aea8 4bbd 762b 87bc
00000350: 0f58 b53c 04d0 dcbc 0fb2 aebc fd3b b93c
00000360: 4674 a43c 3704 4ebd d73b f9bc 253e 5d3c
00000370: 22aa f9bc b85a cd3b 15bf 5ebb ddfa 3bbd
00000380: 43ce 323d 2a5a a03b 15c5 cfbc d675 cd3b
00000390: 9c32 01bc 857b 53bd 2484 843c dd4c 173c
000003a0: 7059 d5bb 924a 693d 977a 923c 88da 37bd
000003b0: 216c 843c bc26 6a3c 0373 cbbc ef6d 2e3c
000003c0: bdef f6bc 9185 26bd 3650 d73c 9d8c 7d3d
000003d0: 93d6 813d 5124 a43d a1d3 b83c 695c 423c
000003e0: b288 5cbb 93d1 8f3c d29b 2ebd aa55 f1bc
000003f0: 1c3d d8bb bf79 1a3d 0e8f ce3c 20a9 27bc

body.block3.conv.bias f4 [32]
-0.008391864 0.07944782 0.04074525 -0.03141488 -0.060712602 -0.069537595 0.008634696 -0.03656975
0.015443564 0.022645658 -0.0023389168 -0.03614858 0.048866354 -0.058875013 -0.011735585 -0.014500384
-0.022910232 0.06339016 0.031201616 -0.013918252 -0.03880369 -0.04614861 -0.027819129 -0.045830064
-0.014872451 -0.032955784 0.0128621245 0.080885984 -0.024041982 0.0049714395 -0.0032039187 -0.026801622
00000000: 077e 09bc 8ab5 a23d 7ee4 263d e4ac 00bd
00000010: c7ad 78bd ba69 8ebd 8a78 0d3c 2aca 15bd
00000020: 0107 7d3c 6383 b93c 8348 19bb 8910 14bd
00000030: 1628 483d ed26 71bd 9c46 40bc 0593 6dbc
00000040: 3dae bbbc b3d2 813d 889a ff3c 6109 64bc
00000050: 9ef0 1ebd 5306 3dbd f1e4 e3bc 4eb8 3bbd
00000060: 95ab 73bc a5fc 06bd a9bb 523c 8da7 a53d
00000070: b1f3 c4bc 75e7 a23b d6f8 51bb 138f dbbc

body.block3.norm.weight f4 [32]
0.96498036 1.0881914 1.0076282 1.0175713 1.0084358 0.98174876 1.0399319 0.9609292
0.9760884 1.0181735 0.9315798 0.9680648 0.9257629 0.960127 0.92837155 1.0154432
0.99466133 0.99257964 0.98513633 0.9700871 0.958556 0.9833358 0.949574 0.9885237
0.9650982 1.0095546 0.98034227 1.0619287 1.0146108 1.0054506 1.0639927 0.9468804
00000000: f408 773f db49 8b3f f6f9 803f c73f 823f
00000010: 6d14 813f e353 7b3f 7d1c 853f 75ff 753f
00000020: eee0 793f 8253 823f 047c 6e3f 18d3 773f
00000030: ccfe 6c3f e2ca 753f c2a9 6d3f 0bfa 813f
00000040: 20a2 7e3f b319 7e3f e531 7c3f a157 783f
00000050: ed63 753f e5bb 7b3f 4817 733f e40f 7d3f
00000060: ad10 773f 1639 813f b6f7 7a3f 48ed 873f
00000070: c4de 813f 9bb2 803f ea30 883f c166 723f

body.block3.norm.bias f4 [32]
-0.08427282 -0.21277377 -0.13455322 -0.024594406 0.018295154 -0.05776637 0.03295021 0.0025530788
-0.052712668 -0.015609819 -0.07964437 -0.14620218 -0.042058997 -0.044836037 -0.08349513 -0.022889465
-0.079403795 -0.016671332 -0.22893363 0.028679898 -0.07478776 0.0065991012 -0.07462824 5.2208423e-05
-0.07328723 -0.06494382 -0.0061487798 -0.21269767 -0.22537313 -0.00041791928 -0.11086156 -0.18315807
00000000: 3a97 acbd 5ee1 59be 52c8 09be 357a c9bc
00000010: b8df 953c 6e9c 6cbd cdf6 063d 8e51 273b
00000020: 3de9 57bd 54c0 7fbc 961c a3bd 06b6 15be
00000030: 0e46 2cbd fea5 37bd 7fff aabd b082 bbbc
00000040: 759e a2bd 5192 88bc 946d 6abe 1bf2 ea3c
00000050: 532a 99bd 463d d83b b1d6 98bd 5efa 5a38
00000060: 9e17 96bd 4401 85bd b47b c9bb 6bcd 59be
00000070: 37c8 66be 2d1c dbb9 630b e3bd ca8d 3bbe

body.block3.norm.running_mean f4 [32]
0.05380889 -0.08245483 0.36992246 -0.48994252 -0.6079486 0.29670545 -0.8240167 -0.9058945
-0.039097756 -0.09885956 -0.9700159 0.31310117 -0.11205869 -0.47338906 -0.19232492 -0.72446686
0.1183326 -0.3892027 -0.43466765 0.0035496927 0.16243082 -0.64509165 -0.23988532 -0.8513658
-0.6054357 -0.20810695 -0.36971968 0.20274046 0.11709002 -0.3073483 -0.69017047 -0.70868045
00000000: b666 5c3d 14de a8bd 7a66 bd3e bfd9 fabe
00000010: 85a2 1bbf c7e9 973e c2f2 52bf b4e8 67bf
00000020: f824 20bd e276 cabd f652 78bf cc4e a03e
00000030: 077f e5bd 0d60 f2be d3f0 44be a976 39bf
00000040: 5d58 f23d 9445 c7be c28c debe f6a1 683b
00000050: 4454 263e ba24 25bf 7fa4 75be 1cf3 59bf
00000060: d6fd 1abf fd19 55be e64b bdbe 329b 4f3e
00000070: e4cc ef3d c25c 9dbe 03af 30bf 156c 35bf

body.block3.norm.running_var f4 [32]
0.26446706 0.19110504 0.44535372 0.599551 0.65495944 1.9222783 1.1109143 0.6303935
0.16919307 0.48271784 0.5145818 0.34760693 0.21718538 0.54442626 1.1539897 1.0559263
1.594733 0.5978174 0.2377967 0.34284404 0.5125802 0.30599535 0.5445721 0.20318504
0.15111944 0.57270247 0.5452279 0.4203196 0.53586537 0.7729742 0.18278795 0.2768314
00000000: 3a68 873e 0ab1 433e 6705 e43e 2d7c 193f
00000010: 6cab 273f 370d f63f 7132 8e3f 7861 213f
00000020: f340 2d3e cb26 f73e a2bb 033f 89f9 b13e
00000030: d865 5e3e 855f 0b3f efb5 933f 9828 873f
00000040: 3620 cc3f 900a 193f fa80 733e 4189 af3e
00000050: 7538 033f 6cab 9c3e 1469 0b3f bd0f 503e
00000060: 0ebf 1a3e a19c 123f 0e94 0b3f 2134 d73e
00000070: 792e 093f a3e1 453f c42c 3b3e d8bc 8d3e

tail.0.weight f4 [4, 32, 3, 3]
-0.00027823058 0.007876398 3.595954e-05 -0.006742008 0.01950511 -0.0016288853 0.029343344 0.0021369932
-0.0012274471 -0.00646034 -0.012852234 -0.0016358757 0.0067322645 0.011372598 -0.017424347 -0.018636247
-0.01815676 0.020167716 -0.005412075 0.00509843 -0.012350988 0.017788619 -0.006223556 0.0018485772
0.0049419235 0.013550503 -0.012819903 -0.038614944 0.032756917 0.040955484 -0.01450188 0.025648035
0.022561064 -0.0322203 -0.030895472 -0.016507056 -0.009980614 -0.034093175 -0.0025317713 -0.012542605
0.017817108 4.190556e-05 0.0045038844 -0.017514948 -0.00318615 0.0021028526 0.016238479 -3.0241943e-05
-0.051448733 -0.007586386 -0.024438275 -0.024708383 0.030353729 0.014153917 -0.008039902 -0.006756818
-0.009022211 0.034729734 -0.0060209283 0.010744498 0.029228805 0.0013379068 0.017381143 0.010230148
0.003770878 -0.021385947 0.018293798 0.014443425 -0.011811786 0.00017426194 0.012203961 -0.028172245
0.037388973 0.03216372 0.028799213 -0.001480121 -0.008144194 -0.010756999 0.0458942 -0.00038566368
0.01846399 0.016618144 0.016565297 0.020993508 -0.013868169 -0.019545099 -0.000324124 -0.06282404
0.0055898866 -0.019853767 0.01293367 0.044030767 -0.003788103 0.0042025116 0.037963204 -0.03329345
-0.012655744 -0.0441473 -0.004458684 0.007003063 0.028010147 0.0145914415 0.020105954 0.011689594
-0.0097053675 0.021047046 0.006768507 0.018366478 0.008411147 -0.0056431447 -0.017298223 0.020824347
-0.009894362 0.017701034 0.014068359 0.00041401188 0.0076694028 0.027966423 -0.006303263 0.0049550477
-0.0026949726 0.0068089925 0.013568147 0.014058528 0.0012709751 0.0023461734 -0.0644764 -0.021883117
-0.03218252 -0.01612364 -0.0099126175 -0.0051194066 -0.030058771 -0.0014447203 -0.008739274 0.001351605
-0.026206804 0.023235183 0.025244324 -0.020497214 0.023900976 -0.016080335 -0.025042703 -0.0057330793
-0.014725013 0.00881472 -0.009942605 0.0036482625 0.029803023 -0.0031485315 -0.004285117 -0.012135536
-0.010974626 -0.02902425 0.01727555 0.0013126412 0.000766691 0.0030441459 0.032597233 -0.018245816
-0.027693901 -0.012358505 0.016239017 -0.011507891 -0.006818834 -0.017063325 -0.0055764173 0.010550216
0.07518324 0.046647865 0.047509 0.059605252 0.047858883 0.015436937 0.005402855 0.003282741
0.007958448 -0.02396239 -0.022857433 -0.04605101 -0.028955536 -0.006141537 0.003149926 0.02302798
-0.014311369 -0.024524622 0.006282801 0.0017215563 -0.0019114472 -0.010912328 -0.017620834 0.012117359
0.008501428 -0.008691255 -0.013364092 0.013258999 -0.008821671 -0.025978722 0.016260086 0.046718936
0.021994617 0.006025538 0.02119615 0.021718457 0.015259172 -0.010093684 -0.033643313 0.009693253
-0.015169379 0.009433495 0.0008946609 0.01276199 -0.0076580415 -0.0011287539 -0.021658177 -0.02657639
-0.018756485 -0.0196421 -0.004325669 -0.0151455 0.0026501145 -0.015801786 0.008500692 0.01429514
-0.00727691 -0.035404563 -0.00784158 -0.028422972 -0.056243025 0.0048598796 0.031792443 -0.043291558
0.00827925 0.0012144704 -0.035635184 -0.003923877 -0.013653369 -0.026833298 0.015695697 -0.0010704031
-0.023221524 -0.02306463 0.010415218 -0.02486753 -0.02102013 -0.024292892 -0.0036175954 -0.027556371
-0.004741965 -0.011347348 0.007511602 -0.0061749266 0.011732041 0.024598807 0.0009812617 0.009015964
00000000: 7adf 91b9 020c 013c 43d3 1638 10ec dcbb
00000010: 2ec9 9f3c 5280 d5ba 7461 f03c cc0c 0c3b
00000020: 4ae2 a0ba 43b1 d3bb 2d92 52bc e16a d6ba
00000030: 549a dc3b 2254 3a3c 81bd 8ebc 0bab 98bc
00000040: 7cbd 94bc c436 a53c c757 b1bb bb10 a73b
00000050: cc5b 4abc 70b9 913c f9ee cbbb f54b f23a
00000060: dcef a13b ee02 5e3c 920a 52bc b42a 1ebd
00000070: 1e2c 063d f0c0 273d 4b99 6dbc d41b d23c
00000080: fbd1 b83c 6ff9 03bd 8018 fdbc ce39 87bc
00000090: bb85 23bc 49a5 0bbd 13ec 25bb 807f 4dbc
000000a0: 2ff5 913c c1c3 2f38 5295 933b 827b 8fbc
000000b0: bace 50bb 03d0 093b 8f06 853c 14b0 fdb7
000000c0: e8bb 52bd 3897 f8bb c732 c8bc 3c69 cabc
000000d0: 62a8 f83c d5e5 673c cbb9 03bc 4c68 ddbb
000000e0: e5d1 13bc c440 0e3d 354b c5bb b109 303c
000000f0: 3f71 ef3c b45c af3a e662 8e3c 5a9c 273c
00000100: d620 773b 9531 afbc e0dc 953c 1ea4 6c3c
00000110: 3986 41bc 15ba 3639 1ff3 473c 7bc9 e6bc
00000120: 2e25 193d 1bbe 033d 54ec eb3c 9f00 c2ba
00000130: 3a6f 05bc 203e 30bc 8ffb 3b3d e732 cab9
00000140: cb41 973c c622 883c f2b3 873c 94fa ab3c
00000150: 5137 63bc 0b1d a0bc 30ef a9b9 e4a9 80bd
00000160: 5e2b b73b 5ea4 a2bc bee7 533c 9b59 343d
00000170: d241 78bb 39b5 893b 4e7f 1b3d b65e 08bd
00000180: 0a5a 4fbc cdd3 34bd 271a 92bb f379 e53b
00000190: 8975 e53c f110 6f3c 3eb5 a43c b685 3f3c
000001a0: 4303 1fbc db6a ac3c 5aca dd3b 4c75 963c
000001b0: e8ce 093c 21ea b8bb 01b5 8dbc d297 aa3c
000001c0: f61b 22bc c201 913c f97e 663c bc0f d939
000001d0: 9d4f fb3b d719 e53c 9a8b cebb f45d a23b
000001e0: 239e 30bb f81d df3b ef4c 5e3c bd55 663c
000001f0: d996 a63a 42c2 193b 340c 84bd 3944 b3bc
00000200: d1d1 03bd b915 84bc 8868 22bc b2c0 a7bb
00000210: d03d f6bc c55c bdba 2c2f 0fbc 5728 b13a
00000220: a7af d6bc b657 be3c 2fcd ce3c c6e9 a7bc
00000230: fbcb c33c e8ba 83bc 5b26 cdbc 8edc bbbb
00000240: 2e41 71bc 9e6b 103c 4fe6 22bc b017 6f3b
00000250: 7825 f43c 9857 4ebb 2b6a 8cbb 21d4 46bc
00000260: ebce 33bc 44c4 edbc 7485 8d3c ee0c ac3a
00000270: c3fb 483a 4b80 473b ad84 053d 4078 95bc
00000280: 52de e2bc 547b 4abc b007 853c 988b 3cbc
00000290: 8770 dfbb 63c8 8bbc 61ba b6bb d0da 2c3c
000002a0: acf9 993d d511 3f3d cc98 423d a324 743d
000002b0: ad07 443d 35eb 7c3c 6f0a b13b 4123 573b
000002c0: 2664 023c c64c c4bc 833f bbbc fc9f 3cbd
000002d0: 2934 edbc f23e c9bb fd6e 4e3b 2da5 bc3c
000002e0: 3b7a 6abc dce7 c8bc f4df cd3b d8a5 e13a
000002f0: 8689 faba 9fc9 32bc 9159 90bc e387 463c
00000300: 9349 0b3c c465 0ebc 11f5 5abc 463c 593c
00000310: c588 10bc 54d1 d4bc df33 853c 5b5c 3f3d
00000320: 0e2e b43c e071 c53b 8ca3 ad3c e8ea b13c
00000330: 9b01 7a3c fb5f 25bc 92cd 09bd 73d0 1e3c
00000340: fd88 78bc f28e 1a3c ad87 6a3a aa17 513c
00000350: 4ff0 fabb b2f2 93ba 7d6c b1bc bbb6 d9bc
00000360: 33a7 99bc 78e8 a0bc 57be 8dbb d524 78bc
00000370: 8bad 2d3b bf72 81bc 7d46 0b3c 2a36 6a3c
00000380: 2573 eebb 6004 11bd f879 00bc 4bd7 e8bc
00000390: 165f 66bd a03f 9f3b cb38 023d 7d52 31bd
000003a0: b1a5 073c dd2e 9f3a 33f6 11bd de93 80bb
000003b0: 61b2 5fbc 81d1 dbbc 4394 803c c54c 8cba
000003c0: 113b bebc 09f2 bcbc 97a4 2a3c feb6 cbbc
000003d0: 6832 acbc e301 c7bc 2e15 6dbb e6bd e1bc
000003e0: 7c62 9bbb 3aea 39bc e223 f63b 0a57 cabb
000003f0: bf37 403c 7083 c93c ae9d 803a b2b7 133c

tail.0.bias f4 [4]
0.0025251554 -0.018972207 -0.04154233 0.059170485
00000000: 147d 253b 9a6b 9bbc 4a28 2abd c05c 723d
