TrainedModels/0035-sample/scale_factor=0.750000,alpha=10/7/netD.pth (torch, 467478 bytes, 25 tensors)

head.conv.weight f4 [64, 4, 3, 3]
000000 f2 5d 50 3e 81 ba e2 3d 3a cb 4b 3e 4c 2f d6 3d
       0.20348337 0.11070729 0.19901744 0.1045824
000010 a3 64 b0 bd a8 17 34 bd 9e 1f ea 3d 04 f4 43 3d
       -0.08612945 -0.043967873 0.11431812 0.047840133
000020 d0 40 90 3d c0 bc e8 3d aa d7 c9 3c 7c f0 d9 3d
       0.07043612 0.11364126 0.02463897 0.10641572
000030 66 c0 59 3d cb ef df bc e8 ab fc 3b 90 40 6f 3d
       0.053162 -0.027336022 0.0077109225 0.05841118
000040 fd fe d5 3c 91 2d 7b 3d b0 5f fe 3d 28 88 c8 3d
       0.026122564 0.061322752 0.12420595 0.09791595
000050 fa dc a3 3d f6 70 94 3d 8f 1f 32 bb 26 eb aa bc
       0.08001132 0.07248108 -0.0027179455 -0.02086408
000060 61 b5 19 3d 7d 22 1c 3d e9 b5 d5 3c c9 b7 72 3b
       0.037526492 0.038118828 0.026087718 0.0037035814
000070 1f ed 2f 3d 16 50 c4 3d fb b9 95 bc 12 64 ef 3b
       0.042950746 0.09585588 -0.018277159 0.0073056305
000080 8b d4 c0 3c fd e8 c4 3d fd 5c 46 3d 53 7a 86 3d
       0.023538848 0.096147515 0.048428524 0.065663
000090 6f a8 d3 3d ba bd 0f 3d 8e b2 3e 3d db 4a f5 3c
       0.103348605 0.035093047 0.046557 0.02994292
0000a0 84 0c dd bc cb 8b dd bb 57 18 e1 bd fd 3a ab bd
       -0.026983507 -0.0067610494 -0.109909706 -0.083608605
0000b0 49 03 02 be f7 47 85 3d 9f f1 7f 3d b3 2a 56 3d
       -0.12696566 0.06507867 0.062486287 0.052286815
0000c0 f0 e2 fb 3b 7a cb 8f 3c 79 b3 0d 3d 6a 08 c3 bd
       0.007686965 0.01755308 0.034594987 -0.09523089
0000d0 54 e6 2a bd ff 7a 99 bd 17 71 25 3d 0f 70 ac 3c
       -0.041723564 -0.07494163 0.040391054 0.021049527
0000e0 c4 73 a0 3d 8c 11 1d 3d 2d ec 85 3c 64 e9 21 3d
       0.078345805 0.038346812 0.016347969 0.03952922
0000f0 cd f9 13 bd 85 40 06 bd 77 3b af bd d4 da 23 3d
       -0.0361269 -0.032776374 -0.08556264 0.040003613
000100 c3 96 88 3d fe 2e 1d 3e c1 77 3e bd e8 ea 9d 3c
       0.066693805 0.15349957 -0.046500925 0.019277051
000110 29 2b b5 3c de a1 de bd a7 17 32 bd fd ad 84 bd
       0.022115307 -0.108707175 -0.043479588 -0.06478498
000120 8a 72 c4 bc 1a 8c cb 3c ed 46 08 3e fa 4e 2e 3d
       -0.023980398 0.024847079 0.13308306 0.042555787
000130 b2 a6 2f 3c 03 b8 54 bb 75 2a 2b 3d 2d 9b 7f bd
       0.010720896 -0.0032458312 0.041788537 -0.062403847
000140 f2 d1 9f bd fb 3c 86 3c 0f 21 91 3c c0 37 f0 3d
       -0.07803716 0.0163865 0.017715959 0.117293835
000150 58 5e 46 3d 1e 9b 25 3c 99 b3 be bc 2f 3d 23 3c
       0.048429817 0.010107784 -0.023278998 0.009963318
000160 78 a6 6a bd d5 78 0b be bd 42 d9 3c 44 f0 a0 3d
       -0.057287663 -0.13620313 0.026521081 0.07858327
000170 b7 b1 1b 3e 68 0f 89 3d 13 c6 02 3d 2c 2a 17 bd
       0.15204512 0.06692392 0.03192718 -0.036905453
000180 06 f1 f4 bb 45 53 a2 bd 39 0b 4b be a9 c7 f2 3d
       -0.0074750213 -0.07926039 -0.198285 0.118544884
000190 95 2e 81 bc cb e4 69 bd ad ac a1 3c 1c 36 ba 3b
       -0.015769282 -0.05710296 0.019735659 0.00568272
0001a0 e0 49 2a bd cf cd 57 bd 34 9f 00 3d e7 08 ba 3c
       -0.04157436 -0.05268651 0.031401828 0.022709323
0001b0 dd 97 11 bc d5 e1 ee bc dc 30 8f 3d 13 78 89 bd
       -0.008886305 -0.02916042 0.06991741 -0.067123555
0001c0 0e 73 99 bd 1d ab cc 3d 98 b7 d5 bd 56 54 80 bd
       -0.07492648 0.09993575 -0.10435408 -0.06266086
0001d0 1c a2 47 3d d0 ca fa 3d ae 7b 49 3d 18 0e 36 3e
       0.048738584 0.12245715 0.049190216 0.17778814
0001e0 db e3 76 bb b2 0b c9 bc f0 cd e1 3d 3c 3e ad bd
       -0.0037672434 -0.02454171 0.110256076 -0.08459136
0001f0 a8 03 df bc 54 d7 04 3e ad ef 0a 3e 35 2f 4a 3d
       -0.027223423 0.12972766 0.13567992 0.049361426
000200 ff 24 3b 3e 55 2d 10 bd 9f bb 96 bd 97 d1 06 3e
       0.18275832 -0.035199482 -0.07360005 0.1316589
000210 f2 0a f8 bd b4 55 7c bd 6c bd 44 3e 28 fa 25 bd
       -0.12111463 -0.06160517 0.19212884 -0.04052177
000220 00 12 d4 3c 59 8d ca bc 59 06 2a 3d 4f b1 2e bc
       0.02588749 -0.024725603 0.04150996 -0.010662391
000230 93 9a 57 3d ba a9 a7 bc fb a8 98 ba 97 e3 a0 3d
       0.052637648 -0.020466674 -0.001164704 0.07855909
000240 55 3c e5 bd 03 a8 8d bd 67 7b 69 bd 14 3c 99 bb
       -0.11193148 -0.06916811 -0.05700245 -0.0046763513
000250 43 ce 3d bd 60 be 35 3c 59 23 d7 3d a2 b5 76 3d
       -0.046339285 0.011092752 0.10504789 0.060231812
000260 30 a3 30 3e 70 d7 1a be 6f e9 8e bd 73 41 7b bd
       0.17249751 -0.15121245 -0.06978118 -0.061341714
000270 d8 ca 81 bd 93 24 00 bd 66 b8 57 3b 4f 3f 3d 3d
       -0.063375175 -0.03128488 0.0032916307 0.046202954
000280 cc 35 5a 3d 8c e6 05 3e f7 15 21 be 6b b7 60 bd
       0.05327396 0.13076228 -0.15731035 -0.05486242
000290 30 08 f0 bc 6d c6 70 bd 80 3a c7 3a e6 36 9c 3c
       -0.02930078 -0.058782984 0.001519993 0.019069146
0002a0 73 b1 b8 3d 0c b3 bd 3d fd 96 3e 3e 09 0e 6b ba
       0.09018221 0.09262666 0.18612285 -0.000896663
0002b0 6e bd e9 3b 79 a2 ef bb 23 d3 19 bc cc 1a d0 3c
       0.0071331775 -0.0073130694 -0.009388718 0.025403403
0002c0 7b e3 bb 3c cd 5a 47 bb 91 0b bc 3c 89 e5 ec bc
       0.02293562 -0.0030419112 0.022954734 -0.028918045
0002d0 3c 20 25 bd 1f 8b 09 bb 98 28 d4 bd 2c 42 a3 3d
       -0.040313944 -0.0020987464 -0.10359305 0.07971606
0002e0 d8 8e de 3d ba cd 55 3d 09 24 7c 3d 11 00 00 3e
       0.10867089 0.05219815 0.061557803 0.12500025
0002f0 0d 89 20 3d 0a 58 34 be 8a be 82 bd fe 0c 48 be
       0.0391932 -0.17611709 -0.06383999 -0.19536206
000300 5f 87 05 3d 63 bf 8c 3d 50 56 8c bd 12 86 c6 bb
       0.032599803 0.068724416 -0.068524 -0.006058463
000310 43 f9 b6 3d fd 02 a3 bd 1f a5 06 be 2b 1a 8d bd
       0.08934262 -0.07959554 -0.13148926 -0.06889757
000320 2a 19 04 be b5 a7 76 3c a9 0f 50 3d 17 c7 56 bd
       -0.12900224 0.015054633 0.050796185 -0.05243596
000330 1c d6 4d 3d 68 e0 76 3d 34 e3 c2 3b 3d 90 b4 3d
       0.05025302 0.060272604 0.005947495 0.08816574
000340 9d 4b 11 3d 76 d7 d0 bb 5c 95 03 bd 0a 54 5e bb
       0.0354725 -0.006373341 -0.032124862 -0.0033924603
000350 8c 39 03 bd 2d 2e 53 bd 0f b8 bc ba 30 c8 aa bd
       -0.032037303 -0.05155771 -0.0014398115 -0.08338964
000360 34 8c c0 bc b6 47 01 bd c8 40 0d bc bb 96 35 3d
       -0.023504354 -0.03156253 -0.008621402 0.0443332
000370 a7 e8 3f bc 40 1d e4 bc b5 ae f9 3d 9a 7d a8 3c
       -0.0117131835 -0.027845979 0.12191526 0.020567704
000380 36 f6 5d 3c 9e 8b 92 bc 47 9b 85 bc e8 f1 d0 bc
       0.013547471 -0.01788884 -0.016309394 -0.025505975
000390 cc 06 2b bd 49 76 d4 bc c0 92 d6 bc 3c 63 c3 3c
       -0.04175453 -0.025935309 -0.026193023 0.02385103
0003a0 41 00 84 3a f3 e0 f5 bc bb a4 80 bc bc 77 9d 3b
       0.0010070876 -0.03001449 -0.01570355 0.004805533
0003b0 65 88 a8 3b 08 73 87 bc 65 d7 42 3c e7 ba 3e 3c
       0.0051432126 -0.016534343 0.011892174 0.011641241
0003c0 00 0b 51 3c a8 2f 68 3c cd a5 c8 3c bc fd 43 bd
       0.01275897 0.014171518 0.024493122 -0.0478494
0003d0 62 8d b5 3d 8a ef 20 3e 2a 8b 7d 3c e6 4b 88 3d
       0.08864857 0.15716377 0.015475074 0.066551015
0003e0 1c 6c 73 bd b2 75 66 3c 50 75 16 bc a9 bd 42 be
       -0.059429273 0.014066147 -0.009183243 -0.19017662
0003f0 1c fa 0d 3b dc ea 0e bc b9 15 35 bc 0b b6 12 bc
       0.002166397 -0.008722987 -0.011052542 -0.008954535

head.conv.bias f4 [64]
000000 08 e7 29 3e c0 f4 00 3e 15 08 bf 3d 01 11 9b 3c
       0.16592038 0.12593365 0.093277134 0.018929007
000010 95 f4 8a 3c ec 72 f5 3d 2e 42 11 bd f8 56 49 be
       0.016962329 0.1198481 -0.035463504 -0.19662082
000020 6e a1 f2 3d 68 35 af 3d 54 4f 22 be fa 5b 8a bd
       0.118471965 0.08555108 -0.15850574 -0.067558244
000030 c0 07 27 3d 79 69 03 bd 9b 97 37 3d 2c 18 18 3e
       0.040778875 -0.03208301 0.044822317 0.14852971
000040 7d 40 56 bb aa d6 99 3d bc c6 3a be 6d 44 dc bc
       -0.0032692247 0.07511647 -0.18239874 -0.026888097
000050 c1 4c 5f bd 9e b0 64 bd 77 af b3 3c 7d 4c 16 3d
       -0.054516558 -0.055832498 0.021934254 0.03669404
000060 15 03 a8 bc 90 36 bd bb 4c 4e 97 bd 2c 42 c9 3d
       -0.020509282 -0.0057743266 -0.07387981 0.098270744
000070 7e b5 20 3d bb c7 f1 bc d5 49 8e 3c fb 83 17 3e
       0.039235584 -0.029514184 0.01736919 0.1479644
000080 77 3a 5d 3d 01 6a c2 3d 38 dc 01 be 66 9a d3 bd
       0.054010835 0.09492875 -0.12681663 -0.103321835
000090 25 df 52 3d b4 9b bf 3d 3b f4 5d 3e 4e e1 2c bc
       0.05148234 0.0935587 0.21675198 -0.010551764
0000a0 d3 5a 25 be f2 4b 42 3d 37 3a a3 bc c1 ba 97 3d
       -0.16147928 0.04743571 -0.01992522 0.07408667
0000b0 60 80 83 bd f9 14 1f 3d 59 f2 19 3b 67 d8 3b 3d
       -0.0642097 0.03883836 0.0023490398 0.045860674
0000c0 71 16 c1 3d 0f 54 46 be 47 c5 af bb d4 7f 87 3d
       0.094281085 -0.19368003 -0.0053640935 0.06616178
0000d0 78 4a 04 be ef a6 c3 bd d9 7a f4 bb 20 92 02 3d
       -0.12919033 -0.095533244 -0.0074609336 0.031877637
0000e0 c5 6c 03 be 34 13 69 be 76 64 a2 3d 8c f6 b2 bd
       -0.12834461 -0.22761232 0.07929318 -0.08738431
0000f0 42 9c a2 3b 78 98 bd 3d 42 31 10 bc ee bf 69 3c
       0.004962475 0.09257597 -0.0088008065 0.014266951

head.norm.weight f4 [64]
000000 ae 63 47 3f 25 10 73 3f 75 77 6e 3f f9 9e 63 3f
       0.77886474 0.9494651 0.93151027 0.8891445
000010 2f d3 50 3f 2a 0c 76 3f 86 bb 8c 3f c7 51 8d 3f
       0.8157224 0.9611231 1.0994728 1.1040581
000020 26 7e 7f 3f 7a 41 63 3f 51 6c 7a 3f b7 6e 72 3f
       0.9980186 0.88771784 0.9782153 0.9470019
000030 61 be 55 3f 0f e1 81 3f 94 53 43 3f 33 b2 48 3f
       0.8349362 1.0146807 0.76299405 0.7839691
000040 13 e3 6d 3f b7 5e 43 3f 44 65 71 3f 26 fa 4f 3f
       0.9292461 0.763164 0.94295144 0.8124107
000050 0d 71 8a 3f 5b 86 b5 3f 3b 38 3b 3f c2 89 79 3f
       1.081575 1.4181627 0.73132676 0.97475827
000060 ac d8 8a 3f 0e 51 60 3f 9b 21 76 3f 85 3e 2f 3f
       1.0847373 0.8762368 0.9614503 0.6845477
000070 16 21 2f 3f ba 9e 54 3f eb f9 2b 3f 45 4f 85 3f
       0.6840986 0.830547 0.6717822 1.0414816
000080 67 4b 7c 3f 43 39 82 3f a8 4c 4f 3f 3e 15 32 3f
       0.98552555 1.0173725 0.80976343 0.69563663
000090 b4 f1 8b 3f b3 0e 6e 3f 16 00 4c 3f e6 6a 7b 3f
       1.0933137 0.9299118 0.7968763 0.9820999
0000a0 48 2a 68 3f 33 78 58 3f c9 81 8d 3f e8 c6 60 3f
       0.90689516 0.8455841 1.1055232 0.87803507
0000b0 54 2b 80 3f 91 cc 83 3f 2f 11 63 3f 35 29 6c 3f
       1.0013223 1.0296804 0.88698095 0.92250377
0000c0 d0 69 7c 3f c9 a4 45 3f 41 e8 67 3f d4 c4 88 3f
       0.9859896 0.7720457 0.90588766 1.0685067
0000d0 3f 9c 91 3f 0b 03 88 3f 78 f1 96 3f 1d 12 a0 3f
       1.1375808 1.0625929 1.179244 1.2505528
0000e0 b1 79 69 3f 65 5d 77 3f b9 f6 72 3f 3c 14 86 3f
       0.9120131 0.96626884 0.9490772 1.0474925
0000f0 9f 04 3e 3f 00 a9 52 3f 58 b2 83 3f 0e 21 36 3f
       0.742258 0.82289124 1.0288801 0.7114419

head.norm.bias f4 [64]
000000 0c 26 ac bb 61 15 d2 3e db f5 5e 3f f5 fa 83 3e
       -0.005253559 0.41031936 0.87093896 0.25777403
000010 ba 39 1e 3f 62 63 ad 3e 90 8b 8a bd 21 62 42 3c
       0.61806834 0.33864886 -0.06764901 0.011864216
000020 cb e0 03 be 7d a1 1e 3e 78 43 38 3d 88 0f 01 3e
       -0.1287872 0.1549129 0.04498622 0.12603581
000030 2e dc c9 3d 76 90 23 3e 33 5a 67 be d9 79 dc 3e
       0.09856449 0.15973076 -0.22593002 0.43061712
000040 62 18 8a be 13 10 1c 3e a7 9c 9f 3e 7d 3f 7c be
       -0.26971728 0.15240507 0.31174204 -0.24633594
000050 04 6b eb bc 58 03 7b 3e d0 0b 23 3f 09 b1 15 3e
       -0.028737552 0.24512994 0.636899 0.14618315
000060 34 f8 4a 3e a5 7d 72 3f 09 52 fd 3c a1 8a 87 be
       0.19821244 0.9472297 0.030922906 -0.26472953
000070 03 ac 87 be 97 70 74 3e 8f 46 46 3f 35 bd 1b 3f
       -0.26498422 0.23871075 0.77451414 0.6083558
000080 70 73 f5 3e 17 e8 2c be d0 6b 20 3f a0 81 70 3e
       0.47939634 -0.1688541 0.6266451 0.23486948
000090 f3 8b 6d 3e 74 40 eb bd ec fd 29 3f bd 70 b6 3e
       0.23197918 -0.11486903 0.6640308 0.35632887
0000a0 bc 76 05 3f 7a 32 e8 3e a7 56 68 3e 4c 6a 1d 3e
       0.521343 0.4535101 0.22689305 0.1537258
0000b0 d6 71 a1 bd 42 67 d3 3d 2c 97 23 3e ef 99 2f 3f
       -0.078830406 0.10322429 0.15975636 0.6859426
0000c0 d7 a1 1c 3e a0 04 2b 3f 0e 1e 16 3e e0 6b 8d 3e
       0.15296112 0.6680393 0.14659902 0.27621365
0000d0 63 4f 26 3e cd 5b 92 3e c1 f4 de 3d 3e 7e 10 3e
       0.16241221 0.28585663 0.10886527 0.14110658
0000e0 a6 55 da bc 9d f0 14 be 36 b7 9e 3e 03 0e 2e 3e
       -0.026652168 -0.14544912 0.30999154 0.16997533
0000f0 91 3f a7 be e0 8b f0 bb 86 c6 01 3d 78 70 39 3e
       -0.32665685 -0.007340893 0.031683467 0.1810931

head.norm.running_mean f4 [64]
000000 2d 71 15 bf db 7b 2b 3e f2 a3 12 3d c7 98 61 be
       -0.5837582 0.16746466 0.03580088 -0.22030936
000010 f9 f7 96 3c a2 80 37 3e 83 53 15 bd 8d 22 48 be
       0.01842879 0.17920163 -0.036456596 -0.1954443
000020 89 fa a1 3e d4 f0 70 3f f6 de 26 be 78 39 3b 3f
       0.31636456 0.94117475 -0.1629599 0.73134565
000030 71 c5 82 bf 1c d8 eb 3e b6 00 96 be b8 d3 f0 3c
       -1.0216504 0.46063316 -0.29297417 0.02939783
000040 fb ae d2 3e a9 46 2d 3e f4 2d 99 be 72 28 d6 be
       0.41149125 0.16921486 -0.29917872 -0.41827732
000050 12 a7 82 3e c1 93 73 bd db 34 d0 3d bc ee 00 bf
       0.2551809 -0.05946708 0.101663314 -0.5036428
000060 7e ab 4a bf a1 73 31 3d a6 c4 c6 be 2f 93 b0 bc
       -0.79167926 0.043323163 -0.38821906 -0.021554558
000070 71 da b3 be 0d db 02 bf ce ab f7 bd e3 aa b7 3d
       -0.35127595 -0.51115495 -0.12093316 0.08968141
000080 43 5b 32 bd a6 81 91 3f d1 f1 d7 be ad 11 9e 3d
       -0.043544065 1.136769 -0.4217668 0.07718215
000090 d2 3c 1f bf 23 4e 10 3e 07 7f 11 3e da 38 9d be
       -0.6220218 0.14092307 0.14208613 -0.30707437
0000a0 cc 58 a6 bd 7a 6f 9c bd ec ae 13 3e 82 e7 b3 3f
       -0.081224054 -0.0763845 0.14422196 1.4055026
0000b0 1c 92 99 3c c0 80 ea bd 18 cb 06 3e c2 42 b0 3c
       0.018746428 -0.11450338 0.13163412 0.021516208
0000c0 03 65 80 3e 0d d6 91 be b1 dd ee be 77 dd b8 be
       0.25077066 -0.2848362 -0.46653512 -0.36106464
0000d0 15 6e 53 bd 93 78 83 3e 20 53 d1 3d 68 59 82 3e
       -0.051618654 0.25677928 0.10220933 0.25458837
0000e0 ee 6d 6a 3e 83 ee 76 be 96 0d e7 be f6 23 b8 bd
       0.22893497 -0.24114423 -0.45127553 -0.08991234
0000f0 27 cc 20 be 14 a0 a5 be 9a ec 35 3e a3 63 4c bf
       -0.15702878 -0.32348692 0.17766038 -0.79839534

head.norm.running_var f4 [64]
000000 b1 f4 dc 3e 1b 9d c8 3b 45 e8 a5 3b 87 17 a2 3d
       0.43155435 0.006122244 0.005063089 0.07914644
000010 22 ea c4 3b 7a 2d b0 3c 57 42 7f 3b 77 ad a1 3b
       0.006009356 0.02150606 0.0038949454 0.0049340087
000020 b3 43 b5 3d 22 c0 eb 3e 4e 28 ab 3b 5d 85 9a 3e
       0.08850803 0.46045023 0.0052233106 0.30179873
000030 db 6f 1d 3f ff 0d 42 3c 39 64 c6 3e aa 2a af 3b
       0.614988 0.011844157 0.3874834 0.005345662
000040 78 ca 4a 3c 96 a0 7a 3c 7f c3 9b 3c 46 99 e1 3e
       0.012377374 0.015297076 0.019014118 0.4406225
000050 8a 64 ba 3d a9 00 76 3b 4e db 2d 3c c4 04 4e 3e
       0.091012076 0.0037537015 0.010611368 0.20119005
000060 ef bd ab 3e 75 dd 57 3c c1 da 9b 3c 62 6d 2a 3e
       0.33543345 0.013175358 0.019025208 0.16643289
000070 31 6d 0d 3f 0e e1 09 3e aa 93 d2 3b fc d0 d0 3b
       0.5524474 0.13464758 0.0064262943 0.006372569
000080 d0 70 b6 3b d5 70 a5 3e 3e 12 15 3c 26 51 29 3b
       0.0055676475 0.32312647 0.009098588 0.0025835722
000090 b1 46 d5 3e 7a 92 39 3c 6d 5b 19 3b fa d2 94 3b
       0.41655496 0.011326427 0.0023400441 0.004541752
0000a0 7f 3e bb 3c a1 49 b7 3c 4c b1 57 3c 38 56 45 3f
       0.022856949 0.022373976 0.013164829 0.77084684
0000b0 8d 82 6f 3e ac 1e 85 3b 3b eb b1 3b c7 77 9b 3b
       0.23389645 0.0040624943 0.005429653 0.004744503
0000c0 64 3a 81 3d b0 e2 0d 3b c3 31 89 3e c7 61 9c 3e
       0.06309965 0.002165001 0.26795778 0.30543348
0000d0 a0 b1 a5 3b 48 33 a1 3d 04 6a 06 3e d3 1b 57 3f
       0.005056575 0.07871109 0.13126379 0.8402683
0000e0 58 a0 90 3d 1e 19 81 3b c3 7f 10 3e b5 23 7b 3b
       0.07061833 0.003939762 0.14111237 0.0038320844
0000f0 49 75 51 3e 17 78 0a 3e 5d af 6f 3e 88 dc 5f 3e
       0.20454897 0.13522373 0.2340674 0.2186147

body.block1.conv.weight f4 [64, 64, 3, 3]
000000 27 1c 02 bd db be df bc 4e 5a a4 3b dd 0a d2 3c
       -0.03176513 -0.027312687 0.005015648 0.025639946
000010 58 dc 0c bd 98 8f ca 3c ec 3b 52 3d b8 c9 b3 3b
       -0.034389824 0.024726674 0.051326677 0.0054866932
000020 b6 f6 3e bb 47 db 37 bd ed 04 3b 3c a9 95 3f 3e
       -0.002913875 -0.044886854 0.011414749 0.18709435
000030 b9 d6 8c bd 66 7d 31 bd 52 a0 59 3c ba c6 bd bd
       -0.068768926 -0.04333248 0.013282852 -0.0926642
000040 bb 97 b7 bd 20 a3 81 bd 10 aa c4 3c 9e 28 13 bd
       -0.08964487 -0.06329942 0.024006873 -0.035927407
000050 01 80 73 3e 6b 88 95 3c 19 a3 52 bd d5 ad b5 3b
       0.23779298 0.018253526 -0.051425073 0.005544404
000060 7f dc 87 bc 9d 7f 1c bd a3 29 ab 3d 43 37 a5 3a
       -0.016584633 -0.03820764 0.08357551 0.001260497
000070 42 bb 8c 3c 0d aa 5d 3d ce b2 c0 bd f4 7e 7c bd
       0.017179135 0.05411725 -0.09409104 -0.06164451
000080 1f 61 fb bb a9 11 ab bd 45 38 a9 bc a9 f0 13 bc
       -0.00767149 -0.08352978 -0.020656714 -0.009029546
000090 05 54 4f bd 75 f5 bf bd 69 ba 94 bd 81 1e a3 3c
       -0.050617237 -0.09372989 -0.072621174 0.019912006
0000a0 b3 3d 65 3d c7 fb 65 3d 01 6c e1 3c 7e ef 2e bd
       0.055967044 0.056148317 0.02751732 -0.042708866
0000b0 1a bd 2a be 08 fc 38 be 3f b5 9a bd b7 82 b7 bd
       -0.16673699 -0.18064892 -0.07554101 -0.08960479
0000c0 08 64 cb bd 18 30 95 bd 1e 5a fb bc 97 8c e1 bd
       -0.09931189 -0.07284564 -0.03068262 -0.110131435
0000d0 23 94 68 bd bc 46 cb 3b f8 c3 64 bc 7e 18 2d 3e
       -0.0567819 0.0062035006 -0.013962738 0.16903874
0000e0 53 83 56 3e 8f 56 71 bd 6a 3f 21 3c 1b a8 9f 3d
       0.20948534 -0.05892044 0.009841779 0.077957354
0000f0 24 ba 64 bc 0c 1e e2 bd 9d c2 0a bd 67 b8 86 3d
       -0.013960395 -0.11040887 -0.033877004 0.06578141
000100 1c 9e 2e 3c 41 5f d7 3d 2f ca f1 3c 80 e1 7c bd
       0.010657813 0.10516215 0.029515354 -0.06173849
000110 f3 d7 be bc 7d 56 f3 3d b2 d0 1d 3c d2 9e e9 3b
       -0.023296332 0.11881731 0.009632276 0.0071295286
000120 2d 52 66 bd a8 0c d7 bb c1 6e 24 bc 5c 32 8c bd
       -0.056230713 -0.006562788 -0.010036171 -0.06845543
000130 16 74 5d bc 66 c3 9b 3c 1a 3c fd bc 7a ff 08 bd
       -0.013516447 0.019014072 -0.030912448 -0.033446766
000140 2b 73 13 3c 49 34 26 be 3c 2a 29 be 09 e6 c7 bd
       0.008999626 -0.16230883 -0.16520017 -0.097606726
000150 e3 7c ce bd 19 ec 27 be 50 4c 03 be 9e ee 89 bd
       -0.10082414 -0.16398658 -0.1282208 -0.06734966
000160 ff 3e c2 bd a2 03 a6 bd aa 75 9a bc fe 32 81 3c
       -0.09484672 -0.08106162 -0.018854935 0.015771385
000170 07 f3 8a 3d 9f 71 be bc e4 c4 16 bd 60 d9 0f bd
       0.06784635 -0.023247538 -0.036808863 -0.035119414
000180 d1 2b b0 3c 09 69 20 bd a9 90 6d bc 24 54 50 be
       0.021505268 -0.03916267 -0.014499822 -0.20344597
000190 1d 84 55 be a7 76 4f be 40 76 d3 bc 2c b4 17 be
       -0.20851178 -0.20260106 -0.025813222 -0.14814824
0001a0 b0 ad 02 be 3d a0 93 3d 2e 99 1b bd 03 ae 2c bd
       -0.12761569 0.072082974 -0.03798788 -0.042158138
0001b0 4a f9 6f bd a2 3e 10 bc e9 f0 3b bd 7c e0 48 3c
       -0.05858735 -0.008803995 -0.045884047 0.0122605525
0001c0 3e c4 55 3c 7b e6 ac bc 4a 06 56 3d e8 10 f7 bc
       0.013047276 -0.021105995 0.05225209 -0.030159429
0001d0 0b 79 a3 bc b5 bc d9 bc 2b 83 bb bc e6 52 27 3d
       -0.019955179 -0.02657924 -0.022889694 0.040850542
0001e0 44 0f cc bd 83 0d 41 bd 75 e7 f3 3a b3 aa f0 bc
       -0.09963849 -0.047132026 0.0018608408 -0.02937827
0001f0 53 20 81 bd b1 f0 19 bd f2 81 30 3d 69 d1 94 bc
       -0.063049935 -0.037583057 0.043092676 -0.01816626
000200 66 64 93 3d 0a 7d 4e 3d 90 c6 cd 3c 7c 0c 47 3d
       0.07196884 0.050412215 0.025119096 0.04859589
000210 b5 aa 62 3d 3c 1c 45 3d ce 8a 5a 3c 14 cf 65 bd
       0.05533858 0.04812263 0.013338758 -0.05610569
000220 18 1c 0f 3d 17 56 b7 3d f4 73 09 bd 24 68 a0 bc
       0.0349389 0.08951967 -0.033557847 -0.019580908
000230 03 62 ba 3d d2 c6 f3 bc 89 99 ce bc 98 f0 1b 3d
       0.091007255 -0.02975789 -0.025219696 0.038071245
000240 0d a0 53 3d 2c b8 70 3d 27 64 a6 3c 48 8f 8d 3c
       0.05166631 0.05876939 0.020311428 0.017280236
000250 70 8d c6 3c 18 40 89 3d f9 fa e5 3b 61 0a cc 3c
       0.024237365 0.06701678 0.0070184437 0.024907293
000260 79 a8 5d 3c de 4e 35 3b 5e ea 30 bb 7a 9c dd 3c
       0.013528937 0.0027665417 -0.0026995162 0.027052153
000270 76 cb 95 bb 49 d7 50 3c 4c a6 02 bc 13 92 e1 3c
       -0.0045713736 0.0127466405 -0.007974219 0.027535474
000280 a3 15 09 bb db 85 52 3c 53 a8 27 be 46 96 5c bd
       -0.0020917438 0.012849296 -0.16372804 -0.05385425
000290 88 6c ad bd f3 e6 cf bd 78 bb 80 bd 00 49 5a bd
       -0.08467966 -0.10151472 -0.06285757 -0.053292274
0002a0 1d 4a 43 3a b1 c3 92 3c 29 62 99 bd aa de c1 3c
       0.00074497034 0.017915579 -0.07489426 0.023665745
0002b0 fb 81 24 bd fd 58 00 bc 7d 15 c4 3c 17 97 12 3c
       -0.04016302 -0.007833716 0.023936028 0.008947155
0002c0 23 e9 c6 3c 13 f6 c0 3c 75 40 c2 3c 4f 56 5a 3d
       0.02428109 0.023554837 0.023712376 0.053304967
0002d0 a9 f4 33 be 56 b3 13 be 3a 9a ea bc a6 2f 32 bd
       -0.17573799 -0.1442388 -0.028637994 -0.043502472
0002e0 3c a8 18 bd cd f3 75 bd 8f d8 e6 3c 7a 23 b2 bc
       -0.037269816 -0.06004696 0.028179435 -0.021745432
0002f0 ee 8c 1e bc e7 c8 92 3d ba f3 16 bd 7e d9 cc 3d
       -0.009677155 0.07167225 -0.03685353 0.10002421
000300 3d 3c fe 3c a6 a5 47 bc 24 1f 2f 3d 36 cd 1d 3d
       0.031034583 -0.01218549 0.042754307 0.038525783
000310 85 22 04 bd e8 74 0f bc 71 8c 93 bd 53 8c 6e bd
       -0.032259483 -0.0087559 -0.072045214 -0.058239292
000320 98 80 15 3e b8 28 99 bc 3a d4 35 bc 24 0f 99 3c
       0.14599836 -0.018696174 -0.011097962 0.018683977
000330 8a 1e 01 bc 34 23 1e 3c 68 3d 94 3d 9a c5 01 bc
       -0.007880816 0.009651948 0.07238275 -0.007920647
000340 f4 de fc bc 2c 3b 81 3c 72 1d ea bc 80 b7 4e bd
       -0.030868031 0.015775286 -0.028578494 -0.050467968
000350 05 13 ec bc e7 4b 78 bd 77 65 da bd 9c 6b bb bd
       -0.028817663 -0.06061926 -0.10663884 -0.09151384
000360 8f 5c f9 3b 08 4f 9f 3d e4 b0 a7 3d fd 5b ec 3b
       0.007609911 0.07778746 0.08188036 0.0072131143
000370 f3 c3 42 3d 5b f7 38 3d a4 07 51 bd 55 ad eb bc
       0.047550153 0.04515777 -0.051032677 -0.028769175
000380 2f 3e 04 bd 13 a9 01 be 8f 3a 05 be 06 52 39 be
       -0.032285865 -0.12662153 -0.1301062 -0.18097696
000390 88 83 24 bd 13 34 02 bd b1 f2 4b bd 17 de e2 bb
       -0.0401645 -0.031787943 -0.049791995 -0.006923448
0003a0 7e 01 ee 3c 2e e3 61 bd 33 0c 85 bd d6 76 b0 bc
       0.029053446 -0.055148296 -0.064964674 -0.02154104
0003b0 a3 6a b6 bc b3 41 2e bd 58 6c 4c bd 72 61 00 bd
       -0.022267645 -0.042543124 -0.049908012 -0.03134293
0003c0 3b eb 1d be 38 3c 90 bd f0 df b0 bd 27 c6 50 3b
       -0.15421765 -0.07042736 -0.08636463 0.003185639
0003d0 48 04 ac bb 59 8c d0 3b af 56 10 bb da 49 fd bc
       -0.005249534 0.006364387 -0.0022024324 -0.030919004
0003e0 fc 15 e7 bb 2f 34 8e 3d bb c3 a2 bc e2 13 85 3c
       -0.0070521813 0.06943547 -0.019868722 0.016244832
0003f0 ca 8e 80 3d c3 30 8c 3c 98 b7 bf 3c 0e 3c e8 3d
       0.06277235 0.017113095 0.023402974 0.113395795

body.block1.conv.bias f4 [64]
000000 78 99 11 3d 35 4e 15 3d db 9e 1b bd f0 11 b7 bc
       0.03554675 0.036451537 -0.037993293 -0.02234742
000010 93 81 8a 3c 23 df 26 3a 9c cb 31 bd 07 67 01 bb
       0.016907489 0.00063656474 -0.043407068 -0.0019745247
000020 7a b6 0c 3d 0b be 25 bb 0c 9d c4 39 79 1e f5 3b
       0.03435371 -0.0025290276 0.00037501042 0.0074804393
000030 52 dc 9c bc 10 44 66 3c 5c f1 0a bd 4c e3 2f 3c
       -0.019148026 0.014054313 -0.033921584 0.010735344
000040 20 5b 21 3d 56 29 2a 3d a4 7a 1b 3d b4 27 5c bc
       0.039393544 0.041543327 0.037958756 -0.0134372
000050 10 46 91 bc c1 15 20 3d 56 d1 9c bc 89 71 d3 3c
       -0.017733604 0.039083246 -0.019142788 0.025810974
000060 f9 7e 46 bc 48 79 16 bd 06 15 81 3c 99 2f f1 3c
       -0.012115234 -0.036736757 0.015757095 0.029441642
000070 f8 f6 0a bd fc 1e f3 bc 60 b4 75 bb 0a 40 8a 3c
       -0.033926934 -0.02967786 -0.0037491545 0.01687624
000080 47 d9 b2 3c 9d 77 67 3c dc 20 1b bd 26 6f 4e 3d
       0.021832122 0.014127639 -0.037873134 0.05039897
000090 e8 08 cf 3b c8 79 ce 3c b7 bb f1 bc b3 26 3f 3b
       0.0063182004 0.025204554 -0.029508455 0.0029167354
0000a0 9a 76 b6 bb 08 0f 9f bc e3 7f 46 3c e0 12 5c bc
       -0.0055683376 -0.019416347 0.0121154515 -0.0134322345
0000b0 20 1b 41 3c 9e 3b 01 3d 8e f5 77 bc 5b 1b e3 3c
       0.011786252 0.031550996 -0.015134228 0.027723005
0000c0 82 de 1f bd 75 d9 87 3c 28 19 53 3a f8 b9 2d 3d
       -0.03903056 0.016583184 0.000805276 0.04241368
0000d0 68 f7 bb bc 26 9d d4 3c 11 95 d0 3c 59 3a 8b bc
       -0.02294512 0.02595384 0.025461705 -0.016995596
0000e0 ac 50 14 bd 6b 28 d4 bb 9f 80 5e 3c 0b 76 28 3d
       -0.036209747 -0.0064745448 0.01358047 0.0411282
0000f0 a0 78 10 3c da 1c d5 bc 5f 52 21 3d 98 c8 e0 3b
       0.008817822 -0.026014734 0.039385196 0.00685985

body.block1.norm.weight f4 [64]
000000 20 8a 7c 3f 7f 95 8a 3f 7e 7c 75 3f 9b 3f 6c 3f
       0.9864826 1.0826873 0.95893085 0.92284554
000010 94 35 9e 3f 0f 64 90 3f de d3 66 3f fe aa 6d 3f
       1.2360101 1.1280535 0.90167034 0.9283904
000020 5b 36 51 3f c6 bd 56 3f 51 92 63 3f 79 ed 4e 3f
       0.81723565 0.8388332 0.88895136 0.80831105
000030 10 47 80 3f b0 e1 8c 3f 69 76 6c 3f 4f 44 6e 3f
       1.0021687 1.1006374 0.9236818 0.9307298
000040 99 a3 77 3f 6b 32 63 3f fe 77 65 3f 71 93 7e 3f
       0.96734005 0.88748807 0.8963622 0.9944373
000050 f6 14 4b 3f 96 bb 91 3f 0a 5d 6a 3f 07 7d 76 3f
       0.7932886 1.1385372 0.91548216 0.96284527
000060 e6 21 8b 3f 58 ef 66 3f 04 0b 3b 3f 00 56 4f 3f
       1.086972 0.9020896 0.73063684 0.809906
000070 16 51 6c 3f 25 b8 7c 3f c8 ba 76 3f 69 a4 83 3f
       0.9231123 0.9871848 0.96378756 1.0284549
000080 ff bb 82 3f fa 67 45 3f 55 7a 85 3f 82 6e 5e 3f
       1.0213622 0.7711178 1.0427958 0.8688737
000090 19 b8 6c 3f 59 ec 6e 3f 1d 08 55 3f 39 b7 6d 3f
       0.9246841 0.9332939 0.83215505 0.928577
0000a0 6c d6 7f 3f e2 ed 5e 3f 51 eb 59 3f 05 cc 80 3f
       0.99936557 0.8708173 0.8512469 1.0062262
0000b0 8e 9d 65 3f ff 02 9a 3f c3 7d 6b 3f d8 72 79 3f
       0.89693534 1.2032164 0.9198877 0.9744086
0000c0 00 ae 45 3f 40 16 98 3f 64 2e 7c 3f 58 e3 73 3f
       0.7721863 1.188179 0.98508286 0.95268774
0000d0 1a 83 48 3f a4 b9 44 3f 03 1a 80 3f ac 59 72 3f
       0.78325045 0.76845765 1.0007938 0.9466808
0000e0 4f ac 77 3f cc 3d 67 3f 4b ed 83 3f 9e 98 61 3f
       0.967473 0.9032867 1.0306791 0.881235
0000f0 f0 26 9d 3f 60 37 6d 3f dd bd 88 3f d5 e1 62 3f
       1.2277508 0.9266262 1.0682942 0.8862584

body.block1.norm.bias f4 [64]
000000 fd 91 88 3e a5 18 d6 3e c7 de 79 3d b4 b4 9a 3e
       0.2667388 0.41815677 0.061003473 0.3021599
000010 62 c8 5a 3e f2 60 45 3e f2 6a 20 3f 1e 40 6c 3e
       0.21365502 0.19275263 0.62663186 0.23071334
000020 84 cb ca 3e 52 01 10 3d 56 cc 83 3c 75 af 86 3d
       0.39608395 0.03515751 0.016088646 0.065764345
000030 21 5e 5b 3e bc f8 d8 3e 59 09 72 3e a9 bc 26 3f
       0.21422626 0.4237727 0.23636378 0.6513162
000040 74 5c f8 3e 44 e7 f8 3d 32 33 90 bd d1 04 00 3f
       0.48508036 0.121534854 -0.07041015 0.5000735
000050 f7 9d 00 3f 77 15 a1 3e 0b ea 3c 3b f1 67 c8 3e
       0.50241035 0.3146169 0.0028826024 0.391418
000060 b4 32 fc 3c de 6a d0 3d 85 9c ae 3e 47 96 26 be
       0.030785896 0.10176633 0.3410379 -0.16268264
000070 60 02 2d 3e 94 da b7 3e 34 fe 29 3f b4 1f bc 3d
       0.16895437 0.3590895 0.6640351 0.091857344
000080 01 bc e5 3e d9 e4 d1 3e f2 17 af 3e 6a 96 b9 3e
       0.44869998 0.4099491 0.34197956 0.3624757
000090 f2 37 de 3c d2 e5 7d bd 77 e1 90 3c ec 7b 5a 3e
       0.027126286 -0.06198675 0.017685635 0.21336335
0000a0 56 54 ab bd 33 81 56 bc d6 fd 88 3e da d1 01 3e
       -0.08365695 -0.013092327 0.2675616 0.12677708
0000b0 c7 0c be 3e fe d7 8e bc 5e 8b 33 3e ca 60 10 3e
       0.37119123 -0.017436977 0.17533633 0.14099422
0000c0 1a b5 8b 3e 4d 91 03 3f 79 b7 8a 3e f1 e1 29 bd
       0.27286607 0.51393586 0.27093104 -0.04147524
0000d0 24 7d 5b 3e 37 2d 39 3f 56 c0 db 3e 21 42 25 bb
       0.21434456 0.7233462 0.42920178 -0.0025216418
0000e0 e3 fa 8e 3d f8 d1 d5 bb 4a da a2 3e 1b 7b 37 3f
       0.069814466 -0.0065252744 0.31807166 0.7167222
0000f0 0a 2d 8e 3e 83 21 22 3f 03 00 c3 3e 7b 72 2a be
       0.27768737 0.63332385 0.38085946 -0.16645233

body.block1.norm.running_mean f4 [64]
000000 c2 27 90 c0 d7 da c9 3d 4e 0a 3a 40 d8 19 1a c0
       -4.5048532 0.098561935 2.906879 -2.4078274
000010 89 ec b9 40 d5 5c 02 3f 84 fc 15 c0 4d 8d 91 c0
       5.810124 0.509229 -2.3435373 -4.5484986
000020 21 20 ac be b5 00 57 bf 3a 79 85 bf 94 f8 89 40
       -0.33618262 -0.83985454 -1.042762 4.311594
000030 f1 8d 95 40 d4 95 86 c0 34 c5 3c 3f 46 93 6b 3f
       4.673577 -4.2057896 0.7373841 0.92021596
000040 c0 88 26 c0 39 53 2a 3f 7a 54 94 bf 40 2d 6b 3f
       -2.6020966 0.6653324 -1.158828 0.9186592
000050 30 5a fb 3f 43 a0 92 c0 68 4d b6 3f d1 57 5a 3f
       1.9636898 -4.582063 1.4242373 0.8529025
000060 74 07 aa 3d f1 7c c0 3d 7d c6 e0 bf 57 f9 1d 40
       0.08302203 0.09398831 -1.7560574 2.4683435
000070 fd 9c 64 3e c0 8d 9e bf 18 38 52 40 7e 03 a4 3e
       0.22325511 -1.2387009 3.2846737 0.32033914
000080 89 5f 38 bd 0d 35 18 c0 d5 bb 2c c0 26 9b 01 c1
       -0.045012984 -2.378238 -2.6989644 -8.100378
000090 fe 47 d1 bf 68 93 44 3e ee b4 5a 3f b0 63 5e 40
       -1.6350095 0.19196856 0.85432327 3.4748344
0000a0 f1 f8 89 be 31 1a b2 be f3 06 e5 bf 48 46 cc 3f
       -0.2694774 -0.34785607 -1.7892746 1.5958948
0000b0 15 9c 43 3f 13 91 8e c0 cc ad 38 c0 74 ef 7c 40
       0.7641004 -4.4552093 -2.8856077 3.952115
0000c0 8a 1f 1e 3e 7c cb 27 c0 43 80 f7 3f fc d6 fb 3e
       0.15441719 -2.6217947 1.9336017 0.49187458
0000d0 6d ee 6f 3f f6 b9 5b 3d ea 4a 70 c0 ed 81 4d bf
       0.93723184 0.053644143 -3.7545724 -0.80276376
0000e0 22 e3 09 3f 07 56 14 40 a5 b5 12 bf 10 10 c4 3f
       0.538622 2.3177507 -0.5730842 1.5317402
0000f0 e5 f5 a3 40 9e 48 9b 3f ec 02 a0 c0 88 a3 f6 bf
       5.1237664 1.2131536 -5.0003567 -1.9268656

body.block1.norm.running_var f4 [64]
000000 20 0d f7 40 44 f8 23 40 f2 15 75 40 0f 53 48 40
       7.720352 2.562028 3.8294644 3.1300695
000010 ad b9 ef 40 41 c9 63 41 60 93 34 40 9e c8 be 3f
       7.4914155 14.236634 2.821495 1.4904974
000020 c9 55 8b 40 cc 9d 6d 40 62 d7 5a 40 f0 87 9a 40
       4.354222 3.7127562 3.419396 4.829094
000030 bb a5 c1 40 04 83 59 41 9b c4 15 40 d8 11 1b 40
       6.051481 13.594486 2.3401248 2.422964
000040 04 bf a1 3f f1 4c 30 40 8a 0a 2d 41 67 ac 20 40
       1.2636418 2.7546961 10.815073 2.5105226
000050 99 48 c5 3f e9 de d5 3f 5f 92 b1 40 6c a3 ee 3f
       1.541278 1.6708652 5.5491176 1.8643622
000060 9b 46 1f 41 21 46 6a 40 00 54 ba 3f 2f 80 81 41
       9.954738 3.6605303 1.4556885 16.18759
000070 f7 09 c4 3f a5 1b b1 3f dc 67 b0 3f ec 3f 31 41
       1.5315541 1.3836561 1.3781695 11.078106
000080 09 5c 34 40 be 4a 55 3f 24 0d c1 40 2d 00 d7 40
       2.8181174 0.8331717 6.032854 6.7187715
000090 84 4a db 3f bf b5 99 40 1c fa 04 40 82 06 d0 40
       1.7132115 4.803436 2.0777655 6.5007944
0000a0 6e b0 6f 40 96 ca 8a 40 ae 8b 81 40 ed 0d 58 40
       3.7451434 4.3372297 4.0483007 3.37585
0000b0 aa d1 84 3f e5 34 e6 40 2e 00 a6 40 19 48 dd 41
       1.0376484 7.193957 5.187522 27.660204
0000c0 2e ef 08 40 1e e1 1b 41 4f ed 02 40 93 c4 48 40
       2.1395984 9.74246 2.0457342 3.136998
0000d0 45 03 ea 3f ae c7 01 40 31 81 33 40 ff 4d 8a 40
       1.8282248 2.0278125 2.8047602 4.322021
0000e0 e4 a7 e2 40 71 f2 76 40 fb ef 8c 3f 28 a8 8d 3f
       7.0829945 3.8585474 1.1010736 1.1066942
0000f0 4a e5 2a 41 77 11 2a 40 49 c3 a1 40 e9 50 34 40
       10.680979 2.657316 5.0550885 2.8174384

body.block2.conv.weight f4 [64, 64, 3, 3]
000000 f8 94 c4 ba 4e 72 1f 3a 22 50 bd 3c 9a c5 f9 3c
       -0.001499801 0.00060824014 0.0231095 0.030489732
000010 12 4e 17 3d 99 c1 d8 3c 94 2d 59 bd 65 5c 2f bd
       0.036939688 0.026459502 -0.053021982 -0.042812724
000020 49 6e bc bc ef 20 d2 bb 82 19 7a bd 0d 0e bb bd
       -0.023001807 -0.0064126174 -0.061059482 -0.09133539
000030 d0 bc 07 3c bf 80 b7 bd e0 74 e6 bc 88 a4 64 3d
       0.0082847625 -0.08960103 -0.028131902 0.05582097
000040 14 90 bc bd b4 ae b7 bc bd cb ca bd fc 8d 63 bd
       -0.09207168 -0.022422172 -0.09902141 -0.05555533
000050 dc 62 27 be 89 fc 3b 3d ab 80 b9 3c 38 1f 88 3d
       -0.16346306 0.045895133 0.022644361 0.066465795
000060 c8 14 d7 bc 0a a4 9d bc fb 91 07 be e9 fc 36 3d
       -0.026255026 -0.019243259 -0.13239281 0.044674788
000070 fa 25 82 3d da 21 8c 3d 84 28 37 3d af c8 8d 3d
       0.063549 0.06842394 0.044716373 0.06923043
000080 1e 75 83 3c 30 d7 9b bd 09 b4 d7 3b 75 37 88 bd
       0.016047057 -0.07609403 0.006582741 -0.066512026
000090 5e 1a 49 be c2 1c 0c be 55 f5 6d be 05 9e 94 3d
       -0.19638965 -0.13682845 -0.23238118 0.07256702
0000a0 eb bc b0 3c 8e 8c ae 3d 90 ee a6 3d fa 6c a5 3c
       0.021574458 0.085229024 0.08150971 0.020193566
0000b0 2d 14 10 be d5 92 54 bd fe b3 76 bd 40 9a e2 bd
       -0.14070196 -0.051897842 -0.060230248 -0.11064577
0000c0 c9 b4 e7 3c c4 4d f6 bc 3d 7d fa 3a 50 af 12 3c
       0.028284447 -0.030066378 0.001911081 0.008952931
0000d0 82 70 91 3c dc ae c9 3b 75 38 70 3d f7 6f 7d bc
       0.017753843 0.006154878 0.05864759 -0.015468589
0000e0 7c 5d 08 3e 88 b3 a0 bd 48 e1 92 bd be 12 b6 bd
       0.13316911 -0.07846743 -0.07171875 -0.088902935
0000f0 e3 96 de 3d 1f e1 1a bd 17 4d e1 3c 8b 26 f9 3c
       0.10868623 -0.03781235 0.02750258 0.030413887
000100 24 7c 6e 3b 57 d8 b8 3d 53 bc 25 bc eb 1a 81 3c
       0.0036389912 0.090256386 -0.010115701 0.015759906
000110 1f 64 e2 bb 56 13 d6 3d e9 34 7d 3d 6b 86 8e 3c
       -0.006908908 0.10452907 0.061818037 0.01739808
000120 f5 e6 db bb ce 7a 52 bd 22 a9 0c be 30 32 f7 3d
       -0.006710882 -0.051386647 -0.13736394 0.120701194
000130 03 a0 89 3c c9 ce b7 3d 02 a9 aa 3d 90 d9 28 bc
       0.016799932 0.08974988 0.08333017 -0.010305777
000140 9d 3f f1 bc 6d 75 37 bd 9c 50 86 ba 07 4c 98 bd
       -0.029449278 -0.04478972 -0.0010247412 -0.07436376
000150 52 5f a6 bd f2 ee 14 bc 36 ad 08 bd a4 5c 8a bb
       -0.0812365 -0.009090172 -0.03336831 -0.0042224694
000160 1a aa 29 bb 1c 7e 5d bd 44 4a 43 be 33 7a 20 be
       -0.0025888742 -0.054075345 -0.19071299 -0.15671615
000170 6b 6c 96 bd 7e b0 e1 bc 73 fa a4 bd e0 b9 56 bd
       -0.07344898 -0.027549978 -0.08055582 -0.052423358
000180 b2 39 8a bd 3c df 1d bd eb b5 b5 bc ae ba 3c bd
       -0.06749286 -0.03854297 -0.022181472 -0.04607647
000190 9f f9 b5 3a 00 95 91 bd a3 40 2a 3d 7c af 2a 3d
       0.0013883597 -0.071084976 0.04156555 0.04167126
0001a0 3e 37 4b 3d d4 19 0c 3e db be b4 3d 66 af 53 3d
       0.04961323 0.13681728 0.08825465 0.051680945
0001b0 e3 95 a9 3c e1 78 33 bc 2e bc 0b be b5 c9 05 3d
       0.020701354 -0.010954113 -0.13646004 0.032663066
0001c0 ef 3f 34 3d 56 72 ad bc e2 a3 07 3e b3 ee bc 3c
       0.044006284 -0.021172684 0.1324611 0.02306304
0001d0 d7 a5 14 3d fe 79 cb 3d 8a 88 77 3d fe 3e 32 bb
       0.03629097 0.099353775 0.06043295 -0.002719819
0001e0 4c c1 ca 3d 52 a1 ea 3c 6d 84 2f 3b e9 9a 0c 3e
       0.0990015 0.028641377 0.0026781813 0.13730969
0001f0 81 80 d8 3d b3 42 e8 3d 81 a6 e5 3d af 6f 5e bd
       0.10571385 0.11340847 0.11213399 -0.05430573
000200 31 59 e4 bb c3 c6 31 bc b6 03 91 bd be 8c 70 3d
       -0.0069686403 -0.010850611 -0.07080786 0.058727972
000210 fd c4 c1 3d 80 b0 08 3d 52 ad 2b 3e a2 de 0a 3b
       0.09461401 0.03337145 0.16765335 0.0021189828
000220 c7 3e 60 3d 82 c1 10 3d 72 c4 c4 3d d7 bb 6f 3d
       0.05474737 0.035340793 0.096077815 0.058528747
000230 41 77 ae 3d ae 8d d1 bd f1 79 df bd 1b 75 a2 bd
       0.0851884 -0.102321014 -0.1091193 -0.07932492
000240 8c d3 ae 3c 79 a0 94 bd c3 a6 92 bd d2 78 89 bd
       0.021341108 -0.0725717 -0.071607135 -0.06712498
000250 05 b0 e0 bc 19 96 f0 3c f3 8c 86 bd 8d d0 96 3d
       -0.027427683 0.029368447 -0.06569853 0.07363997
000260 b2 ea 60 bd 37 8c b3 3c 04 61 d0 3d 52 b8 03 bd
       -0.054911323 0.021917446 0.10174754 -0.032158203
000270 ff cf 0b 3d e6 33 1d bd ac 9b d2 bd ba bb 59 3d
       0.034133907 -0.038379572 -0.10283598 0.053157546
000280 c1 d9 23 bd f4 5f 03 3d 26 08 9c bd 1d 35 6c bd
       -0.04000259 0.03207393 -0.07618742 -0.05766784
000290 5a 25 38 bd 3b 3a ce bc b8 22 64 bc 54 af fe bc
       -0.044957496 -0.02517425 -0.013924293 -0.031089462
0002a0 fc 56 e2 bc d6 f3 0f 3d fc 4a 54 bd 9b a1 61 bd
       -0.027629368 0.03514465 -0.051829323 -0.05508576
0002b0 b4 da 4c bd d1 3c 07 3e 4e 68 80 3d db 36 99 3d
       -0.05001326 0.13206793 0.062698945 0.07481166
0002c0 47 66 90 3d 6c cf 3c bc 1d 3c 16 3d 23 55 5b bd
       0.07050758 -0.011524063 0.036678422 -0.05354799
0002d0 97 e9 78 bc 14 e0 a1 bb a9 5c cc bd 79 21 c1 bc
       -0.015192411 -0.0049400423 -0.09978611 -0.023575531
0002e0 e4 3e 79 3c 7b 4b 62 3d e9 0b af bd 44 61 84 bd
       0.015212748 0.055247765 -0.085471936 -0.064638644
0002f0 30 0f ce bc 91 fe f0 3d 26 72 a8 bc b5 1d a6 bd
       -0.025153726 0.11767305 -0.020562243 -0.08111135
000300 db 30 36 bc b8 4c 9d 3c c1 20 88 bd 19 48 2e bd
       -0.0111200465 0.019201621 -0.06646872 -0.042549226
000310 37 c7 4d bc dd 8e 53 bc 81 74 1c be 24 3b 24 bd
       -0.012559704 -0.012912479 -0.15278818 -0.040095463
000320 2c 83 f1 bc 58 91 9b bd e0 08 cb bc eb 74 04 bd
       -0.029481493 -0.075960815 -0.024784505 -0.032338064
000330 95 fb d2 38 33 de 45 bd 52 8a 28 3d 05 80 2a 3c
       0.00010060441 -0.04830761 0.041147538 0.010406499
000340 fa a2 25 bd 2a 3b bb 3c f4 98 d4 3b f5 e8 f5 bb
       -0.04043863 0.02285536 0.00648796 -0.0075045773
000350 6f af 36 3c f5 4b fc bd 64 3a ee 3c ca c9 f1 bc
       0.011150225 -0.12319175 0.029080577 -0.029515166
000360 67 cc 8f 3c f1 4a 52 bd a8 82 60 3d c8 5b d8 3c
       0.017553521 -0.051341 0.054812104 0.026410952
000370 23 81 82 3d 1b 35 09 3e c3 d0 24 bd 46 f6 7c 3d
       0.06372287 0.13399164 -0.040238153 0.061758302
000380 c0 8f e5 3d 6f 0f 31 be b0 fc d2 bd 9f 79 79 bd
       0.11209059 -0.17291044 -0.103021026 -0.060907003
000390 20 c6 23 3c c4 30 ab bc d4 cd fd bc 31 7e 45 bc
       0.009995967 -0.020897277 -0.030981936 -0.012054012
0003a0 97 35 88 bd 44 06 67 3d 0f 75 bc bd 21 5f 67 bb
       -0.066508465 0.05640246 -0.09202015 -0.0035304504
0003b0 3f b2 e5 3b a5 10 b1 bc 2c 8c 22 bd 6e 59 79 3c
       0.007009774 -0.021614382 -0.03968446 0.015219076
0003c0 5f 2e 7d 3d 56 f4 33 3d 1d 30 0a bd 7f e1 15 bd
       0.0618118 0.04393419 -0.03373729 -0.036592003
0003d0 47 43 1d bd c7 8b 84 bc 6f ff 91 bd f6 64 91 bc
       -0.03839424 -0.016179932 -0.07128798 -0.017748337
0003e0 28 85 a1 3c 38 38 d7 bd 92 40 01 3d 3a 44 ef 3c
       0.019716814 -0.1050877 0.03155572 0.029207338
0003f0 3d e5 e3 bd 36 76 03 bd d0 0f 48 bc 06 51 86 bd
       -0.11127708 -0.032095157 -0.012210801 -0.06558423

body.block2.conv.bias f4 [64]
000000 1f 32 f1 3c 09 75 63 3a 2e 57 36 bd 14 c0 f7 3c
       0.029442845 0.00086768024 -0.044516735 0.030242957
000010 cc 06 a7 bc 69 ae 19 3d 35 3b ef bc e8 e9 a4 bc
       -0.020388983 0.037519846 -0.029203037 -0.020131066
000020 44 f0 aa 3c b6 ee 81 bc 0c 11 10 3d e7 9f 0d 3d
       0.02086652 -0.015860897 0.035172507 0.034576323
000030 60 f1 86 3c bd 40 e5 3c 9c 88 be 3b 02 3f d7 bc
       0.016472518 0.027984971 0.005814625 -0.026275162
000040 3c c7 36 bd b9 12 43 bb 3e cb 0c bd 47 35 65 bc
       -0.0446236 -0.0029765798 -0.034373514 -0.013989753
000050 d0 6c 9d bc 29 dd 06 3d 50 0d 11 3b 94 0e 44 bd
       -0.019216925 0.03292576 0.002213318 -0.047865465
000060 99 1b 0b 3d a7 1f b5 ba 12 18 28 3d 04 70 b8 3c
       0.033961866 -0.0013818637 0.04103858 0.02251435
000070 b4 84 52 3c 69 16 98 bc d2 71 21 3d 9a c1 a6 bc
       0.012849022 -0.018565373 0.039415188 -0.020355988
000080 7e e1 30 3d 35 d8 a5 3c ce 33 13 3d cc 03 4d 3c
       0.043183796 0.020244697 0.035938077 0.012513112
000090 df 96 b0 bc 36 5f 69 ba 9e 5d c7 3b 1b c2 99 bc
       -0.021556316 -0.0008902432 0.006084158 -0.018769315
0000a0 23 ca 4a bc a9 a7 94 3a 85 fe a1 bc f4 0f 4d bc
       -0.012377295 0.001134147 -0.019774685 -0.012516011
0000b0 84 db 08 3d 3e d1 15 bd 82 f8 b6 3c 24 e8 e8 bc
       0.03341247 -0.036576502 0.022335295 -0.028431006
0000c0 ed 18 16 bd ca 38 6f 3c 67 f8 31 3c cc 1c a2 bc
       -0.036644865 0.014600942 0.010862446 -0.019789122
0000d0 2c 7d 08 3d 1d b8 fd bc 2a 20 0f 3d d3 98 52 bc
       0.0333225 -0.030971581 0.034942783 -0.012853819
0000e0 b5 a8 05 bd 3b 5e 15 bc c5 77 b8 3c 09 85 31 bc
       -0.032631595 -0.009116705 0.022518048 -0.010834941
0000f0 05 66 06 bd 37 f6 c9 bc b2 ab af 3c a3 f5 3e bd
       -0.032812137 -0.024653537 0.021444175 -0.046620976

body.block2.norm.weight f4 [64]
000000 12 00 6d 3f dc 48 61 3f 83 15 76 3f 7b 00 85 3f
       0.9257823 0.880018 0.96126574 1.0390772
000010 7e c2 63 3f b8 8f 83 3f 08 69 6a 3f 7b 53 81 3f
       0.88968647 1.0278234 0.91566515 1.0103601
000020 ee f0 61 3f 79 51 59 3f 2e c9 77 3f 35 04 78 3f
       0.88258255 0.8488994 0.9679135 0.9688142
000030 5a 70 79 3f 16 17 72 3f 24 0b 6e 3f 1e 8b 8a 3f
       0.9743706 0.94566476 0.9298575 1.0823705
000040 54 db 74 3f d8 28 58 3f 42 27 8c 3f 1e 32 59 3f
       0.9564717 0.8443732 1.094948 0.848421
000050 a4 ee 41 3f a3 80 83 3f f3 97 58 3f a5 c9 8e 3f
       0.7575476 1.0273632 0.84606856 1.1155287
000060 57 32 87 3f c9 9e 7e 3f ee bc 56 3f 33 aa 83 3f
       1.0562238 0.99461037 0.83882034 1.0286316
000070 f6 ab 83 3f 97 ec 6f 3f c2 54 71 3f 84 8f 89 3f
       1.0286853 0.9372038 0.94269955 1.0746922
000080 ef 16 75 3f c9 7e 86 3f 57 88 85 3f b4 ee 5f 3f
       0.9573812 1.0507442 1.0432233 0.8747361
000090 92 1f 83 3f 37 12 7f 3f 16 9a 79 3f 75 8d 86 3f
       1.024401 0.9963717 0.9750074 1.0511919
0000a0 91 2d 85 3f b7 4c 80 3f be 4b 5b 3f 53 a8 84 3f
       1.0404531 1.0023412 0.8566245 1.0363868
0000b0 7b 88 7b 3f 3a b5 5c 3f db 17 69 3f 9e 16 84 3f
       0.9825513 0.8621403 0.91052026 1.0319402
0000c0 d8 1d 84 3f 67 24 68 3f 1d 43 81 3f da 48 83 3f
       1.0321608 0.90680546 1.0098606 1.0256608
0000d0 f0 f3 93 3f 08 29 91 3f 7f 9f 8e 3f cf 25 73 3f
       1.1558819 1.1340647 1.1142424 0.94979566
0000e0 c8 b4 6b 3f 25 15 64 3f e0 b3 78 3f a8 24 7f 3f
       0.92072725 0.89094764 0.9714947 0.9966531
0000f0 91 15 73 3f fb ab 69 3f 69 70 7e 3f 68 e0 6e 3f
       0.9495478 0.91278046 0.99390274 0.93311167

body.block2.norm.bias f4 [64]
000000 7c da c1 3e 1f 45 f6 3e b8 de 9c 3e f2 6e c2 3e
       0.37862003 0.4809961 0.3063867 0.3797527
000010 1a 20 c9 3d 39 86 b9 3e 86 9b fd 3e ee 09 03 3e
       0.09820576 0.36235216 0.49532717 0.12796757
000020 98 51 c7 3e 42 51 26 3f f6 b8 61 3e d2 d0 95 bd
       0.3892944 0.6496774 0.22043213 -0.0731522
000030 39 66 7f 3e cb 7b 88 3e cb 41 d5 3e 32 56 92 3e
       0.24941339 0.26656947 0.4165176 0.28581387
000040 38 3f 3a be 60 51 8e 3e 6f 53 e9 bd ed f1 eb 3e
       -0.18188179 0.2779646 -0.11392867 0.46083012
000050 df bc ce 3e 47 d0 99 3d cb 15 1c 3e 1f 0f a4 3e
       0.40378472 0.07510429 0.15242688 0.32042786
000060 df c7 e9 3d b7 92 67 3e 02 bc 99 3e e7 80 2d be
       0.114150755 0.22614561 0.3002625 -0.16943704
000070 29 18 92 3e 64 ff 8d 3e 6b c9 97 3e 0e 29 b2 3e
       0.28534058 0.2773391 0.29645857 0.34796947
000080 98 71 d0 3c c1 d6 6b 3e 37 12 ae 3e 84 fc 0a 3f
       0.02544479 0.23031141 0.33998272 0.5429156
000090 82 07 1a 3e ec b9 fb bc 17 d5 30 3e 01 e3 ca 3e
       0.15041927 -0.030728303 0.17268787 0.39626315
0000a0 22 ed 98 3e 49 bb d7 3e 0c 37 dd 3e 48 15 a5 3e
       0.29868418 0.42135075 0.4320606 0.322428
0000b0 57 56 98 3d 89 79 ac bd a5 61 ef 39 36 f3 e6 3e
       0.07438343 -0.084216185 0.00045658383 0.4510743
0000c0 a7 2c 1d 3e 15 a0 87 3e 7f 20 7f 3e 03 0c 85 3d
       0.15349065 0.2648932 0.2491474 0.06496432
0000d0 9b 53 0a 3e ee 6c 98 bd 9f 34 29 3f 02 bd a7 3e
       0.13508455 -0.07442652 0.6609592 0.3276139
0000e0 bd 36 30 3e dc dd d9 3e fc 16 b2 3e de 58 13 3f
       0.17208381 0.42552078 0.3478316 0.57557476
0000f0 95 bb 55 bd b1 b9 01 3e df df 0f 3e a4 75 ab 3e
       -0.052180845 0.12668492 0.14050244 0.3348819

body.block2.norm.running_mean f4 [64]
000000 85 10 e2 bf e1 18 14 bf 73 58 ad 3e 36 27 8b bd
       -1.7661291 -0.5785046 0.33856544 -0.06794588
000010 3f 32 03 40 65 1b 9c be 5b 05 87 c0 81 41 36 c0
       2.0499418 -0.3048965 -4.2194037 -2.847748
000020 a8 15 07 c0 19 84 92 bf fc 17 b6 3c b8 d8 1a 40
       -2.1106968 -1.1446563 0.022228234 2.4194775
000030 e7 20 41 3f 05 bd a5 bf a6 6c d1 be b8 74 2e c0
       0.7544083 -1.2948309 -0.40903205 -2.725874
000040 ae ff 98 40 bc 2a 08 c0 62 c0 dd be 1f 02 9d 3f
       4.781211 -2.1276083 -0.4331084 1.2266272
000050 63 e9 54 c0 40 bf 18 40 11 48 04 3f 4c fd 1f bf
       -3.3267448 2.386673 0.51672465 -0.62495875
000060 b3 07 a9 3e 92 88 6a c0 4c 10 30 3f 6f c7 f5 bf
       0.33013687 -3.6645856 0.6877487 -1.9201487
000070 2f 6b 64 c0 4a 19 00 c0 a1 10 60 be 66 db 1a c0
       -3.569042 -2.0015435 -0.21881343 -2.419641
000080 a4 bb 76 3f a0 c5 fd 3e 35 22 be 3f 11 90 c0 bf
       0.96380067 0.49564838 1.4854189 -1.5043966
000090 d9 7a 1d be 5b 4f 4f 40 4d e2 0f c0 8e cc 5d bd
       -0.15378894 3.2392185 -2.2481873 -0.054150157
0000a0 5e c1 11 bf fa 9c ac 3e a9 20 d6 bf ff 63 5d c0
       -0.5693568 0.33713514 -1.6728717 -3.4592283
0000b0 5a 25 34 c0 b9 8d 7c bd 32 15 08 3f 56 e1 12 c0
       -2.8147798 -0.061658595 0.5315734 -2.2950034
0000c0 11 ed e7 bf 6c c5 9b c0 26 be 61 bf 06 71 ba 3d
       -1.8119222 -4.8678493 -0.8818077 0.09103589
0000d0 5b 3b 18 c0 d3 8d 80 be ff c8 5a 3e f9 53 f4 bf
       -2.3786228 -0.25108203 0.21365736 -1.9088126
0000e0 2d 75 c7 3d b0 fe 16 c0 2b 2e ee bf 18 c5 a2 bf
       0.097391464 -2.359295 -1.8607839 -1.2716398
0000f0 9f a4 b3 bf 29 e0 aa bf 02 23 5c c0 68 20 e4 bd
       -1.4034613 -1.3349658 -3.4396367 -0.111389935

body.block2.norm.running_var f4 [64]
000000 b9 20 62 3f 5f 7d aa 3f 93 04 a8 40 6a ad 88 40
       0.8833118 1.331951 5.2505584 4.2711687
000010 40 2f e8 3f 19 7d 88 40 d0 c3 91 3f fc 62 31 40
       1.813942 4.2652707 1.1387882 2.7716665
000020 d3 25 b5 3f 42 b8 4a 3f 82 20 fc 3f 13 3d b7 3f
       1.4152168 0.79187405 1.9697421 1.4315513
000030 23 d7 cf 40 94 0d b6 40 1d d7 1c 40 0f 29 62 40
       6.495012 5.6891575 2.4506295 3.533756
000040 fa 14 da 40 34 1c fb 3f f7 7d 13 41 f3 da 40 40
       6.8150606 1.9617982 9.218253 3.0133636
000050 f9 c0 d1 3f ad 9c ab 40 d1 cf f9 3f 3c 83 12 40
       1.6387016 5.3628755 1.9516546 2.28926
000060 21 55 83 40 ed db 82 40 a8 d5 36 40 d2 25 1c 41
       4.1041417 4.0893464 2.8567905 9.759233
000070 64 a7 2f 40 b5 42 e5 3f 48 55 e2 3f e8 69 e6 41
       2.7445917 1.7910982 1.7682276 28.801712
000080 b0 1a 37 40 1c 14 76 40 54 29 8a 40 93 41 ce 3f
       2.8610039 3.8449774 4.317545 1.6113762
000090 16 95 98 40 71 a6 b2 40 72 4f 38 40 07 1a 60 40
       4.768199 5.5828176 2.879849 3.5015886
0000a0 8e 65 b6 41 88 f2 d2 3f fd 86 9a 3f 6e 90 b2 40
       22.799587 1.6480265 1.2072445 5.5801306
0000b0 78 87 c7 3f e4 8b e3 3f da 9c 95 40 5c 6e ba 3f
       1.5588217 1.7777066 4.675397 1.4564929
0000c0 f8 a7 84 40 e1 a0 78 40 58 3a 16 40 e8 69 bf 3f
       4.145504 3.8848193 2.347311 1.4954195
0000d0 24 17 b5 40 e1 b4 3b 40 84 bb 6d 40 29 fd d4 3f
       5.659075 2.932915 3.71457 1.6639758
0000e0 87 4c 06 40 23 6b 73 3f 67 88 c7 40 4f bc 97 40
       2.0984209 0.9508535 6.2354007 4.741737
0000f0 a7 00 46 40 54 4e d2 40 e2 fc 9f 40 f0 0d 17 40
       3.0937898 6.5720615 4.9996195 2.3602257
