TrainedModels/0035-sample/scale_factor=0.750000,alpha=10/7/netG.pth (torch, 474454 bytes, 26 tensors)

head.conv.weight f4 [64, 4, 3, 3]
000000 83 98 dd bd 9a 1f 39 bd bf 09 b9 bd de 4a b2 3c
       -0.10820105 -0.045196153 -0.09035062 0.021764215
000010 71 a3 c0 3c 24 b4 10 bd 75 c4 c9 bd 95 7e 22 bc
       0.023515435 -0.035328045 -0.09851924 -0.009917875
000020 aa 90 a4 bc f3 78 f6 3c 35 ec 3c bd b8 ef 71 bd
       -0.020088512 0.03008697 -0.046123702 -0.059066504
000030 59 91 d6 3d 47 8c b1 3c d3 65 e6 3c 15 7c 34 3d
       0.104769416 0.021673335 0.028124725 0.044063646
000040 2c f2 50 3d ad ff 85 3d 6f a0 6a bd 9d 4c 6e bd
       0.051012203 0.06542907 -0.057281908 -0.058178533
000050 d5 1c f1 bd 6a 91 65 3d 1a df 1d 3c 29 46 61 3c
       -0.117730774 0.05604688 0.009635711 0.013749638
000060 99 3f ac 3b b6 fe 78 bc 41 8e d6 3c cb 9a f1 3a
       0.005256605 -0.015197447 0.026190879 0.0018432973
000070 9c fd 50 bb 58 75 33 3d cb 79 16 bd 26 a9 c3 3c
       -0.0031889444 0.04381308 -0.036737245 0.023884367
000080 f0 b7 0c 3d ec 8a 06 bd f6 22 89 bc 22 2e e9 3c
       0.034355104 -0.03284733 -0.016740303 0.02846438
000090 02 67 8a bb 65 4b 59 bd 69 83 8a bd f2 e1 2a 3d
       -0.0042237053 -0.053050417 -0.06763346 0.041719384
0000a0 48 28 04 3d c8 27 d8 bc 89 f1 72 3b f0 d7 93 3b
       0.032264978 -0.026386157 0.0037070236 0.0045118257
0000b0 c6 45 92 bd 5f 98 4b bd 25 ff cd bd 00 a5 8d bd
       -0.071422145 -0.04970586 -0.100584306 -0.06916237
0000c0 4e 52 99 3d d2 86 42 b9 0c e3 e9 bc 6b 79 0a 3c
       0.074864015 -0.00018551506 -0.028550647 0.0084518
0000d0 c6 76 b4 bb 3e b4 11 bd ba 7d 13 bc 5b d6 68 bd
       -0.005507323 -0.035572283 -0.0090021435 -0.05684505
0000e0 40 5b 81 bd 7a 6e d9 3d 20 9d 79 3d be db c2 3c
       -0.06316233 0.10616775 0.06094086 0.023786422
0000f0 37 b0 98 3d 02 f2 8f 3d 7f a0 c7 ba 27 14 bc 39
       0.07455485 0.07028581 -0.0015230327 0.0003587317
000100 89 00 c4 bc ab 4a 43 bc b3 57 ce 3c 17 da 1b bc
       -0.023926036 -0.011919658 0.025188303 -0.009512446
000110 3c 12 17 bd ba 8e fd 3c 3a 7e 25 3d 60 1b 3d 3b
       -0.036882624 0.030951846 0.040403582 0.0028855428
000120 7f c3 88 be f1 fe 2b be c0 8b 1a bd f3 49 ea bc
       -0.26711652 -0.16796471 -0.037730932 -0.028599715
000130 c3 63 04 3c af 5b 30 bd 15 5e 3c 3b 7e 15 09 bc
       0.008080426 -0.043056186 0.00287426 -0.008366941
000140 64 7c 20 bd 80 a3 c9 bd fd a4 18 3c 9a f9 08 bc
       -0.03918113 -0.09845638 0.00931668 -0.008360291
000150 a3 d7 08 bd 3e 99 e2 3b b9 71 d0 bc 74 35 4a bd
       -0.033408772 0.0069152405 -0.025444852 -0.049367383
000160 29 c8 ac bc 77 83 bc bc 67 e9 0d bb 58 00 17 3d
       -0.021091538 -0.023011906 -0.0021654011 0.036865562
000170 a9 2e cc 3d 25 35 59 3c 7b 0e d0 3c ae 8d b4 3d
       0.09969837 0.0132573 0.02539753 0.08816086
000180 9f ac 43 3d 07 20 e1 3c c2 bf 50 3d f5 ef 8a bc
       0.047772046 0.027481092 0.050964125 -0.016960124
000190 e2 8e 7e 3c 29 d4 be 3c 41 f4 04 bd c5 df a7 bb
       0.015536996 0.023294525 -0.0324595 -0.005123111
0001a0 ca 09 ab 3c f3 5f 07 3d b9 7d d8 3c 92 8b 06 bc
       0.020878691 0.03305049 0.026427137 -0.008211987
0001b0 b7 db 5c bc 7a 25 b4 b9 64 cf 0e 3d d3 5d 04 3d
       -0.0134801185 -0.00034360198 0.03486575 0.03231604
0001c0 4e a3 3b 3d 35 44 b9 bc 81 18 d3 3c c4 54 95 3d
       0.045810036 -0.022615531 0.02576852 0.072915584
0001d0 88 7c 9e bc 83 71 f0 3c 93 c5 0b bb 69 e1 45 bc
       -0.01934649 0.029351002 -0.002132748 -0.012077668
0001e0 86 54 42 3b 98 cb 16 3d a3 d7 fd bc 04 88 3e bc
       0.002965243 0.036815256 -0.030986613 -0.011629108
0001f0 2f 56 0f bd 14 6a 78 bd 88 19 c6 3d 25 65 9c 3c
       -0.0349943 -0.06064804 0.096728384 0.019091198
000200 c9 80 d9 b8 a7 b4 34 3d e1 c7 d8 3c ae fa 40 bd
       -0.000103713544 0.044117596 0.026462497 -0.047114067
000210 a2 dc c6 3c 6c 54 00 bd c0 40 18 be 39 dc 81 bc
       0.024275128 -0.03133051 -0.1486845 -0.01585208
000220 91 13 78 3b dd 4b 32 3d 2b 1e cf bc 05 1f b8 3c
       0.003785346 0.04352938 -0.02528294 0.022475729
000230 fb a7 3f 3d b1 00 5e bc 64 c9 5e bd 27 e5 cf bc
       0.046791058 -0.0135499695 -0.05439128 -0.025377823
000240 a6 97 31 3d c0 b5 a8 3c fe c6 f0 3c 5e 16 93 3d
       0.043357514 0.020594478 0.029391762 0.071820006
000250 2b dc 9f 3c 71 e4 87 3d 73 f8 b5 3b ca 9d 05 3d
       0.019514164 0.066353686 0.005553299 0.032621183
000260 b7 f0 48 3d 05 42 a8 3d ee df a0 3d 84 30 94 3d
       0.04905769 0.08215717 0.07855211 0.07235816
000270 ef 04 0a 3e d8 90 a0 3d 2a e5 ab 3d 40 a9 88 3d
       0.13478445 0.07840127 0.08393319 0.06672907
000280 e8 37 bf 3d 46 0d fd 3d e8 6c 10 bb 48 d5 3e 3d
       0.09336835 0.12356047 -0.002203757 0.04659012
000290 2e f0 4f 3d 03 1f 09 3d 20 76 23 bc e4 ad 72 bc
       0.050766163 0.03347684 -0.009976894 -0.014811967
0002a0 80 3c 19 3b 94 7d 04 bd 6a ea d3 3b 2d 25 fa bc
       0.0023382008 -0.032346323 0.0064671533 -0.030535305
0002b0 77 0d 58 bd 65 49 cc bc 9e ee dc 3c 0e dd 50 3a
       -0.052747216 -0.024937341 0.02696925 0.000796751
0002c0 71 10 7c 3c cf 75 1d bd 07 ce 9e bc 22 56 a7 3b
       0.015384779 -0.03844243 -0.01938535 0.0051067034
0002d0 12 45 eb 3c 4e 00 a8 3c 3f 09 0b 3d 74 b6 ad bc
       0.028719459 0.020507958 0.033944365 -0.021205164
0002e0 4c 1e 08 bd b4 48 bd 3c 29 72 84 bd b1 ea 3e bd
       -0.03323202 0.023105957 -0.06467087 -0.046610538
0002f0 1e f9 cb 3c a1 9e 70 3d 08 9e a0 3d 91 3c 6b 3d
       0.024899062 0.05874503 0.07842642 0.057430808
000300 fa 0d 95 bc be 0c 3d bd 63 3b 04 3d 9d 78 73 bd
       -0.018195141 -0.04615473 0.032283198 -0.059441198
000310 dd 0f 69 bd c1 29 6b bd 13 18 aa 3d 34 3d 9b 3d
       -0.056899894 -0.057412867 0.08305373 0.07580033
000320 43 f8 8f 3d 7e 8b 75 bd 97 2b 50 3c 9c 24 84 3c
       0.07029774 -0.059947483 0.012705705 0.016130738
000330 07 15 52 bd 56 b0 2c bd ae 55 d3 bc 30 0a 64 3c
       -0.051289584 -0.042160355 -0.025797691 0.0139184445
000340 c8 9f 91 bc 96 ee ce bc 59 25 1b bd ed e8 13 bc
       -0.017776385 -0.025260251 -0.037877414 -0.009027702
000350 5b cf 34 3d 9c a6 36 bc 2d 3e b4 3c 35 20 e4 3c
       0.044143062 -0.011148121 0.022002304 0.027847389
000360 3f 32 8d 3d e8 21 48 3d d6 18 75 3d f2 48 24 3d
       0.06894349 0.04886046 0.05983814 0.04010863
000370 0b 01 7b 3d 76 2c aa 3d 4d b4 7e 3d 01 bf a0 3d
       0.06128029 0.083092615 0.062183667 0.07848931
000380 db b2 8f 3d 6d b0 36 3d 10 86 e5 3c b9 84 13 bc
       0.07016536 0.044601846 0.028018028 -0.0090038115
000390 7f ba 9d ba 5a 76 76 bd ba 99 bf bc 35 4b e8 3a
       -0.001203373 -0.060171463 -0.023388732 0.0017722609
0003a0 be a1 7b bc 35 4f 93 3b 9e d1 d2 3c a4 26 1e bd
       -0.015358387 0.004495526 0.025734719 -0.03861107
0003b0 d7 c3 41 bc 39 08 29 bd 6b 08 63 bc c4 0b f2 bc
       -0.011826477 -0.041267607 -0.0138569875 -0.029546626
0003c0 de 64 0b bb 6c 88 13 bd cf 9a e6 bc 6d 71 d0 39
       -0.0021269838 -0.036018774 -0.02814999 0.0003975736
0003d0 07 b4 74 39 23 2c 59 3b 5f 6b 63 3c b4 d4 05 3c
       0.00023336719 0.003313788 0.01388058 0.008168388
0003e0 99 b5 27 bd 66 07 d7 ba 5f b5 aa 3b 8c 8d 69 bd
       -0.04094467 -0.0016405403 0.0052096094 -0.057019755
0003f0 99 aa 55 3d 76 1f ed 3d c4 78 9a 3c ea da 28 3d
       0.052164648 0.11578266 0.018856414 0.041224398

head.conv.bias f4 [64]
000000 17 d7 64 bd a4 55 08 3d 31 d4 1f bd 95 17 64 bd
       -0.05586919 0.0332848 -0.03902072 -0.055686552
000010 bc aa 53 3b 3d 62 c7 3d c5 a3 a8 3d 52 5e 17 3e
       0.003229781 0.09735534 0.082343616 0.14782074
000020 44 fa 97 bc 04 46 ed bd f4 96 cd bd 38 8b d6 bd
       -0.018551953 -0.1158562 -0.10038558 -0.104757726
000030 9c f1 1c 3e d0 63 58 3c ff b5 11 be 52 13 fe bd
       0.15326542 0.013207391 -0.14229582 -0.12406029
000040 c3 e7 01 3e 42 ae ea bd 93 f3 cf bd 7b b1 26 3e
       0.12686066 -0.11459018 -0.1015388 0.16278641
000050 89 83 ed bc ec b3 21 be da dd 2a 3e a7 18 e9 3d
       -0.028993385 -0.15791291 0.16686192 0.11381655
000060 da ce ba bd 85 60 a5 bc 40 47 d6 3d dc 0d 07 3e
       -0.09121485 -0.020187626 0.104628086 0.1318888
000070 cd cd c2 bd d4 82 c8 3d ed 1e 6d 3b fa 94 b9 bd
       -0.0951191 0.097905785 0.0036181763 -0.09061618
000080 be 5b d3 3d 59 06 a7 3d 72 59 5d bd 98 78 5c bd
       0.10320233 0.081555076 -0.05404038 -0.053825945
000090 48 18 79 3d e1 c3 a3 bd 53 97 c5 3d b5 bd d4 3d
       0.060814172 -0.07996345 0.096480034 0.10387746
0000a0 9e de c1 3d 9f f4 86 3c b7 fc 82 3d 10 70 37 bd
       0.09466289 0.016474066 0.06395858 -0.044784606
0000b0 a3 81 c3 3d cd cd ab bd c3 8e a5 3c ae 8e e4 bd
       0.095462106 -0.08388863 0.020209676 -0.111600265
0000c0 b7 58 a3 3d b7 f6 db bd 07 7b ac bc b5 3c 05 3e
       0.079759054 -0.107404165 -0.021054758 0.13011439
0000d0 31 c6 07 3e 98 84 0f 3e 98 4f 82 3d 84 6e 34 3e
       0.13259198 0.14015424 0.063628376 0.17620283
0000e0 59 ee 77 3d 71 ac 87 3d d9 6d 07 3e 6d b5 22 3d
       0.06053004 0.066246875 0.13225497 0.039723802
0000f0 d8 70 b2 bd 7f 37 11 bd 1a 71 48 bd 94 5b 2f bd
       -0.087129295 -0.035453316 -0.048935987 -0.042811945

head.norm.weight f4 [64]
000000 38 ae 77 3f 4d 3e 8c 3f c6 de 82 3f 95 2a 8a 3f
       0.9675021 1.0956513 1.0224235 1.0794245
000010 06 77 82 3f 76 88 7a 3f 83 de 70 3f 80 d9 7a 3f
       1.0192573 0.9786447 0.94089526 0.9798813
000020 27 45 80 3f 98 aa 82 3f 5e d1 5d 3f cd bc 89 3f
       1.0021104 1.0208311 0.86647594 1.0760742
000030 2e 79 7d 3f e5 34 7c 3f 3c fa 81 3f a5 4e 7f 3f
       0.9901303 0.9851821 1.015449 0.9972938
000040 a2 82 77 3f 37 1c 73 3f 88 c2 79 3f 87 d3 82 3f
       0.96683705 0.9496493 0.97562456 1.0220803
000050 65 0e 57 3f 46 58 7c 3f 2a ca 83 3f 97 d7 91 3f
       0.8400634 0.98572195 1.029607 1.1393918
000060 f7 c7 8f 3f 7a 34 80 3f ea c0 73 3f 77 ab 80 3f
       1.12329 1.0016015 0.9521624 1.0052327
000070 73 ca 79 3f d0 f2 87 3f 93 41 7e 3f a8 b3 8f 3f
       0.9757454 1.0620975 0.9931881 1.1226702
000080 cd fc 63 3f 77 3f 9b 3f e6 4e 5c 3f 25 2c 73 3f
       0.8905762 1.2128743 0.8605789 0.94989234
000090 4f 6c 73 3f 51 53 89 3f 9a 41 8f 3f f7 3f 4c 3f
       0.9508714 1.0728551 1.1191895 0.797851
0000a0 2d 63 76 3f 0a 76 55 3f c7 36 7e 3f f2 dd 8c 3f
       0.9624508 0.8338324 0.99302334 1.1005232
0000b0 b0 21 68 3f 97 f0 65 3f 54 20 58 3f 47 be 82 3f
       0.90676403 0.89820236 0.8442433 1.0214318
0000c0 76 e4 6e 3f 6d 75 6d 3f ac f1 7d 3f 1e c1 6d 3f
       0.93317354 0.927573 0.99196887 0.928728
0000d0 6d e7 87 3f b7 35 6c 3f 1b 6c 6f 3f c3 06 9a 3f
       1.06175 0.9226946 0.9352433 1.2033314
0000e0 83 22 6f 3f 14 97 61 3f ff 0b 8f 3f cf e9 85 3f
       0.93412036 0.8812115 1.1175536 1.0461978
0000f0 28 d9 68 3f 78 41 79 3f ab d0 8e 3f 18 f4 82 3f
       0.90956354 0.9736552 1.115743 1.0230742

head.norm.bias f4 [64]
000000 3e 51 0f be 4a 58 de bd 00 28 b9 bc f3 ae 71 be
       -0.13995835 -0.108566836 -0.022602081 -0.23601894
000010 95 2b 80 bd c0 4e 2d bc f1 3a 3f be 7d 1f 21 bd
       -0.062583126 -0.0105778575 -0.18674828 -0.03933667
000020 d1 51 35 be e5 a6 50 be 4f 79 31 be e2 5d 16 be
       -0.17706992 -0.20376165 -0.17331432 -0.14684251
000030 a2 38 a3 be 93 97 2e be 6e 6f 04 3e 20 28 65 be
       -0.31879145 -0.17050008 0.12933132 -0.22378588
000040 9d db 3f be 6d 4e 76 bd 97 61 30 be ad 63 66 be
       -0.1873612 -0.060133386 -0.17224728 -0.22498961
000050 d0 9b 41 be c0 76 cb bd 16 b7 15 be 69 fb 1c 3e
       -0.18907094 -0.09934759 -0.14620623 0.1533028
000060 33 c0 c0 bd b1 9d 41 be ed 20 77 be a7 ae 03 be
       -0.09411659 -0.18907811 -0.24133654 -0.12859593
000070 1a 30 3f be 86 cf 44 bc 94 ca 47 be aa f6 ac 3a
       -0.18670693 -0.012012368 -0.19510871 0.001319607
000080 fd d4 18 be 2e 1e 8f 3d 2f 3f 43 be d1 f9 f5 bd
       -0.14924999 0.06988178 -0.19067071 -0.12010539
000090 5c 39 ac be 01 14 df bc a5 54 83 be 11 65 a0 be
       -0.33637512 -0.027231218 -0.25650516 -0.31327108
0000a0 99 b8 e8 bd e9 9c 80 be ca cd 9f bd 59 76 f3 bd
       -0.11363334 -0.25119713 -0.07802923 -0.118878074
0000b0 df 38 10 be f2 92 7c be 67 3a 1f be 1c 99 17 be
       -0.14084195 -0.2466543 -0.15549622 -0.148045
0000c0 f5 81 37 be 64 60 65 be b9 59 94 be bd d3 0f be
       -0.17920668 -0.22400051 -0.28974703 -0.14045615
0000d0 60 87 f6 bd 87 68 d8 bd 6e 73 19 be d2 9a 3e bd
       -0.120375395 -0.10566812 -0.14985439 -0.046534367
0000e0 e7 20 3e be ee 05 06 be 72 fc 51 3e c5 9f b5 bd
       -0.18567239 -0.130882 0.20506456 -0.08868364
0000f0 c2 fc 13 be e6 1c 2d be 99 78 5c be a8 d5 fb bd
       -0.14451888 -0.16905555 -0.2153038 -0.12296611

head.norm.running_mean f4 [64]
000000 54 c4 4c 3d 3e c9 0f 3e 99 46 84 3e 3d 6a c0 bd
       0.04999192 0.14041612 0.25835112 -0.09395263
000010 2d 08 fb be 5b a6 ce 3d ff 49 12 be c4 ad 8b 3b
       -0.49029675 0.100903235 -0.1428604 0.004262658
000020 49 04 ac bd 0e 64 91 be 5f 0f a0 be 7c 91 04 3c
       -0.08399255 -0.28396648 -0.31261727 0.008091327
000030 a7 cd 77 be 8c b7 dd bb 2f 18 3c bd bc 12 cf be
       -0.24199544 -0.0067662653 -0.0459215 -0.4044398
000040 6f a5 f9 3d 32 9d 1e be 63 79 0a 3c e7 b5 fb 3e
       0.12189757 -0.15489653 0.008451792 0.49162218
000050 07 f5 8f be 22 64 19 be cc a5 29 3e 1b 27 81 3e
       -0.2811663 -0.14979604 0.16567153 0.25225148
000060 e5 26 25 bd 46 39 88 be 86 d6 b7 bb a1 64 b5 be
       -0.040320296 -0.26606196 -0.00561029 -0.35428336
000070 94 3c ec bd ee 95 45 3e fc a5 8c bb c5 19 1f bd
       -0.11534992 0.19295475 -0.004292248 -0.038842935
000080 c3 f6 20 bd 53 b4 3c 3e 16 2b a5 be 5c 64 9a be
       -0.03929783 0.18428163 -0.32259434 -0.30154693
000090 bb ed 9b be e7 a7 78 bd ec 97 47 3d cb c5 0e 3e
       -0.3045481 -0.060707 0.04872887 0.1394264
0000a0 76 dc 75 bd d9 00 22 3d 20 b2 6b 3d 02 89 50 bd
       -0.0600247 0.03955159 0.05754292 -0.05091191
0000b0 65 a7 0e 3e 21 4a 57 be f1 3b b6 be 04 2e 84 3e
       0.13931043 -0.21024372 -0.35592607 0.25816357
0000c0 04 12 cc 3b 5f 0a 17 be 7c 8f 7a bd c2 fc 8a bd
       0.0062277336 -0.1475005 -0.061171994 -0.06786491
0000d0 d7 71 11 3e 2f d2 f0 3d 17 d0 29 3d b8 b0 85 3e
       0.14203583 0.11758839 0.041458216 0.26111388
0000e0 b8 c8 2b be 72 80 8a 3b f4 50 10 3e 1d c0 92 3c
       -0.16775787 0.0042267377 0.14093381 0.017913872
0000f0 27 51 91 3e 46 27 c3 be 36 75 43 be d1 26 cd bc
       0.28382227 -0.381159 -0.19087681 -0.025042923

head.norm.running_var f4 [64]
000000 54 a8 c2 3b d8 05 85 3b 7e 85 5c 3c b7 a2 f8 3a
       0.0059404764 0.0040595345 0.013459561 0.0018969391
000010 bd 01 e9 3d e7 96 21 3b a5 b6 0a 3c 2e fa 00 3c
       0.11377285 0.0024656595 0.008466397 0.0078721475
000020 fb fe 80 3b 2f 5d 88 3b 54 70 d3 3d 7e 37 b2 3c
       0.003936646 0.004161499 0.10324159 0.021754976
000030 0d 5c 67 3d 20 b6 78 3a f0 b2 1e 3b 0c 28 6e 3d
       0.05648427 0.0009487588 0.0024215542 0.05814366
000040 42 28 27 3c d6 02 80 3a 2d 3c 0f 3b a1 bd 94 3e
       0.010202469 0.000976647 0.0021855936 0.29050925
000050 93 7a 41 3d 03 1f 5d 3d 78 36 d3 3c 3a 7c 3a 3b
       0.047236037 0.053984653 0.025782809 0.0028455392
000060 f4 38 b3 3a 1e 35 30 3c d5 7d 4a 3b 87 75 a3 3d
       0.001367359 0.010754852 0.0030897756 0.07981401
000070 df 74 11 3b 07 e0 a9 3a 7f 3b 88 3b 45 21 16 3b
       0.0022194905 0.0012960442 0.004157483 0.0022908014
000080 3b 5a 61 3e 87 37 45 3b 4a 13 f3 3d 3d 92 99 3d
       0.22007076 0.0030092911 0.118689135 0.07498596
000090 b0 59 23 3d f3 6d 16 3c c5 f0 07 3b f4 26 f0 3a
       0.039880455 0.009181487 0.0020742875 0.0018322156
0000a0 fe b7 fb 3b ef 8d 6a 3b c9 fc dd 3a 9d 27 8e 3a
       0.0076818457 0.0035790165 0.0016936298 0.0010845546
0000b0 ae aa 2f 3d c5 e3 0b 3c ae cc af 3d 85 bf 89 3e
       0.042887382 0.008538191 0.085839614 0.2690393
0000c0 54 02 10 3b 9e 09 9c 3b 1a d1 c0 3a 48 b8 91 3d
       0.0021974044 0.0047618886 0.0014710755 0.07115227
0000d0 ac 69 44 3a 5c 91 97 3d 12 14 a4 3b f4 78 fe 3a
       0.0007492553 0.07400772 0.0050072754 0.0019414709
0000e0 66 a1 a1 3c e7 ba 4a 3e 3c 3d 94 3a 98 41 7e 3b
       0.019730281 0.1979786 0.0011309753 0.003879642
0000f0 ce 1f f7 3d c4 f5 ae 3d f5 14 22 3b ee b4 8c 3a
       0.12066613 0.0854297 0.002473173 0.0010735074

body.block1.conv.weight f4 [64, 64, 3, 3]
000000 73 62 92 3c ea 08 57 3c 0e dd 2e 3c 1e dd 87 3c
       0.01786921 0.013124684 0.010672821 0.01658493
000010 70 6d 90 b8 96 f3 85 3c b4 28 8c bd 7c a8 c0 bc
       -6.8868394e-05 0.016351502 -0.06843701 -0.02351784
000020 91 55 01 bd a9 29 a5 bc 9e dd c1 bc 7d fb 2a bd
       -0.031575743 -0.020161467 -0.023665246 -0.041743744
000030 87 3c c3 bc b0 ca ab bc ab b2 bc b9 da 2b 30 bc
       -0.023832573 -0.020970672 -0.00035991272 -0.0107526425
000040 ee 7b ce 3c 3c 56 8c 3c 06 61 c9 3c b6 e3 33 3a
       0.025205579 0.017130964 0.024582397 0.00068622397
000050 67 e4 ca bb 22 6f ac 3c 6a 5f 00 bd 47 cc 3d 3d
       -0.0061917785 0.021049086 -0.031340994 0.046337392
000060 4e ed d2 3c a1 e3 1e 3d 1e 17 33 3d 29 38 2b 3d
       0.025747921 0.038791303 0.04372322 0.041801605
000070 06 c3 46 bc 75 fe ef 3c d0 c5 ef bc 0c ff 9f bc
       -0.012131458 0.02929614 -0.029269129 -0.019530796
000080 14 e9 d3 bc 91 91 88 bd 1e ed 00 bd 9b 2f 03 bc
       -0.025867976 -0.066683896 -0.031476133 -0.0080069555
000090 4c f8 e6 bc c8 84 98 3c ad cb 2f 3d ee ce fb 3b
       -0.028194569 0.018618003 0.04291885 0.00768458
0000a0 7c eb fb 3c 9a 04 be 3b db 66 5a 3c 5f 28 06 3c
       0.030751936 0.0057988884 0.013330187 0.008188336
0000b0 0f 81 60 3b f7 61 dd bc 3e e7 32 bd 4a bd ee 3c
       0.0034256612 -0.027024252 -0.04367756 0.029142994
0000c0 78 c0 83 bd 87 14 89 bc fb d7 2d 3d 5c 8e 68 bd
       -0.06433195 -0.016733421 0.042442303 -0.05677639
0000d0 f9 01 a7 bc ae 84 a9 3b 17 b9 1d bd fc fe 45 3c
       -0.020386683 0.0051732874 -0.038506594 0.012084719
0000e0 da 15 e6 3b 7b d4 01 3d 2c 58 42 3c 16 5d 8e 3c
       0.007021648 0.031696778 0.011861842 0.017378371
0000f0 65 6f 80 3d 59 6c 2a 3d da 64 20 3d c2 07 da 3c
       0.06271247 0.041607235 0.03915868 0.026615027
000100 e8 3d 60 bd 76 3d 35 bd e5 47 92 3d 39 19 3d 3d
       -0.05474654 -0.044248067 0.07142619 0.046166632
000110 27 57 0b bd 3d 79 2b 3d 9f 96 2e 3d ee c3 66 3d
       -0.03401866 0.04186367 0.042624112 0.056339197
000120 44 d1 60 3c 68 c9 0c 3d 84 08 f6 bc b0 96 a2 3c
       0.013721768 0.034371763 -0.030033357 0.019847244
000130 73 43 e8 3c ff a5 ea bc 9e 4e cf 3b 59 e2 90 3c
       0.028352475 -0.028643606 0.0063265106 0.017686056
000140 23 b9 4d bd 60 3a 6e 3d 2f 0d 14 3c e1 78 a4 3c
       -0.05022539 0.05816114 0.009036346 0.02007717
000150 74 9b a7 3d 32 ad b4 3c 87 30 06 3d 1a f4 4e 3d
       0.08183947 0.022055242 0.032761123 0.050525762
000160 ac fe 89 3c 3f c5 1b bc ce 85 34 bd 7a bb 0c bd
       0.01684507 -0.009507476 -0.04407292 -0.03435848
000170 7a 08 26 bd 07 f7 93 bc 4a e2 82 bb 5a 0f 1e bd
       -0.040535428 -0.018062128 -0.003994261 -0.03858886
000180 f8 35 88 bb 0c e7 99 3c 86 be bb bc bb 65 0e 3b
       -0.004156824 0.01878693 -0.022917997 0.0021728117
000190 10 ab 6a 3b e9 07 0a bd 1f 55 ef bb 9d 5b 3c 3d
       0.0035807528 -0.03369895 -0.0073038484 0.045985807
0001a0 a4 60 93 ba 34 11 8a 3c a2 c9 1b 3d 64 90 17 3d
       -0.0011244011 0.016853906 0.03803409 0.037002936
0001b0 5f 12 5f 3c fe a0 9f 3d 3f a8 5f bb be 0c 99 3d
       0.01361522 0.07794379 -0.0034127382 0.074731335
0001c0 2c 21 7d 3d bf 05 06 3d 54 ea 81 3d 91 4c db 3d
       0.061799213 0.032720324 0.06343523 0.10707963
0001d0 ea 5f e1 bb e6 a4 f0 bc 2b 76 ce bd b2 f7 bd 3a
       -0.006877889 -0.029375505 -0.100811325 0.0014493375
0001e0 f0 af 2d 3d 07 2c a3 bc b4 38 c1 3d 29 bd f5 3a
       0.042404115 -0.019918455 0.094346434 0.0018748391
0001f0 a5 ea 37 bd 35 2b 80 3d 28 60 52 bc 39 8e e3 3c
       -0.04490151 0.06258241 -0.012840308 0.027777778
000200 77 73 55 bb 3e da 17 3d 0c 54 a3 3c aa 31 c4 3b
       -0.0032570043 0.037073366 0.019937538 0.0059873657
000210 92 47 85 bd f0 3a ac 3b 4e 61 3f 3d 54 0d fa 3c
       -0.065077916 0.0052560493 0.046723656 0.030523933
000220 61 cc 9d 3c dd 9a 36 3d b0 b3 8a 3d 67 fd aa bb
       0.019262495 0.044581283 0.06772554 -0.005218196
000230 ad 70 5a 3d 55 c6 8d 3c ce e4 df 3b 92 a8 1d 3c
       0.053330112 0.017306486 0.0068326956 0.00962271
000240 85 8c 4f bd 00 22 38 bd 2b 30 fc bc 86 33 01 bd
       -0.05067112 -0.0449543 -0.030784687 -0.031543277
000250 da 37 7f bc 0d 94 51 3c ba e1 80 bd 65 bf fd bc
       -0.015577281 0.012791646 -0.06293054 -0.030975053
000260 ec 1c 9b bc 13 09 54 3d 94 79 0b bd c8 62 93 bd
       -0.01893469 0.051766466 -0.034051493 -0.071965754
000270 28 4e 5a 3d 82 cd 62 3c d6 92 91 bd 6a 87 32 3d
       0.05329719 0.013842942 -0.07108085 0.043586172
000280 0c 2b 8a 3d 5b 73 8c bc ba e2 9a 3c 15 f4 38 3d
       0.06746492 -0.01714485 0.01890694 0.04515465
000290 48 a6 93 3c 33 6b d4 bc ff 43 c1 3c b0 83 2a 3d
       0.018023625 -0.025930023 0.023591993 0.041629493
0002a0 c1 c8 56 bd 60 4d e2 bc da 4b ae 3c 5f 44 8d 3c
       -0.052437548 -0.027624786 0.021276403 0.017244516
0002b0 01 c6 08 3c 0a 77 2b 3b df f8 e2 3c 02 9c 3e 3d
       0.008347989 0.0026163482 0.027706562 0.0465355
0002c0 d0 e2 ef 3c 72 3f 52 3c 83 4f 0d 3b f3 98 96 3c
       0.029282957 0.012832509 0.0021562285 0.018383479
0002d0 7e 2e c5 ba 21 c0 eb 3b 94 20 57 bd 66 8f c3 bb
       -0.0015043763 0.0071945344 -0.052521303 -0.005968022
0002e0 af 75 0a bc 8a 25 47 3c 4b bb 9b bc 19 14 52 ba
       -0.0084509095 0.012154946 -0.019010207 -0.0008013859
0002f0 c2 4a 60 3c ab 09 9e bc 46 51 12 bd aa 37 a4 3c
       0.013689699 -0.01929172 -0.03572204 0.020046074
000300 71 cf ce bc 4f da c1 bb a2 06 f9 3c 2b 4f 8c bc
       -0.0252454 -0.005915917 0.03039867 -0.017127594
000310 a4 b8 ae ba c3 e5 5b bb cf 1e 54 3c 68 0a e8 bc
       -0.0013330174 -0.0033553697 0.0129467985 -0.028325275
000320 5f 60 e6 bc 95 c1 50 bd f0 e8 82 bd 79 63 ac bd
       -0.028122125 -0.050965864 -0.063920856 -0.084174104
000330 ec 7a a0 bc 00 f6 6d bd 6c e2 33 bd db 60 29 bd
       -0.019589864 -0.058095932 -0.043917105 -0.041352134
000340 2d 98 b7 bb 63 18 b5 3d 19 5c 94 bd 99 db a9 bc
       -0.0056028576 0.08842542 -0.07244129 -0.020734595
000350 06 01 9f 3d 1a ce c3 39 3a f6 81 3b 24 ff ed 3c
       0.07763867 0.00037346856 0.00396612 0.029052325
000360 b2 be 82 bd 82 63 a7 bc 6a f0 58 3d 9b 3d 83 b4
       -0.063840285 -0.020433191 0.05296365 -2.4445475e-07
000370 8f f3 79 3c 19 fc 44 3c 65 e6 15 3b 94 81 df 3c
       0.015255823 0.012022995 0.0022872922 0.027283467
000380 db be 1e bc 9e 09 15 3d 53 0e 95 3c 5d f7 59 bd
       -0.009689058 0.036386125 0.018195307 -0.05321442
000390 05 7a 50 3d 27 43 85 3d ac ad 3b bd 4b e3 9c 3d
       0.050897617 0.06506949 -0.045819923 0.0766054
0003a0 73 54 8c 3b 56 9e c2 bc 2d 53 10 3d 4e c5 b0 3c
       0.004282528 -0.023757141 0.035235573 0.021578457
0003b0 98 cd 55 bd c8 21 83 3a dc 1b c5 3c 9c 9c b7 bd
       -0.052198023 0.0010004574 0.024061136 -0.08965418
0003c0 e8 fe 0e 3d 2e fe 0a 3d 43 22 f6 3b c6 22 05 bc
       0.034911066 0.03393381 0.0075114085 -0.008125966
0003d0 ec d5 5b 3c e8 74 0e 3d 5c 9c 8b 3d f5 41 fa 3c
       0.013417702 0.03477946 0.068169326 0.030549029
0003e0 2b d8 42 3d 72 38 48 3d 59 5e 61 3d 6b ae e8 bb
       0.047569435 0.048881955 0.055021618 -0.0071008704
0003f0 9d 42 fb ba e8 a3 4f bd 43 85 85 bc c0 e6 ab bc
       -0.0019169633 -0.050693423 -0.016298896 -0.020984054

body.block1.conv.bias f4 [64]
000000 fa 2e 6e 3c 80 9c c6 3c 17 7b 21 3b 34 07 00 bd
       0.014537567 0.024244547 0.0024640018 -0.03125687
000010 3f be f1 3c 7b 28 e1 bc b7 f6 da 3c 9c 45 17 bd
       0.029509662 -0.027485123 0.02672897 -0.03693162
000020 7a 40 af 3c 50 ac 73 bc 03 61 07 3d fc 50 41 bb
       0.02139305 -0.0148726255 0.033051502 -0.0029497733
000030 7c 56 20 bc 2d 28 d0 bc c9 40 67 3c 76 0b d9 3c
       -0.0097862445 -0.025409782 0.014114567 0.026494723
000040 ee ef eb bc 38 b9 a5 3c 92 79 11 3d c0 a2 75 bc
       -0.02880093 0.02022992 0.03551633 -0.014992416
000050 96 a7 8a bc 58 bc 0a 3d a8 d3 08 3b 09 f9 1f 3d
       -0.016925614 0.033871025 0.002087811 0.039055858
000060 60 bc dc 3c e4 63 dd 3c 5d 22 29 3d 35 49 1d 3c
       0.026945293 0.02702517 0.041292537 0.009599973
000070 d0 68 ad 3c 81 c7 55 bc eb 6d 0e bd 29 61 38 bc
       0.021168143 -0.013048054 -0.034772795 -0.011253634
000080 6c 9a d7 3c 3a 9c d2 bb 38 fe 39 bb e1 98 a4 bc
       0.026318751 -0.006427315 -0.0028380286 -0.02009243
000090 5a 21 4f bc e2 8c 36 bb 74 e5 10 bd 4c 10 f7 bb
       -0.012642229 -0.0027854969 -0.035375074 -0.0075397845
0000a0 bc ca f6 3c 43 1a ed 3c 71 93 e2 bc bb c9 a7 3c
       0.030125968 0.028943187 -0.027658196 0.020481935
0000b0 79 74 a7 3c 9b 3b 02 3d d3 c5 18 bd f4 ea 96 bb
       0.02044128 0.031795125 -0.037298035 -0.0046056453
0000c0 9f 4b a3 ba 83 b9 1b 3c 87 c7 fb bc 43 0d d4 bc
       -0.001245845 0.009504679 -0.03073479 -0.02588523
0000d0 4f e7 d3 3c c2 eb d9 3c b5 11 2e 3b c7 a8 ad 3b
       0.025867132 0.026601676 0.0026560847 0.005299661
0000e0 c2 d6 23 bd ca cb a4 bc f1 9d 16 3c 98 15 03 3d
       -0.03999973 -0.020116705 0.00919293 0.032003015
0000f0 32 71 0d 3d 56 fd cc bc 9c 67 cc 3c dd 48 6a ba
       0.03453178 -0.025023144 0.024951749 -0.0008937249

body.block1.norm.weight f4 [64]
000000 3e bf 79 3f 5a 7f 85 3f d3 64 83 3f f3 31 86 3f
       0.9755744 1.042949 1.0265144 1.0483993
000010 4a 1d 80 3f da a1 74 3f b5 1c 71 3f ad e0 76 3f
       1.0008938 0.95559466 0.9418443 0.9643658
000020 2e aa 78 3f 66 12 6c 3f 1d ee 6b 3f 3d aa 79 3f
       0.97134674 0.92215574 0.9216021 0.9752539
000030 c5 90 63 3f 9a 79 86 3f 98 c0 7a 3f 7b df 78 3f
       0.88892776 1.050586 0.97950125 0.97216004
000040 37 33 7c 3f 68 f9 85 3f 53 42 7a 3f 6a 2f 7c 3f
       0.9851565 1.0466738 0.9775745 0.9850985
000050 c1 d1 7d 3f 4a 27 84 3f e5 e1 80 3f c8 e8 80 3f
       0.99148184 1.032449 1.0068938 1.0071039
000060 97 d8 70 3f 94 18 69 3f 12 0b 77 3f 65 a4 6f 3f
       0.9408049 0.9105313 0.96501267 0.9361022
000070 aa bd 82 3f 8b f8 83 3f 17 a8 6c 3f bb 82 83 3f
       1.0214131 1.0310224 0.92443985 1.0274271
000080 79 2b 84 3f 44 65 60 3f ee 6b 74 3f 97 53 8f 3f
       1.0325767 0.8765452 0.9547719 1.1197385
000090 34 2d 6e 3f e8 57 71 3f c0 d9 89 3f 94 b5 6d 3f
       0.93037724 0.9427476 1.0769577 0.9285519
0000a0 e4 76 81 3f f4 1a 80 3f 84 47 82 3f 88 f5 83 3f
       1.0114408 1.0008225 1.0178075 1.0309305
0000b0 af de 84 3f 23 4e 84 3f 4e fe 79 3f c4 bd 70 3f
       1.0380458 1.0336345 0.97653663 0.9403956
0000c0 19 49 81 3f a6 2d 7a 3f d5 7f 6a 3f 40 a6 81 3f
       1.0100433 0.97725904 0.91601306 1.012886
0000d0 5c c8 7c 3f 6e 92 5e 3f e7 0b 78 3f 94 83 80 3f
       0.98743224 0.86942184 0.9689316 1.0040154
0000e0 f9 38 77 3f 72 6a 76 3f e9 a8 81 3f 1c b4 77 3f
       0.9657131 0.9625617 1.0129672 0.967592
0000f0 79 da 85 3f fb 98 67 3f 7f 18 74 3f f9 25 7d 3f
       1.0457298 0.90467805 0.9534988 0.98886067

body.block1.norm.bias f4 [64]
000000 d1 25 9e be e5 5c 88 be fe fe 81 bd 2f 38 20 bd
       -0.30888227 -0.26633373 -0.06347464 -0.03911608
000010 5c 42 9b bd c3 ae 5a be f5 a8 60 be 02 b2 3e be
       -0.075810164 -0.21355729 -0.21939452 -0.18622592
000020 80 4f b5 be 56 ff 88 be 43 b3 83 be 03 d6 96 be
       -0.35412216 -0.26757306 -0.25722703 -0.29460153
000030 58 74 55 be 46 60 82 be 4f 72 65 be da b9 9f be
       -0.20845163 -0.25464076 -0.22406887 -0.3119648
000040 ce 5b 2d be 6d ac 67 be 6e 99 82 be e6 7a 6a be
       -0.16929552 -0.22624369 -0.25507683 -0.22898445
000050 b6 24 18 be ef 12 05 be 6e 00 2a be 98 f6 27 be
       -0.14857754 -0.12995504 -0.16601726 -0.16402662
000060 ba 89 4d be 01 36 33 be 46 9d 83 bd 7a 79 ca bd
       -0.2007207 -0.1750107 -0.06426482 -0.09886451
000070 30 9a 39 be a1 17 80 be 56 25 23 be 63 7e 6f be
       -0.18125224 -0.25018027 -0.15932211 -0.23388056
000080 0b a7 8e be 63 42 80 be c2 5b 58 be c1 bc 39 be
       -0.2786182 -0.2505065 -0.21128753 -0.1813841
000090 5d 4f 52 be ed 02 46 be 43 0d 60 be d3 3e 2f be
       -0.20538087 -0.19337054 -0.21880059 -0.1711381
0000a0 23 9d 16 be ad 21 04 be 2c 7a d0 bd c9 74 91 be
       -0.1470838 -0.12903471 -0.101795524 -0.28409413
0000b0 e3 45 1d be 8d 87 d5 bd 9c f4 98 be 70 5e c0 bd
       -0.15358691 -0.10426245 -0.29874122 -0.093930125
0000c0 29 35 74 be dc 96 12 be 28 c1 0f be 65 51 4e be
       -0.23848404 -0.14315361 -0.14038527 -0.20148237
0000d0 1d 17 0a be e1 19 88 be b2 1b 60 be 61 c0 be be
       -0.1348538 -0.26582244 -0.21885565 -0.37256148
0000e0 d1 63 5b bd f2 49 86 be d5 5c 3f be 06 0a c3 be
       -0.05356199 -0.2622829 -0.18687756 -0.38093585
0000f0 57 1b 94 be b2 22 53 be 0c d9 4c be 51 ae 58 be
       -0.2892711 -0.20618704 -0.20004672 -0.21160246

body.block1.norm.running_mean f4 [64]
000000 51 ed 91 be 44 6e 51 bf fd c3 4b bf ea 97 8d bf
       -0.2850137 -0.81808877 -0.7959593 -1.1061985
000010 29 b0 73 3e fb 1b db be f1 5b f4 3c 15 0c ec be
       0.23797669 -0.42794785 0.029828997 -0.46102968
000020 b2 8b 92 3f 93 dd 89 3e 5c 47 e0 bd 64 a4 03 3f
       1.1448882 0.2692686 -0.10951111 0.51422715
000030 06 48 14 bf 57 99 ea be d1 d4 2c 3f ab d6 fa bd
       -0.579224 -0.45820114 0.6751223 -0.12247976
000040 47 bc 3f bf 48 82 d6 be 90 a7 55 3f 1d 04 03 3f
       -0.74896663 -0.41896272 0.83458805 0.5117815
000050 5d 56 c6 bf 3a 40 01 bf 18 2d 37 be 37 8b 5a 3e
       -1.5495106 -0.50488627 -0.17888296 0.21342169
000060 13 69 c3 3c bb 30 51 bf 1a d5 9d be b3 a9 fc be
       0.023853814 -0.8171498 -0.30826646 -0.4934822
000070 68 69 c9 be 17 f5 a0 bf 2e d2 4d bf 61 e9 3f bf
       -0.3933823 -1.2574795 -0.80398834 -0.7496548
000080 76 16 06 3f 14 2f ed be ea f0 81 bf d2 08 5d bf
       0.5237802 -0.4632498 -1.0151646 -0.86341584
000090 e7 25 dc 3e cf cf 9b 3a 56 d4 95 bf 82 b1 b0 bd
       0.42997667 0.0011887493 -1.1705425 -0.08627607
0000a0 b7 27 4c bf 79 c3 84 3f 32 ab 7f be 38 c6 2d 3f
       -0.797481 1.0372154 -0.2496765 0.6788058
0000b0 f7 6d 2d bf 24 f9 93 bf 26 43 62 3e b5 6e 92 bf
       -0.6774592 -1.1560407 0.22095928 -1.1440035
0000c0 62 8d 01 bf 64 96 79 bf 44 55 f6 3d b9 0b 98 bf
       -0.5060636 -0.974951 0.12027982 -1.1878577
0000d0 03 8e eb 3e 5a 87 32 3f 72 41 69 3e 76 8f 06 3f
       0.46006784 0.6973778 0.22778872 0.52562654
0000e0 52 59 d1 bf 5a ad 88 3f 1d fc 32 3e b1 a7 36 3f
       -1.6355383 1.0677903 0.17478986 0.71349627
0000f0 74 5d 1e bf a9 a0 1c 3e 0a 81 e3 be 1b f9 41 bf
       -0.6186135 0.15295662 -0.44434386 -0.7577073

body.block1.norm.running_var f4 [64]
000000 cb d4 6e 3f 06 0c f8 3e f3 8a 10 3f 50 45 81 3e
       0.93293446 0.48446673 0.5646202 0.25248194
000010 3c a8 d0 3f 8c 9f d4 3f 4e 5f 75 3f 4c 8d 0d 3f
       1.6301341 1.661119 0.9584855 0.55293727
000020 ef c8 aa 40 69 19 e7 3f b1 70 57 3f a8 9f 94 40
       5.337028 1.805463 0.8415633 4.6444893
000030 c4 9f cc 3f b2 fc 89 3f d6 8e 57 40 28 c2 0a 3f
       1.5986257 1.0780241 3.368093 0.5420251
000040 18 2c a4 3f d5 6f 8e 40 3b c0 51 3f 2c 23 91 3f
       1.2825956 4.4511514 0.81933945 1.1338859
000050 4d 44 14 40 92 69 74 3f cb dc b5 3f 7c b5 1e 3f
       2.3166687 0.9547359 1.4208006 0.61995673
000060 ce 70 55 3f f2 74 74 3f 06 17 32 3f f6 1a 87 3f
       0.8337525 0.95490944 0.6956638 1.0555103
000070 c6 9a 53 3f 2e e5 ed 3f ae c2 0e 40 c9 77 17 3f
       0.8265804 1.8585565 2.2306323 0.5916715
000080 fc ed df 3e bb 6f 42 3f 84 b2 2c 3f 24 6c c3 3e
       0.43736255 0.7595174 0.67459893 0.38168442
000090 ef 59 16 40 02 5c 8d 3f ed 1d 19 40 9f 46 43 3f
       2.349239 1.1043704 2.3924515 0.76279634
0000a0 7f ce d8 3f 30 ad ad 3f fa 9c 1e 3f 75 1c b3 3f
       1.6938018 1.3568478 0.6195828 1.3993059
0000b0 4d 7d 88 3e 40 7c 0e 40 77 46 ef 3e 0b 25 08 40
       0.26658097 2.2263336 0.46733448 2.127261
0000c0 5f aa 72 3f 54 e9 df 3f 68 c0 fb 3f ff 49 16 3f
       0.94791216 1.7493081 1.9668093 0.5870666
0000d0 3c 5a d6 3f 51 60 84 3f 5e de 39 40 89 df ac 3f
       1.6746287 1.0341893 2.9041972 1.3505718
0000e0 e6 56 19 40 d4 78 1c 40 2b 8c 11 3f 77 2a 53 40
       2.3959289 2.4448748 0.56854504 3.2994668
0000f0 d8 4c b3 3f 99 d5 89 3f 46 7d 16 3f 0d be fc 3e
       1.4007826 1.076831 0.587849 0.49363747

body.block2.conv.weight f4 [64, 64, 3, 3]
000000 bf 29 ff 3b d7 80 09 3c 14 8a 1e 3d eb 91 25 3d
       0.007786959 0.008392534 0.0387059 0.04042236
000010 c6 50 8b bc 69 ed 6b 3c ad 2a 0a bb f3 3d 85 bd
       -0.01700629 0.014399865 -0.0021082566 -0.065059565
000020 34 b2 5f bb 47 3c c0 b8 36 92 92 3c 28 24 9e bc
       -0.0034133317 -9.166501e-05 0.017891984 -0.01930435
000030 2b e6 00 bd b1 f9 8f 3c b8 61 db bc d2 d0 6d 3b
       -0.031469505 0.017575117 -0.026779994 0.0036287797
000040 f9 d5 86 3c 41 cc 99 3b fb 66 37 3d 9c 46 91 3c
       0.016459452 0.0046935384 0.044775944 0.017733864
000050 29 67 b6 bc 58 0e a8 3d 87 27 92 3c 84 96 03 3b
       -0.022265987 0.08205861 0.017841114 0.0020078728
000060 0b 40 16 bc 69 c6 62 bd 89 07 5c bd d7 57 a4 bd
       -0.0091705425 -0.055365 -0.053718124 -0.080245666
000070 11 47 c0 3b 96 8d ac 3d 25 b1 9e 3c e6 ec 97 3d
       0.005867847 0.08425443 0.019371578 0.07418232
000080 cd 4b 85 3d 2f b4 14 3d 41 86 b7 3b b1 00 52 bc
       0.065085985 0.03630465 0.005600721 -0.012817548
000090 af 56 95 bb 01 20 39 3d 98 a3 04 bc f9 4d 3d bd
       -0.0045574526 0.045196537 -0.008095644 -0.04621694
0000a0 f2 87 2a 3c f3 9b 91 bb 94 bc 0e 3d a8 7f ac bc
       0.010408388 -0.0044436394 0.03484781 -0.021056965
0000b0 7b d7 58 3c b3 6d 60 bc 5a 6c a8 bc 44 74 38 bd
       0.013234968 -0.013698029 -0.020559479 -0.045032755
0000c0 93 d7 3a 3d 8a b8 08 3b de 75 a0 3c 9f a7 a4 3c
       0.045615744 0.0020861947 0.019587453 0.02009946
0000d0 41 4d 21 3c a8 4f fb bc 29 ea ba 3d fc 4a 65 3d
       0.009845079 -0.030677631 0.09126694 0.055979714
0000e0 fb 18 5f 3d 6f 66 82 bc c3 3d f1 3b 8f 13 0f bc
       0.054467183 -0.015917985 0.007362099 -0.0087326905
0000f0 8e fb 49 bd 90 ae a8 bc f8 e6 68 bd ea 8b 18 bd
       -0.049312167 -0.02059105 -0.056860894 -0.037242807
000100 8b 57 c4 3b 35 31 a3 bc bc 47 6a 3b 53 52 3a bb
       0.0059918812 -0.019920925 0.0035748323 -0.0028430417
000110 40 3d b8 bc 32 71 25 3c cc a3 d0 3a 58 94 81 bd
       -0.022490144 0.010097789 0.0015917956 -0.063271224
000120 b5 39 e7 3c ea bb f9 3c da 7d a3 3d 35 96 ae 3c
       0.028225759 0.030485112 0.07982989 0.021311859
000130 27 7f 72 3d 71 1a b6 3d 89 64 8f 3c e1 d4 04 3c
       0.059203293 0.08891762 0.017503994 0.008107395
000140 23 97 8a 3d 35 f4 10 3d 8a e1 63 3d 78 fa 8f 3c
       0.06767108 0.035389144 0.055635013 0.017575487
000150 1e 0e 8d 3c f0 ba e3 3b e1 33 74 3d 07 19 69 bc
       0.017218646 0.006949775 0.059619788 -0.014227158
000160 98 7f 85 3c af de f4 3c 12 c0 52 bc d7 13 dd bc
       0.016296193 0.02989134 -0.012863176 -0.026987
000170 b6 9c b7 3d bd 42 4a 3b a8 9e 73 3c d2 4c 65 3d
       0.08965437 0.0030862533 0.01486937 0.055981465
000180 ab 6a ed 39 85 4c f3 3c e1 fb 30 3b ee 19 0f 3d
       0.00045283636 0.029699573 0.00270056 0.034936838
000190 54 b5 1b bd 24 e0 32 ba 45 2b 40 bd b6 f5 11 38
       -0.038014725 -0.00068235607 -0.046916265 3.479953e-05
0001a0 5c 3b 9c 3c d6 b3 d6 3b f8 5c 8a bc 29 4e a1 3c
       0.019071274 0.0065522 -0.016890034 0.01969059
0001b0 04 38 a5 bc 94 c2 93 bd 32 97 78 bd 3b 9c 12 3a
       -0.020168312 -0.07214847 -0.060691066 0.0005592738
0001c0 11 39 5f bb ff 6a 5b bc 04 f5 7b bc eb 4a 3b bd
       -0.0034061114 -0.013392209 -0.0153782405 -0.045725744
0001d0 8e 85 0b bc ab 32 59 3d c5 e0 c8 3c 19 6a 31 bd
       -0.008515729 0.053026836 0.024521241 -0.043314073
0001e0 19 20 2d bc 4a b1 14 bd 0d d2 1e bd f9 6a 9c 3d
       -0.010566735 -0.03630189 -0.03877454 0.07637591
0001f0 d1 b0 35 3c b3 56 05 3c 4c 2f c1 3c 42 a0 a0 bc
       0.01108952 0.0081383465 0.023582123 -0.019607667
000200 d0 31 6a bb f7 5b bf 3c 60 68 b5 bc aa 44 6b 3c
       -0.0035735257 0.023359282 -0.022144496 0.0143596325
000210 28 0f 57 bd ae 2a a5 bb d5 c7 62 3d 7e 31 18 bd
       -0.05250469 -0.005040488 0.055366356 -0.037156574
000220 9f e3 a4 bc 60 d4 7a 3c 38 e7 4e 3c e2 02 47 bc
       -0.02012807 0.015309423 0.012628369 -0.012146683
000230 7a a3 6c 3d b6 d4 1e bd 04 90 93 bc f9 7c d7 3c
       0.05777309 -0.038777076 -0.018013008 0.026304709
000240 42 34 2f 3d 61 0e f5 bb 31 4e 50 bc f6 59 74 3c
       0.042774446 -0.0074785207 -0.012713955 0.0149140265
000250 ce f9 c2 3b 29 8a 30 bc a9 9a 1d 3d 40 c6 c6 3c
       0.005950189 -0.010775127 0.038477574 0.024264455
000260 a4 d3 0e 3c 4e cc 9c 3c 63 68 28 bc 92 5a 16 bd
       0.008717451 0.019140389 -0.010278794 -0.03670747
000270 75 7c 70 bc aa 94 35 bb 26 cb a7 bd 81 e9 a8 3c
       -0.01467811 -0.002770702 -0.08193044 0.020619156
000280 71 ab 68 3c 25 40 3a bd 3c 6d b8 bc 07 00 85 bc
       0.014201031 -0.04547133 -0.022513025 -0.016235365
000290 49 01 c0 bc 80 d1 66 3d 3b 1d c7 3c 3d 4a f9 bb
       -0.023438113 0.05635214 0.02430593 -0.007607727
0002a0 29 65 84 3d 16 0e 61 3d 8a db b3 3d 28 01 fa bc
       0.06464607 0.054945074 0.08782108 -0.03051813
0002b0 c2 58 d6 bc 63 e1 bd bc bf 32 17 3d 3a a5 a4 bc
       -0.02616537 -0.023178762 0.03691363 -0.020098317
0002c0 8b f0 15 3d cf ad 06 3d 14 6f c3 3c 45 c9 10 3d
       0.036606353 0.0328806 0.023856677 0.035348196
0002d0 38 44 2b 3d 1d 61 a3 3b 74 c8 f6 3c 78 82 87 3c
       0.041813105 0.004985942 0.03012488 0.016541705
0002e0 78 63 3b 3d 50 e6 f8 3c 6c b3 84 bb 62 b7 be 3c
       0.045749158 0.030383259 -0.004049709 0.023280803
0002f0 de 77 fa 3c 6f a4 34 bd 38 90 be b9 83 d7 4c 3a
       0.030574735 -0.04410213 -0.00036347075 0.0007814096
000300 a0 1d 9b bd 1a ff 49 bd 4f dd a4 3c fc 62 46 3d
       -0.0757401 -0.04931555 0.02012506 0.048434243
000310 be 25 20 bb 2a 76 0e 3c f2 30 70 3d de 2f 9a 3d
       -0.0024436559 0.008695165 0.058640428 0.07528661
000320 37 66 66 3d 1f 6f db 3c 52 94 62 3d c4 b9 97 3c
       0.056249823 0.026786385 0.05531723 0.018521197
000330 a5 51 3e 3d 6e 6c 08 3d 66 10 0a 3d 75 18 83 3d
       0.04646458 0.03330653 0.033707045 0.06401149
000340 fc e7 72 3d 9f ab 01 bd 78 ab 40 3d d3 d2 05 3d
       0.05930327 -0.03165781 0.047038525 0.03267176
000350 6c 8c 73 3b 33 0e 15 bd c8 e2 b9 3c ea 71 a1 3c
       0.0037162555 -0.036390495 0.022691146 0.019707639
000360 82 98 1e 3d 3f 9a 61 bc 35 af 85 bd 4e 20 23 bd
       0.03871966 -0.013769685 -0.06527559 -0.03982573
000370 c4 34 df bd c0 e1 74 ba 47 2d 64 3d 0e 9f c2 3c
       -0.10898736 -0.00093415007 0.055707242 0.023757484
000380 a5 79 e6 3b fc 83 56 3d bb 8e 47 bc ed 6a bc bc
       0.007033544 0.052371964 -0.012180026 -0.023000205
000390 eb d8 bc bb 73 b4 74 bb ec 24 d2 bc 2b 2f 84 bc
       -0.0057631633 -0.0037339001 -0.025652371 -0.016135773
0003a0 e4 ea 2a bd d3 4e 21 bd a3 74 03 3d 4b 24 dd 3c
       -0.041727915 -0.039381813 0.032093655 0.026994845
0003b0 04 b0 18 bc 8d 1b a1 bd 73 9f 28 bd 13 3f b9 bd
       -0.009319309 -0.07866583 -0.041167688 -0.090452336
0003c0 9f a4 81 bd 44 ea 04 bd 13 07 8c bd 43 63 ae 3d
       -0.06330227 -0.032449976 -0.06837287 0.085150264
0003d0 cd 99 96 bd e5 d7 05 bc bb d7 22 3d a2 f7 3a 3c
       -0.07353554 -0.008169149 0.039756518 0.011411579
0003e0 9d 2d fc bc 60 0f 19 bd 47 0d 14 bd ac fb 14 bd
       -0.030783469 -0.03736818 -0.036145475 -0.036372826
0003f0 c6 dc 40 bc e5 8b a9 bc cf 74 3d bd a7 b3 c9 bc
       -0.0117713865 -0.02069659 -0.046253975 -0.024621798

body.block2.conv.bias f4 [64]
000000 8f 0f c5 bc 91 6f 1a 3d db e2 ac bc 63 c1 9f bc
       -0.02405527 0.037704054 -0.021104267 -0.019501394
000010 da 50 de bc e7 fd fb 3c 33 8b 34 3c 18 98 01 bd
       -0.027138162 0.030760719 0.011019516 -0.03163919
000020 6a 31 6c 3c a7 79 01 3b 36 5e f3 bc 8a 4b 21 3c
       0.014416078 0.0019756348 -0.02970801 0.00984467
000030 e7 94 13 bd 85 b3 87 bc 6a 8f 96 3c da 11 ec bc
       -0.036030676 -0.016565094 0.018378932 -0.028817106
000040 6a 9b 51 bc fa 2e e2 3c 6c 98 1b 3d 94 53 22 3d
       -0.012793401 0.02761029 0.037987158 0.039630488
000050 02 02 1f bd 8c e5 16 3d 15 d8 24 bd f2 ad 1e bd
       -0.038820274 0.036840007 -0.040245134 -0.038740106
000060 b7 a5 08 3d 75 41 6e 3c ec 36 cb bb ac 76 cc bc
       0.033361163 0.014541973 -0.0062016156 -0.02495893
000070 31 47 06 3d 10 d6 e5 bc 56 b7 11 3d 34 20 2b bd
       0.032782737 -0.028056175 0.035575233 -0.04177876
000080 25 6c d8 3c ec 58 ac 3b 0a f5 db 39 3b 61 d7 3c
       0.026418755 0.0052596238 0.00041953503 0.02629148
000090 c9 09 02 3c 16 96 b1 3c 6c b2 c1 bc da 20 06 bd
       0.007936903 0.021678012 -0.023644648 -0.032746173
0000a0 5a 07 13 3d 9e 24 29 3d dd 64 af bc a1 c1 bc 3c
       0.035895683 0.041294686 -0.0214104 0.023041548
0000b0 3c cd 4f bc 22 ed 5d 3c 4e 14 ca 3c f9 d4 29 3d
       -0.012683209 0.013545306 0.024667885 0.041462872
0000c0 64 bd aa 3b 5a 92 26 bc c6 22 06 bb da a9 a5 3b
       0.0052105654 -0.010166729 -0.0020467504 0.0050556483
0000d0 68 d0 72 3c a7 69 a7 bc 32 29 0a bd bc ca 73 3b
       0.014820196 -0.020436121 -0.033730693 0.0037199697
0000e0 b9 60 1e 3d f0 70 86 bc 98 a3 eb bb 77 c1 cb 3c
       0.03866646 -0.016411275 -0.0071911328 0.024872525
0000f0 0e 64 a6 3b 37 4c db bc de 0f 88 39 24 1f 2f 3c
       0.0050778454 -0.02676974 0.00025951763 0.010688577

body.block2.norm.weight f4 [64]
000000 4b 52 6f 3f 50 78 7a 3f 38 73 5f 3f 2b 7a 89 3f
       0.93484944 0.9783983 0.87285185 1.0740408
000010 f4 37 74 3f b1 28 80 3f 65 a2 80 3f 20 ac 6c 3f
       0.9539788 1.0012418 1.0049559 0.9245014
000020 4e ae 73 3f e7 7d 74 3f 83 fc 80 3f f3 68 6e 3f
       0.9518784 0.9550461 1.007706 0.9312889
000030 d0 a7 7a 3f c8 7a 84 3f ef 8d 81 3f f9 28 71 3f
       0.9791231 1.034997 1.012144 0.94203144
000040 e1 bf 7f 3f aa 6e 80 3f 20 0b 86 3f 80 ec 78 3f
       0.9990216 1.0033772 1.0472145 0.9723587
000050 48 3c 75 3f aa 43 8a 3f c4 fb 81 3f 75 69 7f 3f
       0.95795107 1.08019 1.0154958 0.9977029
000060 e4 1a 80 3f a4 57 7d 3f bc 52 89 3f 33 0b 84 3f
       1.0008206 0.98961854 1.0728374 1.0315918
000070 99 0a 88 3f 40 c4 7a 3f d2 e9 88 3f 81 da 71 3f
       1.0628234 0.97955704 1.0696356 0.94474036
000080 57 14 79 3f 70 f5 71 3f 19 d1 6c 3f 32 56 7b 3f
       0.9729666 0.9451513 0.9250656 0.981784
000090 7c 19 80 3f 06 be 85 3f 9c fb 80 3f 2a 30 84 3f
       1.0007777 1.0448616 1.0076785 1.0327199
0000a0 d4 cf 7e 3f 56 4a 6f 3f 26 f5 78 3f 96 ca 72 3f
       0.9953587 0.934728 0.97249067 0.9484037
0000b0 99 0c 6c 3f a6 94 83 3f b2 24 8a 3f c5 f0 7e 3f
       0.9220672 1.0279739 1.0792449 0.99586135
0000c0 08 c2 69 3f 48 65 7d 3f b9 ba 77 3f a9 6d 76 3f
       0.91311693 0.9898267 0.9676929 0.9626108
0000d0 1a 2d 85 3f 8d 66 6d 3f e0 3f 85 3f 95 dc 75 3f
       1.0404389 0.92734605 1.0410118 0.96039706
0000e0 e3 dc 76 3f 8b bb 7a 3f 2f 80 86 3f 39 ef 7e 3f
       0.96430796 0.9794242 1.0507869 0.99583775
0000f0 7d 48 86 3f ee 66 6d 3f 36 52 70 3f 99 02 73 3f
       1.0490872 0.92735183 0.93875444 0.9492584

body.block2.norm.bias f4 [64]
000000 69 45 3a be 04 db 4b be 90 14 81 be af c2 4a be
       -0.1819054 -0.19907767 -0.25211 -0.19800828
000010 ac e6 0c be fa f4 ab bd 41 21 29 be 75 11 1a be
       -0.1375987 -0.08396335 -0.16516592 -0.15045722
000020 ba 7e 19 be 85 ac 23 be 49 cf 47 be 7c 3d 03 be
       -0.14989749 -0.1598378 -0.19512667 -0.12816423
000030 e8 87 1d be 47 84 43 be b2 a5 61 be 31 ff 85 be
       -0.15383875 -0.19093429 -0.22035864 -0.26171258
000040 ce 36 fc bd 01 ef f4 bd 9f ba dc bd 8f f2 e9 bd
       -0.12315141 -0.11959649 -0.10777783 -0.114232175
000050 c7 93 29 be e8 b0 aa bd 89 2c f3 bd 0f e7 2c be
       -0.16560279 -0.083345234 -0.11873729 -0.16885017
000060 f5 ab 2a be f5 7c af bd e9 37 74 be 19 22 06 be
       -0.16667159 -0.085687555 -0.23849453 -0.13098945
000070 70 3a 12 be ea 0b 27 be f9 1b 9d be 33 97 05 be
       -0.14280105 -0.16313139 -0.30685404 -0.13045959
000080 da f6 20 be 2d 82 69 be bd 1a 05 be 69 d2 fa bd
       -0.15719166 -0.22803564 -0.12998481 -0.12247164
000090 da a7 8b bd 88 73 4d be 68 5f 3b be 66 d7 25 be
       -0.068191245 -0.20063603 -0.18298113 -0.16195449
0000a0 0c 51 b6 bd 83 05 da bd ed f1 3e be d1 ab c6 bd
       -0.08902177 -0.106455825 -0.18646975 -0.0970074
0000b0 31 27 d1 bd 38 d3 64 be be 3e 54 be 2a a0 5d be
       -0.10212553 -0.22346199 -0.20727059 -0.21643129
0000c0 59 e0 8e be 35 f9 d2 bd 05 e8 b7 bd 8d c9 22 be
       -0.2790554 -0.10301439 -0.08979801 -0.15897198
0000d0 e1 3e 20 be 0d 8c db bd d7 f1 07 be 77 b6 5a bc
       -0.15648986 -0.10720072 -0.13275848 -0.013349167
0000e0 28 3b 71 bd d3 2f 1f be f1 d1 8b be 3f 03 24 be
       -0.058894306 -0.15545587 -0.2730861 -0.16016863
0000f0 9c ad 25 be 49 15 88 be 96 fe 44 be b2 2b ec bd
       -0.16179508 -0.2657874 -0.19237742 -0.11531772

body.block2.norm.running_mean f4 [64]
000000 9f a2 02 bd 12 4d 9b bd ea cf d7 be 3c ea 71 be
       -0.03189337 -0.07583059 -0.42150813 -0.2362451
000010 82 e3 bb be cd 22 73 3e ac b2 42 ba 97 9a 0c 3f
       -0.36697012 0.23743744 -0.0007427137 0.54923385
000020 fd 78 a5 be c8 04 ba bc a4 a8 40 3d 9b 18 8e be
       -0.3231887 -0.022707358 0.04703583 -0.27753147
000030 e1 93 39 be 74 6d d1 be 6c a3 f2 3e 79 b2 ee bd
       -0.18122818 -0.4090382 0.47390306 -0.11655135
000040 60 43 64 be 15 9b a1 bd f7 92 e6 bb b9 ea dd 3d
       -0.22291327 -0.07890908 -0.0070365625 0.108357854
000050 d0 08 2d be 6b 5a c2 be ac b8 96 3d 66 52 3e bd
       -0.16897893 -0.37959608 0.07359442 -0.0464653
000060 c7 02 ab be 6f 15 bb bd 27 d4 ba bc 67 86 26 3d
       -0.33400556 -0.091349475 -0.02280624 0.04065552
000070 3e e3 f1 bd 68 e7 fe 3d c7 fc 3a 3e a2 94 03 bf
       -0.11810921 0.12446481 0.1826049 -0.5139867
000080 45 9f 41 3d a3 da ed bd 80 6d df be 78 27 22 be
       0.047271032 -0.11613967 -0.4363823 -0.15835369
000090 61 fe ff bd dd 68 11 bd df 27 4e be e4 a2 92 be
       -0.12499691 -0.035500396 -0.20132397 -0.286399
0000a0 88 40 c8 3e 20 a1 93 bd 34 79 8c 3d 3c f1 f3 be
       0.39111733 -0.072084665 0.06859055 -0.47644985
0000b0 43 2d d2 be cd b1 82 bd 6f c1 8b bd 72 f5 ca be
       -0.41050157 -0.06381569 -0.06824004 -0.39640385
0000c0 f8 d1 1b 3e 8d 57 2d be 90 08 b9 be 00 35 82 3e
       0.15216815 -0.16927929 -0.36139345 0.2543106
0000d0 f2 a8 e2 3e 66 7a 52 be 3a aa 64 be 75 16 4f bd
       0.4426952 -0.20554504 -0.22330561 -0.050558526
0000e0 f0 64 71 be f5 e4 86 3e 40 86 51 bd 84 2d 24 3d
       -0.23573661 0.26346555 -0.05115342 0.04008247
0000f0 9c a4 78 3e 6f 77 c7 bd f3 7c c2 3d 1e df 54 bd
       0.24281543 -0.09739577 0.094964884 -0.051970594

body.block2.norm.running_var f4 [64]
000000 96 59 81 3f 4e dc 5a 3f e2 7f 6a 3f 7e 70 2a 3f
       1.0105464 0.8549241 0.91601384 0.665779
000010 be 24 56 3f 1b 10 27 3f aa 89 7f 3f 46 7d 05 40
       0.83649814 0.6525895 0.99819434 2.085771
000020 ea f4 d9 3e c8 da 98 3f f8 34 1e 40 d2 e5 6d 3f
       0.42569667 1.1941767 2.471983 0.929288
000030 8a 1d ef 3e dd d3 9e 3f 07 6f cf 3f 5d f9 82 3f
       0.46702224 1.2408406 1.6205758 1.023235
000040 79 36 a6 3f 1f e6 60 3f 4f a6 9b 3e 68 9f dd 3f
       1.2985374 0.87851137 0.3040032 1.7314272
000050 d0 33 8f 3e 8b 8b 47 3f 8d 5e 5f 3f 66 1b 2a 40
       0.27969217 0.779473 0.8725365 2.6579223
000060 4b d1 86 3f 3c 6f d4 3f a3 10 a7 3f 1b b6 76 3f
       1.0532621 1.6596446 1.3051952 0.9637162
000070 be c4 40 3f 90 6a b3 3f 96 0d 47 3f 84 48 66 3f
       0.75300205 1.4016895 0.77755105 0.899544
000080 98 94 c2 3e 29 b2 31 3f e3 70 37 3f e8 e7 2b 40
       0.38003993 0.69412476 0.71656626 2.6860294
000090 5e 3c 8d 3f 1a 16 ef 3f c8 aa 24 3f f6 af 96 3f
       1.1034048 1.867862 0.6432309 1.1772449
0000a0 11 e0 42 40 22 92 d7 3f 1e 10 89 3f 47 bf bd 3f
       3.044926 1.6841471 1.0708044 1.4823998
0000b0 d6 d5 b1 3f 0b 3e b5 3f 0b 1f 48 3f ec 97 88 3f
       1.3893383 1.4159559 0.7817237 1.0671363
0000c0 68 24 ad 3f f0 d5 9d 3f ae 18 a6 3f 45 47 84 3f
       1.3526735 1.2330914 1.2976282 1.033425
0000d0 84 26 ff 3f 2d 53 ae 3f a9 10 86 3f 0c 01 47 3f
       1.9933629 1.3619133 1.0473834 0.7773597
0000e0 28 d1 0d 3f ef 19 f3 3f 4d 04 20 3f 2b 9c b8 3f
       0.5539727 1.8992289 0.6250656 1.4422659
0000f0 a7 5c c1 3f 19 d9 50 3e 82 d8 21 40 ce 5f de 3f
       1.51064 0.20395316 2.5288396 1.7372987
