SinGAN/old Trained Model/scale_factor=0.750000,alpha=10/4/netG.pth (torch, 474454 bytes, 26 tensors)

head.conv.weight f4 [64, 4, 3, 3]
000000 19 f0 9c bd 15 d1 0d bc 0e 3a 53 bd 9a ce 1c 3c
       -0.076629825 -0.008655806 -0.051569037 0.009570742
000010 ef 8f 66 3c 5f 3e 2a bd d6 98 a2 bd 74 40 fe ba
       0.014072402 -0.041563388 -0.079393074 -0.0019397871
000020 b6 b1 16 bd bf 56 1c 3d e9 2a 83 bc 2c b6 d7 bc
       -0.036790572 0.038168665 -0.016011672 -0.026331984
000030 44 2d 33 3d 2b 6f 39 bc 9d 24 b8 3c e7 f6 fe 3c
       0.04374434 -0.011318008 0.022478396 0.031123592
000040 0e 59 33 3d 99 fb 56 3d 0a 20 05 bc 53 ea 1b bc
       0.0437861 0.052486036 -0.0081253145 -0.0095163165
000050 6c 3d 94 bd 5f 47 b2 3c cf 86 41 bb f7 12 5d 3c
       -0.07238278 0.021762548 -0.0029529815 0.013493291
000060 98 a0 ff 3a 6a f1 ec bb c4 7e a1 3c e9 be d9 3b
       0.0019502817 -0.0072309272 0.019713767 0.0066450727
000070 39 e8 7a bb 1c 88 d8 3c a8 59 d2 bc bf 54 8a 3c
       -0.0038285388 0.02643209 -0.025677517 0.016886113
000080 3d 5f b3 3c ea 5a ee bb b3 34 83 bc 94 27 e7 3c
       0.021896 -0.0072740214 -0.01601634 0.028217115
000090 5c ed 5f 3b 27 6c 23 bd ce b9 57 bd be 60 a0 3b
       0.0034168577 -0.039898064 -0.05266743 0.004894345
0000a0 6c ed 1f 3b de d9 98 bc cd ef de bb 36 60 da 3b
       0.002440299 -0.018658575 -0.006803489 0.0066643013
0000b0 c5 9e 0b bd 6c 07 18 bd 6d d5 76 bd 18 ab b1 bc
       -0.03408696 -0.037116453 -0.060262132 -0.02168803
0000c0 3b be 30 3d 96 f9 46 bb 9e 1f d0 3a be 77 3d bc
       0.043150168 -0.0030361167 0.0015878563 -0.011564193
0000d0 05 9d 8f 3a 60 b3 e0 3b a6 8c fb bb fd f5 0d bd
       0.001095683 0.0068573207 -0.0076766787 -0.03465842
0000e0 02 1d 01 bd 68 f2 4c 3d 23 0a b9 3c 5f 26 9e 3c
       -0.031521805 0.050035864 0.022587841 0.019305406
0000f0 34 0d b2 3c e7 92 2d 3d 2f 2a 2f 3c e4 2d ba bb
       0.021734811 0.042376425 0.01069121 -0.00568174
000100 d6 49 3c bc be 78 25 bb 50 50 39 3c c1 9d d8 ba
       -0.011492213 -0.002524897 0.011310652 -0.0016526507
000110 c1 74 ab bc 75 19 62 3c c8 7d fe 3c 04 ea 5a 3c
       -0.020929696 0.013800015 0.031065837 0.013361458
000120 f6 a1 3f bd 3d a2 11 bd 6d ac f5 3a 66 45 82 bc
       -0.046785317 -0.035555113 0.0018743403 -0.015902232
000130 c7 82 e3 3c 8d 8e 3e bc 8e 21 95 3a ba f8 b9 3b
       0.02777232 -0.011630666 0.0011377798 0.0056754025
000140 e5 ca 96 3b 60 7e 46 bd 29 43 e1 3a 98 64 f6 bc
       0.0046018236 -0.048460364 0.0017186153 -0.030077264
000150 ba 9c b8 bc 15 17 0d 3c 66 9d 46 bc db 73 bd bc
       -0.02253567 0.00861146 -0.012122488 -0.023126533
000160 0d 15 b8 3a 3f 05 0e bb 0b c7 84 3b 73 c2 0e 3b
       0.001404436 -0.0021670607 0.004052048 0.0021783381
000170 a8 87 7c 3c af 25 be bc 45 c4 e2 bc 86 88 78 3c
       0.015413202 -0.023211328 -0.02768148 0.0151692685
000180 3a a9 bf 3c bf e4 87 3b e5 f9 a2 bb a4 94 a3 bc
       0.023396123 0.0041471417 -0.0049736374 -0.019968338
000190 67 3e 33 3b 28 48 12 3c 67 46 ff bc a6 65 ab bb
       0.0027350427 0.008928336 -0.0311615 -0.0052306233
0001a0 af 0b b4 3c 68 6f 80 3c 61 b6 96 3c 5c 5d 66 ba
       0.021978227 0.015678123 0.018397512 -0.00087877153
0001b0 0e 49 c5 bc 75 1b 46 bc b9 1a dd 3c 5f 82 65 3c
       -0.024082687 -0.012091507 0.026990281 0.014008134
0001c0 db c1 aa 3c 11 c2 18 bd 11 1c 04 3c d9 f9 52 3d
       0.02084439 -0.03729445 0.008063332 0.051507805
0001d0 84 ae cc bc 7b 07 c0 3c 56 85 95 3b 58 aa 7b 3b
       -0.02498556 0.023441067 0.004563014 0.0038401093
0001e0 f9 94 5c bb c8 90 04 3d 6b 18 92 bc e0 10 59 bb
       -0.003365813 0.032364637 -0.017833909 -0.003312163
0001f0 e9 d7 8e bc f1 e2 80 bc 77 5a 7c 3d fa 2c ef b9
       -0.017436938 -0.015733214 0.06160971 -0.00045619142
000200 21 4a 1c bb 26 48 c1 3b 0b de cd 3b 5c c5 0b bd
       -0.0023847895 0.0058984933 0.006282573 -0.034123763
000210 89 1a 23 3c dd b5 95 bc e9 e9 bd bd a2 07 bb b8
       0.009955057 -0.018275196 -0.092731304 -8.9182766e-05
000220 1e 24 84 3b 73 03 f8 3c ca 1c 34 bc 05 ee 83 3c
       0.004032626 0.030275082 -0.010993192 0.016104707
000230 4f a7 0c 3d 1b 07 03 3b 38 95 14 bd 43 a8 92 bc
       0.034339245 0.001999325 -0.03627512 -0.017902499
000240 54 b6 d1 3b 68 70 88 bb e7 16 09 bb a9 64 18 3d
       0.006399909 -0.0041637905 -0.0020918192 0.037205372
000250 02 4f 94 bb 65 5f ef 3c 9e ac 06 bd 77 c8 d5 3a
       -0.00452602 0.029220292 -0.032879464 0.0016310354
000260 9f c6 b9 3b cc e0 82 3b 35 af 4d 3c c6 0e 3d bb
       0.0056694294 0.003994083 0.01255398 -0.0028847917
000270 bb 76 7b 3d 16 63 ce 3c a1 e7 94 3c 60 f0 67 3c
       0.061392527 0.025193732 0.018176856 0.014156431
000280 da 2b 59 3d 75 60 5f 3d 85 e9 ec bc 68 ff 08 3d
       0.053020336 0.054535348 -0.028919945 0.0334467
000290 27 e5 e0 3c 79 a2 ed 3c fc 83 33 3b 5e e9 83 bc
       0.027453018 0.029008137 0.0027391901 -0.01610249
0002a0 c8 2b 4f 3c 7d 47 33 bc 70 61 cd 3b ac 94 50 bc
       0.012644716 -0.010942337 0.006267719 -0.012730759
0002b0 0f a0 17 bd c6 9b 10 bc ce e3 0a 3d 06 1e 9b 3b
       -0.03701788 -0.008826202 0.033908658 0.0047338037
0002c0 17 93 94 3c 96 dd f1 bc ca 46 76 bc 29 6b cd 3b
       0.018136544 -0.029524606 -0.015031526 0.006268878
0002d0 51 89 25 bc 72 76 d0 3b ad 0e bf b9 2f d8 45 bc
       -0.01010354 0.006361776 -0.00036441293 -0.012075468
0002e0 70 e9 ed bb 44 b3 97 3c 15 51 17 bd da c7 b7 bc
       -0.007260494 0.018518098 -0.03694256 -0.022434164
0002f0 8e bc 14 3c 9b dc 11 3d 58 31 0f 3d d1 c8 4f 3b
       0.009078158 0.035610776 0.034959167 0.003170539
000300 4c 5f c5 3b a1 7d 00 bd 20 f8 b7 3c 4d fe 40 bc
       0.006023323 -0.03136981 0.022457182 -0.01177938
000310 2a 43 3c bc f8 68 0b bd 1e 6f 28 3d 17 4d df 3c
       -0.011490623 -0.034035653 0.041121595 0.027258439
000320 a0 2f 98 3c f0 35 2f bd d2 77 96 3b 11 69 88 bb
       0.018577397 -0.04277605 0.0045919204 -0.0041629155
000330 62 32 0a 3c f3 24 26 bc cf fa b8 bb 43 2d bc 3c
       0.008434864 -0.010140645 -0.005645133 0.022970801
000340 a6 cc a1 bb ec fc 15 bc d8 12 c6 bc 5e e1 01 ba
       -0.004937726 -0.00915454 -0.024178907 -0.0004954542
000350 0a 86 f3 3c 8e 34 c1 bb e3 7a 8e 3c 48 6c 98 3b
       0.029727 -0.0058961576 0.017392581 0.00465158
000360 20 45 8d 3c e8 c7 d3 ba 51 0b d3 3c 90 51 80 ba
       0.017244875 -0.0016157599 0.025762232 -0.0009789933
000370 97 77 7a 3c b6 22 31 3d 1e 62 e0 3c e0 7c d3 3c
       0.0152873015 0.043245994 0.027390536 0.025816381
000380 1b 88 86 3c 9d 99 5c 3c c3 9f b0 3c 12 55 2c bc
       0.016422322 0.013464359 0.021560555 -0.010518329
000390 c7 cc 8f 3b 6e f0 2d bd e3 c0 82 bc 14 48 8b 3c
       0.004388425 -0.04246562 -0.015961116 0.017002143
0003a0 2d 21 af bb 8b cd a8 3a 45 66 f7 3c 0b bd a6 bc
       -0.005344531 0.0012878639 0.030200133 -0.020353815
0003b0 bd de 09 3b 3c d6 8f bc f8 91 9a 3c 0f ea 97 bb
       0.0021037303 -0.01755821 0.018868431 -0.0046360563
0003c0 fe cd f6 3c 82 8f c8 bb 37 ea dd bb 20 98 4c ba
       0.030127522 -0.006120623 -0.0067723054 -0.0007804651
0003d0 2f 84 bc bb d8 7e f0 3b a0 48 3f 3c 57 76 11 3c
       -0.005753062 0.0073393397 0.01167503 0.008878312
0003e0 85 17 c0 bc 90 5e 87 bb d7 96 09 3c c4 9b 17 bd
       -0.023448715 -0.004131146 0.008397779 -0.037013784
0003f0 7e 2f 1a 3d b4 cd ca 3d 31 19 31 3c 77 c9 df 3c
       0.03764295 0.09902516 0.010809229 0.027317746

head.conv.bias f4 [64]
000000 73 85 74 bd 94 05 16 3d 82 74 18 bd e2 9b 65 bd
       -0.05969758 0.036626413 -0.037220486 -0.056056865
000010 f3 3d 82 3b 1a 81 ce 3d 01 b0 a5 3d ac af 16 3e
       0.00397467 0.10083218 0.08090211 0.14715451
000020 45 c2 b6 bc b6 c4 f7 bd 1f d6 cc bd 3c fe d8 bd
       -0.022309432 -0.120980665 -0.10001778 -0.10595366
000030 f2 bd 1c 3e 34 76 22 3c 7e ba 15 be 53 24 fe bd
       0.15306833 0.009915877 -0.14621922 -0.12409272
000040 6a e8 04 3e 4b 9c 03 be 6b d9 cb bd 1d f7 26 3e
       0.12979284 -0.1285259 -0.099535786 0.16305204
000050 df cd e5 bc 06 8e 21 be 2e 5c 29 3e 6c 77 e6 3d
       -0.028052269 -0.15776834 0.1653907 0.11253247
000060 54 f8 c8 bd fd 07 9f bc b2 1a cf 3d 6a d9 05 3e
       -0.0981299 -0.019412989 0.101125136 0.13071218
000070 5e 69 be bd cf 12 b1 3d 88 3b c5 3b f4 5b ca bd
       -0.09297441 0.086461656 0.0060190596 -0.0988082
000080 22 4f d2 3d 2a 32 97 3d e2 5e 5d bd d2 81 61 bd
       0.10269 0.07382615 -0.054045565 -0.055055447
000090 83 2d 7b 3d f2 42 a6 bd b7 1e d0 3d cd d5 d7 3d
       0.0613227 -0.081182376 0.101621084 0.10538826
0000a0 5d de c3 3d bd 71 8f 3c b9 1e 7f 3d ac 5b 33 bd
       0.09563897 0.01751029 0.06228516 -0.043788597
0000b0 f5 98 c4 3d 6c 3f af bd 1c ce af 3c 8d 00 e5 bd
       0.09599487 -0.08557019 0.021460585 -0.11181746
0000c0 2f e6 a9 3d f4 bc e9 bd 9f e3 c2 bc 70 b2 04 3e
       0.08295857 -0.11412993 -0.023790179 0.12958694
0000d0 5a 60 03 3e 17 bc 0e 3e 87 cc 83 3d 8e b0 24 3e
       0.12829724 0.13938938 0.06435495 0.16082975
0000e0 f2 bb 76 3d d4 55 88 3d f6 14 15 3e 72 5a 42 3d
       0.060237832 0.066569954 0.14558777 0.047449537
0000f0 81 93 b2 bd 2f e8 12 bd ed a5 27 bd eb a6 2f bd
       -0.087195404 -0.03586596 -0.040929724 -0.042883795

head.norm.weight f4 [64]
000000 63 18 82 3f 3b f8 7f 3f 38 38 7b 3f 0f c2 80 3f
       1.0163692 0.99988145 0.9813266 1.0059222
000010 57 c2 83 3f f8 ac 7b 3f 47 2c 82 3f 56 fe 77 3f
       1.0293683 0.98310804 1.0169762 0.9687246
000020 70 c1 80 3f 4a 78 80 3f 71 ef 79 3f 97 05 83 3f
       1.0059032 1.0036709 0.97630984 1.0236081
000030 85 3b 80 3f fe d8 7d 3f d0 e1 7e 3f e8 62 81 3f
       1.0018164 0.9915923 0.9956331 1.0108309
000040 0f 50 77 3f 68 a5 7b 3f f2 aa 7c 3f 9c c3 7d 3f
       0.96606535 0.98299265 0.9869834 0.991266
000050 2c 43 7b 3f de 3e 83 3f c9 65 81 3f e9 86 79 3f
       0.9814937 1.025356 1.0109187 0.9747148
000060 e7 de 82 3f 39 97 84 3f ad a7 7e 3f 10 8e 81 3f
       1.0224274 1.035865 0.994746 1.0121479
000070 ac b4 81 3f a0 c5 82 3f 74 1a 7a 3f 2c 3f 80 3f
       1.0133262 1.021656 0.97696614 1.0019279
000080 92 53 7e 3f 34 66 81 3f 51 ac 7a 3f cf f7 79 3f
       0.9934627 1.0109315 0.97919184 0.9764375
000090 6f 04 7f 3f e8 f2 7b 3f b4 40 7c 3f 0b 8b 77 3f
       0.9961614 0.9841752 0.9853623 0.9669654
0000a0 c9 59 81 3f bb 04 75 3f 28 4b 7d 3f 47 e8 82 3f
       1.0105525 0.95710343 0.98942804 1.0227135
0000b0 40 11 7c 3f d9 e5 77 3f 27 d1 79 3f 19 ae 7f 3f
       0.9846382 0.96835095 0.97584766 0.99875027
0000c0 42 f8 74 3f 30 c8 75 3f be cf 81 3f 8c a9 80 3f
       0.9569131 0.96008587 1.0141523 1.0051742
0000d0 3d b3 83 3f e7 59 7b 3f 0f 60 78 3f 07 4c 88 3f
       1.0289074 0.98184055 0.97021574 1.0648202
0000e0 62 e0 81 3f c7 18 80 3f 84 d8 85 3f bf a4 80 3f
       1.0146601 1.0007561 1.04567 1.0050277
0000f0 2b 30 75 3f d8 51 82 3f 4d 4a 86 3f 50 ba 79 3f
       0.95776623 1.0181227 1.0491425 0.97549915

head.norm.bias f4 [64]
000000 5a ba 9a bc 0f 82 dc bc c5 c4 72 bc 2f a3 1f bd
       -0.018887687 -0.026917486 -0.014817421 -0.038973983
000010 13 2d e7 3b 5e 7b 75 bc 71 0e 12 bc 17 5b 15 bb
       0.007054934 -0.014983026 -0.008914576 -0.002278989
000020 e5 4c 7d b8 06 46 42 ba ca 9a eb bc 79 83 51 bb
       -6.0391514e-05 -0.0007410947 -0.028760333 -0.0031969233
000030 b8 65 2f ba 24 2f 6b bc f8 b0 ce 3b d1 ae dd bc
       -0.00066908775 -0.014354501 0.0063077174 -0.027060898
000040 10 aa ab bc 83 88 89 bc c5 8e 64 bc 82 99 84 bd
       -0.020955116 -0.016788727 -0.0139500545 -0.06474592
000050 f7 7c 00 bd bb 19 12 bc f4 1b 0b bd f0 90 9a 3c
       -0.031369176 -0.008917267 -0.033962205 0.01886794
000060 7a 9a 4e bb 21 82 04 bd 07 15 b2 bc 59 8e a0 3b
       -0.003152518 -0.032350663 -0.021738542 0.0048997817
000070 22 ea bc bc f4 57 57 3b 2d 2f 04 bd 0b 5d 58 bb
       -0.023060862 0.003285882 -0.032271553 -0.0033014442
000080 60 32 02 bd fd b0 24 bc a7 23 e3 bc 52 c6 a7 bc
       -0.031786323 -0.010051963 -0.027726961 -0.020480309
000090 4f 64 1e bd 2a 7e 88 bc d2 09 63 bc 45 c8 8a bc
       -0.03866988 -0.016661722 -0.013857322 -0.0169412
0000a0 c5 15 43 bc 16 8f 08 bd 2a 79 54 bd 0d 1a 1a bd
       -0.011907046 -0.033339582 -0.051873364 -0.0376225
0000b0 11 21 d6 bc ce a1 72 bc ff 7e 77 bb 57 06 14 bd
       -0.026138814 -0.014809085 -0.0037764905 -0.03613886
0000c0 78 28 01 bd 15 51 03 bd be af f8 bc 51 da 08 bd
       -0.031532735 -0.032059748 -0.030357238 -0.033411328
0000d0 b4 56 39 ba 22 e2 56 bc 5b 32 29 bd db 33 e9 3a
       -0.000707011 -0.013115438 -0.04130779 0.0017791943
0000e0 77 11 3d bc 26 17 ac bc 88 63 02 3d 72 6b 83 bc
       -0.0115398085 -0.021007132 0.0318332 -0.016042445
0000f0 ad 74 0a bd 5c 88 62 bb 6b 1c 18 bd ab bf 92 bb
       -0.033802677 -0.003456614 -0.037136476 -0.004478415

head.norm.running_mean f4 [64]
000000 9a 39 73 ba 8f 98 d6 3d 6f b4 14 3d 6f ff 72 bd
       -0.00092782977 0.10478317 0.036304887 -0.05932563
000010 5a 7f d4 bd 00 83 df 3d 22 b7 44 3c af 91 1e 3d
       -0.10375853 0.10913658 0.012006553 0.038713153
000020 d3 f3 73 bd c4 10 57 be a2 bb 0c be 65 4a a5 bd
       -0.0595587 -0.2100249 -0.13743451 -0.0807083
000030 10 e9 4f 3d b7 9d 1d bc bf d8 eb bd 89 13 23 be
       0.050759375 -0.009620122 -0.115159504 -0.15925421
000040 88 1a 08 3e 98 01 1e be 07 6d 74 bd 6c d6 87 3e
       0.13291371 -0.15430295 -0.05967429 0.26530778
000050 a6 60 a2 bd 11 8b 23 be f2 fb 2d 3e 8a 3c 1b 3e
       -0.079285905 -0.15971018 0.16990641 0.15159813
000060 d1 6e a2 bd f0 1a af bd f6 41 fd 3c e2 a3 ff 3c
       -0.07931293 -0.0855006 0.030915242 0.031206075
000070 63 c6 b9 bd 1a 3f e0 3d b5 39 c9 bb 40 9c a3 bd
       -0.090710424 0.10949536 -0.0061409124 -0.07988787
000080 24 b9 ce 3d a7 6b f7 3d 13 56 ff bd 0e da d5 bd
       0.100939065 0.1208108 -0.12467589 -0.10441981
000090 cc f8 7d bd 33 1d 97 bd 1a 14 9e 3d 9a 06 8f 3d
       -0.06200485 -0.07378616 0.07718678 0.06983681
0000a0 c3 fc cd 3c af 92 a8 bc a6 3c a0 3d 82 7e 30 bd
       0.02514494 -0.020577757 0.07824068 -0.043089397
0000b0 d7 a5 0a 3e 22 e4 dc bd 5b 5d 9c bd 5b bb d1 3b
       0.13539825 -0.107857004 -0.07634994 0.0064005083
0000c0 07 55 51 3d ed 49 15 be 21 06 52 bd 78 99 64 3d
       0.05110648 -0.14578982 -0.051275376 0.05581042
0000d0 3f 81 05 3e cd 72 35 3e cd 50 1d 3d 74 df 61 3e
       0.13037585 0.17719574 0.038407136 0.22057897
0000e0 f1 90 7d bb c6 9a 84 3d e0 d6 35 3e 43 1a 22 3d
       -0.0038691128 0.06474833 0.1775775 0.039575826
0000f0 06 b6 da 3c 87 f8 ce bd 75 08 eb bd 0e 13 95 bd
       0.026698124 -0.101059966 -0.114762224 -0.07279025

head.norm.running_var f4 [64]
000000 6f 70 0d 3b a9 04 2a 3b 90 98 58 3b d4 94 b7 3a
       0.0021581908 0.002594272 0.0033049919 0.0014006146
000010 cf 58 17 3c 14 8b 71 3a 0b 7c 25 3b 87 81 9a 3b
       0.009237482 0.00092141447 0.0025250937 0.004715148
000020 16 75 6e 3a 61 ee 1a 3b 26 e0 1a 3c c9 3f ff 3a
       0.00090964267 0.002364062 0.009452855 0.0019473966
000030 6f b5 a8 3b ec 77 85 3a 4f d8 4e 3a 1f 63 fe 3a
       0.0051485817 0.0010182834 0.0007890509 0.0019408202
000040 21 a2 24 3b c7 d5 df 3a 66 ff c1 3a cd 88 1f 3c
       0.002512105 0.001707726 0.0014800846 0.009737206
000050 c1 1f d8 3b 6c 15 9b 3c 1e e6 78 3b 98 f1 0e 3a
       0.0065955822 0.018931113 0.0037978957 0.00054528704
000060 6e d5 22 3a 8b 37 14 3b 72 bc d2 3b 17 4b 91 3b
       0.0006211613 0.0022616114 0.006431156 0.0044340002
000070 f5 0f 95 3a de 59 9f 39 10 36 f9 3a 5d b4 86 3a
       0.0011372553 0.000303938 0.0019013304 0.0010277141
000080 1e b6 86 3c fb 40 b2 3a c9 be bd 3c df dd f5 3b
       0.016444262 0.0013599688 0.023162263 0.0075032557
000090 77 45 a9 3b 6e 23 3f 3b 0e 68 08 3a f8 a9 65 3b
       0.0051657516 0.0029165405 0.00052034936 0.0035043936
0000a0 a2 46 09 3b a8 36 2c 3b e9 b8 6c 3a c0 bb f6 39
       0.0020946641 0.0026277695 0.00090302393 0.0004706066
0000b0 65 e9 39 3c 64 3b b8 3a f9 43 87 3c b5 e8 3e 3c
       0.0113471495 0.0014055786 0.016511904 0.011652161
0000c0 ad a2 84 3a 7c 60 46 3b 9b ac 75 3a dd 50 ba 3c
       0.0010119282 0.0030269912 0.00093717285 0.022743637
0000d0 4b 1f d3 39 1d 56 26 3c 54 9a e6 3b 20 f9 a9 3a
       0.0004026837 0.010152367 0.0070374403 0.0012967922
0000e0 7d c8 4f 3b 77 8f 4a 3c e4 b0 fa 39 01 21 cb 3a
       0.0031705194 0.012363306 0.0004781551 0.0015497507
0000f0 64 6e cb 3c 36 cf 90 3b da 9b bb 3a cc 36 81 3a
       0.024832912 0.0044192327 0.0014313415 0.000985825

body.block1.conv.weight f4 [64, 64, 3, 3]
000000 e8 9c 4e bb f7 f3 a7 3c 5f d5 67 3c b4 f0 8e 3b
       -0.003152663 0.020502074 0.014149993 0.00436219
000010 ab 73 59 ba 0e f2 36 3c 07 d4 43 bd 73 09 12 bc
       -0.0008295129 0.011166109 -0.047809627 -0.008913386
000020 c7 08 d4 bc 6a e9 2b 3c bf 35 58 3c cf 18 55 bc
       -0.025883092 0.010492662 0.013196408 -0.013006403
000030 d6 7a 32 3a 22 d0 63 bb c8 77 00 bc 62 71 30 bc
       0.0006808465 -0.0034761508 -0.007841058 -0.01076922
000040 7a 11 1c 3d bb 5f 10 bc 85 41 f4 3c e8 16 89 3b
       0.038102604 -0.008811886 0.029816398 0.004183639
000050 4e 99 d5 bc d9 f5 71 3c eb 6a 0e bd de d1 4a 3c
       -0.026074078 0.014768087 -0.034769934 0.012379138
000060 81 51 45 bc a8 69 b4 3b 53 53 4b bb 9d fb 7c 3c
       -0.012043358 0.0055057593 -0.0031025007 0.015440849
000070 cd c6 67 bb d8 f0 8f 3c 35 2a 16 bd 46 88 30 bb
       -0.0035366297 0.017570898 -0.036661346 -0.0026936694
000080 81 3e 66 bc ee df 3f bd 73 24 a1 bc 1a d2 32 bc
       -0.014052988 -0.046844415 -0.0196707 -0.01091435
000090 ce 0b b6 bc 0f b0 46 3c df b7 64 3d ba 03 d6 bb
       -0.022222426 0.012126937 0.055839416 -0.006531206
0000a0 3b c9 80 3c 3b bf 42 3c f4 7d bf bb 3a 7c 22 bc
       0.015720954 0.011886413 -0.005843872 -0.009917313
0000b0 54 45 f6 3b 46 41 1e bc 6b 06 41 bd 16 58 c6 3b
       0.007515589 -0.009659117 -0.04712526 0.006052981
0000c0 d3 d5 4f bc 10 68 ab bb 10 82 23 3d 01 a9 78 bc
       -0.012685257 -0.005230911 0.03991896 -0.015177012
0000d0 ef e0 88 bc cb 28 f2 bc cc 52 60 bd 35 94 35 ba
       -0.01670882 -0.029560467 -0.05476646 -0.00069266866
0000e0 b5 56 d2 3c 5f da 1b bc 03 e9 a4 bc 85 0c 4a 3c
       0.02567611 -0.009512513 -0.02013064 0.012332086
0000f0 2e 89 6c 3a 41 75 91 3a 1c 5d e8 3c 11 d7 bc 3c
       0.0009023127 0.0011097566 0.02836471 0.02305177
000100 3b b8 9c bc 42 fd 47 3c 06 96 9f 3c f9 40 4b 3c
       -0.019130817 0.012206377 0.019480716 0.012405627
000110 11 19 f0 bc 85 76 f1 ba 9a c8 95 ba f4 b7 c6 3c
       -0.029308828 -0.0018422162 -0.0011427582 0.024257638
000120 d2 e9 f6 3a 53 f3 a2 3a 73 a3 b9 bc 2c 88 f5 ba
       0.0018837994 0.0012432135 -0.022660946 -0.0018732599
000130 27 f8 28 bb 31 e2 81 bc bf 83 26 bb cf 86 30 3c
       -0.0025782676 -0.015854927 -0.0025408117 0.010774328
000140 4e 62 e0 bc 21 ca ef 3c 16 99 48 3c 80 01 2e 3d
       -0.027390625 0.029271187 0.01224353 0.0424819
000150 f2 ae 91 3c e1 87 a2 ba 1b 46 e7 3c 45 17 1e bc
       0.017783616 -0.0012400114 0.028231671 -0.009649103
000160 a4 5d 4b bc 29 bb 8a bc c1 25 f0 bc 57 86 e7 bc
       -0.012412462 -0.016934948 -0.029314877 -0.0282623
000170 bf d5 e0 bc 13 79 f1 ba fb 06 3a 3b 51 09 b6 bc
       -0.027445672 -0.0018422924 0.0028385508 -0.02222124
000180 a4 24 bd bb 24 9d 82 3c 5c 83 21 bc 2a 43 2b 3c
       -0.00577219 0.015944071 -0.009857979 0.010453025
000190 af 4d 5d 3c 31 1f 09 ba 88 c5 23 bd 76 36 48 3c
       0.013507291 -0.0005230783 -0.039983302 0.012220016
0001a0 05 ae 05 bc b2 1b 15 bd b6 2f 97 bc d1 a9 b8 3b
       -0.008159165 -0.036403365 -0.018455368 0.005635478
0001b0 f3 31 9b bc e7 52 0f 3d 8d 6a 40 bc 20 dd a1 3c
       -0.018944716 0.03499117 -0.011744154 0.01975876
0001c0 1c f7 82 3b fb 26 8d 3c 08 30 15 3c 3a e9 61 3d
       0.003996743 0.017230501 0.00910569 0.055154063
0001d0 66 e5 a0 bc 89 b5 5f bc 77 75 85 bc af 1b 40 3b
       -0.019640636 -0.013654121 -0.016291363 0.0029313376
0001e0 c8 5d 0a 3c f1 8b 8c bc 68 b0 b2 3c a4 4c e9 bb
       0.008445211 -0.017156573 0.021812633 -0.007119732
0001f0 63 da 2a bc 00 eb b3 3c 5c 84 4e bd 6f 43 f1 bb
       -0.010428044 0.021962643 -0.050419196 -0.007362775
000200 fb f6 2a bc b4 f2 1d 3d c4 a8 5f bb a6 94 91 bb
       -0.010434861 0.038561538 -0.0034127692 -0.004442769
000210 e8 3d 90 bc b4 e1 c8 3a 5d 48 fc 3c 92 32 c1 3b
       -0.017607644 0.0015326054 0.030796224 0.005895921
000220 fe 52 58 bc ad 62 30 3c d5 44 04 3d 8a fb 22 bd
       -0.013203381 0.010765714 0.032292206 -0.039790668
000230 2d dc b2 3c 02 98 f3 bb 7d fa 2d bc ee b1 51 bb
       0.021833504 -0.007433892 -0.010618803 -0.0031996923
000240 78 39 94 bc b8 9e 5c bc bb e9 1b bc 35 08 0c 3a
       -0.01809381 -0.013465576 -0.009516175 0.0005341799
000250 40 1b 32 3c 8e d0 e0 3c 64 23 01 bd bf 23 12 3a
       0.010870755 0.027443197 -0.03152789 0.00055747846
000260 d8 a1 0c bc 33 5d 74 3d f4 bf 13 bd be 9a 9d bb
       -0.008583508 0.059659194 -0.036071733 -0.0048097065
000270 63 5a 82 3c cf bb b0 bb 2c db 4e bc 34 17 8e 3c
       0.01591224 -0.0053934823 -0.012625497 0.017345048
000280 ee a6 19 3d e2 7d ea 3b b8 03 b9 3b d0 fc 88 3c
       0.037512712 0.0071561197 0.0056461953 0.016722113
000290 1e ef a0 3c 25 55 11 bd 5e ae 93 3b 62 d0 1c 3c
       0.01964527 -0.03548159 0.00450687 0.009571167
0002a0 f8 60 2c ba 1c a8 b8 bb af 39 ad 3b 5d 51 a1 bb
       -0.0006575729 -0.0056352746 0.0052864174 -0.0049230293
0002b0 7a fe 10 bc 6a f0 17 bc 58 96 f2 3a 7b 37 ca 3c
       -0.008849734 -0.009273628 0.0018507941 0.024684658
0002c0 02 11 20 3c 9f f5 2b bb 97 37 53 bc 8f ff 09 3a
       0.00976968 -0.002623893 -0.012891672 0.00052642165
0002d0 fd c4 33 bc 07 88 d6 bb 41 85 36 bd cf 73 84 bc
       -0.010972259 -0.0065469774 -0.044560675 -0.016168503
0002e0 aa d3 b0 bc 7b b1 77 3c 69 8a ed bc 38 f9 af bb
       -0.021585304 0.015117998 -0.028996663 -0.0053702854
0002f0 28 00 bb 3c 67 09 f5 39 bc e9 84 bc 3a 03 ce 3c
       0.022827223 0.00046737047 -0.016224734 0.025148023
000300 b2 80 be bc e5 4a 5c 3b 37 f4 12 3d 2b 30 a7 bb
       -0.023254726 0.0033613977 0.035877433 -0.0051021776
000310 0a c8 37 3b f9 15 c6 3b f0 cf 45 3d 7d 85 33 bb
       0.0028042817 0.0060451 0.048294008 -0.0027392798
000320 02 a8 cd bb 46 01 13 bc 77 c4 01 bd 99 7f 5e bd
       -0.0062761316 -0.008972472 -0.031681504 -0.054320905
000330 27 81 11 3d 88 e0 87 bc e3 50 1c bb 32 fd 2f bd
       0.03552356 -0.016586557 -0.0023851923 -0.042966075
000340 9b 54 3a bc f3 4f 8e 3c 33 80 22 bd da da 91 bb
       -0.011372711 0.017372107 -0.03967304 -0.004451138
000350 5f 13 ea 3c 96 d5 19 bc 5f a1 68 bb 27 31 28 bb
       0.02857369 -0.009389302 -0.0035496575 -0.0025664063
000360 6c dc 82 bd 51 c8 7f bc 4f 26 2b 3c d4 fc fc bb
       -0.063896984 -0.015611724 0.010446145 -0.007720569
000370 89 52 94 3c c1 3f 05 bc 35 f0 e3 3c e9 df 17 3d
       0.018105762 -0.008132876 0.0278245 0.03707877
000380 ea 86 9f bb 51 78 08 3c ec 73 08 bc 8b 60 c3 bb
       -0.004868378 0.008329467 -0.008328419 -0.0059624366
000390 7b 1c ab 3b f3 58 b7 3c 26 a7 92 bc 1d 63 22 3d
       0.005221901 0.022381281 -0.017901968 0.039645303
0003a0 9d 45 c5 bc fc 1a 8f 3b d8 72 6f 3c 55 af 2a 3b
       -0.024081046 0.0043672305 0.014614783 0.0026044447
0003b0 24 c9 83 3b 78 ec 8c bc c2 d5 96 3b 4f 69 2d bd
       0.0040217806 -0.0172026 0.0046031186 -0.04233676
0003c0 43 4a 6a 3c 9f 6b 11 3c 84 bb 47 3d 1c 7e e4 bc
       0.014299932 0.0088757565 0.048762813 -0.027892165
0003d0 4c f0 9c bc 12 68 2c 3c 9a f4 fc 3c e1 9e 36 bc
       -0.019157551 0.010522859 0.030878354 -0.011146278
0003e0 9c 30 df 3c bd 40 9c 3b eb 15 88 3c 10 57 ab bc
       0.027244858 0.0047684596 0.016612014 -0.020915538
0003f0 8e 2c b8 3c 5d 92 67 bc f5 b4 3c bc d4 78 df 3b
       0.022482183 -0.014134017 -0.011517753 0.0068198238

body.block1.conv.bias f4 [64]
000000 f3 3e 6e 3c 82 c0 c4 3c 27 85 1c 3b 40 e2 01 bd
       0.014541375 0.024017576 0.0023883076 -0.03170991
000010 84 81 f0 3c 30 17 e1 bc e4 90 d8 3c 99 85 16 bd
       0.029358633 -0.027476877 0.026436277 -0.036748502
000020 cf 02 b0 3c 18 00 72 bc 33 0d 0a 3d b5 ae 48 bb
       0.021485714 -0.01477053 0.033703994 -0.0030621712
000030 06 34 23 bc c4 24 d0 bc d7 31 66 3c 97 14 d6 3c
       -0.009961134 -0.025408156 0.014049969 0.026132865
000040 65 a9 ec bc 6a 96 a6 3c 59 ca 11 3d 07 60 7a bc
       -0.028889367 0.020335395 0.035593364 -0.015281684
000050 5c d5 8d bc bd 6a 0a 3d 0e f4 f9 3a 60 17 21 3d
       -0.017313652 0.0337932 0.0019069926 0.039328933
000060 b8 78 de 3c 1c 73 e0 3c bc bf 28 3d 8e 33 1e 3c
       0.027157173 0.027398638 0.041198477 0.009655846
000070 c2 a0 a8 3c f2 95 54 bc c7 67 0d bd 69 81 37 bc
       0.020584468 -0.012975203 -0.034522798 -0.011200287
000080 eb 1d d5 3c 83 64 d1 bb be 1b 41 bb a3 05 9f bc
       0.026015243 -0.0063901558 -0.0029465999 -0.019411867
000090 8b be 4f bc 2e 80 33 bb d1 e6 0f bd 16 ae 00 bc
       -0.012679706 -0.0027389633 -0.035132233 -0.007854005
0000a0 40 99 f7 3c 5c 6c ed 3c ad 26 e3 bc 3c d5 a9 3c
       0.030224442 0.028982334 -0.027728403 0.02073156
0000b0 ed 3e ab 3c 8a a6 01 3d b6 2e 19 bd 03 5f 9c bb
       0.020904029 0.031652965 -0.037398063 -0.0047720685
0000c0 8f 1f 93 ba 9e 6c 1f 3c 4a a9 fc bc ff 7d d3 bc
       -0.0011224615 0.009730486 -0.030842442 -0.025816916
0000d0 8a 69 d5 3c b6 8a d8 3c e4 1e 35 3b fa 9c a1 3b
       0.026051302 0.02643333 0.002763682 0.004932043
0000e0 fc db 25 bd d4 6d a4 bc ea bf 18 3c 82 3e 03 3d
       -0.040492997 -0.020071901 0.0093231 0.032042034
0000f0 ad a4 0d 3d 86 7f ce bc 37 f0 ce 3c 53 d7 95 ba
       0.034580875 -0.025207292 0.025261028 -0.001143197

body.block1.norm.weight f4 [64]
000000 64 14 7d 3f da a0 80 3f 7a ce 7f 3f dc 67 7d 3f
       0.9885924 1.0049088 0.99924433 0.989866
000010 cb 7b 7f 3f 79 42 80 3f dc f1 7b 3f f6 00 78 3f
       0.9979827 1.0020286 0.98415923 0.96876466
000020 b8 a3 76 3f 4e ac 7f 3f 56 05 77 3f cb 95 80 3f
       0.96343565 0.9987229 0.96492517 1.0045713
000030 32 1d 84 3f 52 82 80 3f d9 ec 80 3f fd 52 81 3f
       1.032141 1.0039771 1.007228 1.0103451
000040 28 7c 84 3f d4 2b 83 3f d3 3c 79 3f 15 54 7f 3f
       1.035039 1.024775 0.97358435 0.99737674
000050 f3 f8 80 3f 77 fc 84 3f e7 6b 80 3f ff b1 83 3f
       1.0075973 1.0389546 1.0032929 1.0288695
000060 7c e8 79 3f 34 2d 77 3f d9 b8 80 3f 86 41 78 3f
       0.9762037 0.9655335 1.0056411 0.9697498
000070 3c 0a 83 3f 2c 2a 80 3f a6 cb 73 3f dd d2 82 3f
       1.0237498 1.001287 0.9523262 1.02206
000080 9b 7a 7a 3f e9 cb 79 3f cc 5e 83 3f 24 03 88 3f
       0.9784333 0.9757677 1.0263305 1.0625958
000090 08 62 7a 3f c6 38 7b 3f 9d 76 8a 3f 2d 76 79 3f
       0.97805834 0.98133504 1.0817448 0.97445947
0000a0 bc f3 84 3f bb 0e 82 3f ff 2e 78 3f 0a aa 80 3f
       1.0386882 1.0160745 0.9694671 1.0051892
0000b0 0a 2a 7a 3f 86 40 81 3f 38 8a 80 3f 34 30 82 3f
       0.97720397 1.0097816 1.0042181 1.017096
0000c0 79 68 80 3f 83 68 7e 3f 87 8c 78 3f bd b5 81 3f
       1.0031883 0.9937822 0.9708943 1.0133587
0000d0 3d 88 80 3f d8 53 78 3f 59 7b 82 3f 49 95 84 3f
       1.0041577 0.97002935 1.0193893 1.0358058
0000e0 45 a3 7b 3f 7a 39 76 3f 31 63 82 3f 1a 67 7b 3f
       0.98296005 0.9618145 1.0186521 0.98204195
0000f0 76 aa 81 3f 68 7a 7c 3f 46 d7 78 3f 2b b9 7b 3f
       1.0130146 0.9862428 0.9720348 0.9832942

body.block1.norm.bias f4 [64]
000000 a8 9c 89 bc 82 9e 10 bd af f3 2a bd 12 b6 d9 39
       -0.016798332 -0.035307415 -0.0417363 0.00041525118
000010 60 57 2d bc af 1f a7 bc cb aa 06 bd d1 38 8a bc
       -0.010579914 -0.02040085 -0.032877725 -0.016872795
000020 27 e7 5f bd f0 42 0e bd 2e cc 18 bd 68 df 81 bc
       -0.054663803 -0.034731805 -0.037304096 -0.015853599
000030 b3 df 04 bd 3a 87 11 bd 0a 74 36 bd bc e1 81 bd
       -0.0324399 -0.035529353 -0.044544257 -0.063418835
000040 05 12 b7 bc 04 f0 b4 bc bc 3f de bc ee 69 2c bc
       -0.02234746 -0.022087105 -0.02713 -0.0105233025
000050 97 da b5 bb 1c 35 f0 bc 79 57 01 bd 43 2c 8e bc
       -0.0055497396 -0.0293222 -0.03157756 -0.01735509
000060 b7 6f 2d bd bb 01 92 bc d2 21 b6 bc aa c4 1e bc
       -0.042342868 -0.01782309 -0.022232924 -0.009690443
000070 1b 0c 42 bd 11 99 94 bc 39 3d e3 bc 16 ff 29 bc
       -0.047374826 -0.018139394 -0.027739154 -0.010375759
000080 bf cd b7 bc da 24 17 bd 22 ec 2c bc a3 1b 91 bd
       -0.022436975 -0.03690038 -0.010554345 -0.070853494
000090 6e 6b 69 bc 08 73 ec bc 4e f4 44 bd 04 82 bc bc
       -0.014246805 -0.028863445 -0.04808455 -0.023011215
0000a0 d9 cd f9 bb bf 00 1c bd b9 2c 24 bc 81 4d c0 bc
       -0.007623416 -0.03808665 -0.010020428 -0.023474457
0000b0 6e 67 24 bd 67 79 be bc cf b9 72 bd 94 ee 17 bc
       -0.0401377 -0.023251249 -0.059259232 -0.00927319
0000c0 ed 40 d4 bc 70 d6 81 bc cb 23 d5 bc ce 56 71 bd
       -0.025909865 -0.015849322 -0.026018044 -0.058920674
0000d0 79 4d ef bb a2 09 e6 bc 7e c7 90 bc 88 3a 6e bd
       -0.0073029366 -0.028080765 -0.01767325 -0.05816129
0000e0 5b 8d 85 bc 65 ef c4 bc d9 96 25 bc 6b ab 11 bc
       -0.016302755 -0.024039933 -0.010106766 -0.008890967
0000f0 a0 69 dd bc 21 5b c4 bb d7 c6 16 bc 23 1f e1 bc
       -0.027027905 -0.0059923087 -0.009202681 -0.027480667

body.block1.norm.running_mean f4 [64]
000000 c9 e1 83 be 27 c4 ae be 40 6e c5 be 01 8b e6 be
       -0.25758198 -0.34134027 -0.38560677 -0.45027927
000010 7b 5f f6 3a 8f c8 a5 be 6e be d2 3e 63 28 c0 be
       0.0018796766 -0.32379577 0.4116091 -0.37530813
000020 2f 98 22 3f 2c 2d 79 3e 94 ab b1 bc 63 f3 0d 3e
       0.63513464 0.24333638 -0.02168826 0.13862376
000030 7c fc 53 3e 29 f1 b7 be 15 66 c2 3e 9a 5b 10 3e
       0.20701784 -0.35926178 0.37968507 0.14097443
000040 d4 90 2e be eb a8 6b be d0 90 54 3e 70 f3 85 3e
       -0.17047435 -0.23013656 0.20758367 0.2616229
000050 c5 74 a9 be be d7 87 be eb c8 32 3e 52 63 bf bb
       -0.330969 -0.26531786 0.17459457 -0.0058406973
000060 83 e1 3b be ee ac 09 be 0e 5e fc 3b 85 6b 21 bc
       -0.18347745 -0.13444874 0.007701642 -0.009852295
000070 38 42 09 be a1 d7 01 bf 08 52 f4 be ed 4b f4 be
       -0.13404167 -0.5071965 -0.47718835 -0.47714177
000080 d7 27 8b 3d 1c ed 9f bb a2 5a 41 be 35 16 80 be
       0.06794708 -0.0048805606 -0.1888223 -0.25016943
000090 db e1 ae 3e 6e 3c 45 3e 08 65 c5 be cb b6 f0 3c
       0.3415669 0.19261333 -0.38553643 0.029384037
0000a0 83 f8 3c be 10 f2 f1 3e 40 f3 ac be f8 aa 8b 3e
       -0.18454175 0.47254992 -0.33779335 0.27278876
0000b0 61 49 f1 be 1d 36 8f be 9d 82 4f 3d 22 fe 95 bd
       -0.47126296 -0.27970973 0.050661672 -0.073238626
0000c0 ab f5 85 be c4 6f d6 be 70 ea 45 3e ea 38 bf be
       -0.26163992 -0.41882145 0.19327712 -0.3734811
0000d0 82 b7 99 3e 4f 4c b3 3e 4e 3f 70 3e db c9 af 3d
       0.30022818 0.35019156 0.23461649 0.08583423
0000e0 02 85 61 bf 91 bb bb 3c 0b fa d2 3d 28 3c 19 bd
       -0.8809358 0.022916587 0.10301598 -0.037410885
0000f0 64 55 74 be 9a c6 19 be 6c 36 14 be b0 7e e1 be
       -0.23860699 -0.15017167 -0.14473885 -0.44041967

body.block1.norm.running_var f4 [64]
000000 d4 37 33 3e 8b e5 09 3e 1e d3 e0 3d bc 39 ea 3d
       0.17501765 0.1346647 0.109777674 0.11436793
000010 08 6a b3 3e 5b 1c 65 3e b2 0a a2 3e 8b 3e 5a 3e
       0.35041833 0.22374098 0.31648785 0.21312921
000020 33 3a 0f 3f 1d 88 a4 3e e9 9e 15 3e b9 39 d1 3e
       0.5594818 0.32135096 0.146114 0.4086435
000030 c5 0f 46 3e 85 c6 5e 3e c9 a2 5e 3e b5 d8 a7 3d
       0.19341953 0.21755417 0.21741785 0.081956305
000040 80 49 a8 3e 6b ad e6 3e 2a ef 29 3e 1e ed 10 3e
       0.32868576 0.45054182 0.1659514 0.14152953
000050 38 2a 97 3e b5 9b 67 3e d9 0e 79 3e 25 ae 1d 3e
       0.29524398 0.22617991 0.2432207 0.15398462
000060 9d 72 97 3e 22 1a 00 3e fb b0 01 3e 85 05 b2 3e
       0.2957963 0.12509969 0.12665169 0.34769836
000070 92 41 ab 3e 7f 92 64 3e 00 a5 9b 3e f6 cb 18 3f
       0.33448464 0.22321509 0.30399323 0.5968622
000080 a4 8d cb 3d 6b ec 03 3f 42 f0 62 3e e1 0b 0f 3e
       0.09939125 0.5153262 0.22161964 0.13969375
000090 7b 28 9f 3e b1 1f c1 3d 1c e0 3e 3e 38 f3 da 3d
       0.31085572 0.09429873 0.18640178 0.106909215
0000a0 05 bc 41 3e ad 99 3b 3e 23 4c cd 3d 23 60 71 3d
       0.1891938 0.18320341 0.100242876 0.058929574
0000b0 18 f8 e1 3d ea 08 19 3e fe 18 54 3d 6c 8d ae 3e
       0.11033648 0.14944807 0.051781647 0.3409227
0000c0 27 c8 06 3e 8f bc 6d 3e 45 6b 90 3e db 72 1b 3e
       0.1316229 0.2321646 0.2820684 0.15180533
0000d0 07 5d 1b 3e f7 6c 9d 3e a2 4a d9 3e 18 14 66 3e
       0.15172206 0.30747196 0.42439753 0.22468603
0000e0 fc 52 f3 3e d4 28 58 3e 53 46 15 3e ba 29 a1 3e
       0.4752425 0.21109325 0.14577608 0.31477147
0000f0 fb 1f 9c 3e c6 25 80 3e 1a 9c 3e 3e 89 51 00 3e
       0.3049315 0.2502882 0.18614236 0.12531103

body.block2.conv.weight f4 [64, 64, 3, 3]
000000 55 2e 17 bd dd 8f 07 bd 6b 60 03 3a ec 0e 8d 3c
       -0.03690942 -0.033096183 0.0005011621 0.01721903
000010 98 73 a8 bc 1a 1d be 3c 9d e0 c8 b8 2e ae 10 bd
       -0.020562932 0.023207236 -9.578581e-05 -0.03532236
000020 04 66 06 3d 78 e6 ab 3c f1 47 e1 3b 39 1a a0 3b
       0.032812133 0.02098392 0.006875031 0.0048859385
000030 1f a3 88 bc 47 8a b7 3b 77 5a 19 bc 90 d2 6d bb
       -0.016679345 0.0056012007 -0.009359947 -0.0036288835
000040 d4 ab a9 3b 59 b3 53 bb 5e 50 14 3c 5b 44 28 bc
       0.005177954 -0.0032302944 0.009052364 -0.010270203
000050 22 2f dc bc a2 66 99 3c 8d f5 09 bc be 50 ec ba
       -0.026877943 0.018725697 -0.00842036 -0.0018029434
000060 79 49 cc ba e3 3f 9a bc c0 27 5c 3c 9a 11 1d bd
       -0.0015585861 -0.018829292 0.0134372115 -0.038346864
000070 30 ba 8e 3b 61 42 14 3d c1 d7 0f bb c4 e0 0c 3d
       0.0043556914 0.036196116 -0.0021948668 0.03439404
000080 42 89 01 3d 97 81 0d bc 82 ff 9a 3b d6 46 ef 3c
       0.03162504 -0.008636854 0.004730166 0.029208582
000090 9a 11 61 bc 35 a9 e7 3c b0 bb c8 bc 9e 1e 3e bc
       -0.013737107 0.028278926 -0.024503559 -0.011603979
0000a0 fd 2e e3 3c 9b b9 d3 ba ab 4c d1 3c 89 e4 f7 bc
       0.027732367 -0.0016153337 0.025549253 -0.030260341
0000b0 1f a8 f0 b9 1c e2 81 b9 9c f8 23 bb ac 1f 1d bc
       -0.00045901627 -0.00024773262 -0.002502001 -0.009590071
0000c0 9f 52 d2 3c 30 c1 85 bc a7 7f 24 3c 51 30 ff bb
       0.025674162 -0.01632747 0.0100402 -0.007787742
0000d0 1a 2b 9f bc 86 79 c8 bc de 7c 33 3d bb e8 cf 3c
       -0.019429732 -0.02447201 0.043820255 0.02537953
0000e0 20 21 60 3c 55 3e 07 bc 1e cf 63 bb c4 cb a5 bb
       0.013679773 -0.008254607 -0.0034760903 -0.005059691
0000f0 4e 43 29 3b 83 fb 12 3d da f8 9c bc 89 f1 84 bc
       0.002582747 0.03588439 -0.01916163 -0.016228454
000100 d9 ee 34 3c ac e1 ce 3c 22 07 72 bc cb cf c5 bb
       0.011043274 0.025254093 -0.014772208 -0.0060367337
000110 72 03 35 3c 23 6e 06 bb 70 2a a3 3b 61 0a 26 bc
       0.011048185 -0.0020512424 0.004979424 -0.01013431
000120 a0 20 2e ba 37 a3 3d 3c ef 3e 0e 3d c2 c0 f1 ba
       -0.0006642435 0.011574558 0.034727987 -0.0018444287
000130 d5 6b e1 3c 2b 91 bc 3c e0 41 8d 3c 13 05 8b bb
       0.027517239 0.02301844 0.017243326 -0.0042425483
000140 fb 57 5f 3c 0c d9 21 3c 48 fe 92 3c 63 b5 a6 bc
       0.013631816 0.009878408 0.017943516 -0.020350164
000150 8c 61 1c 3b cc c8 ac bc d5 f9 0b 3c 3f 72 87 b9
       0.0023861853 -0.021091841 0.008543451 -0.00025834327
000160 66 70 1b 3b 30 46 cd 3b 76 c8 a1 bc 41 de 09 bd
       0.0023718118 0.0062644705 -0.019748908 -0.033659223
000170 82 d3 16 3c 9a e5 cc bc f5 b3 f1 bc d3 f5 ea bb
       0.009205701 -0.025011826 -0.029504756 -0.007170418
000180 31 ba b1 bc 7c fa 9e bc 80 a3 10 bd de 33 bc 3c
       -0.021695228 -0.01940655 -0.035312176 0.022973951
000190 55 b2 20 bd 37 70 f3 b9 73 99 34 bd bd 9b 88 3b
       -0.03923257 -0.00046432178 -0.044091653 0.004168956
0001a0 a1 b0 b6 3c 27 78 7e 3a 78 18 8d bc 05 af 9e bb
       0.02230102 0.0009707235 -0.017223582 -0.0048426413
0001b0 9a f2 85 bb da a5 22 bd 08 bb a9 bc 23 7b 4e 3c
       -0.0040877583 -0.03970895 -0.020719066 0.0126026
0001c0 03 15 be 3b 6e d7 36 bb 6b 9c b9 3b 3f 04 df bc
       0.0058008446 -0.0027899402 0.0056643984 -0.027223704
0001d0 e2 e0 4d bc 6c f2 0c 3d 5d 90 0a 3c c6 dc 28 bd
       -0.012565823 0.03441088 0.00845727 -0.04122617
0001e0 78 b8 e7 bb d2 bc aa bc d5 17 96 bc b9 89 04 3d
       -0.007071551 -0.02084199 -0.01832191 0.032357905
0001f0 40 63 6e 3b 74 9a 92 3c 6c f8 20 3c 85 74 42 bc
       0.0036375076 0.017895915 0.009824853 -0.011868601
000200 b9 0c ca bb 77 3b 7d 3c 2a 21 4f bb 01 f8 b5 3c
       -0.0061660674 0.015456072 -0.003160546 0.022212984
000210 ef e8 34 bd e6 e0 1f bc 1a 2a 52 3c f7 4e 2d 3c
       -0.044167455 -0.00975821 0.012827421 0.010577909
000220 8a e5 a1 3b a0 df 06 3d 24 fc 47 3b 0b db 07 bd
       0.0049406933 0.03292811 0.0030515278 -0.03316788
000230 62 08 06 bc 95 c1 41 3c 45 f7 ef 3c d4 d4 cf 3c
       -0.00818071 0.011825939 0.029292712 0.025370039
000240 34 e9 15 3d 5e a9 17 bc 40 e8 f8 bb d1 14 67 3c
       0.036599353 -0.009256689 -0.0075960457 0.014104084
000250 d4 cc 21 3c af bc de 3a 50 ee 12 3d f3 98 23 3c
       0.009875495 0.0016993488 0.035871804 0.009985196
000260 ad 49 a8 bb 4f 97 0f 3c a2 60 86 bb 30 ee 34 bb
       -0.005135736 0.008764102 -0.004100875 -0.002760779
000270 a4 f3 30 bc 66 7f 93 3c 64 9f 15 bd 34 e2 15 3d
       -0.010800276 0.018005084 -0.03652896 0.036592677
000280 78 9c 09 3d cc 3e 86 bc d2 a8 a3 bc 04 a7 94 3c
       0.033596486 -0.016387366 -0.01997796 0.018146046
000290 b5 53 5f 3c 7f 3f 13 3c 33 f6 3b 3b 82 6f 8d bb
       0.013630797 0.008987307 0.0028680682 -0.0043162713
0002a0 8e 4a 61 3c 79 b0 3a 3c 00 8c 76 3d 1d f0 1f bc
       0.013750685 0.011394613 0.06019211 -0.009761837
0002b0 c1 87 ac bc 7e 40 88 bc d5 76 e8 3c dc 14 f6 bc
       -0.021060826 -0.016632315 0.028376976 -0.030039243
0002c0 da 10 18 3c 50 23 4e 3c 6b b1 56 bb 26 83 73 bb
       0.0092813615 0.012581661 -0.0032759558 -0.0037157028
0002d0 0f c1 f1 3b 68 27 4f bc 3c 39 57 3c d9 75 e0 bb
       0.0073777507 -0.0126436725 0.013136204 -0.006849986
0002e0 73 dd a3 3c 48 8b 14 3b 82 4c 1a bc b8 17 93 3c
       0.020003056 0.0022666026 -0.009417655 0.017955646
0002f0 b5 2f d5 3c 59 b0 e2 bc 1f 57 c9 bc 0e 9e b0 bb
       0.026023725 -0.02767198 -0.024577675 -0.0053899353
000300 80 45 34 bd e7 b2 02 bd 0c 46 ac bb e2 63 d8 3c
       -0.044011593 -0.031908896 -0.0052573737 0.026414815
000310 91 b0 4a bc 7e 2a 94 bb 40 2a ea 3c f0 80 21 3d
       -0.012371198 -0.004521667 0.0285846 0.039429605
000320 32 d4 96 3c 6f 80 17 3c 2f 73 fd 3c df c2 ae bc
       0.01841173 0.00924693 0.030938713 -0.021333156
000330 be ee 27 3d c9 4f 93 3b e1 96 5f bb b1 1a 78 3c
       0.040999167 0.004495595 -0.003411703 0.0151430825
000340 56 82 bb bb fb 21 0d bc c7 ce 1a 3c 91 4b 84 3b
       -0.0057223244 -0.008614059 0.009448714 0.0040373285
000350 cf 16 69 3b 8f fc 34 bd ad f0 df bb e3 99 04 3c
       0.0035566573 -0.04418617 -0.0068341107 0.00809333
000360 ee 62 c9 3c c5 ec 97 bc 98 79 4d bd d2 c1 96 3b
       0.024583306 -0.018545518 -0.05016479 0.004600742
000370 00 87 94 bd 59 70 82 bc 1c 22 c4 3c 0c 8c c6 bb
       -0.07252312 -0.015922712 0.023942046 -0.0060591754
000380 b8 41 c1 bc e1 1a 0f 3c 17 b7 fb bc 1d e9 70 bb
       -0.023590907 0.008734436 -0.030726952 -0.003676004
000390 88 d7 69 bc 6b a9 91 3c 63 c5 be 3c 10 d9 6f bc
       -0.014272578 0.01778098 0.02328748 -0.014639154
0003a0 ed 96 3d bc 29 b3 75 3c be 4b cd ba 2f b4 ec 3b
       -0.011571628 0.014996328 -0.0015662832 0.007223628
0003b0 e7 45 cb bb d0 e5 2c bd a0 f4 a5 3c 31 3f d0 bc
       -0.0062034014 -0.042211354 0.020258248 -0.025420757
0003c0 26 f6 aa bc c9 f8 f1 3c 9e 44 44 bb 88 db 7d 3d
       -0.020869326 0.029537575 -0.0029948126 0.06197694
0003d0 79 1e 11 bd ab 4d 25 3c 4e 65 a6 3c ea 62 cf 3b
       -0.03542945 0.010089318 0.020311978 0.00632893
0003e0 88 eb 0e bc e0 de 37 bc e7 c2 87 bc 4a e2 44 ba
       -0.008723147 -0.011222571 -0.016572429 -0.00075105263
0003f0 74 7e 92 3c 01 70 3c 3c 49 77 e7 bb ee ee c2 3b
       0.017882563 0.011501313 -0.0070637804 0.005948893

body.block2.conv.bias f4 [64]
000000 b1 0a c4 bc 36 6c 19 3d da d5 ab bc 1d 33 9e bc
       -0.02393088 0.037456714 -0.020975996 -0.019311482
000010 ed bd da bc 69 62 fa 3c aa a9 39 3c 39 cd 01 bd
       -0.026701892 0.030564504 0.011331955 -0.031689856
000020 74 d6 58 3c 9d 12 02 3b 7a 3d ee bc 51 3e 1e 3c
       0.013234723 0.001984752 -0.029082049 0.009658412
000030 94 36 11 bd e4 be 81 bc aa cc 96 3c 59 69 ea bc
       -0.03545244 -0.015838094 0.018408138 -0.028614687
000040 7c 9f 52 bc 27 4d e3 3c e2 04 1a 3d 74 ae 21 3d
       -0.012855407 0.02774675 0.037602313 0.039473012
000050 24 4a 1d bd d9 ed 18 3d 7c 1f 24 bd 2c bd 1d bd
       -0.038400784 0.037336204 -0.04006909 -0.038510486
000060 4e 89 08 3d 4f 66 6f 3c 8b 83 c5 bb ef 31 cc bc
       0.03333407 0.014611795 -0.006027644 -0.024926154
000070 52 56 07 3d d1 05 e5 bc 0f e2 13 3d 8f 77 29 bd
       0.033041306 -0.027956875 0.03610426 -0.041373786
000080 0d a5 df 3c 9e 8f c5 3b 05 42 3c 3a c6 9c d7 3c
       0.027300382 0.0060290834 0.00071814685 0.026319873
000090 b5 5e 04 3c 03 b6 b2 3c 47 99 be bc dc 7d 06 bd
       0.008079221 0.021815306 -0.023266448 -0.032834873
0000a0 1c f7 12 3d db ee 29 3d 0f 1d af bc 66 63 bc 3c
       0.035880193 0.041487556 -0.02137616 0.022996616
0000b0 49 6a 50 bc cd 9a 5e 3c 43 c9 cd 3c 7b 6a 2a 3d
       -0.012720653 0.013586712 0.025120383 0.041605454
0000c0 0a 95 b0 3b a9 05 28 bc 54 7e 10 bb 33 fa aa 3b
       0.0053888606 -0.010255256 -0.0022047954 0.0052178144
0000d0 a2 17 76 3c b5 30 a6 bc 7e 00 0a bd f2 ea 56 3b
       0.015020283 -0.020286897 -0.033691876 0.0032793847
0000e0 30 15 1f 3d 1a 70 81 bc bd 9f dc bb 86 85 cc 3c
       0.038838565 -0.015800525 -0.0067329095 0.024966013
0000f0 ec 6e b6 3b 1b f3 d2 bc 70 b6 8d 39 73 55 2c 3c
       0.005567422 -0.025750687 0.00027029542 0.01051842

body.block2.norm.weight f4 [64]
000000 7d 2c 80 3f d4 05 7e 3f 18 03 7b 3f a2 05 82 3f
       1.0013577 0.99227643 0.98051596 1.0157969
000010 b1 72 82 3f 07 b1 82 3f 30 ef 7c 3f 48 bb 79 3f
       1.0191251 1.0210274 0.9880247 0.97551394
000020 c5 3f 7b 3f 89 00 81 3f 8f 19 80 3f bb 2e 7b 3f
       0.9814418 1.0078288 1.00078 0.9811818
000030 4d 57 7e 3f 0c ac 80 3f c7 1d 80 3f f1 d4 73 3f
       0.9935196 1.0052505 1.0009087 0.952468
000040 81 3c 77 3f f2 2d 80 3f 29 df 87 3f 6a ba 82 3f
       0.96576697 1.0014021 1.0614978 1.0213139
000050 ef 6c 7b 3f 2c 6b 7d 3f 09 8e 83 3f 2c c8 80 3f
       0.98213094 0.98991656 1.0277721 1.0061088
000060 de 38 7a 3f cf 4b 7f 3f f9 2e 7f 3f de 62 7f 3f
       0.9774302 0.9972505 0.9968105 0.99760234
000070 39 ad 7f 3f 30 d5 7d 3f 47 01 81 3f ab 34 7f 3f
       0.9987369 0.99153423 1.0078515 0.9968974
000080 e2 73 7b 3f 61 77 7a 3f ea d2 7b 3f cf 8d 7d 3f
       0.982237 0.9783841 0.98368704 0.9904451
000090 17 b2 7d 3f 74 35 82 3f 34 d6 7b 3f 07 b9 7f 3f
       0.9909987 1.0172563 0.98373723 0.99891704
0000a0 13 a8 7f 3f 80 a4 7b 3f d4 76 76 3f c6 5a 80 3f
       0.99865836 0.9829788 0.9627507 1.0027702
0000b0 f4 0b 7c 3f 67 27 83 3f bf ab 82 3f d5 06 88 3f
       0.9845574 1.02464 1.0208663 1.0627085
0000c0 3c a3 7b 3f de 3d 84 3f 31 be 7c 3f c1 b3 7c 3f
       0.9829595 1.033138 0.9872771 0.9871178
0000d0 93 a2 80 3f 60 b9 7f 3f 56 a1 82 3f 7f 4c 78 3f
       1.0049614 0.99892235 1.0205486 0.96991724
0000e0 4e ff 80 3f f2 3f 81 3f e2 83 83 3f d5 1d 7e 3f
       1.0077913 1.009764 1.0274622 0.9926427
0000f0 91 71 81 3f d4 c3 7a 3f 6a 65 7a 3f dc 73 7e 3f
       1.0112783 0.9795506 0.97810996 0.9939554

body.block2.norm.bias f4 [64]
000000 88 25 b1 bc 55 98 1a 3c 34 58 16 bd c9 59 9d bb
       -0.021624342 0.009435733 -0.03670521 -0.004801963
000010 d8 8b 11 3c c3 aa 18 bc ae d5 ce bc f2 de 9c bc
       0.008883439 -0.0093180565 -0.025248375 -0.019149277
000020 fd 39 31 bd 9b 1a fe bc b0 ee 48 bd b5 16 95 bc
       -0.043268193 -0.031018546 -0.049055755 -0.018199304
000030 a4 11 83 bc f3 5d 34 bc 76 55 a8 bc 1b 31 20 bd
       -0.015999623 -0.011008727 -0.020548563 -0.03910933
000040 84 c4 88 bc fe 04 85 bc df 84 c6 bc 32 e5 c8 bb
       -0.016695268 -0.016237732 -0.02423328 -0.006130838
000050 ce 09 e3 bc 20 bc 06 bc ee 5a 2c bc 12 22 03 bc
       -0.027714636 -0.008223563 -0.010519726 -0.008003728
000060 cf 61 02 bc 91 1d 45 bc d6 a9 ce bc 91 ec 5b bc
       -0.00795789 -0.012030975 -0.025227468 -0.013423101
000070 86 e7 70 bb 17 ca 4a 3c b8 00 1e bd 2e a6 7a bc
       -0.0036759092 0.012377284 -0.038574904 -0.015298409
000080 19 7f f1 ba be f4 88 bc 2e 15 1a 3b 7c 2b c4 bb
       -0.0018424719 -0.016718265 0.002351116 -0.005986629
000090 24 f8 47 bc af e2 89 3a f4 07 20 bc 43 e6 e1 ba
       -0.012205157 0.0010519827 -0.009767521 -0.0017234761
0000a0 1b f3 78 bc 7a 13 4d bc 25 94 98 bb 0e b8 f8 bc
       -0.01519468 -0.012516851 -0.004656332 -0.030361202
0000b0 f6 e1 08 bd 4f af 87 bc 20 9b f6 ba ee c0 af bd
       -0.03341862 -0.016563086 -0.0018814541 -0.0858172
0000c0 94 29 c6 bc 9a cd b8 bc 58 12 81 bc 8a d4 a7 bc
       -0.024189748 -0.022558976 -0.015755817 -0.020487089
0000d0 1c 84 27 3b 9b db 12 bc 1b b2 72 3c e8 43 f6 bc
       0.002556092 -0.008963491 0.014812971 -0.030061677
0000e0 15 da 95 bc 3f 14 49 bc de 96 3a bd 88 63 83 bc
       -0.018292466 -0.012272893 -0.045554034 -0.016038671
0000f0 cc d9 bb bb 27 ce 10 bd 9c 2b 76 bc a0 2e a3 bc
       -0.0057327505 -0.035352852 -0.015025046 -0.019919693

body.block2.norm.running_mean f4 [64]
000000 e2 db e2 bd 79 48 85 3d 1a d0 b8 bc 1c 51 b3 bc
       -0.110770956 0.06507964 -0.022560168 -0.021889262
000010 42 a1 be be 8a 75 8d 3e bb 99 82 3e b0 58 61 be
       -0.37232405 0.27628738 0.25507912 -0.22006488
000020 70 0e c0 bd 1b fe 06 3d 59 9a c4 3d 81 76 9d be
       -0.09377754 0.032957178 0.09599752 -0.30754474
000030 9d 1d f9 3d dc b0 32 be 09 c0 6d 3e 19 38 67 3d
       0.121638514 -0.17450279 0.23217787 0.056449983
000040 69 2a 8e 3e b3 00 b0 3e b7 57 97 3d f0 c2 69 bd
       0.2776673 0.34375533 0.07389777 -0.057070673
000050 0a 2b cd 3c 30 0a 65 bd 58 20 c4 3d b5 fb 82 be
       0.025044937 -0.05591792 0.095764816 -0.25582662
000060 c3 06 8e bd 00 95 3c be 6b b9 78 3e 13 b8 ed 3c
       -0.069348834 -0.18416214 0.24289481 0.029018437
000070 92 f9 22 3e c2 bf 9e 3d d9 07 f2 3d be 74 28 be
       0.15915516 0.07751419 0.11817903 -0.16450784
000080 6a e9 97 bc a2 58 ec bd ca c4 26 be 09 bb eb 3e
       -0.018543918 -0.11540343 -0.16286007 0.46041134
000090 26 5e 22 3e 94 22 3e 3e e9 de 22 bd e0 af cf bd
       0.15856227 0.18567878 -0.039763365 -0.10140967
0000a0 ed ed b7 3e b5 e8 97 3d d8 63 23 be 4a 43 9a be
       0.3592371 0.07417432 -0.15956056 -0.30129462
0000b0 2c b0 d9 3c fd dc 94 3e de 14 49 be 24 68 f7 bc
       0.026573263 0.2907485 -0.19636866 -0.030201025
0000c0 cc 61 9e 3d 92 b3 15 bd bb 96 98 be 37 18 a1 3e
       0.07733497 -0.036548205 -0.29802498 0.31463787
0000d0 8f 4c 45 3e 6e 17 9d bd 68 ab 1c bd 57 bb 3a be
       0.19267486 -0.076704845 -0.038249403 -0.18235527
0000e0 0c e2 24 bd 6e 4d 49 3b 5f 54 6c bd ca 95 41 3e
       -0.040254638 0.0030716318 -0.05769765 0.18904796
0000f0 f7 a3 0d 3e 01 f1 e0 bd ac 4d 4e bd ac 34 ad bd
       0.13832079 -0.10983468 -0.050367042 -0.08457312

body.block2.norm.running_var f4 [64]
000000 48 41 10 3e 7a ca 63 3e 98 03 38 3e 7b 1e 58 3e
       0.14087403 0.22245207 0.17970121 0.21105377
000010 40 e8 11 3f 76 e7 8c 3d d1 ac 96 3e 3b 4c 6c 3e
       0.5699501 0.06880085 0.29428723 0.23075955
000020 1a 44 8a 3d 56 33 9d 3e 2d 50 0f 3f e8 f3 63 3e
       0.067512706 0.3070323 0.55981714 0.22261012
000030 08 ff 92 3e fb 06 c3 3d 5b 85 91 3e 52 08 01 3e
       0.28710198 0.09522816 0.28422055 0.1260083
000040 46 9d 08 3f 7a 44 1c 3e 68 20 f5 3d bb 27 57 3e
       0.5336498 0.15260497 0.119690716 0.2101125
000050 5b 94 56 3d 05 99 30 3e d4 04 bb 3e 87 4d 82 3e
       0.052387577 0.17245872 0.3652712 0.25449774
000060 15 1c ec 3d 91 71 8e 3e 1e 32 ec 3e 8f c1 64 3e
       0.11528794 0.2782102 0.46131986 0.22339462
000070 77 a1 a4 3e 8c 8b 4d 3e 9b d4 cf 3d 39 7a 51 3e
       0.32154438 0.20072764 0.10147973 0.2045678
000080 d8 66 a6 3d c6 0b a4 3d 11 71 a9 3e 01 ac a7 3e
       0.08125085 0.08010058 0.33094075 0.32748416
000090 3a 2f 67 3e a5 8f e7 3e bb 83 80 3e f8 66 b3 3e
       0.22576609 0.4522678 0.25100502 0.35039496
0000a0 b3 69 f3 3e 6c da a8 3e ed 20 93 3e 3f f1 55 3f
       0.4754158 0.32979143 0.28736058 0.8357124
0000b0 5b 80 a3 3e 7e 01 16 3f cd ba 39 3e 5d 1e 65 3d
       0.31933865 0.58596027 0.18137665 0.05593716
0000c0 2f 1c 33 3e b6 33 8e 3e a1 1c 08 3f ea 5b 87 3e
       0.1749122 0.27773827 0.53168684 0.26437312
0000d0 fe c6 c6 3e a3 e1 7e 3f 03 51 01 3e 68 9a 9b 3e
       0.38823694 0.99563044 0.1262856 0.3039124
0000e0 66 3d f0 3e 44 3c 81 3e fb 4c 97 3e f4 c2 75 3e
       0.46921843 0.25241292 0.2955092 0.2400015
0000f0 bd ec 01 3e 71 04 cf 3d 80 43 be 3e 76 bf 02 3f
       0.12687965 0.10108269 0.37160873 0.51073396
