TrainedModels/0035-sample/scale_factor=0.850000,alpha=10/7/netD.pth (torch, 467478 bytes, 25 tensors)

head.conv.weight f4 [64, 4, 3, 3]
00000000: 0d0a bdbc d59f d13d 27fc 7f3d de55 5dbd
00000010: e269 813d 4083 883b ed8d babc a876 cd3c
00000020: 7e54 86bc d6ef 533d 7b44 ce3d e464 ef3d
00000030: 3e4e 2c3d 5c75 3c3d ac89 b93d 3c13 213d
00000040: 1485 0d3d e574 903d f3fa 8dbd 030b 85bb
00000050: 3aab a03c 1625 26be 0f1e bfbc 8b4b d4bb
00000060: 28bc 60be c7da debd 81f3 50bd 1fa9 063d
00000070: cbdd 33bc 3912 48bc f8c7 e6bb c876 c53d
00000080: 3ddb 8fbb 1076 2fbd 036c 6abc 2b23 86bb
00000090: f4c3 603c 05d0 b6bc b826 a5bc 20ca ea3d
000000a0: c91f e6ba 6e10 cabc 0390 c43d a255 bf3c
000000b0: e038 4cbd 02cb b03d 73a5 573c 09ec 953c
000000c0: eee3 073e 1228 73bc a00d b73c 8623 923d
000000d0: ccc1 d2bc 9fe7 13bb 35de 3abd 03ad f7bc
000000e0: acf8 a0bd d36b 623d fa5b 7bbd 571b 01bd
000000f0: c98f 9a3d 9aea 01bd 16ee 4fbd 8ee7 433e
00000100: eb28 86bd 73f5 eb3b e376 193d 8884 03bc
00000110: a18e bd3d 16f8 683d 45c7 713c 459f 063e
00000120: 9796 f3bd df10 86bc 3406 9dbd 17b7 b6bd
00000130: c345 a7bd e6bf f3bc 4ad5 91bc bfba d0bc
00000140: 8a3c d539 73c0 9cbd 06cf e83c 1da2 b43d
00000150: f9ad fc3b 325f fc3c 3a43 3d3d c78a c13d
00000160: 3c51 193d 4296 a13d bd46 f0bd 9e9d 04bd
00000170: d360 3d3d e075 d43a 4f5e 0bbc 9e37 6b3d
00000180: 335e 913d 5eef a33a 9b90 613d ff1a 10bc
00000190: db92 8c3c ca36 053d 3d3e c9bd 2560 ab3d
000001a0: 2e0b 7e3d 6fc4 b43c 5b72 153e 41b1 c43c
000001b0: 34ca 41bd e75d 0dbc ae4c babb 6906 353b
000001c0: 79d8 a2bb bfe1 0dbc 3da4 7c3c 576a f2ba
000001d0: b953 b13d fe79 2cbd f4c2 cfbc 0b39 1c3d
000001e0: 975b 293d c722 023d f48d a3bb 5097 ae3c
000001f0: e88f 753d 3283 be3d d8bc c7bd 7360 e5bc
00000200: 39e7 00bd a753 1dbd 5807 d73c 1327 243d
00000210: 2e79 30bd 355b f9bc cf77 963d f1fc 9fbd
00000220: 1cc0 b13c ddae b63d ae1b 583d dde2 cb3d
00000230: 528c 9cbd 8ee7 b5bb c86a 133e 45de e2bd
00000240: 9541 8fbc 6bd2 743d 1817 b73d 349d f5bd
00000250: 98df 533c 617d 943d 646b f6bd 8b1e 853c
00000260: 62e0 623d d24a b03c 5ac4 883d a889 ffbc
00000270: df33 8cbd d068 8d3c d1da 1bbd a2a2 9cbd
00000280: bf1e 603b d2a8 3d3d 7f29 133d 0e56 723d
00000290: 01ea 393d 922a 1dbd 9edd 493d d6d9 b53c
000002a0: 8f2a a8bd 5ef6 cb3b ff5c ee3b 3762 5b3d
000002b0: b0e3 ba3d 99ff fe3d 7dff e13c f6e1 4bbd
000002c0: 1a05 643c 1d64 543d 016e babd e3ef 93bd
000002d0: 8070 c2bc 4bfe ffbc b048 aabc ac81 c23c
000002e0: 3c63 b8bc fe55 b2bb 524a af3c b0af c4bc
000002f0: 9059 0fbd 29c9 7ebc 4448 593c 44dc aa3d
00000300: 5109 e1bc 9fca 72bd f99a cbbc ce26 e23b
00000310: 5cc3 9a3b c37d 89bc 8094 eebb 9371 b8b8
00000320: 47f2 c83d d9f7 18bd 7e8e 3fbd b2f2 543d
00000330: 0532 1cbc 4855 c63a ccd0 3c3c a66d 403d
00000340: 34bc 56bc 9ac0 9fbd 241c 1ebc 16ce cc3d
00000350: 3f95 663d 46f6 2cbe 4aaa 7c3d 5a0c 423d
00000360: fd5d 99bb cff5 413b 2d88 0bbc e267 8fbb
00000370: f4bf 2bbc b3d1 e73b 2868 813c 2cb3 d6bb
00000380: dcce c2bb a0cf a0bb 667c 33bb 1d7d f83a
00000390: 9410 873c 98d0 073c bc29 79ba 2b36 93bc
000003a0: 6942 183b 1ac4 3c3c 5bec 133b a1e8 453a
000003b0: 7d7d b73a a9bd 96bb 0e64 18bb 6a8b 5fba
000003c0: ce44 b93a 51cd 883b a4ff 18bc 8666 b93d
000003d0: 788b a6bc 3dfb 00be 0043 473e 4ea8 71bd
000003e0: 660b 61bd 785c d5b8 f3ba 863c 317b 1cbd
000003f0: d3be 933c 4a25 53bd 524d a63c 3f74 0d3d
-0.023076082 0.10235564 0.06249633 -0.054036967 0.06319024 0.004166037 -0.022772754 0.025080994
-0.01639771 0.051742397 0.10071655 0.11689165 0.042066805 0.04601036 0.09059462 0.039324984
0.03455074 0.07053546 -0.069326304 -0.0040601506 0.019612897 -0.16225085 -0.023329763 -0.006478732
-0.21946776 -0.10881572 -0.051013473 0.03287613 -0.0109781725 -0.012211376 -0.007042881 0.09641796
-0.004390149 -0.042837203 -0.014307979 -0.004093548 0.013718594 -0.022315988 -0.020160064 0.114643335
-0.001755708 -0.024666037 0.095977806 0.023356263 -0.049858928 0.08632471 0.013162005 0.018301027
0.13270542 -0.0148410965 0.022345364 0.07135682 -0.025727175 -0.0022568477 -0.04562207 -0.030233866
-0.078599304 0.05527861 -0.061367013 -0.031520214 0.07546956 -0.031717874 -0.050764166 0.191313
-0.06550773 0.0072008907 0.037466895 -0.008027203 0.0925572 0.05687722 0.014756982 0.13146694
-0.11893957 -0.016365467 -0.07667199 -0.0892164 -0.08167603 -0.02975459 -0.0178019 -0.025479672
0.0004067163 -0.07653894 0.028419029 0.08819983 0.007711169 0.030807111 0.04620669 0.09450298
0.037430987 0.078899875 -0.11732242 -0.032376878 0.046234917 0.0016209446 -0.008506372 0.057426088
0.07098045 0.001250725 0.055069547 -0.008795499 0.01715987 0.032522954 -0.09826324 0.083679475
0.06202238 0.022066323 0.14594404 0.024010302 -0.047311977 -0.008628345 -0.0056854105 0.002762223
-0.004969653 -0.008659779 0.015420017 -0.0018494827 0.08658547 -0.04210853 -0.025361516 0.038140338
0.041347113 0.031771448 -0.0049912874 0.021312386 0.059951693 0.09302367 -0.09752816 -0.028000092
-0.03147051 -0.038409855 0.026248619 0.040076327 -0.043084316 -0.030438999 0.073470704 -0.078119166
0.02169805 0.08920071 0.052760772 0.0995538 -0.076439515 -0.005551285 0.14396203 -0.11077551
-0.017487327 0.059770983 0.08939952 -0.11992875 0.012931727 0.07250477 -0.12032202 0.016249916
0.05538977 0.021520052 0.06678076 -0.03119357 -0.06845831 0.017261893 -0.038050476 -0.07648207
0.0034198014 0.046303578 0.035928246 0.0591641 0.04538918 -0.038370676 0.049283616 0.022198599
-0.082112424 0.0062244376 0.0072742696 0.05356046 0.09125459 0.12451095 0.027587647 -0.04977604
0.013917232 0.051853288 -0.09103013 -0.07223489 -0.023735285 -0.031249186 -0.020786613 0.023743473
-0.022508256 -0.00544238 0.021397743 -0.024009556 -0.034997523 -0.01555089 0.013261858 0.083427936
-0.027470263 -0.059275266 -0.02485417 0.0069015985 0.0047229957 -0.0167836 -0.007280886 -8.7949586e-05
0.09811836 -0.03734574 -0.04676675 0.051989265 -0.00953341 0.0015131617 0.01152439 0.04697957
-0.013106395 -0.07800408 -0.009650264 0.10000245 0.056294676 -0.16890821 0.061685838 0.04737506
-0.0046803937 0.0029595976 -0.008516354 -0.0043763975 -0.010482777 0.0070745586 0.015796736 -0.0065521207
-0.0059450697 -0.0049075633 -0.002738738 0.0018958185 0.016487397 0.008289479 -0.0009504815 -0.017970165
0.0023232943 0.011521364 0.0022571299 0.0007549618 0.001399919 -0.004600246 -0.0023252997 -0.0008527549
0.0014134885 0.0041748662 -0.009338293 0.09052758 -0.020330176 -0.1259584 0.19459152 -0.0589984
-0.05494251 -0.00010173855 0.016446566 -0.038203422 0.018035328 -0.051549233 0.020300541 0.03453469

head.conv.bias f4 [64]
00000000: 1a4d 10be a5c4 063e f69d 94bd dda0 e53d
00000010: 44f6 c8bd 036f 4abe b828 8bbb d4b0 af3d
00000020: 71ec 7c3d c5da 453e fc4e db3d c58d ac3c
00000030: 7415 00bc e295 8ebd 51a3 03be a873 e03d
00000040: 9c09 0fbe e695 4a3e 5601 093d 20a3 7ebc
00000050: aa3a fe3c a83d ea3d 9062 cebd 993c 97bd
00000060: c329 99bb 0486 ee3c 3f94 07bd 4f39 a3bd
00000070: 7d8c 28bd d9a0 4ebe bb4a 9bbd 91d9 8a3c
00000080: 5ba7 963d c302 f8bd 3e79 2abc 242c 42be
00000090: e604 3fbd f0e2 30bd 842e 5cbe 74ec 85bd
000000a0: 9e0d da3d bbb5 45bd 6fda ba3d fbc9 cebd
000000b0: 36ad a1bd ab62 c9bd 8f75 2bbe 7eca 0dbe
000000c0: ed9e 9ebd 4f6a 5f3c e11f 78bd d1de de3d
000000d0: 1fff 443e 5cf3 ad3c 554c e639 d2fb d93d
000000e0: 5b79 f1bd e32f 243e 33f2 a5bb 1770 583e
000000f0: 858a 10be 2f4e 403e 2031 4e3d 3a5e 9c3d
-0.14091912 0.13160951 -0.07256691 0.11212323 -0.098125964 -0.1976891 -0.0042467974 0.08578649
0.061748926 0.19321735 0.107084244 0.021063695 -0.007817615 -0.06962182 -0.12855269 0.1095956
-0.1396851 0.19783744 0.03344854 -0.015541822 0.031033833 0.11437541 -0.10077393 -0.07384605
-0.004674168 0.029116638 -0.033100363 -0.07969915 -0.041149605 -0.20178546 -0.07582613 0.016949447
0.07356139 -0.12109902 -0.010404883 -0.18962151 -0.04663553 -0.043185174 -0.2150212 -0.065392405
0.106471285 -0.048269015 0.09123694 -0.100971185 -0.078943655 -0.098332725 -0.16744064 -0.13846776
-0.077451564 0.013636186 -0.060577277 0.108823426 0.19237946 0.021234207 0.0004392589 0.10643734
-0.11790725 0.16033892 -0.005064273 0.21136509 -0.14115341 0.18779825 0.050339818 0.0763516

head.norm.weight f4 [64]
00000000: 3025 8c3f 9b99 443f 7d02 383f b598 443f
00000010: ffac 5e3f 731b 803f 13ad 9f3f f878 653f
00000020: 0660 fe3e ed54 783f 541f 653f 52fb 893f
00000030: 41a8 8c3f bb9e 9a3f c398 1a3f ec88 5c3f
00000040: f664 2d3f 0324 9e3f 1b26 333f e499 993f
00000050: ee55 1f3f 2a1f 3f3f 648a 343f 5821 603f
00000060: c9bf 133f fca9 4f3f a1b7 833f d4a7 783f
00000070: fb3c b33f 118e 933f 6a5f 4d3f 8762 a73f
00000080: 3fa4 273f 678d 9e3f bdaa 113f a5e3 203f
00000090: 9bf1 223f 0259 633f 68cb 773f cb81 2c3f
000000a0: 2407 6a3f 79da 603f e829 983f 79ee 373f
000000b0: 2ea1 823f ff02 453f b9ee 073f 4fdb 703f
000000c0: 5f09 703f 7be3 633f 7859 6f3f cbf7 353f
000000d0: a3a1 a23f 5826 9b3f 6c54 643f f5c0 3b3f
000000e0: 4ecd 403f b935 143f 2560 783f 6bb7 7f3f
000000f0: 59ee 543f 80f3 8b3f a2a5 073f fb04 923f
1.0948849 0.76796883 0.71878797 0.7679551 0.8698272 1.0008377 1.2474693 0.8963771
0.49682635 0.97004586 0.8950093 1.0779822 1.0988847 1.2079691 0.60389346 0.86146426
0.6773218 1.235474 0.6998002 1.2000089 0.62240493 0.7465693 0.7052367 0.8755088
0.57714516 0.8111875 1.0290414 0.97131085 1.4002985 1.152773 0.80223715 1.3076943
0.65484995 1.2386903 0.5690115 0.6284736 0.6364991 0.8880769 0.9679475 0.6738555
0.91417146 0.8783336 1.1887789 0.71848255 1.0205438 0.76957697 0.53098637 0.9408464
0.937643 0.8901898 0.93495893 0.7108123 1.2705578 1.2121077 0.8919132 0.73341304
0.7531327 0.57894474 0.97021705 0.9988925 0.8317619 1.0933685 0.5298711 1.140777

head.norm.bias f4 [64]
00000000: 5362 8ebb ccd1 1cbe c394 98bd b398 243d
00000010: 3e86 e53d ca7c e73d 0663 a53d 8bfc 0b3e
00000020: 7e5a 8c3b aef4 9b3e fd7e 0c3d 7df6 843e
00000030: 89ca cb3d 4e64 103f 5650 a53d 0c24 5cbe
00000040: 6737 633d c9ae 33be e034 e6bd 0100 ef3d
00000050: af8d 473e de05 d13d 3218 eb3d 64b3 a63e
00000060: 2786 413e a1e0 703e ee34 c73e 358f fe3e
00000070: edbb 733f f9de d13e e50a 133e 1596 0d3f
00000080: d3e3 21be 8e72 8c3c f10e 11bc e037 263e
00000090: dd92 30be 6808 363d c44f c63e 45b6 fdbd
000000a0: 44c1 9bbe caf4 b93d ba8d 673f 30a8 1a3f
000000b0: a17b 603f e585 1d3e e8c2 983c 9c86 b43d
000000c0: 3d3b 623f 55b4 2abe abf6 b13d c20e 0d3f
000000d0: bf28 cf3e 9e47 d13e 88fe ab3d 1311 2a3d
000000e0: 3153 653d 4d09 a33c 8139 523f d9ce d9bd
000000f0: 8bb5 d53e 313c f43e 86d7 b3bd 00b3 a93f
-0.0043452173 -0.15314406 -0.07450249 0.040184688 0.11207245 0.113030985 0.08075528 0.13670556
0.0042832484 0.30460113 0.034300793 0.25969306 0.0995074 0.5640305 0.080719635 -0.21498126
0.055472758 -0.17547144 -0.11240554 0.116699226 0.19487642 0.10206197 0.11479224 0.3255874
0.18898831 0.23523189 0.3890757 0.49718633 0.95208627 0.40990427 0.14359625 0.5530713
-0.15809564 0.017144468 -0.00885366 0.16232252 -0.17243524 0.04444161 0.3873273 -0.12388281
-0.30420887 0.09079893 0.9045063 0.60412884 0.8768864 0.15383108 0.018647626 0.08814737
0.8837164 -0.16670354 0.08689626 0.55100644 0.40460774 0.40874952 0.08398157 0.04152019
0.05598754 0.019901896 0.82118994 -0.10635156 0.4174007 0.47702172 -0.08781342 1.3257751

head.norm.running_mean f4 [64]
00000000: 0ef5 aebe 3a72 c7bd 041b 1cbd 80b6 0b3c
00000010: 9ad4 11be a20e 0fbe bfd9 313b 4cad 113e
00000020: c28d 0dbe 2a0f 6d3e 56b6 e53c 190e 203e
00000030: c1bc 8abe 70a3 1cbe c931 e8be 3d03 c23d
00000040: 9641 6dbe b653 4a3e 5614 873d d1be 3e3c
00000050: a640 ba3d c7fd 603e 6b43 25be 4671 99be
00000060: 8106 c03c 5bf3 253d b2aa 82bd bf58 59be
00000070: 4114 663c 9418 fabe a9ce d2be 1cd4 7abd
00000080: 9eed 11be 61f5 1d3f 9b7d 52bd 0c47 18bf
00000090: 919b 42be e9bd 27bf 05b3 57be f1a3 1dbe
000000a0: d016 a6bd 81e5 fa3d 2b9c 78ba 85b8 4dbd
000000b0: 5970 f83d d031 d13d 7a7d cabe cdd5 1c3e
000000c0: 1bf8 1ebe 21da 283e 3a40 a8bd 56d5 1c3d
000000d0: a11a 2a3d 81a7 06be c338 8abb 5c1f 60be
000000e0: c7fe 30be d8ac 13be ad9f 98be 7101 9d3e
000000f0: eb5a 89be c776 433e 8394 953d d414 df3c
-0.34171337 -0.09738584 -0.0381117 0.008527398 -0.14241257 -0.13970426 0.0027137843 0.14226264
-0.13823608 0.23150316 0.028041046 0.15630378 -0.27097133 -0.15296721 -0.45350483 0.09473274
-0.2316955 0.19758496 0.06595676 0.011642174 0.09094362 0.21971808 -0.16138999 -0.29969233
0.023440601 0.040515285 -0.06380214 -0.2122526 0.014042915 -0.48846877 -0.41173294 -0.06123744
-0.142508 0.61702543 -0.051389318 -0.5948341 -0.19004656 -0.65524155 -0.21064384 -0.1539457
-0.0810982 0.12250806 -0.000948372 -0.0502248 0.121308036 0.10214579 -0.39548856 0.15315934
-0.15524332 0.1648946 -0.08215375 0.03828939 0.0415293 -0.13149835 -0.0042181923 -0.21886963
-0.1728469 -0.14421403 -0.29809323 0.30665162 -0.26827177 0.19088279 0.07303717 0.027231611

head.norm.running_var f4 [64]
00000000: 3963 f93b 2a3c 583e f386 873d 09c3 c53c
00000010: c2fe ff3c 9523 533b 6fac b53b 72cf c23c
00000020: a44d 443f b807 a23b c234 ff3b ffdc a93c
00000030: 4147 f43d 87c6 c53b 511d 653e 3cf1 3b3c
00000040: 95c9 2d3f 24cb ce3b e50d 783e 8627 133c
00000050: 9f40 c93b c23b 543c 99e4 843c 33bb 883b
00000060: b325 0e3e 06dc 303b b045 eb3b fc3b 4c3c
00000070: 893c 2b3c 8076 583d 7ef3 0d3e acfe 473d
00000080: 8a69 0f3f 8729 d23e 7661 1d3f 9560 943e
00000090: d5d6 bd3d 1e27 3a3e f748 693b 04ca 753d
000000a0: 9424 d73c f2ba 343e 2db4 a63b 7c16 a23a
000000b0: 3689 6d3c ed35 433c 3c02 063e 4c47 bd3b
000000c0: 4f70 c43b 4d47 083d 71c8 2a3c ef92 c43a
000000d0: 3e5c e73b 94de 843d 9d72 a13b 3048 6b3e
000000e0: 1d8a 3c3d eaba 8d3e 7576 ff3b 6e65 bd3c
000000f0: b75d b43a da24 763b c654 2f3e 33ec 273c
0.007610705 0.21116701 0.066175364 0.024140852 0.031249408 0.0032217253 0.0055442373 0.023780558
0.7668097 0.004944768 0.0077882716 0.020735262 0.11927653 0.006035629 0.22374465 0.011471089
0.67885715 0.0063108373 0.2422405 0.008981591 0.0061417366 0.0129537005 0.016222285 0.0041727065
0.13881569 0.0026986613 0.0071799383 0.012465473 0.010451444 0.052847385 0.13862416 0.04882686
0.56020415 0.41047308 0.6147684 0.28979936 0.092694916 0.18178985 0.003559647 0.06000711
0.026262559 0.17649439 0.0050873966 0.001236632 0.014498046 0.011914712 0.1308679 0.0057763215
0.0059948335 0.033271123 0.0104237655 0.0014997403 0.0070605567 0.06487766 0.004926993 0.22976756
0.046030153 0.27681667 0.0077961036 0.023119655 0.0013760839 0.0037558586 0.17122182 0.010249185

body.block1.conv.weight f4 [64, 64, 3, 3]
00000000: a8c3 4ebd 43f8 e73b f214 063e 35a4 86bc
00000010: 8fe9 dcbc 90d8 b83d fa11 953d abe5 28bd
00000020: a5db 35bc bd67 e0bc 8ce7 1d3b 4c5a b0bc
00000030: d279 043d 0d95 843c b396 1f3c beb1 7fbd
00000040: 8dc1 fa3d 5089 323d 2a9b 54bd d359 003c
00000050: 18a7 703c 6b52 283d 15ec d23c d8a3 293c
00000060: 39ac 2b3d 6250 ac3c a3d3 4d3d a0f6 6b3d
00000070: 15e4 f9bc e39a 3f3d 78fa 8cbc 5e5a 35bd
00000080: e8d2 983c 1560 5ebc face aabd 7ba6 5bbd
00000090: 841a 193e 35ab 893d bb0f 053d 58b8 a13c
000000a0: 5312 8a3c 0ccc a6bb 92d1 8d3c 7907 67bc
000000b0: 8243 a3bc 8225 d2bd 7cb3 c8bd 09f6 b0bd
000000c0: e2f6 313e 4cf6 e2bd bf0e 193e c5f6 013c
000000d0: d383 393d e8e8 6abc da10 10bd 35f7 0a3d
000000e0: e77a 8a3d 9bc7 023e 7ecc f13d fb72 773d
000000f0: 376f 823d 5dc9 913d 1e2a cbbd 2bc9 183d
00000100: b5cf 673d 0319 fcbc c570 c6bc b223 163d
00000110: 69fc 57bc 787e 99bd fb30 7dbd d333 b6bc
00000120: dfaf 7a3d 7654 823c e6ad fa39 b512 813d
00000130: aae6 383d 11b1 4d3d d6c0 813c 91a5 d33d
00000140: d39d 993d 1331 0ebd 48cc 81bd d089 6c3d
00000150: 0eb4 2cbd 01a4 8d3d ed07 7e3d e89b a9bd
00000160: 43a9 1e3d 67fd d93c df8a 03bd 0b3c c0bc
00000170: 6255 3bbb 550e 6c3c f3d0 24bd d4e0 aa3c
00000180: cc09 5fbd 8b6e 5f3d 6468 85bd 3ff0 ef3b
00000190: 9dcd 013d 899b 493d bd6d 4fbd 29e5 06bc
000001a0: 9f78 de3c a54a b1bc e678 943d 825b 0c3d
000001b0: e2ea 93bd a0a2 10bd 3dd1 13bd e244 0ebd
000001c0: 4c2c a5bc 58d3 16bc b86f fa3a ff82 013d
000001d0: f944 0abd f31a 493c b832 913d 099f 143e
000001e0: fd31 5e3b a257 863d 97b1 e63b 0a05 143d
000001f0: 0d28 36bd 60b4 b83d 1c29 08bb 5ff9 4d3d
00000200: 9f51 1a3d f866 9d3c d272 8f3d 48b6 573c
00000210: a9ce b7bb 476a 433d 7264 60bc 09af e1bd
00000220: d00b 2c3d d238 ea3b c9f0 0a3d 9f56 a43d
00000230: df24 ec3c dee4 863d 3dce 423d d39a bebb
00000240: 2000 4f3d 2d73 7f3d cc58 483d 9c12 dc3a
00000250: b19c e43c 66c4 6b3d bfb6 963d c17e 8a3d
00000260: 94e7 8e3d d75a 8bbd 6bde 6cbd ef8a 04be
00000270: 2bef 15bd 97b8 e5bd 024a bebd 5c94 8c3d
00000280: 75d2 98bd df08 c1bd 5279 e13d e99d a23c
00000290: 40ac 213c 0c09 383d b50e 733c 6936 c63c
000002a0: 7fc7 633d 1063 403d bfbb 803b a2d3 5dbc
000002b0: 4e8a f53c 7cdc aa3d cc1b d8bd 08d6 163e
000002c0: ec85 ff3c f6d0 09bd a536 953d d79e 3b3e
000002d0: d993 d0bc db4e b03c 167d 72bc 443b a8bd
000002e0: f574 823c 93e6 85bc 6249 e7bd 5067 b03c
000002f0: 96f1 a73c 1d92 0c3d 0273 c13c 803f ec3c
00000300: 8490 3fbc 0c99 e4bb 5eea 45bd cd6e 5e3d
00000310: f004 75bd ba51 d43b a52a fbbc 9c9f 49bb
00000320: a9ed c0bc ca4e bbbd a969 bc3a 09ca d0bb
00000330: 7417 873d 73a1 1d3d 0dbd 893c bed5 05bd
00000340: 2fa8 1c3c c9a6 393d aedb e7bd fab4 c23d
00000350: 6474 fcbb e4b6 cfbd e16a f63c bee5 da3c
00000360: 4ae4 b13d 86ce 363d 3479 9f3c a4bb c03b
00000370: 8c15 843d 9b2b 223d e5fa 20bd 6e10 3a3d
00000380: c4bb 253c 51be d5bd 21f7 813c 293a f8bd
00000390: b03d 8c3d cca0 1ebb 8605 1b3e 7f82 793d
000003a0: 281f 2dbd 4559 ebbd 09c0 3fbe ba96 f9bd
000003b0: f2af 143d c7b5 933d d19d 82bd ce3c 2c3e
000003c0: 4d0c 30be 2e17 78bc 0250 f93d ec6f 9fbd
000003d0: 1241 8cbd fcb4 d8bb 64e8 143d d1e4 83bd
000003e0: 18dd 08bb 385b bbbc d923 e73b 3b97 87bd
000003f0: ed0f de3c cd0e 9fbd a45d 103c dc6a a43d
-0.05047956 0.0070791556 0.13093928 -0.016435722 -0.026966838 0.09025681 0.072788194 -0.041234653
-0.011099731 -0.027393216 0.0024094312 -0.021527432 0.03234274 0.016184354 0.009740519 -0.062425368
0.12243948 0.043587983 -0.05190579 0.007833916 0.014688276 0.041094225 0.025747338 0.010354005
0.04191229 0.021034423 0.05025066 0.057608247 -0.030504266 0.04677857 -0.017209277 -0.044275634
0.018655255 -0.013572712 -0.08340259 -0.053625565 0.14951521 0.06722108 0.032485705 0.019741222
0.01685444 -0.0050902423 0.017311845 -0.014100903 -0.019929651 -0.1026106 -0.09799859 -0.086406775
0.17379335 -0.11082134 0.14947031 0.00793237 0.045291733 -0.014337756 -0.03517232 0.03392716
0.06761723 0.12771456 0.11806582 0.06041239 0.06368869 0.07118485 -0.099201426 0.037301224
0.05659457 -0.030773645 -0.024223695 0.036655135 -0.013182738 -0.07494825 -0.06181429 -0.022241509
0.06120288 0.015909415 0.0004781328 0.06302396 0.045141853 0.05021769 0.015839022 0.10334314
0.07500806 -0.03471477 -0.06337792 0.057748616 -0.0421639 0.06916047 0.062019277 -0.0828169
0.03873564 0.02661009 -0.03211486 -0.02346613 -0.0028584828 0.014407714 -0.040238332 0.02085916
-0.054452702 0.05454878 -0.065140516 0.0073223407 0.03169023 0.049220596 -0.050641764 -0.008233347
0.027157126 -0.021642039 0.07249622 0.034266956 -0.07222535 -0.03531134 -0.036088217 -0.03473366
-0.020162724 -0.009205662 0.0019106781 0.03161907 -0.033757184 0.012274492 0.07089752 0.14513792
0.0033904307 0.065596834 0.0070402133 0.036137618 -0.04447179 0.09018779 -0.0020776456 0.050286647
0.037675496 0.019214138 0.07004322 0.013166018 -0.0056093526 0.047708776 -0.013695823 -0.110197134
0.042003453 0.007147887 0.033921037 0.08024334 0.028826175 0.06586622 0.047559965 -0.0058167963
0.05053723 0.0623657 0.04891281 0.0016790214 0.027906748 0.057560347 0.07359075 0.06762458
0.06977764 -0.06804436 -0.0578293 -0.12943624 -0.03660504 -0.11216848 -0.092914596 0.06864235
-0.074620165 -0.0942552 0.11009468 0.019850688 0.009867728 0.044930503 0.014835049 0.024195867
0.055610176 0.046969473 0.003928631 -0.013539227 0.029973175 0.08342835 -0.10552177 0.14730084
0.031191789 -0.033646546 0.07285813 0.18322311 -0.025461124 0.021521976 -0.014800331 -0.08214429
0.01592491 -0.016345298 -0.112932935 0.021533638 0.02050094 0.034319032 0.02361441 0.028838873
-0.01169217 -0.0069762524 -0.048319213 0.054304887 -0.059819162 0.006479469 -0.030659983 -0.00307653
-0.023550825 -0.09145887 0.0014374751 -0.0063717407 0.0659627 0.038484048 0.01681378 -0.032674544
0.0095615825 0.045325074 -0.113211975 0.09507175 -0.0077043045 -0.101423055 0.03008026 0.026720878
0.08686121 0.04463055 0.019466974 0.0058817435 0.06449422 0.039592367 -0.03930177 0.045425825
0.010115568 -0.104366906 0.01586491 -0.12120468 0.068477035 -0.002420473 0.15138826 0.060915466
-0.04226604 -0.11491636 -0.187256 -0.12186952 0.036300607 0.07212406 -0.06377757 0.1682007
-0.17192192 -0.015142245 0.121734634 -0.07785019 -0.06848349 -0.006613372 0.036354437 -0.06440128
-0.0020883735 -0.022870645 0.007053834 -0.06620642 0.027107203 -0.07766495 0.008811388 0.08028194

body.block1.conv.bias f4 [64]
00000000: 3992 8f3a e025 ac3a f1ec e8bc f8f9 a83c
00000010: 0baf 63bc 1b99 e83c 57b6 f73c efae 303c
00000020: 957c c33c fd5d cbbc 3d55 fc3c 9255 babc
00000030: 1b5c 1b3d 5766 c23c add5 963c 5b92 f5bc
00000040: 9969 95bc f466 ebbc cafd 183d 6298 41bd
00000050: d842 193d c78f 533c f5c6 50bb a1eb 243d
00000060: 0ee5 6e3c ffa9 933c 08f9 1b3d 035a c93b
00000070: f633 93bc cbf7 3f3d 1e30 103d 3cdc 15bd
00000080: 13bd 0a3d 333b f4bb ec98 17bd 1ccb e63c
00000090: f816 a53c 967d ee3c 01ec dfbc eb7f 6bbc
000000a0: 5fca f33b 9fee a83c 8ec7 6bbc d966 23bd
000000b0: 08e6 7a3c bf11 ed3c 2f22 a4bc 44a4 c53c
000000c0: fac6 f33c 31b8 04bd 7a98 cdbb 0cca e8bc
000000d0: 3fc2 15bd 893b f33b eda4 923c 9023 a9bc
000000e0: f3c7 2cbc ed6e 1c3d a97c 7a3c c87e 623c
000000f0: 97e7 3cbc e50a 383b cc33 93bc e357 1a3d
0.0010953612 0.0013133846 -0.028433295 0.020627007 -0.013896714 0.028393319 0.030238314 0.010783895
0.023863116 -0.02482509 0.030802364 -0.022745881 0.037929635 0.02373044 0.018412435 -0.029977014
-0.01823883 -0.028735615 0.037351407 -0.047264464 0.037417263 0.012912697 -0.003185687 0.040263776
0.014580978 0.018025396 0.03807929 0.0061447634 -0.017969113 0.046867173 0.035202138 -0.036586985
0.03387172 -0.007453346 -0.037011072 0.028173022 0.020152554 0.029112618 -0.027334215 -0.01437376
0.007439896 0.020621596 -0.014390839 -0.039893005 0.015313633 0.028939126 -0.020035831 0.02412618
0.029757965 -0.03240222 -0.00627428 -0.028416656 -0.0365622 0.0074228686 0.017900908 -0.02064684
-0.0105457185 0.038191725 0.01528851 0.013824172 -0.011529825 0.0028082666 -0.017969035 0.03768147

body.block1.norm.weight f4 [64]
00000000: d40c 653f 4b9c 853f 4806 493f ff34 813f
00000010: b4e2 563f a31b 6d3f f246 4c3f 2fa6 773f
00000020: 8426 8e3f 23ca 843f 3758 843f cb1c 883f
00000030: 1ed6 583f 832b a63f 572a 833f e12d 653f
00000040: a3e8 463f 5681 923f df68 593f 3e3d 783f
00000050: cf7d 903f acd3 693f bed4 7f3f 51d6 7e3f
00000060: 0748 973f eaa4 833f 85e7 8a3f 1ccf 563f
00000070: 4b49 473f 8fc2 573f b9f1 6b3f a0a2 623f
00000080: e96f 653f 50be 9d3f d99c 523f e97e 743f
00000090: 36be 953f 61bb 5e3f d189 6b3f d95d 813f
000000a0: b798 813f 15ea 813f 845e 5f3f 64f4 403f
000000b0: 1c31 943f 4290 893f c45a 613f b73e 733f
000000c0: f7cc 763f f64e 823f e510 733f 472b 763f
000000d0: 7c16 7f3f 21e7 743f 285c 5e3f d447 923f
000000e0: ea27 6a3f 02d1 903f 2b9d 673f 7e3e 7b3f
000000f0: 810b 8c3f a553 843f dd1a 593f 9521 7d3f
0.894727 1.0438322 0.7852521 1.0094298 0.8393967 0.92620295 0.79795754 0.9673795
1.1105504 1.0374187 1.0339421 1.0633787 0.84701717 1.2982029 1.0247296 0.8952313
0.77698725 1.144572 0.84925646 0.9696845 1.1288394 0.9133861 0.99933994 0.9954577
1.1818856 1.0284703 1.0851904 0.83909774 0.7784621 0.8428125 0.92165715 0.88529396
0.89623886 1.2323704 0.8227058 0.9550615 1.1698673 0.8700467 0.92007166 1.0106765
1.012473 1.0149561 0.87253594 0.7537291 1.1577487 1.0747149 0.8802912 0.9501757
0.964065 1.0180347 0.94947654 0.96159786 0.99643683 0.95665175 0.8685937 1.142817
0.91467154 1.1313784 0.90474194 0.9814223 1.0941011 1.0338026 0.84806615 0.9887937

body.block1.norm.bias f4 [64]
00000000: 6d6c e23d de1d 9c3e ec1d 23be dbd3 56be
00000010: 1a56 6a3a e64d 053f 9160 44bd c65f aa3e
00000020: c560 ae3e 2943 8f3d def8 423e 5afe b9bc
00000030: 65e4 bcbd 51b3 0c3f 083e 783e 4d6a 9dbe
00000040: f1ca 1c3e ccc8 bb3e bebd 943d 13c9 74be
00000050: e1d1 713e 0c03 cdbd ae2b 583e 8ca4 43bd
00000060: af93 7e3e f9e5 053e 42df db3e e03e 8bbc
00000070: 0251 993e 6a46 d03e a991 33bd 131d b13d
00000080: 74cc 5ebe 5e0d 523e b3ed 16bd 52f2 df3e
00000090: 6cc3 c23e c8c8 283f ce38 94bb 2d4b 53be
000000a0: fd91 4e3e 52bc 353d 844e 38bd 1000 8d3e
000000b0: 4778 863e b282 b73e 7ac5 2a3c 4984 753e
000000c0: 252e 5c3e c7de d43b 2846 9f3e 82b4 b33e
000000d0: 5896 103f b808 55be 2e6b d8bc 4319 f83c
000000e0: bb2e 033f 81a6 d93e 8086 db3e e23f 8cbd
000000f0: 3f6c a63e a14e ce3e f87b efbd 6670 ab3e
0.11055837 0.30491537 -0.15929383 -0.20979254 0.0008939222 0.5207199 -0.047943655 0.33276194
0.34058204 0.06995232 0.19040248 -0.022704292 -0.0922325 0.54961115 0.24242413 -0.30745164
0.15311791 0.36676633 0.07262753 -0.23904829 0.23615219 -0.10010347 0.21110412 -0.047764346
0.24861024 0.13076009 0.4294377 -0.016997755 0.29944617 0.40678722 -0.043840084 0.086481236
-0.2175768 0.20512912 -0.03684778 0.43739563 0.3803972 0.6593137 -0.004523373 -0.20634146
0.20172878 0.04436905 -0.044996753 0.2753911 0.2626364 0.358419 0.010423059 0.23976244
0.21501978 0.0064962837 0.31108212 0.35098654 0.56479406 -0.20804107 -0.026418295 0.030285483
0.5124318 0.42509845 0.42876053 -0.06848122 0.3250446 0.40294364 -0.11693567 0.3348419

body.block1.norm.running_mean f4 [64]
00000000: 0d21 22be e5cd 05bf 36ea 4640 852e 1e40
00000010: b7f3 0e40 b55e 91bf 681f d23f f0af 113f
00000020: 9339 a73f d3aa 1abe ca41 523f 7815 68bf
00000030: 57fc 1a3f 7025 3bbf 12c7 54bf ef8c 1840
00000040: 37d0 573f 5c84 2dc0 1d02 a540 4e22 5f40
00000050: b767 d1be 4dba 02c0 2b64 8dbe d4f4 e83f
00000060: 48ba d23e d955 86be 3478 febd a33e 2e40
00000070: 98e5 97be a5eb 563f 8e14 4b3f 3217 323f
00000080: 7f97 4c40 48db 73c0 8114 9640 d5a0 9e3f
00000090: 0fd0 01c0 9d09 89bf 9f0a 86bf e240 c53f
000000a0: efc4 783f 7d27 1abe 9fff 14bf 9fda 0c40
000000b0: 48cd 423c d947 b0bf e0ec b23e efa5 803f
000000c0: d19b c8be 0c97 c53f dbde 283f 487d c0bf
000000d0: 0e01 0f3f 6ba6 0940 2f2c 9a3f 0214 88c0
000000e0: db43 80be 170a fbbe dfda 86bd 50b4 d5bd
000000f0: 4585 dcbf 7ee1 06bf e14c 7b3f d96a cabe
-0.1583292 -0.52267295 3.108045 2.4715893 2.2336252 -1.1357027 1.6415834 0.56909084
1.3064445 -0.15104227 0.82131636 -0.9065776 0.6054129 -0.73104 -0.8311626 2.383602
0.84302086 -2.7112036 5.156508 3.4864688 -0.4089944 -2.042621 -0.27615485 1.8199716
0.41157746 -0.26237372 -0.12425271 2.722573 -0.29667354 0.83953315 0.7932824 0.69566643
3.1967466 -3.8102589 4.690003 1.2392832 -2.028324 -1.0706059 -1.0471991 1.5410426
0.97175497 -0.15054126 -0.58202547 2.2008436 0.011889763 -1.3771926 0.34946346 1.0050639
-0.39181378 1.5436721 0.6596505 -1.5038233 0.55860984 2.1507823 1.2044734 -4.2524424
-0.2505177 -0.49031135 -0.06584715 -0.104347825 -1.7228171 -0.52687824 0.9816418 -0.39534643

body.block1.norm.running_var f4 [64]
00000000: a2c6 3140 36c6 0340 b9bd 1641 8fc7 df40
00000010: 23e6 f341 7db9 653f 991f ff3f da37 cd3f
00000020: ab97 2840 94a8 5e41 234b 9c40 6758 2c41
00000030: 8c40 ca40 36be eb3f f9a5 1e40 ab53 5b40
00000040: e2eb 8340 955b 5141 165f 4a42 4fde ee40
00000050: 984c a440 9f8d c340 7801 8e40 0ae9 0f40
00000060: 297f 6e40 c46c 3440 aa0a e93f 1a59 ea40
00000070: 2475 a13f beeb 5f3f 294f 0d41 61a1 9b3f
00000080: b7e4 3a41 17da e641 a431 5e41 d4f4 b63f
00000090: 6808 9040 8346 cc3f 5627 2440 afe9 4240
000000a0: 4062 0f40 c143 d740 f6fd 8440 f39c 4a40
000000b0: a5d6 7540 7571 b040 2930 f53f 95f5 1140
000000c0: 1131 8b40 c34d 983f 7da8 dd3f 0607 3040
000000d0: 817e 1640 0913 0d41 b4bb e33f 6742 fd41
000000e0: 782e 0040 093e f03f b52b df3f ed51 1640
000000f0: d8f7 d43f d9af 6340 af7e e23f 0e76 aa3f
2.7777486 2.0589728 9.421319 6.99311 30.487371 0.8973616 1.9931518 1.603267
2.634257 13.916157 4.884172 10.771583 6.3203793 1.8417423 2.4788802 3.4269817
4.1225443 13.084859 50.592857 7.4646373 5.13435 6.1110377 4.4376793 2.2485986
3.7265112 2.8191385 1.820638 7.3233767 1.2613873 0.8746909 8.831826 1.2158624
11.680839 28.85649 13.887119 1.4293466 4.501026 1.5959018 2.5649009 3.045513
2.2403717 6.7270207 4.156001 3.1658294 3.8412259 5.5138497 1.9155322 2.2806141
4.3497396 1.1898731 1.7317044 2.7504287 2.3514712 8.817147 1.7791657 31.657423
2.0028362 1.8768932 1.7435213 2.3487504 1.6638136 3.557608 1.7694911 1.3317277

body.block2.conv.weight f4 [64, 64, 3, 3]
00000000: aa76 5bbc 37b4 23bc ba8d 12bc 0072 05bd
00000010: 8bf6 35bc ad9b 12bc 74cf a73c 8909 b6bd
00000020: 3259 053e a8de 873d 6508 70bd 0f2a b1bd
00000030: aab5 dd3c 7fe0 35bc e925 b73d 249c a5bd
00000040: 5dd8 4a3d 15c8 9bbd 9f4b 3cbc cdf0 f53c
00000050: f285 d73b 0d00 f63a 5a62 863d 3cfb de3c
00000060: 7afb 7ebd 3d85 9b3c 1512 003e 637a 2b3d
00000070: 3d9b a2bc 2973 29be 0261 f2bc 016f 81bd
00000080: c27d d4bd 1e35 943b 0bdd 21bd 223f 75bd
00000090: 246d e73c 34ca 373c 8b2c 0e3d ce65 343d
000000a0: ef10 f1bc bd51 0ebc a94e ccbc 3c06 783b
000000b0: 9396 093d ef0f 02bd 2cc1 fbbd 4402 a3bd
000000c0: c60a bcbd 0cb1 1f3d 59ca 4a3b 36a1 de3c
000000d0: 46c3 9e3d 61a5 353d c327 d73c 8af3 a73d
000000e0: acec 813a 6695 6f3d 0334 0e3d b2cd 12bd
000000f0: f445 6b3d 6b89 333d bd95 583c fd83 4f3d
00000100: a866 983d d965 97bd 7622 cfbd 0e5c 11be
00000110: 252c 75bd b34f c2bd 9bbb 96bd 6044 443d
00000120: 9fdc dd3b 15f6 bd3c 8f31 6fbc a572 ccba
00000130: 3e9e a03d dc6b 9f3d 8db8 1e3d 97c9 203e
00000140: 9b46 063e 634d 683d 6a1c 9c3d dea2 b13d
00000150: fa01 48bc 43a1 adbc 036f d4bc 5335 493d
00000160: 6d42 a13c b8d3 a93c cb9c 673d cb96 343d
00000170: f239 dc3d 568a 0c3d 548a 8a3d 2f88 c93d
00000180: 3058 a13d f47d 33bd 0d08 0f3d 7402 2b3d
00000190: 2af9 4abb 1ee5 6f3c 4abb 333d 0cb4 763c
000001a0: 8a8a 0e3d cde8 3bbd bb90 97bb 269e a63d
000001b0: 4841 39bd c055 f0bc 353d 973d 27ae 233c
000001c0: 584f e4bd a08d 9abd 828b 8bbb 05b1 09bc
000001d0: 3c8b 763d 5f54 56bd 1af6 793d 5bbf 9abd
000001e0: 5481 e3bd 7fea 2ebe a1d9 88bd 19bf f3bc
000001f0: e085 5dba e71a 6f3d 37fb 553d eb68 983d
00000200: da6d 1b3e 21dd f0bc a74a b2bd 29fb 983d
00000210: 8288 e8bd 38ec e0bd 1960 b4bd 73b3 1a3b
00000220: 74c0 6f3d ec04 4cbc 0ccc f6bc 4277 18bd
00000230: b339 fe3d 558d aebd 275e 7bbd da93 9e3d
00000240: 1a39 fb3d 5fb4 fc3d cb95 f9bb dabb d33b
00000250: d816 18bd e0e8 20bd 3db3 a3bd b533 91bd
00000260: dbb2 aabd 01d3 1dbc 2557 95bd 1113 8cbd
00000270: 6be5 26bd 5b51 95bd cc80 a4bd 1949 d7bd
00000280: 1437 91bc ee47 223b 77e6 80bd 2a90 963a
00000290: ad74 093d 23b0 37bc df0d c7bc 193d 9a3b
000002a0: 22ed 423d cc45 823d 58d8 933d bf7e 0d3c
000002b0: 4262 033d ddce 48bd e500 e63d 6e21 1a3d
000002c0: b1e9 8cbd 0756 2bbd b3dd 0fbc 982d 413c
000002d0: 17b9 223d 34f9 c1bc a218 003d 18bf aebd
000002e0: 8c62 05bd b254 933c 8709 223e e79f 8d3d
000002f0: 83a3 483e 393c 5ebc aa7b adbd 10fd 35bd
00000300: ec9d 0abd c7b1 19bd 7373 8ebd 0e52 883d
00000310: 9cd1 ba3a 831d ea3d dc03 29bd 2ff7 27bd
00000320: 8b11 aabc bfda 913d e893 833d 867e ec3b
00000330: c49b c03d c7ba 733d ac36 423d 2085 a2bc
00000340: c254 943d ed5e 69bd a042 f13d bbf4 3f3d
00000350: ec37 30bd 0aa3 323d 3b4b b9bd d793 9fbd
00000360: 1efe b83d dcaf b03a adb7 07bd 880f 04bd
00000370: 925f eebd e8d8 19bd 4cf1 ebbc 2f98 8dbd
00000380: 64ef 89bd c210 d4bc ee8d b53c 7afc 0cbe
00000390: b81d c63d d641 c33b 4068 babd 0adf c8bc
000003a0: 831b dbbc b6d3 09be 9587 ac3d f237 c83c
000003b0: f4fd e53c 14eb ab3d 1cb3 1bbd 2b79 c13d
000003c0: 22ad d53c 5352 4fba 0ca8 d73d fe2f b93d
000003d0: e8dd 923d 73b2 d13c 15cd a63d 6d21 093d
000003e0: 8e2c b0bc ef31 833d 053d a7bc 05b3 163d
000003f0: 6d6c 113e b62a 95bc d5a9 a13d 240a 45bc
-0.013394991 -0.009991697 -0.008944923 -0.032579422 -0.011106144 -0.008948249 0.020484664 -0.088885374
0.13022307 0.06634265 -0.058601756 -0.086506 0.027064163 -0.011100887 0.08942778 -0.08086422
0.049522746 -0.07606522 -0.011492639 0.03002205 0.006577247 0.0018768326 0.06561728 0.027219407
-0.062251545 0.018984431 0.12506898 0.041864764 -0.019849414 -0.16547836 -0.029587273 -0.063200004
-0.10375549 0.0045229336 -0.039517444 -0.05987466 0.028250284 0.011217643 0.03471045 0.0440424
-0.02942702 -0.00868648 -0.024939852 0.0037845513 0.033590864 -0.031753477 -0.12292704 -0.079594165
-0.09181742 0.038987204 0.0030943363 0.02717648 0.07752089 0.04434717 0.026264077 0.08200748
0.0009912453 0.058492087 0.03471757 -0.035840698 0.05743976 0.043832224 0.013219294 0.050662983
0.07441455 -0.07392473 -0.10113995 -0.14195272 -0.059856553 -0.09487858 -0.07360002 0.04791677
0.006770685 0.02318863 -0.014599218 -0.0015598132 0.07842682 0.077842444 0.03875022 0.157019
0.13112871 0.056714427 0.07622607 0.086736426 -0.0122075025 -0.02119506 -0.02593184 0.04912312
0.019684995 0.020730838 0.056546014 0.04408912 0.1075324 0.034311615 0.06764665 0.09840428
0.078781486 -0.04382129 0.034919787 0.041750386 -0.0030971267 0.014642028 0.043879785 0.015057575
0.03480009 -0.045876313 -0.0046254075 0.08135633 -0.045228273 -0.029337764 0.07384721 0.009990252
-0.11147946 -0.07546544 -0.004258574 -0.008404021 0.060191378 -0.052326556 0.061025716 -0.075560294
-0.11108652 -0.1708164 -0.066821344 -0.029754208 -0.000845043 0.058375265 0.05224153 0.074418865
0.15178624 -0.029402317 -0.08705645 0.0746978 -0.11354162 -0.10982555 -0.08807392 0.0023605495
0.058533147 -0.012452345 -0.030126594 -0.037223108 0.12413349 -0.08523051 -0.061369088 0.07743044
0.12266751 0.123390906 -0.0076167337 0.0064616026 -0.03713116 -0.039284587 -0.07993171 -0.070899405
-0.08334895 -0.009632827 -0.07292012 -0.06839574 -0.040746134 -0.07290908 -0.080323786 -0.10511989
-0.017726459 0.0024762112 -0.06293958 0.0011487056 0.033558536 -0.011211428 -0.024298606 0.0047069904
0.04758943 0.06360969 0.07218999 0.008636176 0.032076128 -0.049025405 0.11230639 0.037629537
-0.068805106 -0.04183009 -0.008780885 0.011790656 0.039727297 -0.0236784 0.03127349 -0.08532542
-0.032564685 0.017984722 0.15823947 0.069152646 0.19593625 -0.013564163 -0.08470853 -0.044430792
-0.033842012 -0.037523057 -0.06955614 0.06656276 0.0014253142 0.1143141 -0.041263446 -0.041007217
-0.020760318 0.07121801 0.06424695 0.007217231 0.0940471 0.059504297 0.04741542 -0.01983887
0.07242729 -0.056975294 0.11780286 0.046864253 -0.04302208 0.043612517 -0.09047552 -0.0779187
0.09032844 0.0013480145 -0.03313415 -0.032241374 -0.11639322 -0.037560374 -0.028801583 -0.06913792
-0.06735113 -0.025886897 0.022162404 -0.13768187 0.09673637 0.005958776 -0.09101915 -0.024520416
-0.026746517 -0.13459668 0.08424298 0.02444074 0.028075196 0.08394447 -0.03801261 0.09446939
0.026083533 -0.00079086906 0.10530099 0.09042357 0.071712315 0.025597787 0.08144585 0.033479143
-0.02150562 0.064060085 -0.020414839 0.03679182 0.14201517 -0.018208843 0.07893721 -0.0120263435

body.block2.conv.bias f4 [64]
00000000: 8152 07bc e471 b7bb 6027 b8bc eaec 57bc
00000010: a837 d33c 7048 0d3d b630 0d3d f27b 693b
00000020: 422e a3bc e1a8 ddbc 3145 16bd 5b92 cebc
00000030: 507a dcbc c0a7 1dbd 9964 a7bc 9a49 cfbc
00000040: bf34 ef3b d234 29bc 2a50 a23b 9e95 95bc
00000050: ba1d 133c 1dbc fa3c fc97 243d aba0 083d
00000060: 3bee 9b3c cc7e da3c 33ac 033c b601 803c
00000070: b350 04bd b0fc c43a 77d7 b03c 55ea 973c
00000080: 89bb d9bc 2b56 a9bc c8d4 e5bc 5370 b9bb
00000090: aa47 2b3b 2332 cdbb 1bd6 923c bea7 26bd
000000a0: 2692 03bd c7a8 0dbc ee98 133d 57c2 c8bc
000000b0: d3ed bbbc 34b9 31bd 7386 223d 3ee5 b53c
000000c0: dc17 173c a7b2 2c3d 6414 2ebc 8554 163d
000000d0: 698f d3bc 36dd 263d ebc9 86ba 168f c3bc
000000e0: 35d9 16bd 6ed6 333c 2f78 313d b8cd ecbc
000000f0: b613 51bd 35c9 65bc 537e 573c 1578 f53c
-0.008259417 -0.0055982936 -0.022479713 -0.013179043 0.025783375 0.03449291 0.034470282 0.0035626856
-0.019919518 -0.027058067 -0.03668708 -0.025216272 -0.026913792 -0.038490057 -0.02043371 -0.02530365
0.007299989 -0.010327535 0.004953404 -0.01825982 0.008979255 0.030607278 0.040184006 0.03335635
0.019034496 0.02667179 0.008036661 0.015625816 -0.032303523 0.001502892 0.021587117 0.018544355
-0.026578682 -0.02067097 -0.028055564 -0.005659142 0.0026135244 -0.0062620803 0.017924359 -0.040687315
-0.0321218 -0.008646197 0.036034517 -0.024506731 -0.022940552 -0.043389514 0.039679002 0.022204038
0.009221997 0.042162564 -0.010624979 0.036701698 -0.02582522 0.040738307 -0.0010283565 -0.02387194
-0.03682824 0.010976417 0.043327507 -0.028906688 -0.05104419 -0.014025022 0.013152677 0.029964486

body.block2.norm.weight f4 [64]
00000000: b9e4 613f 91f5 823f 7f22 4d3f af81 733f
00000010: d2ee 5c3f b538 6e3f 1912 663f c4dc 633f
00000020: c06a 6f3f 3412 883f 7be7 8a3f 94bb 783f
00000030: 33f5 843f 4e1e 8c3f 7cb4 6b3f e957 8e3f
00000040: 6973 7d3f b127 783f 1536 823f 51da 753f
00000050: 273c 6c3f b6fe 803f 89a1 853f 13c8 5e3f
00000060: 6eea 753f ca2c 713f 598a 8a3f 4c09 603f
00000070: 4d56 613f 1293 843f 1a97 8c3f 0d26 873f
00000080: 9a1c 863f 53e8 753f ad29 6c3f 63a2 6c3f
00000090: dcab 863f 432a 813f 340e 693f b2c6 8b3f
000000a0: 8b89 873f 7ac2 8a3f 6965 773f de26 803f
000000b0: dfcd 713f 328c 673f 6cbe 5b3f ac78 723f
000000c0: 357c 903f 5c87 883f 1e71 6f3f e1b6 763f
000000d0: 8dc6 743f 8354 863f 3df4 943f 07dd 6e3f
000000e0: 93cf 6a3f 2fca 723f 6ba7 703f 320a 823f
000000f0: 7014 893f 5f43 673f 935d 853f db2c 6f3f
0.8823963 1.0231191 0.8013076 0.95119756 0.8630191 0.9305528 0.89871365 0.89008737
0.9352226 1.0630555 1.0851892 0.9716122 1.0387329 1.0946748 0.9207227 1.1120578
0.99004227 0.96935564 1.0172755 0.9603625 0.92279285 1.0077732 1.0439922 0.8702404
0.96060836 0.9420897 1.082347 0.87514186 0.8802231 1.0357382 1.0983613 1.0558487
1.0477479 0.96057624 0.9225109 0.9243528 1.0521197 1.0091022 0.910373 1.0920012
1.058885 1.08406 0.96639115 1.0011861 0.9445476 0.90448296 0.85837436 0.9471538
1.1287905 1.0666308 0.9353198 0.963728 0.95615464 1.0494541 1.1637036 0.9330601
0.91722983 0.9483976 0.9400546 1.0159361 1.0709362 0.90337175 1.0419182 0.9342782

body.block2.norm.bias f4 [64]
00000000: e82d b63e 04ad b53e 5fb6 b1bd fe31 ec3e
00000010: f0ed 0fbb 430e d73d 1afc db3e 2fa7 b03e
00000020: e0d9 803e 71c2 5f3e 0bd2 743e 211a c53e
00000030: daa0 f13e 472f c43d fa67 9d3e 758c 903e
00000040: c60a e43e 31fa db3e 00a3 583e be45 c23d
00000050: ba93 ee3d b365 663e 2dea c63e 1a1e 1f3e
00000060: 270b eb3d ed42 d83e 32c7 be3e cd73 2c3e
00000070: 2eae 953b e79b 713e 0e01 bc3d cf80 973e
00000080: 0386 883e dbdb f83c 6b97 8b3e e584 783e
00000090: e3a6 913e b957 af3e 0ee2 2a3e 0d02 a63e
000000a0: 9d88 133f 0bb9 8a3e 8c40 2cbd 873a d83d
000000b0: 89b2 363d 1348 943e 0176 5f3e a796 9b3e
000000c0: 9e70 cf3d f7f5 4f3d c74f 313e 8021 d03d
000000d0: 0230 0c3e 9cbd 093e 0cb7 4c3e ea85 3d3e
000000e0: a03c d13d 4efa 223e 5dc7 f03e 30b4 003f
000000f0: 0726 693e 0776 6c3e 7c83 b5bc 5dce b63e
0.355819 0.35483563 -0.08677363 0.4613189 -0.002196189 0.10500767 0.42965776 0.3450255
0.25166225 0.21851517 0.2390825 0.38496497 0.47193033 0.0957933 0.3074339 0.2823216
0.4453947 0.42964318 0.2115593 0.094859585 0.1164927 0.22499733 0.38850537 0.15538827
0.114767365 0.4223856 0.3726135 0.1684105 0.004567883 0.23594628 0.09179889 0.2959046
0.26664743 0.030378273 0.2726396 0.24269445 0.28447637 0.34246615 0.16687796 0.3242344
0.5763033 0.27094302 -0.042053744 0.10558038 0.04460386 0.28961238 0.21822359 0.30388376
0.10128902 0.05077168 0.17315589 0.101626396 0.13690189 0.13451236 0.19991702 0.18508115
0.102166414 0.15915796 0.47027102 0.50274944 0.22768413 0.23091899 -0.022157423 0.35704318

body.block2.norm.running_mean f4 [64]
00000000: c1e4 463f 9251 8c3e 88bc 6ebe 1f83 3b3f
00000010: c72b ae3f fa9f 01c0 81a1 c1be e33c 43bf
00000020: e21b 97bf 019c 06c0 5324 423f c646 d63f
00000030: c971 0ac0 3782 cbbe 8459 993f 4eca 063f
00000040: 81a8 5ebf 56fa 703e 2572 0440 a958 6abf
00000050: 1499 8f3f 9010 adbf ebf7 35bf d11e f6bf
00000060: 4396 19bf 23d7 bfbd f8d7 b1bf f92c 8cbf
00000070: be0d 2240 e391 09c0 1de4 b5bf 6a5c e6bf
00000080: daec de3b 9244 b6be dfe2 223f bec8 14bf
00000090: 75d0 8ebe 77d1 483f 98ce 2f3f 35b5 c8bf
000000a0: 16b0 68be 33e2 8b3f c408 20bf 25b6 ad3f
000000b0: e428 513f 47dc ba3f aecc f2bf 6846 8d3f
000000c0: c82d 863e ff3e fbbf 4084 85bf 376c ae3e
000000d0: f26e 1640 3316 da3f 985d bf3f c1fe a8bf
000000e0: d79b 0d3f c508 86be 65b0 193f b507 4cbe
000000f0: d865 96be adc1 ffbf d395 c63f 7fa1 dfbf
0.776928 0.27405983 -0.23314106 0.7324695 1.360711 -2.0253892 -0.3781853 -0.7626478
-1.1805384 -2.1032717 0.75836676 1.6740348 -2.163195 -0.39747784 1.1980443 0.5265244
-0.86975867 0.23532996 2.0694668 -0.91541535 1.1218591 -1.352068 -0.7108142 -1.9228154
-0.59994906 -0.09367206 -1.3894033 -1.0951225 2.5320888 -2.1495292 -1.421024 -1.7996953
0.0068031373 -0.3559919 0.6362743 -0.5811881 -0.27893415 0.7844462 0.6867461 -1.56803
-0.22723421 1.0928406 -0.62513375 1.3571211 0.8170302 1.4598473 -1.8968713 1.1037111
0.26206803 -1.96286 -1.0430984 0.34066936 2.3505216 1.7038025 1.4950438 -1.3202745
0.5531592 -0.26178566 0.6003478 -0.19924815 -0.29374576 -1.998098 1.5514473 -1.747116

body.block2.norm.running_var f4 [64]
00000000: 9dde e13f 6eb1 2f3f 636b 6a3f 70db c13f
00000010: da72 3241 5f8e b240 a4ef 273f 4186 993f
00000020: 0323 8f3f 0c08 1440 f688 da40 7daa a83f
00000030: ad15 c93f 9061 2b40 ad88 ec3f e99b 4640
00000040: ff07 253f 8db2 863f 8b38 5b40 08af 2a40
00000050: 584e da3f db67 c53f d66a 523f b59c c540
00000060: f1c9 923f 8d55 f53e 0383 8a3f 3cd7 bb3f
00000070: 5606 5440 80c2 e640 de84 1140 3ba0 3940
00000080: 5e4c 0440 008a a640 d87e b43f a758 dd3f
00000090: 58df cb40 6917 1740 2c6c c23f 3f68 c240
000000a0: 9c6f 4840 1da8 e640 26aa 0c40 e775 6940
000000b0: cdf8 6e41 d361 2f40 b2bc 4b40 62b9 393f
000000c0: 49eb f33f 82ea bc40 db52 df40 0066 a13f
000000d0: 10fb 3040 22bb 0041 f971 0140 8742 b040
000000e0: 481e 8440 895c 9d3f 6840 6b3f d470 fd3f
000000f0: 22fc c43f 9dcb 0d40 4699 7540 b8a8 033f
1.7646061 0.6863011 0.9157011 1.5145092 11.15304 5.5798793 0.6560004 1.1994096
1.118256 2.3129911 6.829219 1.3177029 1.570974 2.6778297 1.847921 3.103266
0.64465326 1.0523239 3.425326 2.666933 1.7055159 1.5422319 0.8219427 6.1753793
1.1467878 0.47916833 1.0821232 1.4675059 3.3128867 7.2112427 2.2737346 2.9004047
2.067161 5.2043457 1.410121 1.729268 6.3710136 2.3608038 1.5189261 6.0752254
3.131812 7.2080216 2.197885 3.6478212 14.935742 2.7403457 3.183392 0.72548497
1.9056178 5.9036264 6.978864 1.2609253 2.7653236 8.045687 2.0225813 5.508121
4.1286964 1.2293864 0.9189515 1.9800057 1.5389445 2.2155526 3.83748 0.5142932

body.block3.conv.weight f4 [64, 64, 3, 3]
00000000: c10e 00bb 8277 0bbd 1ce2 2dbd 1c10 93bd
00000010: 1e6b 3cbd 80ac a0bd 4e0f bcbd f023 c539
00000020: 3006 09be 35f4 05bd e78c 97bd f7fd 4cbc
00000030: e6f1 8a3c 2cc6 273d 0744 233e d448 0c3d
00000040: e4d9 6d3d 757f c53d 4171 90bd eeaf 4dbd
00000050: 5fe0 20bd 36c8 9cbc 8191 503c 88c8 9fbc
00000060: d9ee dbbd 6f57 f23c f914 6dbc 9a4a b5bd
00000070: 7024 3eba 6f97 e03d 8420 47ba ffdf a8bd
00000080: 183a 11bd 4722 7d3d 1a05 32bd a30c 2abc
00000090: c018 6d3c 4060 313c bb30 503d 766d 863b
000000a0: 9ac2 a23c 17e0 193d f82c c6bc 1478 eb3c
000000b0: ae7a 4e3d 9c47 a73d acd1 c9bb 987c 013d
000000c0: 7369 cf3d 7751 993c 97b9 863c 332e 0f3b
000000d0: e8c5 44bd 3690 07be e0d5 03bd d2f8 843d
000000e0: 4246 b33d 87b8 3fbd 7083 0fbc d3bb 14bd
000000f0: 5df3 853c d82e 2cbd f6b6 6dbc 3bb6 213d
00000100: 436e b43d 82ea 57be 5579 0fbc 969c 1c3d
00000110: 1420 29be 1445 9bbb cd60 583d 685b 2bbd
00000120: 5da0 7f3c 295a 96bd 501e b0bc c45f 85bd
00000130: 2e1d 20bd 39c9 7c3d 9bdd c8bd 332e b93d
00000140: 6461 4a3e ddba 463d 907f 31bd 1884 8f3c
00000150: e1a5 3c3d 584c 26bd dcaf 56bc 9645 8c3e
00000160: ae76 063e 2cd6 043e e4c9 0fbd 9430 02bd
00000170: af0d 3d3e 2330 b7bd 794d 9dbd a69e 7d3d
00000180: 7e35 a2bd dcf1 24be 4896 643d f655 6bbd
00000190: 631f 2ebe 4364 8cbd 2419 55bd 32fe 91bd
000001a0: 2b9f 1dbd d7df 313d 76ec 6dbc 3f00 a33d
000001b0: 995f 3bbb c51f 4abd 61a6 503d 0a9a 49bc
000001c0: e0dc 35bd 9d89 59bd f44b 8cbd 98fb babd
000001d0: eb6a 233c 9d46 903c 381d d1bd 4d1a 16be
000001e0: 89bf 9ab9 c4a4 fbbd 5eea b2bd 98c2 23be
000001f0: 06f9 b7bd 3d17 a8bd e555 4f3d 6d12 3cbb
00000200: 51ae 023d 2600 9bbc 5a21 5bbd 32d6 9ebd
00000210: cc6d 1c3d 71b7 52bd ff5e 87bd 9847 d53d
00000220: f558 bf3d e19c 243e caf5 c13d 1710 a43d
00000230: 01fb f83d 5d92 a23c 01bd 5fbc e608 883d
00000240: 0252 293d d625 1abd d04f 9abd e9ea fabb
00000250: bf47 953d 7954 333d 0062 69bc 976e f33b
00000260: 6e2e 8d3c 09c4 ea3c af47 29be 8855 93bd
00000270: 05f1 96bd baa5 bdbd 7fd7 78bd e72b 20be
00000280: 1be5 03bd 1b17 31bd 19ed 15bd 1b2b 6bbc
00000290: 2b8b debc c85c 683b 6055 86bd 483c 32bc
000002a0: 7e39 e83a b6fc dfbc 45ef a53c 8ba5 493e
000002b0: 66bf cd3d 9ef0 813d 9fc9 d83d da1a f83a
000002c0: 732d 1b3c 2907 2e3d a6e4 d3b9 0242 abbc
000002d0: 3993 06be 5e97 d6bd 3ed1 abbd e302 3cbd
000002e0: bf7b 48bd a8f4 8abd 5458 28bd 7ab9 b5bd
000002f0: 70be c7bd fd9c 7d3c 69f2 ebbc 7f0c d83c
00000300: 7e24 09bb 3aa2 c43d 4a64 c4bc 711b 5b3d
00000310: db45 d73d 6cf6 513c a036 83bd cf2b 4dbd
00000320: e726 92bd 9eee 4b3c b5eb d3bc 7ba8 113c
00000330: 0bfb a9bd a80c 6cbd b96d b5bd 4f16 063e
00000340: 3927 453d 54e2 ea3c 5598 9e3d d152 2e3d
00000350: 7e68 e63d 20e4 063d 23b7 173d 8085 b93d
00000360: d161 083e ca5d 853c 2d0a 813c 8cd9 093e
00000370: 943c 7c3d 0a99 2d3d 226f 6e3e 7f87 d03d
00000380: f082 913d 8725 463d 5f11 6c3d 8bfa fb3d
00000390: 3f12 733d 70a8 0d3d 28ec 703d 394d 733d
000003a0: 8ec7 dfbd ae44 ddbd ef87 003d 58e1 10bd
000003b0: ad39 cb3c 1b5b 103d 39de 7dbd 02d0 173c
000003c0: 5533 063e 08c1 dabb f688 82bd 12fe 05bd
000003d0: 98ec 923c 787c 8b3d d012 863c 3cf1 803c
000003e0: 0414 43bd a970 fcb9 3caf fabb dcdf 0bbd
000003f0: 70e6 8dbd 7226 dcbd 1a32 76bd e734 7fbd
-0.0019540044 -0.03404952 -0.042451963 -0.07180807 -0.046000592 -0.07845402 -0.09182607 0.00037601544
-0.13381267 -0.032703597 -0.07399922 -0.012511722 0.01696105 0.040960476 0.15943919 0.03424914
0.058069125 0.09643451 -0.070528515 -0.050216608 -0.039276477 -0.019138437 0.012730003 -0.0195048
-0.10738916 0.029582707 -0.014470332 -0.0885212 -0.00072533544 0.10966384 -0.0007596093 -0.08245849
-0.035455793 0.061800268 -0.043461896 -0.010378989 0.014471233 0.01082617 0.050827723 0.004102404
0.019868184 0.037567224 -0.024191365 0.028743781 0.050409965 0.08167955 -0.006159028 0.031612962
0.10127535 0.018715603 0.016445918 0.0021847605 -0.0480403 -0.13238606 -0.03218639 0.06492771
0.08753635 -0.04680684 -0.0087593645 -0.036311936 0.016351396 -0.04203686 -0.014508953 0.03948043
0.08810093 -0.21085551 -0.008756955 0.03823527 -0.16516143 -0.0047384594 0.05282669 -0.04183522
0.015602198 -0.073414154 -0.02149883 -0.065124065 -0.039090328 0.06171534 -0.09807893 0.09042015
0.19763714 0.04851805 -0.043334544 0.017519042 0.046056632 -0.04060015 -0.013103452 0.2739684
0.1313121 0.12972325 -0.035104647 -0.03178461 0.18462251 -0.08944728 -0.07680792 0.061918877
-0.07920359 -0.16107887 0.055807382 -0.057455026 -0.1700416 -0.06855061 -0.05202593 -0.07128562
-0.038481873 0.04342636 -0.014521709 0.07959031 -0.0028590916 -0.049346704 0.05093992 -0.012304792
-0.044400096 -0.053109754 -0.068504244 -0.09130019 0.009974222 0.017611796 -0.10210651 -0.1465847
-0.00029515874 -0.12287286 -0.08736108 -0.159922 -0.08983044 -0.08207557 0.050619025 -0.0028697506
0.031904522 -0.01892097 -0.053498603 -0.07755698 0.038190648 -0.051444475 -0.06609916 0.10414046
0.09343139 0.1607547 0.09470709 0.080108814 0.1215725 0.019845182 -0.013655902 0.06642322
0.041337974 -0.03763374 -0.07534754 -0.007657398 0.07289075 0.04378173 -0.014244556 0.007428955
0.017234053 0.02865793 -0.16531251 -0.07194048 -0.073701896 -0.092601255 -0.060752388 -0.15641747
-0.032200914 -0.043234926 -0.036603067 -0.014353539 -0.02716597 0.0035455693 -0.06559253 -0.01087863
0.0017717329 -0.027342182 0.020255694 0.19692056 0.10046272 0.06344722 0.10585331 0.0018928901
0.009471285 0.042487297 -0.00040415413 -0.020905498 -0.13142098 -0.1047809 -0.08389519 -0.04590119
-0.04894614 -0.06784946 -0.04109986 -0.088732675 -0.0975312 0.015479323 -0.028802114 0.026373146
-0.0020926292 0.09601255 -0.023973603 0.053492967 0.10511371 0.012815099 -0.06406903 -0.050090607
-0.07136326 0.0124470275 -0.02586923 0.0088902665 -0.08299836 -0.057629257 -0.088588186 0.13094448
0.04813311 0.028672375 0.07743899 0.04255945 0.11250399 0.0329324 0.037039887 0.09058666
0.13318564 0.016280074 0.015751923 0.13461894 0.06158121 0.042382278 0.23284581 0.10182094
0.071050525 0.048375633 0.057633754 0.12303647 0.059343573 0.034584463 0.058818966 0.059399817
-0.10926734 -0.10804115 0.031379636 -0.035371155 0.024807775 0.035243135 -0.061979506 0.0092659015
0.13105519 -0.006675843 -0.063737795 -0.032713003 0.017935082 0.0681085 0.016366392 0.01574003
-0.04762651 -0.00048149124 -0.007650284 -0.034149036 -0.06928718 -0.1074952 -0.060106374 -0.06230631

body.block3.conv.bias f4 [64]
00000000: 8bce 033c 5b7e 2b3b 58da 4abd d80e f23c
00000010: 2d35 c7bc 8938 003d 2e20 493b 75a0 9bbd
00000020: f453 80b9 d88c a5bc e195 393c 47c1 46bc
00000030: 6eb2 523d 856f 233d 4799 2d3c a052 9ebc
00000040: 748d 03bd b71f a5bc 61b5 703a 0979 f23c
00000050: 9326 d13a 1132 21bd baa6 4ebd 54f1 5d3c
00000060: 3372 b23c b7dc d3bb 07df 6d3c ad77 6ebc
00000070: 99cd 01bd 7362 1cbd 8502 b03c a4f9 45bb
00000080: fb0f 1d3d 8220 273c 4c4b 05bc 258b 32bd
00000090: 8661 a03c cae5 dd3b 8987 443d 7fbc 533b
000000a0: d7e9 e8bb 028e cebb d20f 83bd d879 363c
000000b0: 6112 d63c 9d86 813c 759c 91bc abfb a33a
000000c0: 7224 e4bb 570e 47bb 9a35 8bbb 8b35 3fbd
000000d0: 532e 78bc 51a1 113d 0a5e bfbb 7713 003d
000000e0: c86f 903d 88e4 573c 1416 813c 3ab0 9dbb
000000f0: 047e d23b ae76 8c3b d716 783c c0d1 21bb
0.008044849 0.0026167843 -0.049524635 0.029548094 -0.024317348 0.031303916 0.0030689347 -0.07598964
-0.00024476612 -0.020208761 0.011327238 -0.012131042 0.051439695 0.039901275 0.010595626 -0.019326508
-0.032117322 -0.020156724 0.0009182301 0.02959873 0.0015956931 -0.039354388 -0.05045197 0.013546307
0.02178297 -0.0064655202 0.014518506 -0.0145549 -0.031690214 -0.038179826 0.021485576 -0.0030208612
0.03834532 0.010200622 -0.008135628 -0.04358973 0.019577753 0.0067717778 0.04798082 0.0032308397
-0.007107954 -0.0063035497 -0.06399502 0.011137448 0.02613181 0.015811259 -0.0177748 0.0012510916
-0.0069623524 -0.0030373537 -0.004248333 -0.046681922 -0.015147763 0.035554234 -0.0058400678 0.031268563
0.070525706 0.013177045 0.015757598 -0.0048122676 0.0064237136 0.0042866087 0.015142164 -0.002469167
