TrainedModels/0035-sample/scale_factor=0.750000,alpha=10/6/netD.pth (torch, 467478 bytes, 25 tensors)

head.conv.weight f4 [64, 4, 3, 3]
000000 75 32 14 3e ad 88 c2 3d 5c b4 32 3e 37 41 a9 3d
       0.14472373 0.09498725 0.17451614 0.08264392
000010 50 a4 a7 bd 80 9f 45 bd 32 cb 83 3d 19 ea 0b 3d
       -0.08185637 -0.048247814 0.06435241 0.0341588
000020 2b 89 61 3d 0a c2 db 3d d8 db f7 3c eb ce d0 3d
       0.055062454 0.107303694 0.030256197 0.101957165
000030 86 64 58 3d 59 91 b4 bc 77 fc 18 3b 5f e4 30 3d
       0.05283024 -0.022041963 0.002334384 0.04318654
000040 92 6f 8d 3c 15 d5 2a 3d 9a 07 d1 3d 60 6e b9 3d
       0.017265115 0.041707117 0.10206528 0.090542555
000050 d5 99 87 3d 9d f7 66 3d 91 5e 0c bc 08 99 ff bc
       0.06621138 0.056388486 -0.008567468 -0.0312009
000060 f4 a2 3b 3c c3 23 c4 3c ee ec fa 3b 7f e2 34 bc
       0.011452425 0.023942834 0.0076576388 -0.011040329
000070 98 d6 d1 3c 3d 5c a2 3d ed e7 04 bd 4b 92 82 bb
       0.025615022 0.07927749 -0.032447744 -0.0039847246
000080 b2 16 89 3c 49 cf a7 3d c9 68 22 3d 97 93 83 3d
       0.016734455 0.081938334 0.039650712 0.06424635
000090 85 ab e0 3d af 76 fb 3c ae 95 f6 3c 56 95 11 3d
       0.10970215 0.030696241 0.03010067 0.03554281
0000a0 3f f9 c1 bc 96 e8 cf bb 55 64 c2 bd a0 f1 a2 bd
       -0.02367842 -0.006344865 -0.09491793 -0.079562426
0000b0 b9 e9 07 be 9f cb 58 3d 2d af 80 3d 69 50 29 3d
       -0.13272752 0.052928563 0.06283412 0.04133645
0000c0 bf 3d 3c 3c 2c 54 2e 3c cf 86 df 3c 07 1a 94 bd
       0.011489331 0.010640185 0.027285961 -0.07231527
0000d0 d7 51 3c bd 06 18 87 bd 52 6d c2 3c c3 b4 97 3c
       -0.045976486 -0.06596379 0.023733769 0.018518811
0000e0 13 56 8b 3d 80 ff 01 3d 70 18 bf 3c e5 4b 34 3d
       0.06803527 0.031737804 0.023327082 0.04401769
0000f0 e8 ef c2 bc c3 82 dd bc 63 f6 91 bd 22 7f 18 3d
       -0.023796037 -0.027039891 -0.07127073 0.03723062
000100 84 96 85 3d fd 51 0b 3e fd d8 26 bd fa bb 59 3c
       0.06522849 0.13605495 -0.04073428 0.013289446
000110 ca 3b 64 3c a5 91 b8 bd 7a 57 1a bd ab 87 75 bd
       0.01393027 -0.090121545 -0.03768108 -0.059943836
000120 81 37 cb bc aa 11 dd 3c 48 20 08 3e 96 7b 38 3d
       -0.02480674 0.026985962 0.13293564 0.045039736
000130 6d 80 1d 3c b8 1b 7a bc 6f af 36 3d ea 61 34 bd
       0.009613139 -0.015265398 0.0446009 -0.04403869
000140 4c ca a4 bd 4c 65 6d 3a ac 17 4f 3c 43 bd e1 3d
       -0.080463976 0.0009055927 0.012639921 0.11022427
000150 15 ee 1c 3d 79 0f 8c 3a 36 f7 28 bd 8a 15 b6 3c
       0.03831299 0.0010685764 -0.041251384 0.022227068
000160 95 b2 2d bd ad 17 e0 bd 3f 95 61 3b 76 97 95 3d
       -0.042406637 -0.10942016 0.0034421233 0.073042795
000170 06 dd 12 3e 1e 16 61 3d 28 7e c4 3c f9 52 21 bd
       0.14342126 0.054952733 0.023985937 -0.03938577
000180 1c 3d 37 bc c4 8a 92 bd a4 e5 27 be 54 b7 ce 3d
       -0.011184003 -0.07155374 -0.16396195 0.10093561
000190 d9 f8 81 bc 90 85 3b bd 92 85 3f 3c 8c e3 7b 3b
       -0.01586573 -0.045781672 0.0116895605 0.003843519
0001a0 bd 37 04 bd dc 4e 2d bd 3c 58 d7 3c 89 80 ea 3c
       -0.03227972 -0.042311534 0.02628719 0.028625743
0001b0 4c b6 13 3d 27 20 d7 bb 44 0d 35 3d 8b 84 49 bd
       0.036062524 -0.006565112 0.044202104 -0.04919867
0001c0 d5 c7 66 bd 26 cc aa 3d 6d 9f ba bd 37 ba 3e bd
       -0.05634292 0.083397195 -0.09112439 -0.046564307
0001d0 41 38 33 3d 2d c7 d8 3d b8 68 41 3d b1 84 f4 3d
       0.04375482 0.10584865 0.04721901 0.119393714
0001e0 07 ee 1d bc 3c 40 c4 bb de 07 cc 3d 78 bd 8c bd
       -0.00963927 -0.0059891026 0.09962438 -0.06872076
0001f0 e5 ae 73 3c 41 7f 06 3e 62 e8 ce 3d 92 5d 0e 3d
       0.014873241 0.13134481 0.10102917 0.034757204
000200 11 fa e3 3d ae 64 14 bd c6 ea 06 bd 1d 62 06 3e
       0.11131681 -0.036228828 -0.03293874 0.13123365
000210 2d 45 07 be b1 d9 26 bd 1c 0b 29 3e a0 66 19 bd
       -0.13209982 -0.04073495 0.16508144 -0.037451386
000220 4c ce cf 3c 96 c3 0c bd 77 0d 29 3d b8 c8 3a bc
       0.025366925 -0.034366213 0.041272607 -0.011400394
000230 5d 31 48 3d 54 aa 89 bc e3 19 c3 ba 69 8f 79 3d
       0.0488752 -0.016804852 -0.0014885034 0.060927782
000240 c8 27 97 bd 41 21 70 bd 05 b0 2b bd 1f 48 6b bb
       -0.073806345 -0.058625463 -0.041915912 -0.0035901142
000250 fb c1 60 bd ed 0e 12 3b ed 73 c4 3d 0e 0f 86 3d
       -0.054872494 0.0022286728 0.095924236 0.0654584
000260 24 a6 1c 3e 70 b9 de bd 54 fb 60 bd b3 03 69 bd
       0.15297753 -0.10875213 -0.054927185 -0.056888293
000270 0b 4a 69 bd 8f 77 f9 bc d7 0f 7d bb 5f b7 37 3d
       -0.05695538 -0.030452518 -0.0038614178 0.04485261
000280 a5 a5 80 3d 53 f2 00 3e d5 e1 fc bd c5 b5 4b bd
       0.06281594 0.1259244 -0.123477615 -0.049733896
000290 e1 5b f3 bc 3f 48 95 bd f6 95 85 bc a1 63 c0 3b
       -0.029706897 -0.072891705 -0.016306859 0.0058712517
0002a0 0a 29 82 3d f1 76 a8 3d ac 94 28 3e 46 f2 2b 3c
       0.06355484 0.08225811 0.16462964 0.010494774
0002b0 af fd 23 3c 6b 80 e2 bb 0c 47 72 bb 60 dd a5 3c
       0.010009213 -0.0069122813 -0.0036968617 0.020247161
0002c0 3f a1 58 3c 35 15 cf ba 95 ad 7f 3c 88 b1 0c bd
       0.013222038 -0.0015799167 0.01560535 -0.034348994
0002d0 4c 78 82 bc fd e3 d8 bb c9 5d d5 bd a8 da 47 3d
       -0.015926503 -0.006618975 -0.10418279 0.04879251
0002e0 51 f4 b7 3d c6 72 26 3d 54 64 b4 3b 27 a7 a7 3d
       0.089821465 0.0406368 0.005505124 0.08186179
0002f0 f2 a3 95 3c 94 b4 0b be e3 90 6e bd b4 8d 25 be
       0.018266652 -0.13643104 -0.058243643 -0.16167337
000300 0f e2 c3 3c 02 29 f4 3c 22 d0 ae bd 6f 7b a6 bb
       0.023911504 0.02980471 -0.08535792 -0.0050806324
000310 09 e7 81 3d 4e 86 a6 bd c0 ac b8 bd 20 06 81 bd
       0.063428946 -0.08131085 -0.090173244 -0.062999964
000320 31 b0 d1 bd 19 82 03 3c c1 fa 34 3d 2c c9 49 bd
       -0.10238684 0.008026623 0.04418445 -0.049264118
000330 78 da 05 3d 70 51 49 3d ea bf 8c 3c 9b e9 ad 3d
       0.03267905 0.04914993 0.017181356 0.08491822
000340 ae 1d fa 3c d6 b3 35 3b f7 28 13 bd 40 48 1d bc
       0.03053173 0.0027725599 -0.03592774 -0.009599745
000350 85 3d cb bc 07 99 37 bd 3a 2b 3a 3a f5 91 94 bd
       -0.024809608 -0.044823673 0.0007101778 -0.072544016
000360 de 98 fd bc 3e 87 4f bd 97 f6 f5 3a fe 5e 34 3d
       -0.030956682 -0.050666086 0.0018765506 0.044035904
000370 80 a4 ba bc e5 11 e1 bc d8 93 12 3e 49 2b 15 3d
       -0.022783518 -0.027474353 0.1431421 0.036418233
000380 32 cd aa 3c 1a ab 30 bb 5e 94 00 bc cc b4 88 bc
       0.020849798 -0.0026957453 -0.0078478735 -0.016687773
000390 bd 8a 1e bd df e5 e1 bc c0 5b c5 bc b2 0d eb 3c
       -0.03870653 -0.027575431 -0.024091601 0.028693054
0003a0 14 2b 83 3c e4 43 bf bc 3b aa 97 bc f8 d9 cd b9
       0.016011752 -0.023347802 -0.01851379 -0.00039263046
0003b0 65 07 29 3c a9 e0 d8 bc b0 3a 83 3b ec 54 b2 3a
       0.010316704 -0.026474314 0.004004799 0.0013605631
0003c0 e8 26 cb 3b 59 02 cf 3b 52 0b ac 3c 9a 6b 6b bd
       0.0061997063 0.0063174185 0.021001492 -0.057475664
0003d0 d0 94 77 3d 33 09 06 3e 96 d1 7e 3c 41 69 7b 3d
       0.060444653 0.13089447 0.015552899 0.061379675
0003e0 fd cf 57 bd 3c 84 d2 3c cb c8 42 3b 57 ff 20 be
       -0.052688587 0.02569782 0.0029721733 -0.15722404
0003f0 e3 8a 8d bb 05 fe 97 bc 49 31 81 bc 74 50 03 bb
       -0.004319535 -0.018553743 -0.015770571 -0.0020036967

head.conv.bias f4 [64]
000000 80 d0 35 3e df c3 0c 3e 38 f9 d9 3d fe 74 58 3d
       0.17755318 0.13746594 0.10643238 0.052845947
000010 03 6b 8c 3c 63 7d b6 3d 48 ec 6d bc 83 93 37 be
       0.01714087 0.08910634 -0.014521666 -0.17927365
000020 93 6d de 3d 16 55 b4 3d fe 68 2b be 98 8e 51 bd
       0.108607434 0.08805291 -0.1673927 -0.05116138
000030 47 06 46 3d 0f 27 05 3c b5 05 6c 3d b6 28 1a 3e
       0.04834583 0.008126988 0.05762263 0.15054592
000040 7f ef f8 bb 16 a5 9b 3d 07 89 52 be 16 03 ae bc
       -0.0075969095 0.07599847 -0.20560084 -0.021241706
000050 d8 08 24 bd b1 04 59 bd e6 ed 2e 3d 97 94 3e 3d
       -0.040047497 -0.05298299 0.042707346 0.046528425
000060 56 5d 15 bd 80 27 1d 3c 12 f9 cd bd 7d 7c d0 3d
       -0.036465965 0.009591937 -0.10057272 0.10179994
000070 4e df 1d 3d 04 fa 2d bb 8d 63 2c 3c 82 69 0f 3e
       0.038543038 -0.0026546726 0.010521782 0.14005092
000080 0c 70 9e 3d 1a 51 d3 3d c1 5c 14 be 2f e7 8c bd
       0.07736215 0.10318203 -0.14488508 -0.06880032
000090 90 32 5d 3d 6c fd a9 3d a8 87 78 3e 39 a8 85 bd
       0.0540033 0.083002895 0.24270499 -0.065262266
0000a0 15 8a 29 be eb d5 55 3d 6a be b0 bc 95 10 9a 3d
       -0.1655658 0.05220596 -0.021575172 0.07522694
0000b0 79 f8 4a bd 7d 37 10 3d 77 cd da 3c 9c 67 11 3d
       -0.04955337 0.035209168 0.026709301 0.0354992
0000c0 33 6a d3 3d 31 5b 8d be 7d 9c 91 3c 0e a7 89 3d
       0.1032299 -0.27608636 0.017774815 0.06721316
0000d0 df a6 05 be 5d b3 aa bd 08 5d 1a bd f4 51 f8 3c
       -0.13051938 -0.08334992 -0.037686378 0.030312516
0000e0 a8 41 05 be e9 32 65 be 5d 28 ac 3d ed 23 e2 bd
       -0.13013327 -0.22382702 0.08406136 -0.110420085
0000f0 1e 2b 30 3c ac 48 d3 3d fd 4a 66 bc a8 d2 f1 3c
       0.010752467 0.103165954 -0.014055965 0.029519394

head.norm.weight f4 [64]
000000 6c 75 47 3f 5b 65 84 3f b1 1d 7b 3f a9 80 66 3f
       0.77913547 1.0343431 0.9809218 0.9004007
000010 df 16 6c 3f 83 c0 6f 3f 94 61 88 3f 6b 94 89 3f
       0.922224 0.93653125 1.0654778 1.0748419
000020 46 06 80 3f b4 a2 65 3f ba 96 7e 3f 7a c7 74 3f
       1.0001915 0.8970139 0.9944874 0.9561688
000030 79 e0 55 3f 4e d5 84 3f 20 cc 44 3f 78 bd 58 3f
       0.83545643 1.0377595 0.7687397 0.84664106
000040 50 55 71 3f d5 e9 4b 3f 25 ac 78 3f a8 7f 52 3f
       0.942708 0.79653674 0.9713767 0.8222604
000050 b4 16 87 3f a4 14 b1 3f 14 fb 50 3f ad 4c 7b 3f
       1.0553803 1.3834424 0.81633115 0.9816387
000060 a4 7a 8a 3f 2a aa 6e 3f 2e 96 7c 3f c2 a9 34 3f
       1.0818677 0.932284 0.98666656 0.7057153
000070 76 ea 31 3f 52 04 59 3f 48 0f 49 3f b7 99 8b 3f
       0.69498384 0.8477222 0.7853894 1.0906285
000080 e1 6a 87 3f 9e 6f 7c 3f 82 bb 60 3f f7 a7 4a 3f
       1.0579492 0.98607814 0.87786114 0.79162544
000090 9f 43 8a 3f 09 2e 6a 3f d8 69 6c 3f a0 44 84 3f
       1.0801886 0.91476494 0.92349005 1.0333443
0000a0 d5 93 6c 3f 46 eb 62 3f c5 8e 8d 3f 23 c8 62 3f
       0.92413074 0.8864025 1.1059195 0.88586634
0000b0 45 47 7c 3f 1a 98 84 3f c1 92 75 3f 0f 04 82 3f
       0.9854625 1.0358918 0.95927054 1.0157489
0000c0 fe ce 7f 3f 22 67 5d 3f f8 9e 67 3f 7e 32 87 3f
       0.9992522 0.86485493 0.9047694 1.0562284
0000d0 e9 1e 90 3f 17 c1 87 3f 32 2e 93 3f 44 18 9b 3f
       1.1259433 1.0605801 1.1498473 1.211678
0000e0 b8 94 67 3f 46 af 80 3f 0d e9 72 3f eb 56 90 3f
       0.904613 1.0053489 0.9488686 1.1276525
0000f0 d2 f7 3d 3f 66 cb 54 3f 17 80 81 3f 05 dd 38 3f
       0.7420627 0.8312286 1.0117215 0.7221225

head.norm.bias f4 [64]
000000 b7 af fb bb 22 a6 d5 3e 01 f2 74 3f bf eb 7a 3e
       -0.007680859 0.41728312 0.9568177 0.24503992
000010 dd 69 0f 3f 50 f6 a9 3e fd 9c 03 bd 59 ca b0 3c
       0.5602091 0.33195734 -0.032132138 0.021580862
000020 e8 0b e0 bd 8b e3 1f 3e b9 05 4f 3c 15 36 00 3e
       -0.10939771 0.15614145 0.012635642 0.1252063
000030 2a 91 a1 3d d8 13 1f 3d 72 1e 4b be 62 18 fa 3e
       0.07889016 0.038837284 -0.19835833 0.48846728
000040 9c 51 73 be f2 7c 25 3e e2 00 5e 3e e0 23 5f be
       -0.237616 0.16160944 0.21680024 -0.21791029
000050 7f b0 1a bd b8 e2 37 3e 61 66 2a 3f 5c be 2c 3e
       -0.037765976 0.1795758 0.6656247 0.16869491
000060 df 55 2b 3e da b9 71 3f 06 cc a6 3d ea a8 60 be
       0.16731976 0.9442421 0.08144383 -0.21939436
000070 29 4c 6a be 5d a5 5f 3e 5e 5b 27 3f 5e 6a 15 3f
       -0.22880615 0.21840425 0.6537379 0.5836543
000080 56 e3 dc 3e 8e ef 14 be 72 50 05 3f 74 c3 05 3e
       0.43142194 -0.14544508 0.52075875 0.1306284
000090 e9 86 5a 3e bc 8c da bd 9e d1 03 3f 2c b6 a5 3e
       0.21340527 -0.10671374 0.51491725 0.3236555
0000a0 92 ce 1c 3f 38 96 cb 3e cf 29 61 3e 4b c8 21 3e
       0.612527 0.39763045 0.21988605 0.15799062
0000b0 cb 59 82 bd dc c7 1d 3e d7 fd 69 3e cf 47 2e 3f
       -0.06364783 0.15408272 0.22850738 0.6807832
0000c0 d1 fa b6 3d 61 18 2d 3f e4 f8 27 3e 36 f1 82 3e
       0.08934558 0.67615324 0.16403538 0.25574654
0000d0 6b d0 48 3e 1f 48 92 3e 1e de a5 3d 0a 4a fe 3d
       0.19610755 0.2857065 0.08099006 0.124164656
0000e0 39 09 16 bd aa 28 a2 bd 29 fb 8f 3e 46 65 2d 3e
       -0.03662989 -0.07917912 0.28121307 0.16933164
0000f0 27 9c 94 be 79 c3 05 3d b7 0c ef 3c 91 5b 53 3e
       -0.29025385 0.03265712 0.029180868 0.20640399

head.norm.running_mean f4 [64]
000000 cf b9 ca be 62 ca 33 3e 64 62 55 3d cb 34 4c be
       -0.39594886 0.17557672 0.052095786 -0.19942014
000010 55 13 0d bc 67 71 6c 3e 91 30 29 bd 57 3f 3b be
       -0.008610566 0.23090135 -0.041306082 -0.18285881
000020 ce 45 21 3e b4 8f 6b 3f 73 50 28 be a7 5c 14 3f
       0.15749285 0.9201615 -0.16436939 0.57953876
000030 45 64 45 bf 9c e7 da 3e 41 bf 4e be 03 1c 2f 3c
       -0.77106124 0.4275483 -0.20190145 0.010687831
000040 61 aa bf 3e 7a ab 0b 3e 7b a0 96 be ee bd ae be
       0.37434676 0.13639632 -0.29419312 -0.3412928
000050 da 4a 97 3e 14 21 6d bd ae d1 cd 3d de ea dd be
       0.29549295 -0.057892874 0.10049759 -0.43343252
000060 50 c9 27 bf 69 87 41 3d f4 d4 bc be 14 6a 37 bd
       -0.65541553 0.047248278 -0.3688122 -0.0447789
000070 85 30 95 be 0e 11 b6 be fb 22 0e be d8 c5 e2 3d
       -0.2913858 -0.35559887 -0.13880531 0.11072892
000080 0c af 37 3b 98 7c 8d 3f bf 67 bd be d2 a3 ad 3d
       0.002802792 1.1053648 -0.36993214 0.08478512
000090 b5 dd f6 be 1c dd fa 3d 7f b5 24 3e db 1d 9b be
       -0.48216024 0.122492045 0.1608486 -0.30296215
0000a0 83 f3 9e bd 9f 12 35 3c 07 40 20 3e cb 93 a5 3f
       -0.0776129 0.011051803 0.15649424 1.2935728
0000b0 b1 7d e3 3b 9e bf fd bd 79 33 26 3e c0 a7 1f 3c
       0.006942474 -0.12390064 0.16230573 0.009744585
0000c0 0a 2f 7f 3e f9 1c c1 be 4b a7 cf be aa a2 8a be
       0.24920288 -0.37717417 -0.40557322 -0.27077228
0000d0 6c 7f 4b bd 13 eb 14 3e ed a5 4f 3d e3 2b 26 3e
       -0.049682066 0.14542799 0.05069535 0.16227679
0000e0 34 19 2a 3e 8a 7f 66 be f8 45 b7 be bf 9f e0 bd
       0.16611177 -0.2250959 -0.3579557 -0.10967969
0000f0 52 0e 21 be 1f 7a 90 be d1 10 5a 3e 4c a6 22 bf
       -0.15728119 -0.2821817 0.21295477 -0.63535

head.norm.running_var f4 [64]
000000 11 9a 6d 3e 24 1b c4 3b e0 43 8e 3b 45 90 79 3d
       0.23203303 0.0059846807 0.0043415874 0.0609286
000010 ce 2f a1 3b 32 96 cb 3c 48 31 44 3b 47 18 a8 3b
       0.004919029 0.024851892 0.00299366 0.005129847
000020 83 c7 02 3d 3a 82 b1 3e 0f 6a 9a 3b 70 c6 2f 3e
       0.03192855 0.34669667 0.00471235 0.17165542
000030 00 af bc 3e 6b f3 21 3c 6f d3 54 3e fb f9 a4 3b
       0.36852264 0.0098846955 0.2078378 0.005034683
000040 12 9a 00 3c 97 c2 92 3c bd fd 87 3c 18 50 76 3e
       0.007849233 0.017915053 0.016600484 0.24053991
000050 2e 46 b3 3d 30 21 79 3b 93 49 d1 3b 3d 77 05 3e
       0.0875362 0.0038014166 0.0063869446 0.13033767
000060 8e f2 4a 3e cf c6 1b 3c db 36 4d 3c ba e7 c1 3d
       0.1981909 0.009507849 0.012525286 0.094680265
000070 7d 39 a4 3e 11 45 a2 3d 12 97 bd 3b 73 d4 ae 3b
       0.3207511 0.079233296 0.0057858313 0.0053353845
000080 00 92 a8 3b 08 6c a5 3e 6c 9f c4 3b be 3a 0d 3b
       0.0051443577 0.32308984 0.00600045 0.0021549906
000090 fb ab 8e 3e 1f 49 1b 3c c1 6b 2c 3b ee db 59 3b
       0.27865586 0.009477883 0.0026309344 0.003324266
0000a0 cd ac 80 3c 5d 99 a9 3c 64 61 42 3c f8 67 13 3f
       0.015707398 0.020703012 0.01186404 0.5758052
0000b0 e2 0d 21 3e 0f ab 6b 3b ef 67 9a 3b a1 54 9d 3b
       0.15727952 0.0035960113 0.004712097 0.0048013483
0000c0 18 1a 45 3d 52 e6 cd 3a 84 3c 44 3e ad cb 4c 3e
       0.048120588 0.00157089 0.1916371 0.19999571
0000d0 31 87 a3 3b 2d 8b 16 3d 22 27 7a 3d 69 98 a4 3e
       0.0049904813 0.036753822 0.061072476 0.3214753
0000e0 09 ed 22 3d 87 5d ef 3a 1a 7b a8 3d ee e8 66 3b
       0.039776836 0.0018262126 0.08226605 0.0035234052
0000f0 02 bf de 3d df 31 d7 3d 17 f2 46 3e 08 f1 1a 3e
       0.108762756 0.10507559 0.19428287 0.15131009

body.block1.conv.weight f4 [64, 64, 3, 3]
000000 bb 24 21 bd b7 dc df bc 9c fe bd 3a a6 40 99 3c
       -0.03934167 -0.027326925 0.0014495435 0.018707585
000010 3c b2 06 bd 28 47 c7 3c 27 35 18 3d 4c 98 b2 bb
       -0.03288482 0.024325922 0.037160065 -0.005450284
000020 de 92 15 bc 75 e8 25 bd 00 be bc 3c 30 95 3d 3e
       -0.009129254 -0.04050489 0.023039818 0.18513942
000030 db be 73 bd d3 46 be bc a8 e3 0c 3d 0c 4b b2 bd
       -0.059508186 -0.023227131 0.034396797 -0.0870572
000040 5f 4a a3 bd 61 38 8a bd cb 41 be 3c f2 7e eb bc
       -0.079731695 -0.06749035 0.023224732 -0.028747056
000050 cd 37 5e 3e a1 c7 50 3d 1e ca bc bc a5 90 2d 3c
       0.21700974 0.05097163 -0.023045596 0.010593568
000060 2e 37 33 3c 2c 4d 8f bc 8e cc b5 3d a6 7a 3e 3c
       0.010938449 -0.017492853 0.08876906 0.011625921
000070 26 7c ca 3c 85 a9 08 3d 68 e6 92 bd df 0d 36 bd
       0.024717402 0.03336479 -0.07172853 -0.044446822
000080 8c 90 48 bc 7d 55 8a bd 6a b4 80 bc a1 34 77 bc
       -0.012241494 -0.06754587 -0.015711028 -0.015088231
000090 24 42 19 bd 08 60 c7 bd 54 b6 75 bd 5d c1 8c 3c
       -0.037416592 -0.097351134 -0.059988335 0.017182047
0000a0 c1 a2 3a 3d 66 b5 4a 3d f5 d2 3a 3c c7 66 e9 bc
       0.04556537 0.0494894 0.011402835 -0.02849139
0000b0 33 62 02 be 7d db d6 bd ea 9c 02 bd 4a 79 4e bd
       -0.12732773 -0.10491083 -0.031887926 -0.05040864
0000c0 54 52 ae bd 22 2c a6 bd b2 f4 40 bd 42 b2 d6 bd
       -0.085117966 -0.081138864 -0.04710836 -0.10483219
0000d0 26 63 92 bd 9b d3 97 bc df db 63 3b 28 b8 1a 3e
       -0.07147817 -0.018533519 0.0034768505 0.15109313
0000e0 bd 3c 40 3e 29 28 c0 bd 66 66 f3 3a f2 8f 8f 3d
       0.1877317 -0.0938266 0.0018569946 0.07009877
0000f0 64 c1 f7 bc 69 cb b2 bd 07 8a 92 bd 0c ee 95 3c
       -0.030243583 -0.08730204 -0.07155233 0.018301986
000100 5c 2f fd bc 7e 00 07 3d 79 e0 5a 3c 91 1f 5a bd
       -0.030906372 0.032959454 0.0133591825 -0.05325276
000110 49 60 0a bd 62 33 8d 3d 23 a5 4d 3c 62 11 bc 3c
       -0.03378323 0.06894566 0.012551579 0.022957508
000120 56 c3 16 bd 81 36 bd 3a 71 a2 29 bc b8 9c 43 bd
       -0.03680738 0.0014435799 -0.01035367 -0.04775688
000130 a5 54 09 ba 53 05 e9 3c 3f ec 20 bc 36 a9 69 bc
       -0.0005238748 0.028444922 -0.00982195 -0.014261534
000140 c2 e6 cd 3c a7 98 0b be 07 7a 17 be 3f 44 99 bd
       0.025134448 -0.13632451 -0.14792643 -0.0748372
000150 9a 28 c7 bd 36 fb 25 be d3 64 e5 bd e6 2b af bd
       -0.09724541 -0.1620911 -0.11200871 -0.08553295
000160 0b 7d d8 bd 60 aa 93 bd dc d5 27 3c ee 8f 4c 3d
       -0.10570725 -0.07210231 0.010243859 0.04994195
000170 8c 20 aa 3d eb 60 a5 3c 27 f3 0f 3c db 70 91 bc
       0.08306989 0.020187816 0.008785999 -0.017754009
000180 f6 36 cd 3c 49 a8 8b 3b c7 0d e8 3c ae 3b 25 be
       0.025050621 0.0042620045 0.028326882 -0.16136047
000190 d6 e9 1c be a8 93 12 be 65 b0 c8 bc a4 37 fa bd
       -0.15323576 -0.14314139 -0.024498174 -0.12217644
0001a0 56 e8 b1 bd cb d5 17 3d 8d 0b e5 bc 94 e9 b2 bb
       -0.08686893 0.037069123 -0.02795961 -0.0054599736
0001b0 b2 00 64 bd 30 f1 59 bb eb 69 32 bd ae af 89 3b
       -0.055664726 -0.0033255331 -0.043558042 0.004201851
0001c0 f4 f0 3a 3c 89 15 b1 bc c7 86 12 3d ea 77 1e bd
       0.011409987 -0.021616714 0.035773065 -0.038688578
0001d0 3b 5a c2 bc f8 d3 e4 bc 6f 32 a7 bc 5e f2 08 3d
       -0.023724666 -0.027933106 -0.02040979 0.033434264
0001e0 8e 61 a9 bd f5 c8 07 bd 44 76 ac 3b ef b4 45 3b
       -0.0827056 -0.033150632 0.005263122 0.003016766
0001f0 1a 0c 07 bd 6c b9 32 bd a3 ef 12 3d cd 16 62 bc
       -0.032970525 -0.043633863 0.035873067 -0.013799381
000200 38 2a a0 3d 50 94 5e 3d c5 d2 0e 3d 32 36 5b 3d
       0.078205526 0.05434066 0.034868974 0.05351848
000210 fa d1 77 3d b3 4b 62 3d 27 d9 7f 3c 94 09 42 bd
       0.060502984 0.055247974 0.015615738 -0.047372416
000220 dc da ca 3c 80 0d c9 3c a7 1a d4 bc 1c 52 97 bc
       0.024762563 0.02454257 -0.025891615 -0.01847177
000230 ae 48 56 3d bb ed a0 bc 8c 68 8b bc f6 d5 38 3c
       0.052315407 -0.019644609 -0.017017625 0.011281481
000240 aa ec 47 3d 00 43 7b 3d dc 8d d7 3c 45 ae 08 3d
       0.048809685 0.061343193 0.026312761 0.03336932
000250 e6 cd 28 3d 19 88 99 3d a0 dc 9b 3c c4 30 34 3c
       0.041211985 0.07496662 0.0190261 0.010997955
000260 6b 09 65 bc 19 da 33 3b 72 44 e3 bb 1d ac c6 3a
       -0.013979296 0.0027443229 -0.0069356496 0.0015157495
000270 5d 6a 84 3c b4 a1 de 3c 47 07 25 bc 4c 8a 7d 3d
       0.016164 0.027176715 -0.010072536 0.06189947
000280 87 79 1c 3d 8d 14 44 3d 53 b7 e7 bd 96 0c b8 bc
       0.038201835 0.04787116 -0.11314263 -0.022466939
000290 a8 3e 81 bd bb f2 7a bd 48 cf ea bc df 9d 00 bd
       -0.06310779 -0.061266642 -0.028663293 -0.031400558
0002a0 41 f0 95 3c 9e 8c 07 3d f2 ac 6e bd 7f d5 b2 3c
       0.018303039 0.033093087 -0.058270402 0.021830318
0002b0 ee 0d de bc a3 23 e3 3b 46 c4 d2 3c 77 2d 92 3c
       -0.027106252 0.0069317385 0.025728356 0.017843945
0002c0 ce 6d 03 3d fd 48 c8 3c 5e c0 ea 3c 25 a8 80 3d
       0.03208714 0.024448866 0.028656181 0.06282071
0002d0 ca 10 26 be 69 61 04 be 6e 18 e7 ba c9 9b 8e bd
       -0.16217342 -0.12927784 -0.0017631182 -0.069633074
0002e0 74 9d 6d bd b3 16 56 bd 23 d1 0b bd 2a ed 82 bd
       -0.058011487 -0.05226774 -0.034134995 -0.06392892
0002f0 05 13 9d bc 2c d1 ab 3d 11 50 8d 39 56 22 e3 3d
       -0.019174108 0.08389506 0.0002695327 0.110905334
000300 e7 32 25 3d a5 7f 37 3c 0c c0 b5 3d fb f1 16 3d
       0.040331747 0.011199866 0.08874521 0.036851864
000310 a9 31 59 bd ea a0 4d 3c eb 4d 8e bd b7 dc 73 bd
       -0.053025875 0.012550572 -0.069484554 -0.059536662
000320 71 8e a4 3d ff 20 07 3c 3d 37 1c 3c f1 f8 46 3c
       0.08034981 0.008247613 0.009534654 0.012144313
000330 a8 15 7e 3c 98 20 82 3c c7 60 9c 3d cc 54 53 bb
       0.015508093 0.015884683 0.07635646 -0.0032246588
000340 df 24 06 bd ba 8b 6f bb 98 31 f2 bc d8 e9 74 bd
       -0.032750007 -0.003655179 -0.029564664 -0.059793323
000350 db c0 30 bd af 86 80 bd ba af df bd 48 37 c2 bd
       -0.04315267 -0.06275689 -0.10922189 -0.094832
000360 9d 34 ed 3b e4 19 80 3d b2 91 7f 3d 75 83 8d 3c
       0.007238938 0.06254938 0.062394805 0.017274598
000370 08 f9 45 3d 7d f5 2b 3d 7a aa 15 bd fd bf a6 bc
       0.048333198 0.041982163 -0.036539532 -0.020355219
000380 1e 65 e2 bc dc 20 e3 bd a3 33 fc bd d6 44 21 be
       -0.027636107 -0.11090252 -0.123145364 -0.15748915
000390 be 1d 2f bd e3 58 24 bd 58 22 42 bd ab 3e dd bc
       -0.042752974 -0.04012383 -0.047396034 -0.027007421
0003a0 8f 32 7e 3c 68 e9 36 bd e3 60 18 bd dd 56 0d bc
       0.015514984 -0.044656187 -0.037201773 -0.008626667
0003b0 fa 31 ce ba 5a 31 43 bd 11 ae 14 bd 36 09 84 bb
       -0.0015731447 -0.047654487 -0.036298815 -0.0040294183
0003c0 aa 8a 13 be 4e 61 2e bd 4a 7c 6f bd 86 b2 1a 3b
       -0.14408365 -0.042573266 -0.05846814 0.0023604943
0003d0 6a c5 c2 3b d0 75 9e 3c f4 85 3c 3b 62 e6 76 bc
       0.0059439437 0.019343287 0.0028766366 -0.015069576
0003e0 80 b9 27 3b 9b af 8f 3d 65 cd 48 bb 17 8b 0a 3d
       0.0025592744 0.07015916 -0.0030640003 0.033824053
0003f0 93 55 39 3d c4 5a 65 3c eb eb 09 3d da 3f d7 3d
       0.045247626 0.013998691 0.033672255 0.105102256

body.block1.conv.bias f4 [64]
000000 2d 27 10 3d 29 05 18 3d 74 39 1f bd b8 4f b8 bc
       0.03519361 0.037114296 -0.03887315 -0.02249895
000010 3f 8f 8d 3c 44 a6 fc 3a e5 b5 34 bd 74 8f 3f bb
       0.01728022 0.0019275625 -0.04411878 -0.0029229792
000020 46 4b 0a 3d ab 79 5b bb 98 c6 a5 3a d2 66 0b 3c
       0.033763193 -0.0033489268 0.0012647687 0.008508401
000030 bd 26 bd bc b6 e3 58 3c f4 68 0a bd d6 ef 1a 3c
       -0.02308976 0.013237884 -0.033791497 0.009456595
000040 c6 0a 1c 3d 8b ff 2d 3d eb 6f 1a 3d c2 bf 5e bc
       0.03809621 0.042480033 0.03770439 -0.013595523
000050 44 e1 a8 bc 82 6e 25 3d 58 12 a1 bc 55 76 bb 3c
       -0.020615228 0.04038859 -0.019662067 0.022883574
000060 8e 37 38 bc 10 d4 12 bd cf 1e 80 3c 6b d8 f8 3c
       -0.011243714 -0.03584677 0.01563969 0.030376634
000070 e1 73 0e bd a4 52 fc bc b3 ec b2 bb 92 b8 96 3c
       -0.03477848 -0.030801125 -0.0054603457 0.018398557
000080 70 1e bd 3c db d2 6d 3c 51 af 17 bd c2 0d 61 3d
       0.023085803 0.014515604 -0.03703243 0.05494476
000090 2d ef fb 3b 38 45 d3 3c f4 80 e9 bc aa 26 7f 3b
       0.007688424 0.025789842 -0.028503872 0.0038932958
0000a0 54 4d 9e bb eb 8d 9e bc c5 9f 55 3c 95 30 83 bc
       -0.0048309956 -0.019354781 0.01303858 -0.016014377
0000b0 8e 24 50 3c f0 95 0a 3d e5 82 7f bc eb 48 e7 3c
       0.012704028 0.033834398 -0.0155951725 0.028233012
0000c0 c2 40 21 bd d3 58 79 3c f9 15 2f 3a af a1 2e 3d
       -0.0393684 0.015218931 0.00066789944 0.042634662
0000d0 60 c4 bb bc ea 76 d8 3c 93 34 d9 3c fa 6e 91 bc
       -0.022920787 0.02642389 0.026514327 -0.017753113
0000e0 30 fe 14 bd 1d fe aa bb bc df 83 3c c0 2c 1e 3d
       -0.036375225 -0.005218281 0.016097896 0.038616896
0000f0 6b be e9 3b a5 6e d6 bc ca 48 29 3d ce 46 da 3b
       0.0071332953 -0.026175806 0.041329183 0.0066612726

body.block1.norm.weight f4 [64]
000000 2d 31 82 3f 55 e5 88 3f 5b fe 78 3f c9 6d 71 3f
       1.0171257 1.0694987 0.97263116 0.94308144
000010 0e a1 96 3f ea e3 90 3f c9 57 79 3f 3c c2 6b 3f
       1.17679 1.1319554 0.97399575 0.92093253
000020 04 ca 54 3f 7a e9 64 3f 7b c0 66 3f 78 bc 53 3f
       0.8312075 0.89418757 0.9013745 0.82709455
000030 9f 9e 80 3f f7 7f 8a 3f e7 4b 6d 3f 6c e3 7b 3f
       1.0048407 1.0820302 0.9269394 0.98393893
000040 0b db 7d 3f e1 99 61 3f b6 63 62 3f b1 56 7d 3f
       0.9916236 0.88125426 0.88433397 0.98960406
000050 97 84 56 3f b1 25 8c 3f 0e 15 6b 3f 85 1c 6f 3f
       0.83796066 1.0949003 0.91829 0.9340289
000060 24 78 89 3f 56 c3 75 3f b5 ea 53 3f 66 d0 4e 3f
       1.0739789 0.96001184 0.8278001 0.8078674
000070 75 1c 77 3f 33 4e 75 3f 0c 14 85 3f bc a5 83 3f
       0.96527797 0.9582245 1.0396743 1.0284953
000080 cf 7d 84 3f b9 eb 4d 3f bb df 88 3f db 92 67 3f
       1.0350894 0.8043781 1.0693277 0.9045846
000090 db 5c 6a 3f d1 fd 6f 3f 77 c3 62 3f d3 d1 6a 3f
       0.91547936 0.9374667 0.88579506 0.91726416
0000a0 01 bb 7a 3f ce 2b 67 3f 77 9e 5f 3f 7d 96 7c 3f
       0.97941595 0.90301216 0.87351173 0.98667127
0000b0 24 30 68 3f d0 8a 95 3f 35 23 6a 3f 72 28 7a 3f
       0.90698457 1.1682987 0.9145997 0.97717965
0000c0 ce 59 5b 3f 06 45 96 3f fb e3 7d 3f 8c f5 78 3f
       0.85683906 1.1739814 0.99175996 0.97249675
0000d0 e6 bc 49 3f 99 22 63 3f 43 d4 81 3f 5e 27 74 3f
       0.7880386 0.88724667 1.0142902 0.9537257
0000e0 6d 42 77 3f 29 aa 6a 3f fc e1 88 3f 91 bb 6b 3f
       0.9658573 0.91665894 1.0693965 0.9208308
0000f0 7e fe 98 3f f9 67 77 3f b1 3a 88 3f 92 f1 6b 3f
       1.1952665 0.96643025 1.0642911 0.9216548

body.block1.norm.bias f4 [64]
000000 c6 21 85 3e 08 24 e3 3e fa e2 ce 3c 84 4f 96 3e
       0.2600233 0.44363427 0.025254715 0.2935754
000010 e3 2b 70 3e 1a 79 1e 3e 84 c5 fa 3e e0 65 b8 3d
       0.23454241 0.15475884 0.48978817 0.09003806
000020 d5 40 e0 3e 0d a9 dd 3c 54 ad 90 3c ff 11 b9 3c
       0.43799463 0.027058149 0.017660774 0.022591589
000030 03 9a 45 3e 32 34 d5 3e b4 77 75 3e 30 b8 13 3f
       0.19297032 0.41641384 0.23971444 0.5770292
000040 7a 80 ad 3e d8 50 d2 3d 74 a3 83 bd e5 74 08 3f
       0.33887082 0.10269326 -0.064276606 0.53303367
000050 30 d1 b4 3e fa 13 9c 3e 94 b2 a2 3b 21 f8 c8 3e
       0.35315847 0.3048399 0.004965136 0.39251807
000060 59 a4 94 3c c3 b1 36 3d e3 1b ab 3e cf 93 23 be
       0.018144773 0.04460312 0.33419713 -0.15974353
000070 f7 ad aa 3d 1b 1c b4 3e ce 54 0b 3f 9a be 7b 3d
       0.083339624 0.35177693 0.54426277 0.06146107
000080 f9 ad e0 3e 4f 6f a9 3e 32 d6 74 3e 4e 9e a7 3e
       0.4388273 0.33092734 0.23909834 0.32737964
000090 c9 c9 3c 3d 2a 12 0a bd f6 00 e7 3d 14 b3 64 3e
       0.046090875 -0.03370873 0.1127948 0.22333938
0000a0 e9 e7 fa bc 0b 1b 89 bc 2e 1b 65 3e 28 5a 03 3e
       -0.030628162 -0.016736528 0.2237365 0.1282736
0000b0 a7 57 8a 3e 40 11 02 3d 01 63 ed 3d 0c 18 06 3e
       0.27019998 0.031754732 0.11591149 0.1309511
0000c0 c2 3d 53 3e 0e 75 f4 3e 81 a1 85 3e 94 30 86 bb
       0.20629027 0.47745556 0.2609978 -0.0040951464
0000d0 be 16 5d 3e b1 0c 02 3f 61 a3 a3 3e 80 e1 c7 bb
       0.21590707 0.50800616 0.31960586 -0.0060998797
0000e0 2b 88 ba 3d 6f a9 9e 39 b6 95 9a 3e 36 32 36 3f
       0.09108003 0.00030262346 0.30192345 0.71170366
0000f0 b2 d4 7e 3e 0f 3c 15 3f 91 a4 91 3e d5 1c ec bd
       0.24885824 0.5829477 0.28445867 -0.11528937

body.block1.norm.running_mean f4 [64]
000000 65 35 5b c0 53 c4 b9 bd 8d 1c 0a 40 c5 a8 ee bf
       -3.425134 -0.09070649 2.1579926 -1.8645254
000010 70 7b 91 40 f5 8d 93 3f 25 44 f3 bf 99 e2 57 c0
       4.546318 1.1527697 -1.9005171 -3.3732054
000020 61 e3 3f bf 04 be a1 bf a9 e9 b2 bf 6c c6 4c 40
       -0.7495633 -1.2636113 -1.3977557 3.1996107
000030 da f9 79 40 92 a5 5f c0 2e 0e d2 3e 53 24 29 3f
       3.9058747 -3.4944806 0.41026443 0.6607105
000040 96 35 c9 bf d7 fd 8d 3f 4e a1 6e bf 9b 1f 09 3f
       -1.5719478 1.1093091 -0.9321488 0.5356385
000050 2a cf fa 3f 35 d7 45 c0 54 b6 cc 3f c2 81 5f 3b
       1.9594471 -3.0912602 1.5993142 0.0034104441
000060 b6 a0 bb bd 91 c3 53 bf e1 db bc bf 7d c4 02 40
       -0.091615126 -0.82720286 -1.4754602 2.0432427
000070 2d 40 1a 3d 7b 18 cb be 51 84 1a 40 10 57 f5 3e
       0.03765886 -0.39667115 2.414326 0.47917986
000080 ae 53 bf 3e 52 ca b0 bf cb 0b 34 c0 b1 92 d6 c0
       0.3736853 -1.3811743 -2.8132198 -6.7054067
000090 61 6b 9f bf 0c 2f a4 be f2 b1 c0 3f 01 d7 6d 40
       -1.2454644 -0.32067144 1.5054305 3.7162478
0000a0 de e4 37 bf ab 15 e3 3e af cd ea bf be 82 30 3f
       -0.718336 0.4435247 -1.834402 0.68949497
0000b0 35 1a 6f 3f b0 1c 84 c0 5c fc 2d c0 6f 46 78 40
       0.93399364 -4.128502 -2.7185278 3.879299
0000c0 a6 da 97 3e 9a 6b 0a c0 a1 ca bb 3f 37 30 0e 3f
       0.29659003 -2.1628175 1.4671212 0.5554232
0000d0 85 a5 5f 3f c6 cd 05 3f 28 d9 61 c0 ac 90 b6 bf
       0.8736194 0.5226711 -3.5288792 -1.42629
0000e0 01 e1 8b 3e 53 25 eb 3f 83 73 ec be 7e 3c 44 3f
       0.27320102 1.8370765 -0.46181878 0.76654804
0000f0 77 61 7a 40 9e f9 37 3f 69 c5 64 c0 ef 31 ae bf
       3.9121988 0.7186526 -3.574549 -1.3608989

body.block1.norm.running_var f4 [64]
000000 d1 8c c8 40 c9 43 3e 40 4f fe 80 40 94 0a 2d 40
       6.2671895 2.9728873 4.0310435 2.7037706
000010 a3 10 a5 40 36 74 5d 41 54 9b 0a 40 f8 b4 ca 3f
       5.158281 13.840872 2.1657305 1.5836477
000020 8c a5 5a 40 7a 68 5c 40 06 9e 54 40 6c 1a 67 40
       3.4163542 3.4438767 3.322145 3.6109877
000030 c0 8c 8c 40 17 ff 48 41 0b 7e 09 40 2d 93 07 40
       4.3921814 12.562278 2.148318 2.118358
000040 c2 35 01 40 65 bd 0f 40 cc 1a d2 40 8e f0 f7 3f
       2.018906 2.2459347 6.565771 1.9370286
000050 9b ea 9c 3f 01 88 c1 3f 54 15 ce 40 18 92 c3 3f
       1.2259096 1.511963 6.4401035 1.5278959
000060 8c 04 ba 40 5f d4 1e 40 6c b8 b8 3f ef f0 17 41
       5.813055 2.481712 1.4431281 9.496322
000070 64 23 b8 3f 30 33 65 3f 05 64 95 3f 63 11 29 41
       1.43858 0.8953123 1.1671149 10.566745
000080 b5 83 10 40 43 fc 89 3f 86 43 87 40 ff 9a aa 40
       2.2580388 1.0780109 4.2269926 5.3314204
000090 eb 86 d1 3f 3c 13 84 40 7b e5 03 40 5e 74 b0 40
       1.6369299 4.127348 2.0608814 5.514205
0000a0 4f a3 45 40 fb 1f 73 40 88 dc 53 40 0b af 2c 40
       3.0880926 3.798827 3.3103352 2.6981838
0000b0 24 b2 49 3f 09 10 af 40 23 35 8b 40 c5 60 6e 41
       0.78787446 5.4707074 4.3502364 14.898625
0000c0 3b 4c d8 3f fe 5e bc 40 c6 04 d1 3f 89 35 22 40
       1.6898264 5.8865957 1.6329582 2.5345175
0000d0 8a 77 f2 3f 6a 22 e6 3f fe f8 25 40 49 d9 3a 40
       1.894273 1.7979252 2.5933223 2.919512
0000e0 56 28 c2 40 d7 84 39 40 49 bd 87 3f ac 92 6b 3f
       6.067424 2.898733 1.060464 0.9202068
0000f0 01 e3 07 41 8c 6a 29 40 d4 24 6d 40 47 47 4e 40
       8.492921 2.647128 3.7053728 3.2231004

body.block2.conv.weight f4 [64, 64, 3, 3]
000000 68 58 f2 3c cf be 27 3c c8 95 32 3c df 41 05 3d
       0.029583171 0.010238363 0.010899968 0.032533523
000010 a7 7e d5 3c 22 ee 1a 3c d5 4f 18 bd 32 54 18 bd
       0.02606137 0.009456189 -0.03718551 -0.03718967
000020 a7 f6 fe bc 56 7e 6b bd a7 75 95 bd 50 ed 77 bd
       -0.031123472 -0.05749353 -0.07297831 -0.060529053
000030 ed e9 69 3c 64 59 57 bd 6f 40 60 3c 14 d9 b9 3d
       0.014276964 -0.052575484 0.013687237 0.090746075
000040 17 b0 60 bd f2 3f d8 bb 35 87 d1 bd 94 99 2c bd
       -0.054855432 -0.0065994198 -0.10230867 -0.04213865
000050 70 c7 03 be da 3c ed 3a be bd eb bb 7e 8e e3 3c
       -0.12869048 0.00180998 -0.00719425 0.027777907
000060 c7 bf 80 bc af 06 04 3d d6 56 11 bd 06 4f 2c 3d
       -0.015716447 0.032232936 -0.035483204 0.04206755
000070 96 bc ac 3c ba 5f c8 3c 48 5c a1 3c 12 a8 16 3d
       0.021086019 0.024459708 0.019697323 0.036781378
000080 78 f7 2a 3a 26 82 d0 bd da 0b 94 bc d5 a3 93 bd
       0.0006521861 -0.10181074 -0.018072058 -0.07208983
000090 21 49 60 be 87 db 15 be 84 f0 41 be 92 e0 16 3d
       -0.21902896 -0.14634524 -0.18939406 0.03683526
0000a0 4f 93 d9 3c 8c 60 9b 3d c1 5b 25 3d e1 b2 e0 3c
       0.0265595 0.07586774 0.040370706 0.027429046
0000b0 40 56 bc bd 98 69 b1 bd 44 26 a4 bd e5 b0 ad bd
       -0.091961384 -0.086627185 -0.08015111 -0.084810056
0000c0 ef 08 64 bc b7 0a a2 bd b4 10 45 bc 8e 08 42 bc
       -0.013918146 -0.079122 -0.012027908 -0.01184286
0000d0 84 d3 b9 bc 75 e6 89 bc 61 cd 8b 3d 54 1b 25 bd
       -0.022683866 -0.016833523 0.06826282 -0.040309265
0000e0 f2 59 07 3e 42 d9 8f bd 12 35 94 bd ca eb bd bb
       0.13217905 -0.070238605 -0.07236685 -0.0057959305
0000f0 39 39 75 3d a6 ea be bc d2 37 e8 3c 89 31 41 3d
       0.059869025 -0.023305248 0.02834693 0.04716638
000100 be 5b 88 3d 69 e1 f6 3d b5 a0 77 3c 83 e6 09 3d
       0.066581234 0.12054712 0.015113999 0.0336671
000110 2a b5 28 bc 92 bd 03 3e af 4f 81 3d 77 08 b5 3c
       -0.010297099 0.12865284 0.063140266 0.022098763
000120 99 52 97 bc ce 7a 7a bd 30 41 1d be 70 c1 fc 3d
       -0.018472003 -0.061152272 -0.15356898 0.12341583
000130 a3 fb 0d 3d cc 63 b2 3d 5b a5 b8 3d b9 9c 25 3c
       0.034663808 0.08710441 0.09015914 0.010108166
000140 c9 0d 27 bc 20 f8 28 3c 9b 45 66 3c 21 a0 2b bd
       -0.010196158 0.010313064 0.014054681 -0.041900758
000150 27 5f 97 bd 64 ba 87 bc d8 2d 2d bd 4b 0c ac bd
       -0.07391196 -0.01656837 -0.042280048 -0.08400782
000160 bd 47 62 bd cb 7b 9d bd 44 63 00 be 7f d7 32 bd
       -0.055244196 -0.07689627 -0.12537867 -0.043662544
000170 5f 76 84 3b 3e 4b 83 3c fd 3a 2e bc 99 35 1f 3d
       0.0040424312 0.01602709 -0.010634181 0.038869474
000180 4a c6 82 bc a2 4a 50 bc a9 53 44 bb d4 15 9c bd
       -0.015963692 -0.012713106 -0.0029957092 -0.07621351
000190 6c 8e fe bc 4c 69 20 bd de d3 3e bb cc fa d3 3c
       -0.031073771 -0.03916292 -0.0029117982 0.025876425
0001a0 ce a2 a8 3c e3 4a da 3d 45 8a 62 3d 58 71 6e bc
       0.020585444 0.10658815 0.055307645 -0.01455339
0001b0 14 c8 32 3c e2 2f 01 bd 6b 77 f4 bd 9b 47 a7 bb
       0.01091196 -0.031539805 -0.1193684 -0.0051049716
0001c0 f9 e1 f9 3c 34 be 85 ba c2 2d e6 3d 6f 0b b3 3c
       0.03050326 -0.001020378 0.11239196 0.021856038
0001d0 80 1b 17 3d 77 40 be 3d e6 fa 81 3d 66 90 83 3b
       0.03689146 0.092896394 0.06346683 0.0040150164
0001e0 fb 39 74 3d b4 96 e3 3c ea 9c 70 3a 49 4d a3 3d
       0.059625607 0.027781822 0.00091786555 0.07973725
0001f0 a2 9b 5d 3d b0 96 a9 3d 4f 41 ef 3d 57 4d b3 bd
       0.0541035 0.082806945 0.116823785 -0.08754986
000200 d8 2b 3c bd 9f b9 c5 3b a0 6d a7 bd fc 32 0d 3d
       -0.04594025 0.0060340906 -0.08175206 0.03447245
000210 c8 55 73 3d df 78 12 3d f7 05 1b 3e f9 b8 7c bc
       0.05940798 0.035759803 0.15138994 -0.01542496
000220 78 8e cb 3c 26 cc 83 3d c8 4b e3 3d c6 2e 81 3d
       0.024848208 0.064354226 0.110984385 0.063077495
000230 b0 15 c5 3d 3b 91 b9 bd 97 f3 5b bd ca 6f 20 bd
       0.09623277 -0.09060904 -0.053699102 -0.03916911
000240 27 4e cf 3d 75 06 81 bb 3f 50 33 3c dd c5 41 bd
       0.10122328 -0.0039375373 0.010944425 -0.047307838
000250 c1 b7 56 3b 16 c5 76 3d b5 20 01 bc 86 14 ac 3d
       0.0032763334 0.06024655 -0.007881333 0.08402352
000260 dc 49 95 bb 80 aa 49 3c d0 d2 ea 3c 2e 8c a1 bb
       -0.004555924 0.012308717 0.028664976 -0.004930041
000270 51 e9 62 3d 82 3d 56 bd cf 67 ce bd 6f 83 a5 3c
       0.05539829 -0.052304752 -0.10078394 0.020204274
000280 20 fa 5f bd 5d 91 17 bd ee b8 bb bc 18 a1 3c bd
       -0.054681897 -0.037003864 -0.02291533 -0.04605207
000290 b3 71 59 bd c7 6c 08 bd 04 41 c0 bc 1d 67 b0 bc
       -0.053086948 -0.033306863 -0.023468502 -0.021533543
0002a0 35 b9 1e bc 21 ee 03 3d 1c cb 0b bd f5 5d 27 bd
       -0.0096877115 0.03220952 -0.034129247 -0.04086109
0002b0 c4 50 9f bd ec 65 3d 3d aa 8e 7f 3d f7 ec e5 3c
       -0.07779077 0.04623978 0.062391914 0.028067095
0002c0 41 8e 38 bc 58 dc 1e 3c 8c 26 35 bc 7d d7 bf bd
       -0.011264385 0.009696089 -0.011056554 -0.09367273
0002d0 4a 58 a6 3a 57 ed a8 3c 84 b0 6c bd 28 87 03 3d
       0.0012691107 0.020620985 -0.057785526 0.032111317
0002e0 30 0c 3b 3d 82 e8 88 3d 2b 44 21 bd c4 fe 44 bd
       0.04566592 0.06684972 -0.03937165 -0.048094526
0002f0 e4 64 8e bc df 66 14 3e 2f af 0e bc 15 9c a3 bd
       -0.017382093 0.14492367 -0.008708759 -0.07988755
000300 19 b1 e2 bc 10 85 1e bc f9 f3 b2 bd b0 e3 13 bd
       -0.027672337 -0.009675279 -0.0873794 -0.03610581
000310 80 ac 30 bd 88 d9 d8 bc 59 82 cd bd 33 d2 ce bb
       -0.04313326 -0.026470914 -0.100346275 -0.006311679
000320 11 3d ea 3c 1f b4 23 bd 78 f2 11 3c 3d 35 fa 3c
       0.028593572 -0.0399667 0.008907907 0.030542964
000330 28 c7 b4 bc 12 bd 3d bd 02 7e 57 3d 55 5a 29 bb
       -0.022067621 -0.04632289 0.052610405 -0.0025841196
000340 e5 d3 14 bd 31 d3 01 bc 16 d4 d1 3c 39 ad 46 3d
       -0.03633489 -0.007923887 0.025613826 0.04850504
000350 27 75 48 3d 30 93 da bd 6e cb f5 3c 9d d8 a2 bc
       0.04893985 -0.10672605 0.03000423 -0.01987868
000360 be 95 41 3c 20 65 57 bd 3a 50 4a 3d 5c 55 f7 3c
       0.0118154865 -0.052586675 0.049392916 0.03019207
000370 df d6 67 3d e1 fd be 3d 5e 49 74 bd 76 e1 2f 3d
       0.0566014 0.09325767 -0.05964028 0.042939626
000380 88 72 b3 3d c9 de 32 be 27 f2 c2 bd 04 fa 58 bd
       0.087620795 -0.17467798 -0.09518843 -0.05297281
000390 8c 09 00 3d e0 42 4e bb 36 25 5c bd bc 80 39 3c
       0.031259105 -0.0031472966 -0.053746425 0.011322197
0003a0 a4 26 31 bd a4 d8 37 3d 1f 4e ce bc 33 c2 a1 bc
       -0.04324974 0.04488434 -0.025183735 -0.019745922
0003b0 8c 48 ca ba 56 66 d7 3b fa 34 3e bd 22 ff bd 3c
       -0.0015432998 0.0065734787 -0.04643724 0.023192946
0003c0 9e c8 92 3c e6 6a b2 3c 51 10 26 bb 95 3e 76 bd
       0.017917927 0.021779489 -0.0025339315 -0.060118277
0003d0 d4 5c 5d bd 4e 6e c3 bc f6 fb 6b bd 93 3e c7 39
       -0.054043606 -0.023856308 -0.057613336 0.0003800286
0003e0 a8 e6 bf 3c f4 e2 89 bd ab 5e 18 3d d3 8c 96 3c
       0.023425415 -0.06732741 0.037199657 0.018377697
0003f0 33 b8 86 bd d6 d4 29 bd 85 3b 96 bd 8e dd 72 bd
       -0.06578102 -0.04146274 -0.07335571 -0.059293322

body.block2.conv.bias f4 [64]
000000 b7 68 0b 3d b2 79 85 b9 7e 91 35 bd 26 1b fa 3c
       0.03403541 -0.00025458407 -0.044328205 0.030530524
000010 50 a6 a8 bc 36 2b 14 3d 49 88 df bc 1e 5d af bc
       -0.020587116 0.03617402 -0.027286666 -0.021406706
000020 5b d6 b4 3c 11 97 77 bc 97 5d 10 3d 3d 15 0d 3d
       0.022074869 -0.015111701 0.035245504 0.034444083
000030 45 30 74 3c c8 40 f6 3c ec 82 ee 3b ab 19 e1 bc
       0.0149040865 0.030060187 0.0072787907 -0.02747806
000040 65 19 35 bd ba df 34 3a 5b 2a f9 bc 7f 13 6a bc
       -0.04421367 0.0006899793 -0.030415704 -0.014286875
000050 96 57 9e bc 0c 95 0b 3d e0 cd 2a 3b 2c 66 4a bd
       -0.019328874 0.03407769 0.0026062652 -0.049413845
000060 13 a2 05 3d b2 76 05 bb db 54 28 3d 7b c4 b5 3c
       0.03262527 -0.0020364937 0.04109655 0.022188416
000070 7c 80 4e 3c 01 77 a0 bc cf 10 22 3d 43 11 98 bc
       0.012603875 -0.019587995 0.03956681 -0.018562919
000080 10 50 2e 3d 0c 1f 9d 3c 97 e8 11 3d 33 5d 5d 3c
       0.042556822 0.019179843 0.035622206 0.01351099
000090 bf 4c b6 bc 2e 8d 64 ba 50 48 a8 3b 2b 75 9d bc
       -0.022253392 -0.0008718547 0.0051355734 -0.01922091
0000a0 ba ca 4c bc 74 94 1f 3b 2e 65 a4 bc a1 5c 46 bc
       -0.012499506 0.002434996 -0.020067777 -0.012107045
0000b0 93 e1 0b 3d 9a 84 1e bd 05 10 bc 3c d1 54 d4 bc
       0.03415067 -0.038700677 0.022956857 -0.02591935
0000c0 20 95 0e bd 44 32 9d 3c 47 7f 2d 3c 45 d4 a8 bc
       -0.034810185 0.019189008 0.010589427 -0.02060903
0000d0 6e 23 07 3d 19 c4 fa bc e7 3c 11 3d 35 a2 77 bc
       0.032992773 -0.030611085 0.03545847 -0.015114357
0000e0 59 5f 08 bd 5e 5e 08 bc fc 01 d4 3c 05 ec 3c bc
       -0.033294056 -0.00832328 0.025879852 -0.011530881
0000f0 53 06 03 bd f4 c2 cf bc dc b5 a4 3c 0a 39 39 bd
       -0.031988453 -0.025361516 0.020106249 -0.045220412

body.block2.norm.weight f4 [64]
000000 8b b9 81 3f fb ef 60 3f 11 0c 7e 3f f6 e9 8a 3f
       1.0134748 0.8786618 0.9923716 1.0852649
000010 86 5b 64 3f 48 ac 82 3f 04 7d 74 3f ce 6d 83 3f
       0.89202154 1.0208826 0.9550326 1.0267885
000020 45 d0 58 3f d7 c8 5f 3f ff 1b 7d 3f 39 66 6f 3f
       0.84692794 0.8741583 0.98870844 0.93515354
000030 c9 74 7b 3f 5e 69 6c 3f d3 07 77 3f 2b e8 8c 3f
       0.98225075 0.9234828 0.96496314 1.1008352
000040 17 24 75 3f 62 3a 5f 3f 80 4f 8c 3f a8 df 52 3f
       0.95758194 0.8719846 1.0961761 0.8237252
000050 55 81 52 3f 90 8f 84 3f ee 28 63 3f fb fa 8a 3f
       0.82228595 1.0356312 0.8873433 1.0857843
000060 c2 18 85 3f be f9 7d 3f a3 cb 5c 3f f9 ff 81 3f
       1.039818 0.992092 0.86248225 1.0156242
000070 df 5b 7b 3f ed 46 7b 3f e1 c1 74 3f 55 09 8b 3f
       0.9818706 0.981551 0.95608336 1.0862223
000080 98 81 72 3f bf 20 83 3f f7 43 84 3f ab 30 68 3f
       0.94728994 1.0244368 1.0333241 0.9069926
000090 0e dd 80 3f 6e 09 7c 3f 6b 1b 71 3f fa ab 87 3f
       1.006746 0.9845189 0.9418246 1.0599358
0000a0 73 ee 84 3f 2f 92 84 3f 25 a8 5b 3f e9 e7 86 3f
       1.0385269 1.0357112 0.85803443 1.0539523
0000b0 3b 02 79 3f 01 e7 68 3f f2 35 71 3f ac 66 82 3f
       0.9726903 0.90977484 0.9422294 1.0187583
0000c0 2f cb 83 3f 30 5f 6f 3f 0c 26 77 3f 30 6a 83 3f
       1.0296382 0.9350462 0.9654243 1.0266781
0000d0 21 8b 92 3f 37 35 8c 3f d8 31 95 3f 88 16 72 3f
       1.1448709 1.095374 1.1655836 0.9456563
0000e0 95 16 6b 3f 22 b9 69 3f ac 96 7b 3f 2a f9 87 3f
       0.9183133 0.91298115 0.9827678 1.0622914
0000f0 ac 85 79 3f d3 44 70 3f 40 ac 7a 3f 23 df 73 3f
       0.9746959 0.9385502 0.9791908 0.95262355

body.block2.norm.bias f4 [64]
000000 4f 0a 8b 3e 1f 04 d2 3e d7 43 74 3e a2 1a c3 3e
       0.27156302 0.4101877 0.23854004 0.38106257
000010 b1 8d e0 3d fd c1 b9 3e e5 53 b0 3e f6 df c8 3d
       0.109645255 0.36280814 0.34439006 0.09808342
000020 9b d7 ad 3e 19 01 04 3f bf 8e 50 3e fd 20 09 bd
       0.33953556 0.51564175 0.20366953 -0.033478726
000030 e1 65 75 3e 58 ce 89 3e 0f 69 9f 3e 0b 92 39 3e
       0.23964645 0.2691524 0.3113484 0.18122117
000040 09 55 1b be 89 8d 5d 3e 86 80 bc bd ce a0 f6 3e
       -0.15169157 0.21636023 -0.092042014 0.4816956
000050 ef 21 8a 3e 85 56 8d 3a 67 c1 b8 3d a7 54 90 3e
       0.26979014 0.0010783231 0.090212636 0.28189585
000060 6b 32 8b 3d 43 d6 05 3e f8 8e 58 3e 26 45 39 be
       0.06796726 0.13070016 0.21148288 -0.18092784
000070 a4 ce 6b 3e 8d 90 02 3e 20 49 ac 3e 5c 4a 81 3e
       0.23028046 0.12750454 0.3364954 0.25252044
000080 20 d9 24 bd 1a 8c 51 3e d9 ad aa 3e a2 41 d6 3e
       -0.04024613 0.20463601 0.3333576 0.4184695
000090 20 ec cb 3d 9e f0 c6 bd cb 04 84 3e 5a 2b 97 3e
       0.09957147 -0.09713863 0.25784907 0.29525262
0000a0 3b f5 72 3e 2d 5e c1 3e 64 74 cc 3e 9a 67 4a 3e
       0.2372636 0.37767163 0.3993255 0.19766083
0000b0 f0 19 43 bd ed c7 00 be 50 c7 6b bd d7 06 8a 3e
       -0.047632158 -0.12576266 -0.057563126 0.26958343
0000c0 58 53 14 3e 38 c1 58 3e cc 27 6e 3e 49 85 3d 3d
       0.14484918 0.21167457 0.23257369 0.04626969
0000d0 42 02 ee 3d d6 b8 85 bd 3a 02 0c 3f 19 e0 81 3e
       0.116215244 -0.06529395 0.546909 0.25366285
0000e0 00 5a 19 3e dd 35 e8 3e 24 47 99 3e 82 e6 ee 3e
       0.14975739 0.45353594 0.29937088 0.46660239
0000f0 78 56 80 bc 97 fa e2 3d 43 01 21 3e bc f1 81 3e
       -0.015666232 0.110829525 0.15723138 0.2537974

body.block2.norm.running_mean f4 [64]
000000 18 a6 cb bf a1 40 28 bf df 03 e8 3c c5 3c 6c 3e
       -1.5910063 -0.65723616 0.028322158 0.23070057
000010 69 c5 3e 3f 66 23 25 bf b5 83 63 c0 78 be f6 bf
       0.74519974 -0.6450714 -3.5549138 -1.9276876
000020 a8 bc ba bf be ac 9b bf 91 b3 af 3e 85 54 b7 3f
       -1.4588823 -1.2162092 0.34316686 1.4322668
000030 8a a6 8d 3e d8 22 25 bf d5 cc 32 be 83 8e f4 bf
       0.27666122 -0.6450629 -0.1746095 -1.9105991
000040 a5 16 61 40 d5 f0 f9 bf be 49 53 be 28 75 f6 3e
       3.517007 -1.9526621 -0.20633599 0.48136258
000050 8a f5 2f c0 1e e6 0b 40 a2 ba 73 3f 71 bf c9 be
       -2.7493615 2.1859202 0.95206654 -0.3940387
000060 93 fc 29 3e 1c 3d 1e c0 c7 e1 7a 3e d1 6e 4a bf
       0.16600256 -2.4724798 0.2450019 -0.7907534
000070 b0 8f 1b c0 74 0e ab bf 17 37 c8 be c0 f5 1d c0
       -2.430645 -1.3363786 -0.3910453 -2.4681244
000080 01 37 bb 3f 65 db 5d 3f af 3d 55 3f cf 27 da bf
       1.4626161 0.86662894 0.83297247 -1.7043399
000090 2e 0c 77 be 18 9f 13 40 d8 87 72 bf 1f 68 e3 3d
       -0.2412574 2.3065853 -0.9473853 0.11103844
0000a0 21 81 29 bf ac 00 f5 3e e0 85 af bf 2c db 21 c0
       -0.6621266 0.47852075 -1.371273 -2.5290022
0000b0 a4 bc 17 c0 72 d6 92 3e c3 3a 69 3f 2f ce d6 bf
       -2.3708887 0.28679234 0.9110529 -1.6781672
0000c0 21 ff bb bf ff f3 4e c0 cd b3 90 bf 54 71 97 be
       -1.4687234 -3.2336423 -1.1304871 -0.2957865
0000d0 fb 18 1d c0 89 81 23 bf 5e 12 af be 3d 31 ad bf
       -2.4546497 -0.6386953 -0.341937 -1.3530651
0000e0 43 3c 11 3f cf 36 fe bf 5e 65 eb bf c2 ba a9 bf
       0.5673258 -1.9860476 -1.839031 -1.3260119
0000f0 56 a5 f4 be fe cb 76 bf cf bc 3a c0 44 69 bb 3d
       -0.4778239 -0.9640502 -2.917774 0.09150937

body.block2.norm.running_var f4 [64]
000000 21 a7 43 3f 7c b3 88 3f 8d 8e 8e 40 5d fc 8a 40
       0.76426893 1.0679774 4.454901 4.343306
000010 03 35 cb 3f 3a 8b 52 40 9c 14 eb 3f ed 8c 0b 40
       1.5875553 3.2897477 1.8365664 2.1804764
000020 b2 fa 8d 3f b5 4c 16 3f 04 c9 bf 3f de 10 a5 3f
       1.1092131 0.58710796 1.498322 1.2895772
000030 f4 66 8d 40 a8 35 05 40 aa 24 d2 3f 67 e0 50 40
       4.4188175 2.0814 1.6417439 3.2636964
000040 cd 04 9c 40 5d 96 c1 3f 83 a6 cb 40 86 94 f4 3f
       4.875586 1.5124012 6.364076 1.9107826
000050 2e a0 97 3f 50 cc a7 40 18 37 c6 3f f2 2f 1f 40
       1.1845758 5.2436905 1.5485563 2.4873013
000060 bb 0a 55 40 98 37 29 40 69 1e 38 40 37 0d b0 40
       3.32878 2.6440182 2.876856 5.501613
000070 49 d9 f3 3f 06 4e df 3f da 29 9b 3f e2 40 92 41
       1.9050685 1.7445686 1.2122147 18.281681
000080 7f 60 fb 3f ef 01 7c 40 aa c8 17 40 f7 1b 99 3f
       1.9638823 3.937618 2.3716226 1.1961659
000090 a0 51 56 40 12 f6 a8 40 6d 27 3e 40 1c ae 3a 40
       3.348732 5.280038 2.9711564 2.9168768
0000a0 82 ef 89 41 6b 79 e3 3f 11 24 66 3f 75 d9 90 40
       17.241947 1.7771429 0.8989878 4.526545
0000b0 ce bd aa 3f 63 66 c0 3f 9f 3f 94 40 35 64 89 3f
       1.3339174 1.5031246 4.6327662 1.0733706
0000c0 4f f5 49 40 d3 31 00 40 aa 3a ae 3f 50 bb bd 3f
       3.1555974 2.003041 1.3611653 1.4822788
0000d0 79 ef 91 40 09 fb 30 40 d5 41 3c 40 bb de b5 3f
       4.5604825 2.765322 2.941518 1.4208597
0000e0 02 14 f0 3f 98 99 51 3f 2c 5c 81 40 5e 03 84 40
       1.8756106 0.8187499 4.0425014 4.125411
0000f0 f6 b4 3b 40 9b a2 d7 40 4a b9 33 40 cd 8b ea 3f
       2.93292 6.7385993 2.8081841 1.8323914
