TrainedModels/0035-sample/scale_factor=0.750000,alpha=10/6/netG.pth (torch, 474454 bytes, 26 tensors)

head.conv.weight f4 [64, 4, 3, 3]
000000 0a aa ce bd 53 74 17 bd 00 02 a6 bd 7f cd 3a 3c
       -0.10091026 -0.03697617 -0.0810585 0.011401533
000010 fa d9 91 3c 76 5a 1c bd 9e 3e d7 bd 2c 98 81 bc
       0.017804135 -0.038172208 -0.1050999 -0.015819632
000020 96 6f f5 bc 27 db 24 3d fc 95 e7 bc 02 23 19 bd
       -0.029960435 0.040248062 -0.02826976 -0.0373869
000030 db 63 a8 3d 61 21 61 3c 32 a3 0c 3d 2f 1b 35 3d
       0.08222171 0.013740868 0.034335323 0.044215377
000040 09 b6 58 3d a2 45 84 3d cd 6b 22 bd 24 9e 21 bd
       0.052907977 0.06458594 -0.039653588 -0.039457455
000050 69 96 c6 bd ed 4e 1f 3d b5 54 99 3b 44 57 97 3c
       -0.09696657 0.03889363 0.0046792873 0.018474229
000060 3f 2e 26 3b 21 fe 1a bc 5e fd 03 3d f6 51 b4 3a
       0.0025357155 -0.009460003 0.03222405 0.0013757336
000070 cd d5 9c bb a7 58 1e 3d 0d 5f 07 bd a8 a9 ad 3c
       -0.004786229 0.038658764 -0.033049632 0.021199062
000080 09 10 f8 3c 27 b2 c9 bc 37 84 82 bc b6 03 ec 3c
       0.030281084 -0.024621082 -0.015932186 0.028810363
000090 d2 ae 41 3a da 0e 32 bd b2 09 62 bd e3 b0 0b 3d
       0.0007388416 -0.043471195 -0.055185027 0.03410424
0000a0 42 77 ea 3c 94 cc c4 bc d9 11 c2 3b 0c 90 41 3c
       0.02862132 -0.024023332 0.0059225378 0.011814129
0000b0 f3 6e 71 bd 13 2d 51 bd ff 7c c2 bd 18 62 72 bd
       -0.0589437 -0.051068377 -0.09496497 -0.05917558
0000c0 96 bf 72 3d 4e f2 66 bb 94 6d b3 bc c5 26 97 3b
       0.05926474 -0.003523964 -0.021902837 0.004612776
0000d0 c2 13 8f 39 8a 4b b4 bc a6 c3 c6 bb 92 cf 4d bd
       0.00027289806 -0.022008676 -0.0060658036 -0.050246783
0000e0 2a c9 5b bd fc 25 be 3d 55 27 57 3d 19 b2 be 3c
       -0.053658642 0.09284589 0.052527744 0.023278283
0000f0 31 c2 85 3d cf 46 8d 3d b3 4c d5 3b bf 74 a0 3a
       0.0653118 0.06898271 0.0065093874 0.0012241824
000100 3a 30 ad bc 3c 38 07 bc 23 6a ba 3c 83 27 1c bc
       -0.02114116 -0.008253153 0.022755688 -0.009530905
000110 f2 00 09 bd e3 c0 db 3c 4b 68 19 3d a3 03 be 3b
       -0.033448167 0.026825374 0.037452977 0.0057987734
000120 1b 68 71 be f1 84 19 be bd 39 18 bd e8 17 76 bc
       -0.2357487 -0.1499212 -0.03716444 -0.015020348
000130 e2 ee 63 3c 06 e8 31 bd c2 54 3c 3c b7 07 bd bb
       0.013911935 -0.043434165 0.011494817 -0.005768742
000140 28 43 23 bd 1f 0f b4 bd df 34 55 3b bb a2 be bc
       -0.039858967 -0.087919466 0.0032532734 -0.023270955
000150 d0 46 df bc 01 33 ca 3b 43 36 d2 bc 22 40 1a bd
       -0.027255446 0.006170631 -0.02566064 -0.037658818
000160 4b ef 99 bc 9d ed b3 bc 0d 23 de bb a9 f0 a7 3c
       -0.018790862 -0.021963889 -0.0067790807 0.020500498
000170 05 03 98 3d 72 04 d7 3b 44 68 12 3c 0f 72 8a 3d
       0.07422451 0.006561809 0.008935992 0.06760036
000180 34 d1 5e 3d 40 ab e2 3c b0 48 36 3d 79 b9 94 bc
       0.05439873 0.027669549 0.044502914 -0.018154847
000190 d1 97 50 3c 91 74 95 3c 36 1d 08 bd 7d 04 f2 bb
       0.012731508 0.01824406 -0.033230983 -0.007385789
0001a0 8d 1c 8d 3c a2 80 df 3c f5 4c b3 3c 23 bb 36 bc
       0.017225528 0.027283017 0.021887282 -0.011153015
0001b0 15 48 44 bc 80 e3 11 bc 00 76 d4 3c d2 b8 cb 3c
       -0.011980076 -0.008904338 0.025935173 0.024868403
0001c0 8c dc d5 3c 6d 1d 23 bd ee 49 94 3c 91 ca 7d 3d
       0.026106142 -0.039822984 0.018101659 0.06196076
0001d0 ef f2 c9 bc 82 63 1d 3d 74 20 f3 3b bf 59 90 b9
       -0.024651973 0.038424976 0.00741964 -0.00027532686
0001e0 8a f3 19 3a a2 e2 08 3d 62 40 ef bc 0a c2 90 bb
       0.0005872777 0.03341926 -0.029205505 -0.0044176625
0001f0 71 c3 c9 bc 7d c2 30 bd 79 fe c0 3d 59 83 9b 3c
       -0.024629327 -0.04315423 0.09423537 0.01898353
000200 a1 e8 47 3b 89 59 04 3d 26 5b 88 3c fe ce 45 bd
       0.0030503648 0.03231195 0.016645025 -0.048293106
000210 77 f3 61 3c d5 70 05 bd 82 a1 0b be bc 64 2d bc
       0.013790957 -0.032578308 -0.13635829 -0.010583099
000220 be fe 6c 3b d3 81 1a 3d db 37 82 bc 1d 6e bd 3c
       0.003616258 0.037721466 -0.015895775 0.023123795
000230 17 92 34 3d 31 b9 84 38 81 73 37 bd b0 36 b2 bc
       0.044084635 6.328745e-05 -0.044787887 -0.021754593
000240 a3 75 ed 3c db da f6 3b 2c cd 91 3c 56 29 5f 3d
       0.028986758 0.007533414 0.017798029 0.05448278
000250 72 c3 96 3b 82 6b 5f 3d a4 70 2a bc 0c de 8a 3c
       0.0046009356 0.054545887 -0.010402832 0.016951583
000260 59 e7 0c 3d e7 fd 6f 3d 92 fd 54 3d 58 14 44 3d
       0.034400318 0.05859175 0.051999636 0.047870964
000270 b2 89 ed 3d 78 e7 70 3d 3e 38 87 3d 58 89 61 3d
       0.11598529 0.058814496 0.06602524 0.05506262
000280 50 f9 a2 3d d2 51 de 3d 0d a3 1e bc 2f cb 1d 3d
       0.07957709 0.1085545 -0.009682429 0.03852385
000290 a8 ea 3a 3d 09 0e f1 3c ad 96 45 bc 9f 55 67 bc
       0.045633942 0.029425638 -0.01205985 -0.014119535
0002a0 b7 19 8d 3b 84 a4 f3 bc 97 f0 18 3c a1 a6 e5 bc
       0.004306044 -0.029741533 0.009334705 -0.028033556
0002b0 d8 6a 4d bd 3c 9f b2 bc ba 20 e9 3c a6 c7 12 3b
       -0.050150722 -0.021804444 0.028457988 0.0022396832
0002c0 aa c0 8c 3c e5 e4 1a bd ee 1f 9a bc f5 e2 c6 3b
       0.017181713 -0.037815947 -0.018814053 0.006069536
0002d0 4b b7 80 3c 8c 0b 10 3c 9e a3 6d 3c 43 b9 b3 bc
       0.0157124 0.0087918155 0.014504341 -0.021938926
0002e0 66 b1 0b bd 87 c6 74 3c a5 ad 62 bd fd 0b 2a bd
       -0.034104727 0.014939911 -0.05534138 -0.04151534
0002f0 7e 15 c3 3c c5 04 69 3d 63 1b 77 3d 4a 04 10 3d
       0.02381396 0.056889314 0.060328852 0.03516034
000300 c4 69 6a bb 3d ee 1d bd f2 81 0f 3d 3a 01 2f bd
       -0.0035768608 -0.03855728 0.035036035 -0.04272578
000310 ff e9 27 bd 7c f3 14 bd a1 50 a7 3d 90 af 8c 3d
       -0.04099464 -0.036365017 0.081696756 0.068694234
000320 68 04 58 3d 98 dc 52 bd d3 1b 5a 3c ae 6f 47 3c
       0.052738577 -0.051479906 0.013312298 0.012172623
000330 da b0 25 bd 5f 9d 0a bd 2d 14 58 bc 9e 0c 65 3c
       -0.040451862 -0.033841487 -0.013188404 0.013980059
000340 e1 97 85 bc 9a 6d aa bc 15 76 07 bd e9 70 e4 bb
       -0.016307773 -0.020804215 -0.033071596 -0.0069714678
000350 92 4c 2f 3d 96 46 de bb aa 76 a7 3c 25 dc b0 3c
       0.042797633 -0.006783317 0.020442326 0.021589348
000360 8c 73 3d 3d e8 69 f6 3c 46 1e 4f 3d af 5b ac 3c
       0.046252772 0.030079797 0.05056598 0.021039812
000370 da d3 3d 3d e2 64 9f 3d 4f e0 34 3d 7c f1 82 3d
       0.046344616 0.07782914 0.04415923 0.06393716
000380 5f cb 83 3d 61 37 14 3d 48 e7 db 3c 0f 61 92 bb
       0.06435274 0.036185626 0.026843682 -0.0044671367
000390 0d a8 28 bb ed b9 60 bd 94 b7 62 bc 4c b3 50 3b
       -0.0025734932 -0.054864813 -0.013837714 0.003184515
0003a0 90 05 1d bc 7f 46 63 3c d7 3b dc 3c 30 b1 0c bd
       -0.009583846 0.013871788 0.026884003 -0.034348667
0003b0 33 aa a5 bb e6 b6 15 bd e8 6c bc bb 27 5e 9b bc
       -0.0050556897 -0.03655138 -0.0057502873 -0.018965794
0003c0 23 6c 9e 3b b8 0c da bc 10 dc 82 bc 15 e3 80 3b
       0.0048346682 -0.026617393 -0.015974075 0.0039333203
0003d0 5d a7 39 3b ba c8 c0 3b 93 73 aa 3c 3d f3 70 3c
       0.0028328516 0.0058833035 0.020807063 0.01470643
0003e0 3f fe 0b bd 75 f1 a6 3b 6f 6d 3a 3c be bb 52 bd
       -0.034178015 0.005094702 0.01137863 -0.051448576
0003f0 45 8b 47 3d 2e 51 e7 3d 40 a3 6a 3c 81 87 0f 3d
       0.048716802 0.11294781 0.014321148 0.035041336

head.conv.bias f4 [64]
000000 62 94 6a bd de 6e 16 3d 3f 93 1f bd 07 38 70 bd
       -0.057270415 0.036726825 -0.038958784 -0.05864718
000010 e9 bb 7b 3b 41 bf c5 3d f1 3a a9 3d 18 42 17 3e
       0.0038411564 0.096556194 0.08263195 0.14771307
000020 92 76 9b bc 75 c1 e8 bd 2d d8 cc bd 27 01 da bd
       -0.018977437 -0.11365024 -0.1000217 -0.10644751
000030 41 2a 1d 3e a0 3f 70 3c 3c e1 10 be f7 bd ff bd
       0.1534815 0.014663607 -0.1414842 -0.12487405
000040 0a 26 04 3e 86 07 f2 bd 00 e3 d4 bd 10 fd 26 3e
       0.12905136 -0.11817841 -0.10394859 0.16307473
000050 5c 9a ea bc 86 cd 21 be 7c 49 2c 3e 86 9f ea 3d
       -0.028638057 -0.15801057 0.16824907 0.11456208
000060 2f ab b5 bd 88 c9 a5 bc 27 aa d5 3d 43 d8 06 3e
       -0.08870541 -0.0202377 0.104328446 0.13168435
000070 cb 15 c8 bd 26 8b cd 3d 98 4f b7 3b 5e b1 be bd
       -0.09769782 0.10036306 0.005594205 -0.09311174
000080 bf 1a d3 3d 5c 2a a0 3d 2e 99 5d bd 49 bf 5d bd
       0.10307836 0.078205794 -0.05410116 -0.054137502
000090 30 f2 7b 3d 26 5a a6 bd e8 d3 c9 3d f6 13 d3 3d
       0.061510265 -0.08122663 0.09854871 0.103065416
0000a0 cf f1 c1 3d 03 09 91 3c 5a 2c 82 3d 5e 5e 3b bd
       0.094699495 0.017704492 0.06356116 -0.045744292
0000b0 5b b7 c4 3d 8c 20 ac bd 72 01 a6 3c 74 86 e4 bd
       0.09605285 -0.08404645 0.020264361 -0.111584574
0000c0 05 27 a7 3d 29 fc db bd aa d0 bc bc 1e 60 05 3e
       0.08161739 -0.10741455 -0.023048718 0.13024947
0000d0 22 76 0b 3e 81 b8 0f 3e 5e 3f 84 3d 5e 42 34 3e
       0.13619283 0.14035226 0.06457399 0.17603442
0000e0 d8 1f 78 3d 9e a3 87 3d 91 65 07 3e b9 a6 24 3d
       0.060577244 0.066230044 0.13222338 0.04019806
0000f0 35 69 b2 bd 09 52 11 bd 69 f0 43 bd e5 6f 25 bd
       -0.08711473 -0.035478625 -0.047836695 -0.040389914

head.norm.weight f4 [64]
000000 c6 9a 7b 3f db 5c 8a 3f 24 af 7f 3f c8 23 89 3f
       0.9828304 1.0809587 0.9987662 1.0714045
000010 27 72 82 3f fe db 7b 3f 1b 31 79 3f bb 7b 7a 3f
       1.0191087 0.98382556 0.97340554 0.9784505
000020 2c bc 80 3f 63 20 83 3f 90 d7 61 3f dc c7 88 3f
       1.0057425 1.0244259 0.8821955 1.0685992
000030 ff 2f 7c 3f 39 f7 6e 3f 87 38 83 3f c0 bb 7f 3f
       0.98510736 0.9334598 1.0251626 0.9989586
000040 40 6c 77 3f 1c 5b 6d 3f a1 39 7b 3f 5b cb 81 3f
       0.9664955 0.92717147 0.9813481 1.0140184
000050 92 26 5c 3f 27 77 7d 3f 1a 32 82 3f a8 65 8d 3f
       0.85996354 0.9900994 1.017154 1.1046648
000060 77 98 8e 3f 98 0f 82 3f e0 6e 74 3f 18 86 80 3f
       1.1140279 1.0161009 0.9548168 1.0040922
000070 b1 a1 79 3f 02 a9 88 3f 26 81 7b 3f 85 43 8e 3f
       0.97512347 1.0676577 0.9824394 1.1114355
000080 7e 78 68 3f 5b 55 98 3f e0 3a 60 3f ad 6f 75 3f
       0.90808856 1.1901048 0.87589836 0.9587353
000090 c1 e2 74 3f 34 16 8a 3f 9e 46 8a 3f a7 97 57 3f
       0.956585 1.0788026 1.0802801 0.8421578
0000a0 7d 8d 7e 3f 0f a9 5b 3f 54 45 7e 3f 73 1f 8d 3f
       0.99434644 0.8580484 0.99324536 1.1025223
0000b0 fd 52 6a 3f 53 9f 6c 3f c8 d5 5c 3f 31 06 82 3f
       0.9153288 0.9243061 0.86263704 1.015814
0000c0 26 fc 74 3f b8 87 6d 3f 8a 69 7d 3f 43 24 71 3f
       0.9569725 0.92785215 0.98989165 0.94195956
0000d0 b0 b3 86 3f f2 98 6d 3f f4 af 70 3f 7d 82 97 3f
       1.0523586 0.928115 0.94018483 1.1836697
0000e0 5e f1 73 3f 77 42 67 3f 10 61 8d 3f 1e 4d 84 3f
       0.9529017 0.9033579 1.1045246 1.0336034
0000f0 72 62 69 3f b9 5e 7a 3f a6 eb 8d 3f 68 ea 81 3f
       0.9116584 0.97800785 1.1087539 1.014966

head.norm.bias f4 [64]
000000 91 c9 09 be 63 ed ba bd 29 96 28 bc 3f 4f 3b be
       -0.13455798 -0.09127309 -0.010289707 -0.18291949
000010 35 c4 22 bd a1 c1 ed bc ba 48 c5 bd c3 ab e6 bc
       -0.0397379 -0.029022994 -0.09633012 -0.028158074
000020 04 32 04 be 3a e6 0d be 75 50 1f be 73 d4 0b be
       -0.12909704 -0.13857356 -0.15558036 -0.13655262
000030 f4 59 8e be 9c af 2d be d4 e1 c9 3d 30 7c 42 be
       -0.27803004 -0.16961521 0.098575264 -0.18992686
000040 df 7d fb bd eb 20 7f bd b2 97 26 be cb c2 47 be
       -0.122798674 -0.062287252 -0.16268805 -0.19507901
000050 d6 53 26 be 03 46 bd bd af dd 03 be 51 f6 42 3d
       -0.16242918 -0.09241869 -0.12877534 0.047598187
000060 3f 86 de bd e0 23 1f be 93 6b 4e be f9 ad 8e bd
       -0.10865449 -0.15541029 -0.20158224 -0.069667764
000070 63 33 1e be cf e7 b8 bc 6c 32 1c be 82 78 d6 bc
       -0.1544929 -0.022571472 -0.1525361 -0.02618051
000080 40 44 fb bd ee 7d 13 3d fe 51 2e be 19 bb f1 bd
       -0.12268877 0.036008768 -0.17023465 -0.11803264
000090 37 97 8f be b5 5f 71 bd 82 82 2f be 56 58 6a be
       -0.28045055 -0.058929164 -0.17139629 -0.2288526
0000a0 ce 2f 8f bd 87 38 3f be 95 b6 8e bd ce 56 b7 bd
       -0.0699154 -0.18673907 -0.069684185 -0.089521036
0000b0 0e 08 09 be 9f 70 4f be c4 f9 04 be e5 bf 06 be
       -0.13381979 -0.20257805 -0.12985903 -0.1315914
0000c0 64 13 13 be 1f 83 3c be 0b e0 79 be 48 84 f4 bd
       -0.14362866 -0.18409394 -0.24401872 -0.11939293
0000d0 eb a5 9a bd 0e 28 cd bd a1 f4 0d be 64 1b 07 bd
       -0.075511776 -0.100174055 -0.1386285 -0.032985106
0000e0 eb 74 22 be a9 91 de bd db dd 2b 3e 6e 66 9a bd
       -0.15864913 -0.10867626 0.1678385 -0.07539068
0000f0 e3 81 05 be 58 d3 17 be d5 6d 1f be fc 59 e6 bd
       -0.13037829 -0.14826715 -0.15569241 -0.11247632

head.norm.running_mean f4 [64]
000000 11 4c 08 3d 39 c7 eb 3d 39 d6 6c 3e de a5 a2 bd
       0.033275668 0.11512608 0.23128594 -0.07941793
000010 08 e4 b1 be 4d 9b d1 3d 2b b4 d8 bd e9 50 b7 3c
       -0.34744287 0.102346994 -0.10581239 0.022377448
000020 d2 fb c6 bd 9b 04 8a be 61 92 99 be 9d 28 c4 bd
       -0.09716 -0.2695664 -0.2999449 -0.09578059
000030 b1 77 0c be b5 7e 79 bc d4 e3 8e bd f0 3a 9f be
       -0.13717534 -0.015227963 -0.069770485 -0.31099653
000040 14 70 05 3e 8b 53 1c be 4f 52 a7 bb 12 bb d3 3e
       0.13031036 -0.15266244 -0.0051062475 0.4135366
000050 b2 e7 72 be 70 a4 1d be 07 84 28 3e 25 97 5e 3e
       -0.23721197 -0.15394759 0.16456614 0.21737345
000060 f4 aa 5f bd 63 bf 51 be d2 d9 f4 39 fb 75 63 be
       -0.054606393 -0.20483164 0.00046701595 -0.22212975
000070 37 86 b9 bd 8f a3 31 3e ec 52 d2 3b db 3c e0 bc
       -0.090588026 0.17347549 0.0064185765 -0.027372768
000080 98 0e e0 3b 4a e2 2b 3e ad 93 90 be 10 24 3d be
       0.006837677 0.16785541 -0.28237668 -0.18470788
000090 99 bf 4e be 5d c6 ab bd 81 62 a5 3d cb 33 d1 3d
       -0.20190276 -0.08387444 0.08075429 0.10214957
0000a0 23 fa 9c 3b 71 7a 3e 3b fc db 84 3d 32 bd 2a bd
       0.004790561 0.002906468 0.06487271 -0.041684337
0000b0 a0 8a ed 3d 95 8e 38 be e0 52 99 be db 6a 2f 3e
       0.11598706 -0.1802314 -0.2994604 0.17130606
0000c0 90 fa d8 3c f6 53 0f be 0e 22 9c bd a6 db f1 bc
       0.026486665 -0.13996872 -0.07623683 -0.029523682
0000d0 b5 0c 0e 3e af f3 f8 3d 79 a2 7a 3d af 94 89 3e
       0.13872035 0.12155854 0.061190102 0.2687125
0000e0 b9 78 d9 bd 8b a4 ad 3c db fb 28 3e 1c 06 15 ba
       -0.10618729 0.021196624 0.16502325 -0.00056848093
0000f0 58 5b 85 3e 42 b9 94 be 43 70 29 be ba b4 13 bd
       0.26046252 -0.2904759 -0.1654673 -0.036061026

head.norm.running_var f4 [64]
000000 ae 04 67 3b 44 9e 6c 3b 2f 00 70 3c a4 ab 01 3b
       0.0035250592 0.0036105076 0.014648481 0.0019786144
000010 95 b0 80 3d 7b 92 0e 3b 7d 34 ff 3b 50 89 e3 3b
       0.0628368 0.002175479 0.0077882395 0.006943859
000020 09 24 9e 3b 70 47 71 3b 3c de a5 3d 15 d3 6b 3b
       0.004826073 0.0036816262 0.080990285 0.003598397
000030 33 57 00 3d 26 c4 70 3a 9a ea e1 3a 99 f6 01 3d
       0.03133316 0.0009184502 0.0017236054 0.031729314
000040 19 04 93 3b ab 9d 94 3a 77 08 0e 3b db e5 0e 3e
       0.0044865725 0.0011338493 0.0021672526 0.1395487
000050 e2 53 18 3d 59 e4 e3 3c 24 66 54 3c 1c 2e 07 3b
       0.037189372 0.027818846 0.012963805 0.0020626849
000060 42 5e 85 3a b4 fc 0a 3c 92 ad 73 3b 6b c7 36 3d
       0.0010175186 0.008483101 0.0037182313 0.044623774
000070 b8 86 25 3b 45 72 8c 3a 3d b1 51 3b 2c 3d 24 3b
       0.00252573 0.0010715207 0.0031996511 0.0025060875
000080 fa 3b 15 3e 49 f6 28 3b c8 50 a4 3d ab 96 02 3d
       0.1457366 0.0025781563 0.0802322 0.03188197
000090 b0 7d c0 3c ee b4 de 3b 76 00 6e 3a 08 e4 22 3b
       0.023497432 0.006796471 0.0009079048 0.0024855155
0000a0 14 e8 db 3b 32 df 65 3b cd c4 c1 3a 9c 0e 94 3a
       0.0067110155 0.0035075662 0.0014783383 0.0011295858
0000b0 57 f0 03 3d 10 6c d3 3b c0 80 9c 3d e6 a3 14 3e
       0.032211628 0.006452091 0.076417446 0.14515647
0000c0 e5 68 e5 3a eb c8 25 3b 54 7a bd 3a 71 4a 29 3d
       0.0017502574 0.0025296758 0.0014456012 0.04133076
0000d0 db a5 20 3a f2 8d 4a 3d f1 da a2 3b aa 8e 13 3b
       0.000612823 0.049451776 0.0049699475 0.0022515454
0000e0 0b 66 35 3c b5 06 cc 3d 24 25 41 3a 9d 16 2a 3b
       0.011071692 0.09962217 0.00073679 0.002595342
0000f0 fa af d0 3d b9 18 43 3d b8 8b 14 3b 39 5d 6d 3a
       0.10189815 0.047631 0.0022666287 0.0009054724

body.block1.conv.weight f4 [64, 64, 3, 3]
000000 aa d5 7e 3c d6 0c 95 3c 77 46 3d 3c 94 60 74 3c
       0.015553871 0.018194597 0.011552445 0.014915604
000010 44 ed 5d 3a e3 1e 39 3c 47 95 7c bd f4 d5 55 bc
       0.0008465836 0.011298868 -0.0616658 -0.013051499
000020 c6 4e ad bc d6 c4 97 bc 23 7b b9 bc 63 db 49 bd
       -0.021155726 -0.018526476 -0.022641724 -0.04928149
000030 b3 4f c6 bc f3 ab c6 bc 79 c9 61 bc b6 81 97 bb
       -0.024207925 -0.024251914 -0.013780945 -0.004623617
000040 16 0d f8 3c 1b 1f e4 3b df 3d 29 3c d3 39 23 bc
       0.030279677 0.006961716 0.010329693 -0.009962517
000050 6e 38 93 bc dc 02 6a 3c f6 68 1d bd 69 61 14 3d
       -0.017971244 0.014282908 -0.038430177 0.03622571
000060 f2 c1 6c 3c 49 13 c1 3c fc af ba 3c 9c 4e 1a 3d
       0.014450537 0.023568766 0.022788994 0.037672624
000070 84 9b 34 bc 11 0f d0 3c da 26 a5 bc a9 40 25 bc
       -0.011023406 0.02539781 -0.020160127 -0.010086217
000080 e7 7a a5 bc d2 24 40 bd da c7 86 bc fa 33 22 bc
       -0.020200206 -0.046910115 -0.016452719 -0.0099000875
000090 27 1b b5 bc d8 b6 b2 3c 10 e0 49 3d 18 32 25 3c
       -0.022107674 0.021815702 0.04928595 0.010082744
0000a0 51 89 02 3d 95 b8 3b 3c 36 e5 68 3c cf 55 0a 3c
       0.031869236 0.011457582 0.014214804 0.00844331
0000b0 73 e6 13 3c a0 10 0a bd f0 d5 50 bd f0 7f b4 3c
       0.009027111 -0.03370726 -0.050985277 0.022033662
0000c0 29 ec 65 bd d2 25 3c bc 5c 6f 40 3d d6 46 2b bd
       -0.056133423 -0.011483626 0.0469812 -0.0418156
0000d0 23 d3 23 bc af fd 22 b9 23 3c 26 bd 9a d7 77 3c
       -0.009999069 -0.00015544028 -0.040584695 0.015127087
0000e0 b3 c6 89 3c 02 c2 91 3c cc 28 b9 3b d7 4d ac 3c
       0.01681838 0.017792705 0.0056506153 0.02103321
0000f0 16 2e 1b 3d 14 be d8 3c ea bb 21 3d c2 af 00 3d
       0.037885748 0.026457824 0.03948585 0.031417616
000100 c0 2f 2d bd c3 c8 b5 bc ed 36 75 3d 44 b0 08 3d
       -0.042281866 -0.022190457 0.059866834 0.033371225
000110 2c 15 0c bd 15 b5 14 3d 01 d1 03 3d e6 4c 5d 3d
       -0.03419988 0.036305506 0.032181744 0.054028414
000120 0d 10 40 3c 83 54 01 3d 7d 79 ee bc 91 33 2d 3c
       0.011722577 0.031574737 -0.029110665 0.010571376
000130 01 2c b3 3c ef bd d3 bc ae 55 98 3b c1 15 b6 3c
       0.021871569 -0.025847403 0.0046488857 0.02222717
000140 4d 32 15 bd 7a e5 60 3d db fd db 3b 43 52 a1 3c
       -0.036424924 0.054906346 0.0067136115 0.019692546
000150 d9 76 7b 3d 58 28 b1 3b b6 fc a7 3c 03 59 a0 3c
       0.06139264 0.0054064207 0.020506244 0.019573694
000160 09 02 0e bc 37 59 ca bc 13 81 15 bd f1 dc f3 bc
       -0.008667477 -0.024700744 -0.036500048 -0.029768439
000170 35 b2 0a bd 94 5c 35 bc 65 0b 2e 3a 6a db f8 bc
       -0.033861358 -0.011069436 0.0006639271 -0.030378062
000180 3c 4a 41 bb b0 6e aa 3c ff be 7e bc 3c d6 fb 3b
       -0.002949371 0.020804733 -0.015548467 0.007685451
000190 13 26 74 3c ee 03 e6 bc a9 29 4c bc ab e2 2c 3d
       0.014901656 -0.028078046 -0.012461104 0.042208355
0001a0 b4 c6 90 bb 96 49 ea 3b db 3e e7 3c ce 42 10 3d
       -0.0044182185 0.0071498854 0.028228214 0.03521996
0001b0 f3 7c 15 3c 03 e4 91 3d 9f 23 69 bb 81 d7 85 3d
       0.0091240285 0.07123568 -0.003557421 0.06535245
0001c0 4d 85 56 3d 82 5d 01 3d 65 16 54 3d 7e 2b c5 3d
       0.05237322 0.031583317 0.05177917 0.09627436
0001d0 ac ba 03 bc d9 75 ae bb ac 49 39 bd 03 37 35 3c
       -0.0080401115 -0.005324107 -0.045236275 0.011060479
0001e0 06 8d 0e 3d 8e a4 91 bc f3 08 89 3d e6 d4 4e 3a
       0.03480246 -0.017778661 0.0669116 0.00078900007
0001f0 5f c2 1b bd c8 57 25 3d bd be e1 bc 1a 64 58 3c
       -0.038027164 0.040366918 -0.027556771 0.01320746
000200 0e a2 53 bc a9 09 20 3d 5e 0c 15 3c 11 c7 13 bc
       -0.012917055 0.039071713 0.009097187 -0.009019629
000210 73 6e 19 bd c1 54 58 3c 79 ac 33 3d 91 79 b6 3c
       -0.03745885 0.013203801 0.043865655 0.022274764
000220 f1 88 05 3c 4b 5d 0b 3d f9 e3 6b 3d 3a 45 84 bc
       0.008150325 0.034024518 0.05759046 -0.016146291
000230 5d db 32 3d df ef ed 3b 2e e6 37 bb 3f 18 a5 3a
       0.043666232 0.007261261 -0.0028060782 0.0012595727
000240 31 d2 1b bd ff a2 e8 bc c8 e6 92 bc a5 ca 5f bc
       -0.03804225 -0.028398035 -0.01793231 -0.013659154
000250 9f 25 a2 3b fe f2 d4 3c ac 50 2e bd fc 10 2a bc
       0.0049483324 0.025994774 -0.042557403 -0.010380026
000260 85 a6 09 bc fe 82 35 3d e8 0b 1c bd 09 72 49 bd
       -0.008401518 0.044314377 -0.038097292 -0.049181018
000270 24 22 07 3d ad 07 18 3c a4 7b 43 bd 73 e1 cb 3c
       0.032991543 0.009279174 -0.047725335 0.024887776
000280 25 bf 5a 3d ff ef 10 bc 1f 1d 88 3c 32 d9 32 3d
       0.053404946 -0.008846282 0.016615449 0.043664165
000290 e8 40 c8 3c 39 f2 c2 bc 91 1b dd 3c 23 73 1d 3d
       0.024445012 -0.023797141 0.026990684 0.03843988
0002a0 46 87 f9 bc 3b 22 5d bc 8b 65 f0 3c 6b d6 3c 3c
       -0.030460011 -0.013496931 0.029345294 0.011525731
0002b0 b2 96 34 3b 35 c2 e0 ba fc 20 a7 3c 81 66 23 3d
       0.0027555642 -0.0017147722 0.02040147 0.039892677
0002c0 6a b6 ce 3c 27 7c e0 3b 21 a7 3e bb 1c 32 6f 3c
       0.025233466 0.0068507376 -0.0029091316 0.014599349
0002d0 dd 84 a9 3a b0 52 12 3c 0e 31 36 bd f9 b7 4e bb
       0.0012933273 0.008930847 -0.044480376 -0.0031542762
0002e0 0c 43 01 bc 62 52 98 3c 38 78 9d bc e6 2c 49 b9
       -0.00788952 0.01859397 -0.019222364 -0.0001918558
0002f0 b1 a0 af 3c 57 0c a2 bc 5f ce 08 bd cb b9 aa 3c
       0.021438928 -0.019781275 -0.033399936 0.020840546
000300 7f 39 fc bc f2 ec 0f bc 53 72 e0 3c 43 9a 90 bc
       -0.030789135 -0.0087845195 0.027398264 -0.017651683
000310 1f bb bd bb 67 d5 07 bc 69 a3 e4 3c 86 28 63 bc
       -0.005790129 -0.008290625 0.027909951 -0.013864642
000320 b4 f5 62 bc b8 75 07 bd 46 e1 4b bd 3c a7 91 bd
       -0.0138525255 -0.03307125 -0.049775384 -0.071119756
000330 a2 b6 90 3b 08 a1 26 bd ec ca e2 bc 57 f4 7b bd
       0.004416303 -0.040680915 -0.027684651 -0.061512318
000340 79 f9 df bc ac 81 81 3d d7 46 c3 bd fd 46 1f bd
       -0.027340638 0.06323561 -0.09534996 -0.03888606
000350 91 e5 5d 3d 66 80 c2 bc ec d9 16 bc 66 df ea 3b
       0.05417401 -0.023742866 -0.00920723 0.0071677445
000360 23 08 67 bd 14 d0 66 bb 1f b6 62 3d 15 aa df bb
       -0.056404244 -0.003521924 0.055349465 -0.0068256953
000370 dc 4f 1f 3c 60 26 0b bb d3 9d e4 3c 79 2e 09 3d
       0.00972363 -0.002123259 0.027907288 0.033491585
000380 11 65 db bc 53 84 08 3d e0 e9 9c 3c 8d 54 10 bd
       -0.02678159 0.03332932 0.019154489 -0.035236884
000390 15 68 1c 3d 1d 8b 70 3d 88 57 09 bd e4 40 77 3d
       0.038185198 0.05872642 -0.033530742 0.06036462
0003a0 fc c9 9c bb 34 d1 56 bc f0 29 0f 3d 3c 05 d3 3c
       -0.0047848206 -0.013111401 0.034952104 0.025759332
0003b0 1a ba da bc 64 62 f8 ba 5e 21 d0 3c 7d 5b 83 bd
       -0.026700068 -0.0018950221 0.025406536 -0.064139344
0003c0 b0 60 cb 3c be 12 e3 3c 8f 25 f1 3c d5 4c a2 bb
       0.024826378 0.027718898 0.029436855 -0.0049530067
0003d0 c5 c8 48 3c 83 1e 15 3d 38 6f 85 3d 21 66 d7 3c
       0.012254898 0.03640605 0.06515354 0.026293816
0003e0 36 c5 46 3d 09 e0 2e 3d 86 09 4b 3d bf 3c d4 bb
       0.04852792 0.042694125 0.04956963 -0.006476968
0003f0 69 49 10 3c 60 10 4c bd d1 01 ab bc ce a8 ba bb
       0.008806565 -0.049820304 -0.02087489 -0.0056963926

body.block1.conv.bias f4 [64]
000000 05 bc 6c 3c 0d c9 c5 3c 92 e4 25 3b cc 7e ff bc
       0.014449124 0.02414372 0.002531324 -0.031188391
000010 06 0c f2 3c 5f 53 e1 bc a7 a4 da 3c 78 1e 17 bd
       0.029546749 -0.027505575 0.02668984 -0.03689429
000020 27 03 af 3c d3 9e 74 bc f2 6a 07 3d 09 97 45 bb
       0.021363808 -0.014930445 0.033060975 -0.0030149838
000030 76 2c 21 bc d9 fb d1 bc 79 ac 67 3c 89 de d8 3c
       -0.0098372605 -0.025632786 0.014140242 0.0264733
000040 8f 32 ec bc de 6c a5 3c 42 44 11 3d c6 ac 74 bc
       -0.028832702 0.020193513 0.035465486 -0.0149337705
000050 8d ff 8a bc b4 ab 0a 3d 46 e4 05 3b 36 f1 1f 3d
       -0.01696756 0.033855155 0.002043025 0.039048396
000060 7e 3d dd 3c 08 ca dd 3c 12 3f 29 3d 85 2b 1d 3c
       0.02700686 0.027073875 0.041319914 0.009592895
000070 ed 04 ad 3c 31 48 56 bc 63 a0 0e bd 07 0e 39 bc
       0.021120513 -0.013078735 -0.034820925 -0.011294848
000080 e9 8d d6 3c 32 b1 d5 bb 78 33 3b bb ce f9 a1 bc
       0.026190715 -0.0065213675 -0.0028564613 -0.019772436
000090 b5 21 4f bc 6d 2a 3c bb d6 40 11 bd 17 a4 f7 bb
       -0.012642314 -0.0028711811 -0.035462223 -0.007557403
0000a0 fc 27 f6 3c 75 65 ed 3c 33 8e e3 bc 9d 86 a7 3c
       0.030048363 0.028979043 -0.027777767 0.02044993
0000b0 00 b5 a8 3c dd 55 02 3d 49 ff 18 bd 58 2a 97 bb
       0.02059412 0.031820167 -0.037352834 -0.004613202
0000c0 8b 37 aa ba fe 80 1a 3c ec 91 fb bc 62 8f d3 bc
       -0.0012986524 0.009430168 -0.03070923 -0.025825206
0000d0 a1 15 d3 3c c3 c8 d9 3c a7 e2 2d 3b 12 db ae 3b
       0.02576715 0.026584988 0.00265328 0.005336174
0000e0 4b c7 23 bd 60 66 a5 bc 9d 56 17 3c ae 07 03 3d
       -0.039984982 -0.020190418 0.009236959 0.031989746
0000f0 65 77 0d 3d ea 20 cd bc 11 6b cb 3c 19 65 82 ba
       0.03453769 -0.025040109 0.024831327 -0.0009948342

body.block1.norm.weight f4 [64]
000000 8e fe 76 3f 05 7d 82 3f f9 1b 82 3f 54 b4 84 3f
       0.9648217 1.0194403 1.0164787 1.0367532
000010 79 39 80 3f d2 c0 78 3f 0d 7f 7b 3f a5 85 6f 3f
       1.0017539 0.9716922 0.9824074 0.935633
000020 3f 7f 78 3f d8 29 6e 3f 02 72 72 3f d6 e9 7b 3f
       0.9706916 0.930326 0.9470521 0.9840368
000030 e9 37 6f 3f 60 92 86 3f 95 9b 7a 3f b2 dd 7b 3f
       0.9344469 1.051342 0.9789365 0.98385155
000040 1f c6 80 3f e1 34 84 3f 03 b7 7d 3f c7 8d 7e 3f
       1.0060462 1.0328637 0.9910738 0.99435085
000050 11 63 81 3f 00 19 85 3f ba 8f 81 3f 4f 9c 81 3f
       1.0108358 1.0398254 1.0121987 1.0125827
000060 d5 a4 72 3f 5a ec 6a 3f ff c6 76 3f b0 23 70 3f
       0.94782764 0.91766894 0.96397394 0.93804455
000070 9b b3 83 3f 4a e8 83 3f 5a 29 71 3f 97 ad 81 3f
       1.0289186 1.0305264 0.9420372 1.01311
000080 74 9d 81 3f bd 73 6a 3f dc 22 78 3f d0 77 8c 3f
       1.0126176 0.9158285 0.9692819 1.0974064
000090 60 44 70 3f 53 1d 77 3f 54 35 8c 3f c3 44 71 3f
       0.9385433 0.9652912 1.0953774 0.9424555
0000a0 74 0f 84 3f e3 bd 83 3f e3 a0 82 3f 86 72 83 3f
       1.0317216 1.0292324 1.0205349 1.0269325
0000b0 8b ef 7d 3f 02 1b 83 3f 99 e6 7d 3f 9c 4d 78 3f
       0.9919364 1.0242617 0.9917999 0.9699342
0000c0 8e 46 82 3f 7a bb 77 3f be e0 6c 3f d3 d3 82 3f
       1.0177782 0.9677044 0.9253043 1.0220894
0000d0 9c eb 7e 3f fb fd 69 3f ee fa 7d 3f 5a 3c 82 3f
       0.9957826 0.9140317 0.99211013 1.0174668
0000e0 31 d7 77 3f 47 7a 76 3f ca 1a 82 3f 64 0a 77 3f
       0.9681273 0.9628033 1.0164425 0.9650023
0000f0 85 5b 83 3f d2 d2 6a 3f 76 7b 79 3f 2b 60 7d 3f
       1.0262305 0.91727936 0.9745401 0.98974866

body.block1.norm.bias f4 [64]
000000 6c a5 88 be c0 db 42 be 70 be 55 bd 1f 7c 29 bd
       -0.26688707 -0.1902914 -0.05218357 -0.041378137
000010 12 b5 9d bd 21 4e 38 be d6 05 35 be 5a 6f 2b be
       -0.07700552 -0.17998554 -0.17678007 -0.16741696
000020 4b dd 94 be c4 f9 59 be 79 20 4f be 22 a9 58 be
       -0.29075083 -0.21286684 -0.20227231 -0.21158269
000030 83 21 0b be 36 bb 4a be ad eb 61 be 56 f6 83 be
       -0.13587002 -0.19797978 -0.2206256 -0.25773877
000040 e9 d5 14 be 6d 4f 4f be 2b bf 46 be 7f 6a 41 be
       -0.14534725 -0.20245142 -0.19408862 -0.18888281
000050 b1 42 02 be d9 c5 e1 bd 47 72 0f be 46 19 21 be
       -0.12720753 -0.110240646 -0.14008437 -0.15732297
000060 65 26 22 be 83 38 13 be 51 a7 a9 bd ac d0 d6 bd
       -0.15834959 -0.14377026 -0.08283866 -0.1048902
000070 5e ad 1a be 56 db 44 be 89 4a 0d be 3c 44 59 be
       -0.15105197 -0.19224295 -0.13797964 -0.21217436
000080 fa 99 81 be 54 b2 40 be 41 25 23 be 2b 1b 0d be
       -0.25312787 -0.18818027 -0.1593218 -0.13779895
000090 c7 25 23 be 36 26 21 be e8 5f 2d be f9 48 13 be
       -0.1593238 -0.15737233 -0.16931117 -0.14383306
0000a0 e7 0e 0a be e5 57 d9 bd 12 0a b6 bd 40 2e 67 be
       -0.13482247 -0.10612468 -0.088886395 -0.22576237
0000b0 0a 5b 07 be cc e9 be bd f6 cf 82 be bb 1b 6a bd
       -0.13218322 -0.09321937 -0.25549287 -0.057155352
0000c0 45 af 4c be 7f ff e4 bd 2b be 2f be 0d e3 34 be
       -0.19988735 -0.111815445 -0.17162387 -0.17664738
0000d0 02 7c c8 bd 84 88 51 be 7d a6 31 be 67 42 85 be
       -0.097892776 -0.20462233 -0.17348666 -0.26027223
0000e0 ab f3 74 bd b3 7f 43 be 5c a0 eb bd 2c 57 96 be
       -0.059802692 -0.19091682 -0.115051955 -0.29363382
0000f0 9d e5 78 be a6 85 2e be 57 da 21 be 0d 83 24 be
       -0.2430634 -0.1704317 -0.15805946 -0.16065617

body.block1.norm.running_mean f4 [64]
000000 59 2e 8f be 04 67 40 bf 7a 8b 63 bf 5f f5 76 bf
       -0.27965048 -0.7515719 -0.888847 -0.96468157
000010 48 f3 10 3e 2b 25 08 bf 44 aa 11 bd 66 47 e0 be
       0.14155304 -0.53181714 -0.03556277 -0.43804473
000020 7d 98 95 3f e7 f3 ae 3e fe 81 92 3d 96 2c f4 3e
       1.1687161 0.34170458 0.071537 0.47690266
000030 1f 91 0b bf ec a6 93 be 7a cc 11 3f 47 a0 a6 be
       -0.5451831 -0.2883829 0.5695263 -0.32544157
000040 4e 41 c6 be 2d 5c b1 be 70 56 1b 3f de 04 0f 3f
       -0.387217 -0.34640637 0.6067877 0.558668
000050 99 87 a3 bf 95 70 42 bf d5 b1 13 3e 1d f3 8f 3e
       -1.2775756 -0.75953037 0.14423306 0.28115168
000060 13 d5 07 be 2d f2 35 bf 3f fb 3b 3d 8e 7c 8b be
       -0.13264875 -0.71072656 0.045893904 -0.27243465
000070 43 6b 16 be bd 63 71 bf 24 17 3a bf 73 da dc be
       -0.14689355 -0.94292814 -0.7269156 -0.43135414
000080 da d0 09 3f 28 2a 09 bf 41 b1 18 bf 85 b7 2b bf
       0.5383431 -0.5357995 -0.5964547 -0.67076904
000090 0a 85 23 3d 4f 3b a5 3e 5f 8a 7f bf 85 a9 bb be
       0.039921798 0.3227181 -0.9982051 -0.3665277
0000a0 4d f4 1f bf d5 1d 34 3f 39 7b a1 be a2 bb 5b 3f
       -0.6248215 0.7035802 -0.31539324 0.8583318
0000b0 18 44 38 bf 0e 63 7c bf d6 1b b7 3d 89 06 8d bf
       -0.719789 -0.98588645 0.08940856 -1.1017619
0000c0 2f 9c cf be 8c 8d 7e bf 11 88 d4 3e 46 e7 96 bf
       -0.40548846 -0.99434733 0.4151006 -1.1789329
0000d0 9e 32 b6 3e 56 02 46 3f fa d7 33 3f 88 ba 29 3f
       0.35585493 0.77347314 0.7025143 0.6630025
0000e0 01 60 d3 bf 31 87 68 3f 14 29 47 3e 57 b6 26 3f
       -1.6513673 0.90831286 0.19449264 0.6512198
0000f0 1f f9 11 bf 8e 59 32 3c 06 b7 04 be 75 39 1f bf
       -0.57020754 0.010885609 -0.12960443 -0.6219705

body.block1.norm.running_var f4 [64]
000000 e6 d7 45 3f 36 61 9e 3e 78 4f 10 3f ec 9c 36 3e
       0.7728256 0.3093354 0.5637126 0.17833298
000010 dc 24 8f 3f 24 1e 83 3f ec 39 e4 3e 0c c2 f5 3e
       1.1183124 1.0243573 0.4457544 0.4799961
000020 e3 48 52 40 dd ff 3e 3f 9f a6 be 3e b6 4b 52 40
       3.2856987 0.74609166 0.37236497 3.285871
000030 d7 23 34 3f 61 6e 4b 3f db 7d e2 3f 6a d2 c6 3e
       0.7036719 0.794653 1.7694658 0.38832408
000040 c6 b3 5c 3f 83 5a 3b 40 7a 8a 57 3f 76 c9 35 3f
       0.8621181 2.9273994 0.84195673 0.7101053
000050 d9 87 f8 3f 07 ac 30 3f 65 43 53 3f 44 bd 04 3f
       1.9416457 0.6901249 0.8252471 0.51851296
000060 c6 d6 3e 3f a2 a5 2a 3f 9b cd 25 3f a1 91 58 3f
       0.7454647 0.66658986 0.64766854 0.8459721
000070 e2 1b 11 3f 5a a3 c2 3f a5 c1 e4 3f 81 d0 5c 3f
       0.5668317 1.5206101 1.7871596 0.8625565
000080 85 bf a6 3e 83 52 31 3f 4e 36 22 3f 9d 10 8b 3e
       0.32567993 0.6926653 0.6336411 0.27161112
000090 f7 53 d4 3f 17 12 6e 3f 9a 48 9a 3f 4b 16 e6 3e
       1.6588124 0.9299635 1.2053406 0.44938883
0000a0 a7 97 d2 3f 12 90 59 3f 4f a8 c0 3e 11 8a 81 3f
       1.6452531 0.8498546 0.3762841 1.012026
0000b0 c0 cc 44 3e f5 8b 9b 3f af 48 7c 3e 97 64 06 40
       0.19218731 1.2152086 0.24637102 2.0998895
0000c0 4b 3b 4d 3f a1 c6 9b 3f b2 07 b4 3f c9 22 02 3f
       0.801686 1.2169992 1.4064848 0.5083433
0000d0 48 ee 91 3f bf 18 50 3f 02 0c fd 3f 70 d1 75 3f
       1.1400843 0.8128776 1.976929 0.960227
0000e0 a9 f2 a8 3f 2f 8a fe 3f 70 cc df 3e 66 2b 5b 40
       1.3199054 1.988592 0.4371066 3.4245238
0000f0 03 83 53 3f 7c 09 24 3f 74 f6 b9 3e 72 8c a6 3e
       0.82621783 0.6407697 0.3632084 0.32529026

body.block2.conv.weight f4 [64, 64, 3, 3]
000000 ad 0c 5d bc 89 75 5f bc 3c d6 2d 3c 08 a5 05 3d
       -0.013491792 -0.013638862 0.0106101595 0.03262809
000010 bc 52 ce bc 97 1c de 3a 8b 64 65 bb e2 8c 6c bd
       -0.025185935 0.0016945776 -0.0035002555 -0.057751544
000020 5e 6c 37 3c 4a ad 91 3b 6e a9 6e 3c 9d 77 2a 3b
       0.01119527 0.0044457065 0.014566762 0.0026011236
000030 95 60 e3 bc 36 a2 aa 3b c0 80 9d bc 42 44 00 3c
       -0.027756015 0.0052073253 -0.019226432 0.007828774
000040 7a af 37 bb 50 ba 52 bc 40 a9 00 3d 6c 37 0d 3c
       -0.0028028176 -0.012861803 0.03141141 0.008619171
000050 d1 18 7d bc 79 4b 84 3d 2a c3 4f 3c 0c 63 47 3b
       -0.015447811 0.06459708 0.012680808 0.0030424027
000060 15 02 fc bb c2 62 1a bd 6f c5 e5 bc b4 1d aa bd
       -0.007690678 -0.03769184 -0.028048245 -0.08306447
000070 5e 7c f1 bb 2b 2c 6a 3d 13 06 47 3b b0 fd 4e 3d
       -0.007369562 0.057171028 0.003036861 0.050534904
000080 78 27 38 3d fd 79 6d 3c bb 01 12 ba 94 24 64 ba
       0.044959515 0.014494416 -0.0005569716 -0.00087029603
000090 43 af 15 bc 41 fd 0b 3d 6d 09 e9 bc 05 6f ee bc
       -0.009136024 0.03417707 -0.028446877 -0.029105673
0000a0 4d 38 76 3c c7 4c 8a bc 88 b1 19 3d f7 f0 91 bc
       0.015028072 -0.016882313 0.037522823 -0.017815096
0000b0 20 f0 18 bb 15 f7 3a bc 7c b6 ac bc 32 30 18 bd
       -0.0023336485 -0.011411448 -0.02108311 -0.037155338
0000c0 64 fa f4 3c be 0c a6 bc 7a 93 ae 3b 99 94 ac ba
       0.029904552 -0.020269748 0.005327639 -0.0013166844
0000d0 24 f0 a1 bc 04 8e 3c bd 44 8c be 3d b4 d1 82 3d
       -0.019767828 -0.046033874 0.09304097 0.06387654
0000e0 f4 96 58 3d c8 b9 91 bc 6b 73 ba 3b 83 98 9f bb
       0.052878335 -0.017788783 0.0056900284 -0.0048704757
0000f0 e2 95 5e bd d0 5f bd bc 71 22 3b bd 6a 57 00 bd
       -0.05434216 -0.023116976 -0.045687143 -0.031333365
000100 15 63 8a 3c df 29 28 3b 87 39 c2 b8 78 48 71 bb
       0.01689295 0.0025659723 -9.261356e-05 -0.0036816876
000110 4f fa 5c bc c1 e8 29 bc 79 15 d7 bc 5b f7 82 bd
       -0.013487413 -0.010370434 -0.026255356 -0.063948356
000120 b5 10 8f 3c 1c 52 e5 3c e0 d8 96 3d 1b b2 2a 3c
       0.017464021 0.027993254 0.073655844 0.01041844
000130 1d 8e 49 3d f6 cf 94 3d e0 50 87 3c 56 83 f7 3b
       0.049207795 0.07266228 0.016518056 0.0075534983
000140 bd 28 75 3d 4e 71 e2 3c cf b6 16 3d 42 9e 36 bb
       0.059853304 0.027641919 0.036795434 -0.0027865325
000150 f0 9d bc 3c 23 70 a2 bb 38 f2 1b 3d e0 4c 50 3b
       0.02302453 -0.0049572154 0.038072795 0.0031784102
000160 21 8c 84 3c bb ec c9 3c cd 24 1f bc 01 8c d7 bc
       0.0161801 0.024649015 -0.009713364 -0.026311876
000170 e2 d5 b6 3d 39 40 2a bb 9f 44 64 3a a2 e8 3e 3d
       0.08927514 -0.002597822 0.0008707735 0.046608575
000180 3b a9 75 bb c5 ee 4e 3c 35 6f 95 3a a0 00 f8 3c
       -0.0037484902 0.012630169 0.001140094 0.030273736
000190 3c a1 33 bd cc 97 1f bc 31 38 17 bd e5 fd 6d 3c
       -0.043854937 -0.009740781 -0.036918823 0.014525865
0001a0 10 21 f8 3c 86 5a 32 3c fb a2 f5 bb 46 52 c1 3c
       0.030289203 0.01088584 -0.0074962354 0.023598801
0001b0 fc 4d b2 bc 30 68 98 bd e6 46 90 bd 82 43 8f 3b
       -0.021765701 -0.07441747 -0.07044773 0.004372061
0001c0 4d 3a b7 ba ed 81 91 bc c8 bd 6e bc d0 ef 39 bd
       -0.0013979167 -0.017762149 -0.014571615 -0.04539472
0001d0 ba 23 42 bc 8b e1 1b 3d 86 6c 77 bb 0a 5e bc bd
       -0.011849338 0.03805689 -0.0037753894 -0.09197624
0001e0 16 04 f5 bb c9 04 1b bd 3e d8 62 bd a8 aa 4d 3d
       -0.0074772937 -0.03784636 -0.055382006 0.05021158
0001f0 69 5b e7 bb 9c 63 4e bc 75 06 0e bc fc 0b 1e bd
       -0.0070604575 -0.012596991 -0.008668532 -0.038585648
000200 66 fc 5c bc a2 46 45 3c a5 c6 e1 bc 91 e1 2e 3c
       -0.013487911 0.012040766 -0.027560541 0.010673896
000210 23 ce 64 bd 26 58 a4 bc 9a f3 f1 3c db a3 9e bb
       -0.05586065 -0.020061564 0.029535104 -0.0048413104
000220 74 f9 22 bc af de bf 3c 4e 2a 59 3c bf 66 e0 bc
       -0.00994717 0.023421613 0.013254715 -0.027392743
000230 17 1f f4 3c 77 f6 09 bd 4d a5 df bc b1 63 54 3c
       0.029799981 -0.033682313 -0.027300501 0.012963221
000240 e2 b8 7e 3d 2b 67 4e 3b 5e 58 1f bc ae b0 07 3d
       0.062188037 0.0031494598 -0.009725658 0.03312748
000250 70 56 bc 3c 29 4b 0a 3c ce b9 4c 3d 60 a8 e1 3c
       0.022990435 0.008440771 0.049981885 0.027546108
000260 61 a1 4c 3c 35 d2 4b 3c a0 9e 76 bc c7 31 23 bd
       0.012489648 0.012440254 -0.015052468 -0.039842393
000270 5e 85 65 bc e6 41 d4 b9 80 d4 a6 bd e5 0f d9 3c
       -0.014008848 -0.0004048489 -0.08146 0.026496837
000280 12 e2 c6 3c 33 ec 13 bd 00 7e 09 bd ad fd 2e bc
       0.02427772 -0.03611393 -0.03356743 -0.010680598
000290 5f 77 b5 bc cd 3c f6 3c d2 05 66 3c 90 ff 4e bc
       -0.022151647 0.030058289 0.014039474 -0.012634173
0002a0 2d 27 ea 3c 67 07 c4 3c c5 2c 92 3d eb 1b ef bc
       0.028583134 0.023929311 0.07137445 -0.029188117
0002b0 42 67 d5 bc 75 91 02 bd 7d 9c 47 3d 9a d3 98 bc
       -0.026050214 -0.031877 0.048733223 -0.018655587
0002c0 11 6f ee 3c 10 5e 2e 3d a8 94 b8 3c ba ea 10 3d
       0.029105695 0.042570174 0.022531822 0.035380103
0002d0 14 c9 b8 3c 42 96 84 bb 48 dc f3 3c 10 3e 62 bb
       0.022556819 -0.0040462324 0.029768124 -0.0034521855
0002e0 7a 8c 0d 3d 98 02 d0 3c 9c 31 4e bc 29 5d 99 3c
       0.034557797 0.025391862 -0.01258507 0.01872118
0002f0 85 20 db 3c ba 04 3d bd 27 9f 39 3b b7 07 44 3c
       0.026748905 -0.046147086 0.0028323622 0.01196473
000300 87 b0 9a bd 17 1d 2f bd 1b 76 c6 3c f7 22 00 3d
       -0.07553201 -0.04275235 0.024226239 0.031283345
000310 d9 4d 8d bc 15 3f b5 bb 20 e2 3b 3d df b8 86 3d
       -0.017249035 -0.0055312016 0.045869946 0.0657823
000320 65 0d 4e 3d a7 10 da 3c ff 0f 3a 3d b1 ee bb 3a
       0.050305743 0.026619269 0.04542541 0.0014338103
000330 ca 17 45 3d 70 83 84 3c 07 9e 3e 3c 00 17 30 3d
       0.04811839 0.016175956 0.011634356 0.042990685
000340 d4 2d 3b 3d 1f 23 4c bc 79 75 04 3d c1 d5 0c 3d
       0.045698002 -0.012459545 0.032338593 0.03438354
000350 39 a7 91 3c a8 b9 15 bd ed 84 a7 3c 4b 02 ad 3c
       0.017779933 -0.03655401 0.020449126 0.021119257
000360 9b fa 02 3d 1f 83 7d bc b5 21 8a bd dc 0b 0a bd
       0.031977277 -0.015473156 -0.0674471 -0.033702716
000370 ea 40 c2 bd 7f 8a 9c 3a ea d8 5d 3d 1f 3b fe 3c
       -0.094850376 0.001194313 0.054161943 0.03103405
000380 3f 93 c1 3c 77 fd 2a 3d fe 65 ca bc 05 b2 ea bc
       0.023629783 0.04174563 -0.024706837 -0.02864934
000390 dc 22 8c bc 1f 9b 16 bc fb c7 fe bc 64 2a d8 bc
       -0.017106466 -0.009192257 -0.031101217 -0.0263874
0003a0 47 81 1d bd 38 ba 07 bd c3 c4 76 3c 1f 67 13 3d
       -0.038453367 -0.033136576 0.01506156 0.035987016
0003b0 3e b6 e8 3b 9a db 65 bd d6 81 e6 bb f8 b9 52 bd
       0.007101803 -0.05611763 -0.0070345206 -0.051446885
0003c0 ce 2f 28 bd 1f bb 4c 3b 70 87 07 bd f0 0a ba 3d
       -0.041061215 0.0031239463 -0.033088148 0.090841174
0003d0 84 e0 2d bd 04 c1 97 3b 40 83 24 3d b0 88 9e 3c
       -0.042450443 0.0046311636 0.040164232 0.019352287
0003e0 5f 4f 91 bc 7b 3a 07 bd 12 c2 b7 bc 1a b6 8b bc
       -0.017738042 -0.033014756 -0.022431407 -0.017054606
0003f0 93 6b 40 3c 06 f1 14 bc f5 83 1e bd fd 6a 62 3b
       0.011744398 -0.009090668 -0.038700063 0.0034548633

body.block2.conv.bias f4 [64]
000000 59 11 c5 bc 07 43 1a 3d 94 6d ac bc bd 07 a0 bc
       -0.024056124 0.03766158 -0.021048345 -0.01953494
000010 f9 6e db bc d0 6c fb 3c 54 4c 34 3c c9 89 01 bd
       -0.026786314 0.030691534 0.011004526 -0.031625543
000020 a9 e7 63 3c 27 21 fe 3a 04 73 f1 bc 0e f3 22 3c
       0.013910213 0.0019388542 -0.029473789 0.009945644
000030 f0 fa 12 bd a3 e3 88 bc 31 99 96 3c 2c a4 ec bc
       -0.035883844 -0.016710108 0.018383594 -0.028886877
000040 3b 67 51 bc 57 a6 e1 3c 7c 92 1a 3d b1 4f 22 3d
       -0.01278096 0.027545137 0.037737355 0.03962678
000050 65 56 1e bd 70 eb 16 3d 50 8f 24 bd a1 8d 1e bd
       -0.03865661 0.036845624 -0.040175736 -0.038709287
000060 3f 64 08 3d ff 7d 6d 3c aa bc cc bb 95 03 cc bc
       0.033298727 0.014495372 -0.0062480764 -0.024904052
000070 cc 56 06 3d f3 51 e6 bc 81 e3 11 3d a5 b5 2a bd
       0.03279762 -0.028115248 0.035617355 -0.041677136
000080 80 66 d9 3c a4 4f b3 3b 86 d7 14 3a e4 07 d8 3c
       0.026538134 0.0054721404 0.00056778674 0.02637095
000090 34 3d 01 3c e7 77 b1 3c 4b 69 c0 bc b4 25 06 bd
       0.007888127 0.02166362 -0.023487708 -0.0327508
0000a0 24 58 13 3d 4e 38 29 3d bb a3 ae bc 0c c0 bc 3c
       0.03597273 0.041313462 -0.021318307 0.023040794
0000b0 4a 07 50 bc 16 76 5c 3c 02 6d ca 3c 66 c3 29 3d
       -0.01269705 0.013455888 0.024710182 0.041446112
0000c0 a7 89 ae 3b a4 61 28 bc 9b 4b 12 bb 9c 2d a8 3b
       0.005326468 -0.010277186 -0.0022322896 0.00513239
0000d0 48 a8 73 3c b8 be a6 bc 65 52 0a bd b9 b2 6d 3b
       0.014871664 -0.020354614 -0.033769984 0.0036269857
0000e0 67 27 20 3d c4 10 86 bc 62 07 ef bb 80 d2 cb 3c
       0.039100077 -0.016365416 -0.0072945813 0.024880648
0000f0 c7 4c a8 3b f4 6b d9 bc fe 28 61 39 ac 05 2e 3c
       0.0051361057 -0.026540734 0.00021472943 0.0106214695

body.block2.norm.weight f4 [64]
000000 8f f6 73 3f 85 8b 79 3f 78 7a 6f 3f f6 98 83 3f
       0.95298094 0.97478515 0.9354625 1.0281055
000010 bd 67 7e 3f 9c 19 81 3f 4e 20 7c 3f e2 49 71 3f
       0.9937704 1.008594 0.98486793 0.9425336
000020 95 e9 77 3f 40 e3 7b 3f 77 cb 80 3f a2 a3 70 3f
       0.9684079 0.9839363 1.0062093 0.93999684
000030 31 a1 76 3f c7 a6 84 3f fa 3e 81 3f a5 e7 70 3f
       0.9633971 1.0363396 1.0097344 0.9410346
000040 21 2e 7a 3f a6 cd 7f 3f 35 ce 85 3f 69 79 7d 3f
       0.9772664 0.9992317 1.0453554 0.9901338
000050 11 d3 75 3f 87 ba 86 3f 0e 3f 82 3f 0c 82 7f 3f
       0.96025187 1.0525674 1.0175493 0.9980781
000060 87 00 7e 3f 73 e3 7c 3f 80 33 86 3f bb a6 7b 3f
       0.99219555 0.9878456 1.0484467 0.98301286
000070 50 9e 84 3f 92 01 7e 3f db e7 86 3f a5 4a 77 3f
       1.0360813 0.99221146 1.0539507 0.96598274
000080 09 c0 78 3f 03 a5 74 3f 2f bf 71 3f 95 32 7f 3f
       0.9716802 0.9556429 0.9443235 0.9968656
000090 80 f9 7d 3f 23 0c 85 3f fa 0b 7d 3f 59 36 83 3f
       0.9920883 1.0394329 0.988464 1.025096
0000a0 08 4a 7f 3f c3 4b 74 3f ea dd 7b 3f 49 23 76 3f
       0.9972234 0.95428103 0.9838549 0.9614759
0000b0 a9 ba 71 3f bd cf 82 3f 0b b5 88 3f 6e 3a 82 3f
       0.94425446 1.0219647 1.068025 1.0174081
0000c0 df 61 73 3f eb 97 81 3f 4e c8 78 3f 9b 91 75 3f
       0.95071214 1.0124487 0.9718064 0.959253
0000d0 4e e9 80 3f df fb 70 3f 66 2e 84 3f cb a5 79 3f
       1.0071199 0.94134325 1.032666 0.97518605
0000e0 5a 3d 7a 3f f1 3d 80 3f 55 e8 83 3f 53 c1 7e 3f
       0.97749865 1.0018903 1.0305277 0.9951374
0000f0 05 5c 85 3f bc fa 70 3f c6 a1 75 3f 08 1b 77 3f
       1.0418707 0.9413259 0.9594997 0.9652562

body.block2.norm.bias f4 [64]
000000 17 36 11 be f9 ca ef bd 28 7c 4e be 07 5e 45 be
       -0.1418079 -0.11708636 -0.2016455 -0.1927415
000010 f7 45 a8 bd 17 65 9d bd 17 6d c8 bd a7 e4 ff bd
       -0.0821647 -0.07685297 -0.09786432 -0.12494784
000020 ff 18 c7 bd 17 51 1b be f6 ea 21 be 24 8b 0c be
       -0.097215645 -0.15167652 -0.15812287 -0.13724953
000030 92 90 1e be 04 85 1c be 51 81 28 be a9 7c 83 be
       -0.15484837 -0.15285116 -0.1645558 -0.25681046
000040 69 5d f4 bd a0 58 d7 bd 32 18 d4 bd 72 7e d8 bd
       -0.11931879 -0.10514951 -0.103561774 -0.105709925
000050 f8 f7 28 be 40 97 65 bd f9 9b f5 bd 8a 39 2d be
       -0.16500843 -0.056052446 -0.1199264 -0.1691648
000060 86 90 0e be 9b 04 ae bd 05 11 48 be be 3f 08 be
       -0.13922319 -0.08496972 -0.19537742 -0.13305566
000070 b0 e8 d3 bd 8a 27 0a be 04 fd 86 be 4f 57 e8 bd
       -0.10347116 -0.13491645 -0.2636491 -0.11344778
000080 03 c9 10 be 2c 91 35 be a7 e6 ac bd b0 22 ca bd
       -0.1413918 -0.1773116 -0.08442431 -0.09869897
000090 86 dc 9b bd 38 f3 37 be 2c a2 22 be 02 31 ec bd
       -0.07610421 -0.17963874 -0.15882176 -0.11532785
0000a0 57 b4 bc bd 08 1a a3 bd e7 40 16 be 99 48 e8 bd
       -0.092140846 -0.079639494 -0.14673196 -0.11341972
0000b0 0e af cb bd 04 41 1f be 2f 01 16 be d9 26 63 be
       -0.099454984 -0.15552145 -0.14648889 -0.22182788
0000c0 b9 35 5a be de 10 b0 bd 97 7c 7d bd 2c c3 df bd
       -0.21309556 -0.08596967 -0.061886396 -0.10925898
0000d0 11 db fc bd 39 2c a5 bd ee 48 b3 bd 87 15 1b bd
       -0.12346471 -0.080650754 -0.087541446 -0.037862327
0000e0 64 14 8e bd a4 c6 1b be d9 49 63 be c2 3a 02 be
       -0.06937483 -0.15212494 -0.2219614 -0.12717727
0000f0 01 d1 01 be 86 13 31 be d4 83 07 be 7a 5e e1 bd
       -0.12677385 -0.17292604 -0.13233882 -0.11004348

body.block2.norm.running_mean f4 [64]
000000 f0 46 af bd 52 0e 39 be be b2 93 be ea 01 22 bc
       -0.08558452 -0.18071869 -0.28847307 -0.009888152
000010 3b 38 bc be ad a7 5a 3e dd f8 25 be 95 e8 73 3e
       -0.3676165 0.21353026 -0.16208215 0.23819192
000020 33 3f 91 be 97 f8 95 bd 72 8a 31 3e 38 13 7a be
       -0.2836853 -0.073228054 0.17337969 -0.24421394
000030 35 31 f6 bd de 40 69 be 87 11 27 3e c0 54 d6 3d
       -0.12021104 -0.22778651 0.1631528 0.104653835
000040 07 1c 1e bd dc c4 53 3e 78 ea 45 3d fd ea c7 3d
       -0.038600948 0.20680565 0.04831931 0.09761617
000050 f2 48 92 bd 06 1f bc be 35 0f d5 3d ac 9e 62 be
       -0.071428195 -0.3674242 0.10403291 -0.22130841
000060 ad b4 50 be 78 7f a9 bd 73 e9 c4 bd 2e 47 02 be
       -0.20381422 -0.08276266 -0.096148394 -0.12722465
000070 6d 87 15 be ba 7d 33 3e 52 6b 86 bc 48 d3 e3 be
       -0.14602442 0.1752843 -0.016408596 -0.44497132
000080 bb b9 9c 3d 2c 49 58 3d 1d 4f 9e be d0 20 dc bd
       0.07652613 0.052804157 -0.30919734 -0.10748446
000090 0f 5e eb bd 96 53 7d bd 1d 08 30 bd fc ac a4 be
       -0.1149255 -0.061847292 -0.042976487 -0.32163227
0000a0 dd 84 c1 3e ce 96 4e 3d 1c 3e 04 3e 0d 43 e6 be
       0.3779668 0.050436787 0.12914318 -0.4497303
0000b0 9f 0f 94 be d3 4d 79 3e 60 a7 b9 bd e1 ec b1 be
       -0.28918168 0.24346094 -0.090651274 -0.34751037
0000c0 90 13 e0 3c b8 6b 50 be c2 ba 5d be 2d 67 d5 3e
       0.027353078 -0.20353591 -0.21653274 0.4168028
0000d0 c6 0e 09 3e 3c f9 8d be 15 7d e0 bd ea 68 cf bd
       0.13384542 -0.27729213 -0.109613575 -0.10127433
0000e0 4c be 9f be 1f e9 a0 3e f2 ed 1c be 08 fe da bc
       -0.31199872 0.31427857 -0.15325144 -0.02673246
0000f0 b5 aa 60 3e 62 e6 00 be 27 d8 ee 3d f5 0f 75 bc
       0.2194012 -0.12587884 0.116623215 -0.014957418

body.block2.norm.running_var f4 [64]
000000 0a c5 05 3f ff 17 bc 3e 52 2f 3d 3f 7a f2 fc 3e
       0.5225378 0.36737058 0.7390033 0.49403745
000010 05 61 8d 3f 37 f5 14 3f 06 00 23 3f ab 4e 76 3f
       1.1045233 0.5818667 0.6367191 0.9621379
000020 ef a9 49 3e 2e 8f 02 3f f9 93 36 40 be b0 30 3f
       0.19693731 0.50999725 2.8527815 0.6901969
000030 3a 7f c0 3e 4d 34 64 3f cb 46 58 3f 7b 62 14 3f
       0.37597066 0.89142305 0.8448302 0.5796277
000040 61 b4 c8 3f 22 09 44 3f ff d9 83 3e 05 c6 a5 3f
       1.5680047 0.76576436 0.25752255 1.2951056
000050 0b 74 2c 3e e2 bd f0 3e fa f2 55 3f 1d 07 a6 3f
       0.16841142 0.4701987 0.8357388 1.2970921
000060 c4 6d 42 3f af 87 ab 3f 91 bb 5c 3f 70 2a 26 3f
       0.7594874 1.3400782 0.86223704 0.64908504
000070 fb bb 07 3f 38 91 83 3f 82 cd ec 3e 1e 62 04 3f
       0.5302121 1.0278692 0.4625054 0.51712215
000080 79 9f 93 3e 04 00 c0 3e 81 34 63 3f a7 3b 94 3f
       0.28832605 0.37500012 0.8875199 1.1580704
000090 5e 5f 73 3f 8c e6 ae 3f 1b 94 0c 3f 3e 3a 14 3f
       0.95067394 1.3664107 0.5491349 0.5790137
0000a0 3f 21 dd 3f d2 46 80 3f b1 a2 2d 3f 18 2c 6b 3f
       1.7275771 1.0021613 0.6782637 0.91864157
0000b0 b7 e0 59 3f 65 00 93 3f 96 6a 0f 3f c9 28 47 3f
       0.8510851 1.1484495 0.5602201 0.7779661
0000c0 99 b7 4b 3f 3d dc 65 3f 12 af 6c 3f 10 c3 71 3f
       0.7957702 0.8978918 0.92454636 0.94438267
0000d0 08 01 9f 3f 83 b1 94 3f ed ae 84 3f 22 f7 f3 3e
       1.242219 1.1616672 1.0365883 0.47649485
0000e0 37 20 d9 3e 87 8b 88 3f 59 39 09 3f 82 87 8e 3f
       0.4240739 1.066758 0.5360313 1.1135104
0000f0 46 93 36 3f 48 8b 1d 3e f6 34 c0 3f 53 19 99 3f
       0.7131847 0.15385163 1.5016162 1.1960853
