TrainedModels/0035-sample/scale_factor=0.750000,alpha=10/0/netD.pth (torch, 127382 bytes, 25 tensors)

head.conv.weight f4 [32, 4, 3, 3]
0	0xbb4a5ffc	-0.0030879965
1	0x3b40572d	0.0029348836
2	0x3ca0defc	0.019637577
3	0x3d2602b2	0.040529914
4	0x3b65e1ee	0.0035077292
5	0x3c9dda23	0.019269055
6	0xbcf71906	-0.0301633
7	0xbb07e04c	-0.0020733057
8	0x3c748aec	0.0149257
9	0x3c858a89	0.01630141
10	0x3ce0c750	0.02743879
11	0x3b701a56	0.0036636791
12	0x3c84b5d6	0.016199987
13	0xbbded995	-0.00680084
14	0x3cf956cb	0.030436894
15	0x3b464027	0.003025064
16	0xbc9c3bab	-0.01907142
17	0x3ced14da	0.028940607
18	0x3c77db09	0.015127906
19	0xbb0db03d	-0.0021619939
20	0x3cb29bd1	0.021802815
21	0xbcd92127	-0.026505066
22	0x3cd652a1	0.026162447
23	0x3c94f3b6	0.018182617
24	0x3c2fc143	0.0107272295
25	0xbbfd6059	-0.007732433
26	0x3c808352	0.015687618
27	0xbcbff1fd	-0.023430819
28	0xbce5beae	-0.028045025
29	0x3dcb5a40	0.09929323
30	0x3c9e902b	0.019355854
31	0xbd074bc3	-0.033031236
32	0x3e177be3	0.14793353
33	0x3c86d802	0.016460422
34	0x3b041c4a	0.0020158463
35	0x3deaefa8	0.11471492
36	0xbd3faf9c	-0.046798334
37	0xbc983e0e	-0.018584277
38	0xbd24ff35	-0.040282447
39	0x3bfff54c	0.007811224
40	0x3b38e723	0.002821394
41	0x3b85c8b3	0.004082763
42	0x3d0aee93	0.03391893
43	0x3c7f9685	0.0155998515
44	0x3d5c4fcd	0.05378704
45	0xbd5af9e9	-0.05346099
46	0xbcbfc405	-0.0234089
47	0xbd3712bb	-0.044695597
48	0x3c926858	0.01787202
49	0xbc16c29f	-0.009201675
50	0xbc8a0561	-0.016848268
51	0x3d45e7f6	0.04831692
52	0x3cde7912	0.02715734
53	0x3d523096	0.051315866
54	0xbd4ba6e9	-0.049719725
55	0xbcd92965	-0.026508996
56	0xbda8bdfe	-0.08239363
57	0x3cc8ce69	0.024512487
58	0xbd13b450	-0.03606063
59	0xbb53afd9	-0.0032300858
60	0x3d471adb	0.048609596
61	0x3d529688	0.05141309
62	0x3d898f3d	0.06716774
63	0xbd7bd54f	-0.061482724
64	0xbcc06be3	-0.023488944
65	0xbd18adca	-0.037275113
66	0xbcf7c7d7	-0.030246658
67	0xbc11c10f	-0.008896126
68	0x3c8610c2	0.016365413
69	0x3cd38065	0.02581806
70	0x3caf3460	0.021387279
71	0x3dc8db70	0.098074794
72	0x3cb09364	0.021554656
73	0xbb8ff4ff	-0.0043932195
74	0xbd35d32e	-0.04439085
75	0x3cc8fcd6	0.024534624
76	0x3a38abd2	0.0007044646
77	0xbc8a710f	-0.016899614
78	0xbd0ee26c	-0.0348839
79	0xbd21ebfe	-0.0395317
80	0xbda66df3	-0.0812644
81	0x3c52cfac	0.012866896
82	0xbd2104d4	-0.039311245
83	0xbd7e6d1c	-0.062115774
84	0x3c319a60	0.0108400285
85	0x3b4deea5	0.003142276
86	0xbc66003c	-0.014038142
87	0xbc27075f	-0.0101946285
88	0xbc46c832	-0.012132691
89	0xbdac554b	-0.08414706
90	0xbbe16458	-0.006878417
91	0xbd158f87	-0.03651383
92	0xbdc14dd8	-0.09438676
93	0x3c79e422	0.015252145
94	0x39e799e3	0.00044174408
95	0xbcd06999	-0.025440978
96	0xbc39d118	-0.011341356
97	0xbc9975a1	-0.018732848
98	0xbdaff84b	-0.0859228
99	0xbd14c266	-0.036318205
100	0x3d52a6ba	0.051428534
101	0x3d521e29	0.051298294
102	0xbb829995	-0.0039855936
103	0x3d4d6893	0.050148558
104	0x3c60f549	0.013730356
105	0xbd3c1701	-0.045920376
106	0xbcbd4104	-0.02310229
107	0xbda42a1d	-0.08015845
108	0x3c108772	0.008821355
109	0x3cac65c8	0.021044627
110	0x3c6b9408	0.014378555
111	0xbc55c4d5	-0.013047417
112	0x372a328e	1.014456e-05
113	0x3cd13312	0.025537048
114	0xbc5ba080	-0.013404965
115	0xbc40550c	-0.011739027
116	0x3cc0eef5	0.023551444
117	0x3c95f908	0.018307224
118	0x3ce1b191	0.02755049
119	0x3d1c9eaa	0.03823725
120	0x3b3c8a16	0.002876883
121	0x3a593603	0.00082859414
122	0x3d232e7e	0.03983926
123	0xbd1ccded	-0.038282324
124	0xbc32152a	-0.010869304
125	0x3ccfb21c	0.025353484
126	0x3cbfd6be	0.023417827
127	0x3ccffd81	0.025389435
128	0x3d776c4e	0.06040602
129	0xbbf41c6e	-0.007449678
130	0x3c91f1a7	0.017815424
131	0x3d222503	0.03958608
132	0xbd2ca4de	-0.042149417
133	0xbcf7ea3f	-0.030263064
134	0x3ccf0049	0.02526869
135	0xbd74cdd6	-0.059766613
136	0xbd44b24f	-0.04802161
137	0xbdb124b4	-0.08649579
138	0x3cd4ff2f	0.026000587
139	0x3cd5f3b6	0.026117187
140	0x3d28b85c	0.041191444
141	0x3cb5b269	0.0221798
142	0x3cdade4a	0.026717324
143	0x3d3f8a37	0.04676267
144	0xbd7588f6	-0.05994507
145	0xbc5cbebd	-0.01347321
146	0x3c5d1a47	0.013495035
147	0xbcec2943	-0.028828269
148	0xbc64e28c	-0.013970029
149	0x3d1171fd	0.0355091
150	0xbcc700b1	-0.024292322
151	0x387b8434	5.9966187e-05
152	0x3dd847ef	0.10560595
153	0xbd516a51	-0.05112678
154	0xbcc301c0	-0.023804545
155	0x3c82c050	0.015960842
156	0xbd3f0003	-0.04663087
157	0xbcb26dea	-0.021780927
158	0x3d1bf817	0.038078394
159	0xbd0cd963	-0.034387004
160	0x3b30776b	0.0026926647
161	0x3dfbfed8	0.12304467
162	0xbda65197	-0.08121031
163	0xbcb17591	-0.021662505
164	0x3c7d2426	0.015450513
165	0xbd8927fb	-0.06697079
166	0xbd1c3881	-0.038139824
167	0x3d83be4b	0.0643278
168	0xbd28a6ca	-0.041174687
169	0x3a1ba43c	0.00059372536
170	0x3e0fb486	0.14033708
171	0xbc9cce63	-0.019141382
172	0xbb19f226	-0.002349028
173	0xbd0d9f62	-0.034575827
174	0xbcac13ee	-0.021005597
175	0x3c051acd	0.008124066
176	0x3c6eacd0	0.014567569
177	0x3d19ddfa	0.03756521
178	0xb8cba244	-9.710019e-05
179	0x3cb2a8fb	0.021809092
180	0x3bc008ff	0.0058604474
181	0xbd69c24b	-0.057070058
182	0xbd66eac7	-0.056376245
183	0xbc0323fa	-0.008004183
184	0xbd50d66e	-0.050985746
185	0xbd1b89cc	-0.03797321
186	0x3c9c4d7e	0.01907992
187	0xbca317ba	-0.019908775
188	0xbd29da3e	-0.041467898
189	0x3b69b39e	0.0035660039
190	0xbd8441a6	-0.06457834
191	0xbda3167d	-0.07963274
192	0xbbb1ffc8	-0.005432103
193	0xbd95376c	-0.072859615
194	0xbda0a391	-0.07843698
195	0x3bcba22c	0.0062144008
196	0xbca77f38	-0.020446405
197	0xbd90d72e	-0.07072292
198	0xbcc3f91f	-0.023922501
199	0xbd8687a1	-0.06568838
200	0xbd9e20b8	-0.07721084
201	0x3c2913e2	0.010319682
202	0xbda09f28	-0.07842857
203	0xbdb618c1	-0.0889144
204	0xbaf109b8	-0.0018389737
205	0xbd3b509f	-0.045731183
206	0xbdb7891b	-0.08961698
207	0xbc623c6c	-0.013808351
208	0xbcca6664	-0.024707027
209	0xbcd41f2b	-0.025893768
210	0xbc1b397d	-0.0094741555
211	0x3d870d6d	0.06594358
212	0xbd87415b	-0.066042624
213	0xbd8fbfc6	-0.07019
214	0xbc9dac8b	-0.019247314
215	0x3d13d001	0.03608704
216	0xbd22d766	-0.0397562
217	0xbcb51874	-0.022106387
218	0xbdb12996	-0.0865051
219	0xbc0b7db4	-0.008513857
220	0x3cb825d1	0.02247897
221	0xbc02f25d	-0.007992354
222	0x3bb59b0b	0.005542164
223	0x3c4d1738	0.012517743
224	0xbc1b816d	-0.009491307
225	0xbcae175d	-0.021251375
226	0xbbccc11b	-0.006248606
227	0xbd88be70	-0.06676948
228	0xbb45638a	-0.0030119144
229	0x3c930375	0.017945984
230	0xbce96805	-0.028491983
231	0xbb898d91	-0.0041977842
232	0x3cde2d0f	0.027121095
233	0xbc8cb5ab	-0.01717647
234	0xbd476476	-0.04867979
235	0xb9983661	-0.00029032215
236	0xbdc21df1	-0.09478367
237	0x3c8747ea	0.016513783
238	0xbb9492d4	-0.004534105
239	0xbd76147b	-0.060078125
240	0xbc67f9e4	-0.0141587
241	0x3d1c78a6	0.038200997
242	0xbc06e9b4	-0.00823443
243	0xbcbaad26	-0.022787642
244	0xbcf6f4e4	-0.03014607
245	0xbd47d10e	-0.048783354
246	0xbc9c0f4d	-0.019050265
247	0x3c9b3495	0.018945972
248	0x3d318c73	0.043346833
249	0x3d59544c	0.053058907
250	0x3d8b3db7	0.067988805
251	0x3d9c9308	0.076452315
252	0xbc572805	-0.0131321
253	0x3c2100c3	0.009826842
254	0xbbeba5c8	-0.0071913935
255	0x393b44b5	0.00017859305

head.conv.bias f4 [32]
0	0x3c892808	0.016742721
1	0x3d865a86	0.06560235
2	0x3eaf99f5	0.34297147
3	0x3a29e345	0.0006480704
4	0x3d2621dd	0.04055964
5	0xbcc0a9ea	-0.023518521
6	0xbdcde584	-0.10053542
7	0x3bb3e239	0.0054896143
8	0xbe2de740	-0.16982746
9	0x3e38d960	0.18051672
10	0xbcc19afb	-0.02363347
11	0x3d87dae7	0.06633549
12	0xbdeed452	-0.11661591
13	0x3d5c31a6	0.053758286
14	0x3ca20de6	0.019782018
15	0x3dbb444a	0.091438845
16	0xbd4ac537	-0.049504485
17	0x3e30770b	0.17232911
18	0x3cf1ad99	0.029501723
19	0x3d338518	0.0438281
20	0xbd8f05ed	-0.06983552
21	0x3e0c75e6	0.1371685
22	0xbe00a62a	-0.12563387
23	0xbc6d985f	-0.01450166
24	0xbc83146a	-0.016000945
25	0x3d5e4fe6	0.054275416
26	0x3e0501c8	0.1298896
27	0x39ff36b9	0.00048678162
28	0xbd017e61	-0.031614665
29	0xbcd019fa	-0.025403012
30	0x3e2b9af7	0.16758333
31	0x3d8522fb	0.065008126

head.norm.weight f4 [32]
0	0x3f51db1b	0.81974953
1	0x3f7f0a64	0.9962523
2	0x3f7baa8f	0.98307127
3	0x3f45402f	0.7705106
4	0x3f6b2e6b	0.91867703
5	0x3f50d183	0.8156969
6	0x3f50579e	0.81383693
7	0x3f463844	0.77429605
8	0x3f41216f	0.7544164
9	0x3f2c7843	0.67371005
10	0x3f7c3148	0.985127
11	0x3f7378f2	0.9510642
12	0x3f3c4abd	0.7355154
13	0x3f4f8d71	0.810752
14	0x3f4167ac	0.75548816
15	0x3f845f0e	1.0341508
16	0x3f59befc	0.85057044
17	0x3f7b7559	0.98225933
18	0x3f5dedd3	0.86691016
19	0x3f5ed078	0.8703685
20	0x3f821ce3	1.0165066
21	0x3f69f3f2	0.91387856
22	0x3f82c5ab	1.0216573
23	0x3f62a8f3	0.88539046
24	0x3f663f82	0.89940655
25	0x3f6df5f5	0.92953426
26	0x3f5f62d5	0.8726018
27	0x3f624de1	0.88400084
28	0x3f540884	0.82825494
29	0x3f35c193	0.70998496
30	0x3f224efa	0.6340176
31	0x3f5bb10f	0.85817045

head.norm.bias f4 [32]
0	0x3f602c75	0.87567836
1	0x3e97ae7b	0.29625306
2	0x3eb854a9	0.3600209
3	0x3f94f9ca	1.163873
4	0x3e5bf8f8	0.21481693
5	0x3f3f3d95	0.7470334
6	0x3f523f6c	0.82128024
7	0x3f28c20c	0.6592109
8	0x3f3439d5	0.70400745
9	0x3f95375b	1.1657518
10	0x3f1a4c9e	0.6027316
11	0x3da8a37c	0.08234307
12	0x3f1e9510	0.619462
13	0x3f1f2ab0	0.6217451
14	0x3f831aa6	1.0242507
15	0x3e7b483e	0.24539277
16	0x3f776ec6	0.966534
17	0x3f358528	0.70906305
18	0x3f2519bf	0.6449241
19	0x3f59811f	0.8496265
20	0x3f049f82	0.5180589
21	0xbce64500	-0.028109074
22	0xbe362fcf	-0.17791675
23	0x3ef6cb4d	0.4820198
24	0x3f288c4f	0.65839094
25	0x3e71fab7	0.23630796
26	0x3e26b9ca	0.1628181
27	0xbe29137b	-0.16511337
28	0x3f3dfbbf	0.7421226
29	0x3f7089ef	0.9396047
30	0x3f4ccfb7	0.8000445
31	0x3f3e6196	0.74367654

head.norm.running_mean f4 [32]
0	0xbe0c0c5d	-0.13676591
1	0x3d48825d	0.04895245
2	0x3f16deaf	0.5893354
3	0xbdc69202	-0.096958175
4	0x3cd7feb7	0.026366575
5	0x3ecf9703	0.405449
6	0x3d0246d0	0.031805813
7	0x3ccd2d02	0.025045875
8	0xbe60c840	-0.2195139
9	0x3c192ab4	0.00934856
10	0x3d25bf1b	0.040465456
11	0x3da9770d	0.0827466
12	0xbd83eb5b	-0.06441375
13	0x3d0494a6	0.032368325
14	0x3e274776	0.16335854
15	0x3d91b3b9	0.071143575
16	0xbdb1ac2b	-0.086754166
17	0x3ded3620	0.11582589
18	0xbe3e2046	-0.18566999
19	0xbcee63a5	-0.029100249
20	0xbb553281	-0.0032531323
21	0x3e29ad70	0.16570067
22	0xbddc3521	-0.10752321
23	0xbe2c1419	-0.16804542
24	0x3d66d167	0.056352045
25	0x3d2c4973	0.042062234
26	0xbd45abbd	-0.048259486
27	0xbde61562	-0.11234547
28	0xbd8e8a17	-0.06959932
29	0xbddf4bbc	-0.10903117
30	0x3d12c110	0.03582865
31	0xbd7223cb	-0.059116166

head.norm.running_var f4 [32]
0	0x3d84f472	0.06491937
1	0x3c269171	0.010166512
2	0x3c9be62a	0.01903065
3	0x3bef86c2	0.0073097656
4	0x3c02b597	0.007977865
5	0x3d8500a1	0.064942606
6	0x3c882066	0.016617011
7	0x3c5985e9	0.013276556
8	0x3b98350f	0.004644997
9	0x3c83866d	0.01605531
10	0x3cd072bb	0.025445333
11	0x3c9b13bc	0.018930309
12	0x3c5bc373	0.013413298
13	0x3be2f13d	0.0069257305
14	0x3c36a8f6	0.011148682
15	0x3c124c16	0.008929273
16	0x3c30ac7b	0.01078331
17	0x3d0ff96d	0.03514998
18	0x3c64e567	0.013970709
19	0x3c18be01	0.009322644
20	0x3d1d63aa	0.038425125
21	0x3c3ad5ca	0.01140351
22	0x3bc3d9c2	0.0059768865
23	0x3c85fcfe	0.016355988
24	0x3c4675c5	0.012113039
25	0x3c7afba8	0.015318789
26	0x3c4dea23	0.01256803
27	0x3cd7faf9	0.02636479
28	0x3c914fba	0.017738212
29	0x3caa64f6	0.020800095
30	0x3ce118a1	0.027477564
31	0x3d0ace67	0.033888247

body.block1.conv.weight f4 [32, 32, 3, 3]
0	0xbc0d70f2	-0.008632885
1	0xbc1ad58b	-0.009450327
2	0x3c3a3738	0.011365704
3	0xbd706369	-0.058688555
4	0x3cbc6a87	0.023000015
5	0xbcd5856b	-0.026064595
6	0xbca892a8	-0.020577744
7	0xbc9aa4d0	-0.018877417
8	0x3c9e2c38	0.019308195
9	0xbd46243c	-0.0483744
10	0xbd09433f	-0.033511396
11	0xbd4e7b25	-0.05041041
12	0x3d04c971	0.032418672
13	0x3ccf0cd2	0.025274668
14	0xbc924ed0	-0.017859846
15	0x3b875b03	0.0041307225
16	0x3c924930	0.017857164
17	0xbc22ad4f	-0.009929015
18	0xbc547d59	-0.012969338
19	0xbd337bfa	-0.043819405
20	0xbd5e504c	-0.054275796
21	0xbcd48699	-0.025943087
22	0xbc7524bc	-0.014962371
23	0xbd942538	-0.072336614
24	0x3cfcfb86	0.030881654
25	0xbd23c3e5	-0.03998174
26	0xbd7c6c66	-0.061626814
27	0xbd9995f7	-0.07499307
28	0xbd843624	-0.06455639
29	0xbd2ca33b	-0.042147856
30	0x3d10c1a5	0.035340924
31	0x3c5cb4e4	0.013470862
32	0x3d8b12c9	0.06790692
33	0xbc4164c8	-0.011803813
34	0x3d4f6767	0.05063572
35	0x3b2d6b75	0.0026461754
36	0x3ca1464a	0.019686837
37	0xbc591bd0	-0.01325126
38	0x3d65df86	0.05612137
39	0xbc7f8b07	-0.015597112
40	0xbcc73c0f	-0.02432063
41	0x3b6126b2	0.003435534
42	0xbda444d2	-0.08020939
43	0xbd84c5b5	-0.06483022
44	0xbd2a6353	-0.04159863
45	0xbd320cdd	-0.0434693
46	0xbc6d9cb8	-0.014502697
47	0xbd7d1117	-0.061783876
48	0xbce3121d	-0.027718598
49	0xbc80a013	-0.01570133
50	0xbd512281	-0.051058296
51	0xbca03faa	-0.019561607
52	0xbc25982d	-0.010107082
53	0xbd9a7513	-0.075418614
54	0x3caaa8db	0.02083247
55	0xbcbd6b89	-0.023122566
56	0xbd85e6bc	-0.0653815
57	0xbcc2e8f0	-0.023792714
58	0xbb47e715	-0.0030502726
59	0xbca1a704	-0.01973296
60	0x3cc849d9	0.024449276
61	0x3cfd7c19	0.030942963
62	0x3d12e865	0.03586616
63	0xba19f848	-0.00058734836
64	0x3c8381b9	0.016053068
65	0xbd332d9b	-0.043744665
66	0xbc40b7e3	-0.011762592
67	0xbd12799f	-0.03576052
68	0xbcd3d890	-0.025860101
69	0x3c0b5a19	0.008505368
70	0xbc85fe49	-0.016356604
71	0xbdc52a20	-0.09627175
72	0x3c872721	0.01649815
73	0x3d2fe6fc	0.042944893
74	0xbc26e778	-0.010187022
75	0x3c62b372	0.013836728
76	0xbbf595e9	-0.0074946773
77	0xbd1c0422	-0.03808988
78	0xbcb44209	-0.022004144
79	0xbbb1d59e	-0.0054270765
80	0xbd5d971e	-0.054099195
81	0x3b592f83	0.0033139891
82	0xbcc43c27	-0.023954464
83	0x3de22ad1	0.11043323
84	0xbc85ced6	-0.016333979
85	0xbc43d414	-0.011952419
86	0x3c208bc2	0.009798946
87	0xbcdc940c	-0.026926063
88	0x3cd46329	0.02592619
89	0x3d5fe585	0.054662246
90	0xbd00c779	-0.031440232
91	0xbd31dcbf	-0.04342341
92	0xbdd68c50	-0.10475981
93	0xbd15fa52	-0.036615677
94	0xbb84b54f	-0.004049934
95	0xbdb3b7f8	-0.08775324
96	0xbd5302d4	-0.05151637
97	0xbdb1b1a8	-0.08676463
98	0xbcdc70f0	-0.026909322
99	0xbcb1e0c0	-0.021713614
100	0xbc2776db	-0.010221208
101	0x3d0931c3	0.033494722
102	0xbcb50efd	-0.022101874
103	0xbca2074e	-0.019778874
104	0x3cd38156	0.025818508
105	0x3c928687	0.017886413
106	0x3ae052ac	0.0017114482
107	0xbd61fb94	-0.055171564
108	0xbd2193cb	-0.039447587
109	0xbc8c44fc	-0.017122738
110	0xbb829c23	-0.003985898
111	0xbc22ec7d	-0.0099440785
112	0xbcce9542	-0.025217656
113	0x3c9d6b5a	0.019216228
114	0x3d7967c3	0.06088997
115	0xbcf086eb	-0.029361209
116	0x3cedbda7	0.029021097
117	0x3c5276ed	0.012845737
118	0x3b6e92f5	0.0036403511
119	0x3d173824	0.036918774
120	0xb9e54410	-0.00043728994
121	0xbc824a42	-0.01590455
122	0x3cb4f0ea	0.022087533
123	0xbd75a0bc	-0.05996774
124	0x3ceea7bb	0.029132714
125	0xbc843877	-0.016140206
126	0x3d8f9196	0.0701019
127	0x3bcf2270	0.006321244
128	0x3d152e18	0.03642091
129	0x3d199f92	0.037505694
130	0x3d4311d5	0.047624428
131	0x3a8f20e4	0.0010919836
132	0xbbc47a8f	-0.0059960554
133	0x3ced4252	0.028962288
134	0x3d3b5da1	0.04574359
135	0x3d74a071	0.05972332
136	0x3cfd5a1e	0.03092676
137	0xbcb5bec5	-0.022185693
138	0xbc043fdf	-0.008071869
139	0xbd3bf909	-0.045891795
140	0xbd191158	-0.037370056
141	0x3d59523e	0.053056948
142	0x3d2c421f	0.042055245
143	0x3d1a9e2a	0.037748493
144	0x3d521557	0.051289883
145	0xbcb06e6d	-0.02153703
146	0x3e052586	0.13002595
147	0xbc04373c	-0.0080698095
148	0xbce8a594	-0.028399266
149	0xbd191935	-0.037377555
150	0x3dc9b1dc	0.09848377
151	0x3d7af29d	0.06126653
152	0x3cd7aa16	0.02632622
153	0x3d1edb52	0.03878338
154	0xbcad4052	-0.021148834
155	0xbdde6713	-0.108595036
156	0x3d140bca	0.036144055
157	0xbcf926c3	-0.03041399
158	0xbd9ee176	-0.07757847
159	0x3c872226	0.016495775
160	0xbc8a8c8a	-0.016912717
161	0xbd921e43	-0.07134678
162	0xbbe53a7b	-0.006995497
163	0xba9cc27b	-0.0011959815
164	0x3c7e55ce	0.015523387
165	0x3cfa2af6	0.030538063
166	0x3c9b5f26	0.018966269
167	0xbcabb1aa	-0.02095874
168	0xbcb76916	-0.022388976
169	0xbcb26988	-0.021778837
170	0xbd06b8e8	-0.032891184
171	0xbd1a8c5e	-0.03773152
172	0xbcf76cf0	-0.030203313
173	0xbd3bd257	-0.045854893
174	0xbcc98eba	-0.02460419
175	0xbcf2ccb0	-0.029638618
176	0xbd056c3b	-0.03257392
177	0xbd2324c6	-0.03982999
178	0xbc277774	-0.010221351
179	0xbd21ab42	-0.039469965
180	0xbc3c866a	-0.011506656
181	0xbcb03a33	-0.021512127
182	0xbdf47bf5	-0.119377054
183	0xbd0425ab	-0.032262485
184	0xbdafb368	-0.08579141
185	0xbd65fa03	-0.056146633
186	0xbcf69180	-0.030098677
187	0xbd18decb	-0.037321847
188	0xbd8f705a	-0.07003851
189	0x3c226acd	0.009913159
190	0x3cb6b3b1	0.02230248
191	0xbcf7b116	-0.030235808
192	0x3d2017c0	0.03908515
193	0x3d3d3e71	0.046202127
194	0x3c921215	0.017830888
195	0xbc488834	-0.012239505
196	0x3c24198c	0.0100158565
197	0x3bcdb064	0.006277131
198	0x3ddea2cf	0.10870897
199	0x3c8c7a8c	0.017148279
200	0xbd076777	-0.033057656
201	0x3d4081f0	0.046998918
202	0x3d583bcf	0.052791413
203	0xbc82de75	-0.015975216
204	0x3da7e993	0.081988476
205	0x3dbf6a1a	0.09346409
206	0xbc4c0a2b	-0.012453596
207	0x3c256d49	0.010096856
208	0x3c4a1e53	0.012336331
209	0x3c3c4238	0.011490397
210	0x3c11eee7	0.008907056
211	0xbc9d3841	-0.019191863
212	0x3d7fb789	0.062430892
213	0xbd7d7fa1	-0.061889295
214	0x3c7169a4	0.014734659
215	0x3af69de0	0.0018815361
216	0xbc88cda4	-0.01669962
217	0x3d0dc7cd	0.034614373
218	0x3d84a3b5	0.06476537
219	0xbced75dd	-0.028986866
220	0xbd36f3da	-0.04466615
221	0x3ad913fb	0.0016561741
222	0x3d049e43	0.032377493
223	0x3d4bb05b	0.049728733
224	0x3daaa419	0.083320804
225	0xbc90627c	-0.017625086
226	0xbb663631	-0.0035127515
227	0xbcc8aec6	-0.024497401
228	0x3d8ca774	0.06867877
229	0x3ccb7384	0.024835356
230	0x3c2f96e2	0.010717126
231	0x3d94046a	0.072274044
232	0x3d958c0f	0.07302105
233	0x3d209988	0.03920892
234	0x3bd32a9d	0.006444289
235	0xbc694400	-0.014237404
236	0xbd9ed2b1	-0.0775503
237	0x3cb02dc9	0.021506207
238	0xbcaf214b	-0.02137818
239	0xbc0e0d79	-0.008670204
240	0x3b558923	0.003258296
241	0xbcaaf646	-0.020869385
242	0xbb03a5ee	-0.0020087915
243	0x3c6114d4	0.013737876
244	0x3d5a431d	0.05328666
245	0x3d425964	0.04744853
246	0xbc1291cd	-0.008945894
247	0x3c40371f	0.011731892
248	0x3c68d1d7	0.014210186
249	0xbcd6c02e	-0.026214685
250	0xbd366aed	-0.044535566
251	0x3d22f9f7	0.039789166
252	0xbd5fd594	-0.054647043
253	0x3bd4d30a	0.0064948844
254	0x3d12cca1	0.03583968
255	0xbd16f5fb	-0.03685568

body.block1.conv.bias f4 [32]
0	0x3ca44a57	0.02005498
1	0x3d8806e2	0.06641938
2	0xbc8f87ab	-0.017520746
3	0x3ca7546c	0.020425998
4	0x3d5f2357	0.054477062
5	0x3d3f6af6	0.046732865
6	0xbbb03676	-0.005377586
7	0x3df8185a	0.1211402
8	0x3da00f3a	0.07815404
9	0x3dc53739	0.096296735
10	0xbd3efe9c	-0.046629533
11	0x3d29cf58	0.041457504
12	0x3d81b312	0.06332983
13	0x3c70b1a6	0.014690792
14	0x3d962b64	0.07332495
15	0x3d41cc39	0.047313903
16	0xbd11208e	-0.035431437
17	0x3d3d2f62	0.046187766
18	0x3e0be1cc	0.13660353
19	0x3ceb773a	0.028743375
20	0x3e2962f4	0.16541654
21	0xbcc13b27	-0.023587776
22	0x3c8e44a3	0.017366713
23	0x3d9e2b11	0.07723058
24	0x3d8be031	0.068298705
25	0x3dfdcb0e	0.12392245
26	0x3b90f2f0	0.0044234917
27	0x3deaa367	0.11456948
28	0x3d69a0d7	0.057038154
29	0x3d89cce4	0.06728533
30	0xbc48edd1	-0.012263731
31	0x3e3b2453	0.18275575

body.block1.norm.weight f4 [32]
0	0x3f2b9093	0.6701748
1	0x3f6f31a2	0.9343511
2	0x3f6d8cf1	0.92793185
3	0x3f57bd41	0.84273154
4	0x3f481c40	0.78168106
5	0x3f6b6766	0.9195465
6	0x3f765756	0.96227014
7	0x3f61b27a	0.8816296
8	0x3f6d0d9d	0.925989
9	0x3f582aa5	0.8444007
10	0x3f76f198	0.9646239
11	0x3f6b88d0	0.92005634
12	0x3f826288	1.0186319
13	0x3f7abd4b	0.9794509
14	0x3f5d1010	0.86352634
15	0x3f5e47e7	0.86828464
16	0x3f4bfbba	0.7968098
17	0x3f689e88	0.908669
18	0x3f3abcf9	0.729446
19	0x3f6bd87d	0.9212721
20	0x3f49e9fe	0.7887267
21	0x3f609184	0.8772204
22	0x3f50e640	0.81601334
23	0x3f7b32b8	0.98124266
24	0x3f593448	0.848454
25	0x3f56b810	0.8387461
26	0x3f79b533	0.97542113
27	0x3f4ada5a	0.7923943
28	0x3f361b4c	0.711354
29	0x3f7855e1	0.9700604
30	0x3f8688b4	1.0510468
31	0x3f5fbaae	0.87394226

body.block1.norm.bias f4 [32]
0	0x3f48c279	0.7842174
1	0x3e7114ea	0.23543134
2	0x3ef6c046	0.48193568
3	0x3f311adb	0.69181603
4	0x3f4b1e7b	0.79343385
5	0x3efdc194	0.4956175
6	0x3c1caf4f	0.009563281
7	0x3f2d25fd	0.6763609
8	0x3e89cd92	0.2691465
9	0x3f3dedf2	0.741912
10	0x3efa114b	0.48841318
11	0x3ea44d56	0.32090253
12	0xbe464ec2	-0.19365981
13	0x3da23316	0.079199
14	0x3f3e48a6	0.743296
15	0x3f6ab6d1	0.91685206
16	0x3f1d4d5b	0.6144616
17	0x3ee031a5	0.43787876
18	0x3f2547d3	0.6456272
19	0x3f13eb96	0.5778135
20	0x3f45471c	0.7706163
21	0x3e79f6ef	0.24410604
22	0x3f750351	0.95708185
23	0x3df19bf0	0.11797321
24	0x3f526a71	0.82193667
25	0x3f4221cc	0.7583282
26	0x3f57470d	0.8409279
27	0x3f1a3f06	0.60252416
28	0x3ef04e6b	0.46934828
29	0x3f211008	0.62915087
30	0x3e129450	0.14314389
31	0x3f3840db	0.7197396

body.block1.norm.running_mean f4 [32]
0	0xbf9f344e	-1.2437837
1	0xbfad50ca	-1.354028
2	0xbfa57345	-1.2925802
3	0xc05d0a25	-3.4537442
4	0xbf2631eb	-0.6491992
5	0xbfc0a9b7	-1.5051793
6	0xc003fdfa	-2.0623765
7	0x402db821	2.7143633
8	0xbff83d4b	-1.9393705
9	0xc01c616e	-2.4434466
10	0xc00035d1	-2.0032847
11	0xbfa41541	-1.2818986
12	0xc00dcaef	-2.215511
13	0x3f030723	0.51182765
14	0xbe3cad63	-0.18425517
15	0xbfd28ec8	-1.6449823
16	0xbfcc7d18	-1.5975676
17	0x3d87b0df	0.06625532
18	0xbeeafc17	-0.45895454
19	0xc023821c	-2.5548162
20	0x3dd387b4	0.10328618
21	0xbfc3cf28	-1.5297594
22	0xc0229a4f	-2.5406682
23	0x3e7532cb	0.23945157
24	0xbe2a58d5	-0.16635449
25	0xc0297bdd	-2.648185
26	0xc024dae2	-2.5758595
27	0xbd6c6462	-0.05771292
28	0x3eb0a09d	0.34497538
29	0xc001ee89	-2.030184
30	0xbf7eea32	-0.99576104
31	0x3fca24c1	1.5792466

body.block1.norm.running_var f4 [32]
0	0x3f295a34	0.66153264
1	0x3efeb2e0	0.49745846
2	0x3f73b539	0.951984
3	0x3f37451f	0.71589845
4	0x3f5944de	0.8487071
5	0x3f29b344	0.6628916
6	0x3ea435c8	0.32072282
7	0x3f6a484a	0.91516554
8	0x3f98642e	1.1905572
9	0x3ffa270b	1.9543165
10	0x3f4c9329	0.7991205
11	0x3eafe6d5	0.34355798
12	0x3f5014af	0.8128156
13	0x3f59fd67	0.85152286
14	0x3ffe49b6	1.9866245
15	0x3e94efd0	0.29089212
16	0x3f13b994	0.57705045
17	0x3eff4d94	0.49863875
18	0x3f96e6a1	1.1789132
19	0x3f04c3ec	0.51861453
20	0x3f3a29fa	0.727203
21	0x3ecd314b	0.4007667
22	0x3f7a18e4	0.9769423
23	0x3f839967	1.028119
24	0x3ed408a7	0.4141285
25	0x3eba8b0e	0.36434215
26	0x3f4264dc	0.7593515
27	0x3f922423	1.1417278
28	0x3f8c282d	1.0949761
29	0x3f65eb00	0.89811707
30	0x401721ba	2.3614335
31	0x3fb435b7	1.4078892

body.block2.conv.weight f4 [32, 32, 3, 3]
0	0xbb70bf27	-0.003673503
1	0xbcb8728a	-0.022515554
2	0xbbf842fb	-0.007576344
3	0x3ba8b1a8	0.0051481314
4	0xbcd81d69	-0.026381211
5	0x3d19eb43	0.03757788
6	0xbd80fc7f	-0.0629816
7	0xbc2d3fab	-0.010574262
8	0x3cda343e	0.02663624
9	0xbdc54a7f	-0.096333496
10	0xbc90e0ed	-0.017685378
11	0x3c842a16	0.01613335
12	0xbcdeb842	-0.02718747
13	0xba09899c	-0.00052466406
14	0x3cdcbeb0	0.026946396
15	0x3d6a33aa	0.057178177
16	0x3d13683d	0.03598808
17	0x3dbf4697	0.09339636
18	0xbd557594	-0.052114084
19	0xbd315648	-0.043295175
20	0xbd1a79e7	-0.03771391
21	0xbc83dbb5	-0.016095975
22	0xbd2bee23	-0.04197515
23	0xbd2aa041	-0.041656736
24	0x3d464ed2	0.048415013
25	0x3d429d13	0.04751308
26	0x3d22309f	0.03959715
27	0xbcf9c02f	-0.030487148
28	0x3d2cc157	0.04217657
29	0xbc35d0ab	-0.011097114
30	0xbd5e274f	-0.054236706
31	0x3c910291	0.01770142
32	0x3cda212c	0.026627146
33	0xbdb433bd	-0.08798931
34	0xbd287135	-0.041123588
35	0x3acc5951	0.0015590583
36	0x3daa7e7c	0.08324906
37	0x3c47779c	0.012174513
38	0x3d451215	0.048112947
39	0x3d010f48	0.031508714
40	0xbbe72873	-0.0070543825
41	0xbd5d13cc	-0.053973958
42	0x3d04a0df	0.03237998
43	0xbc94d3bd	-0.01816737
44	0xbbd36d8e	-0.006452269
45	0xbd09a3a3	-0.03360332
46	0x3d258d80	0.040418148
47	0xbc786913	-0.01516177
48	0xbd721713	-0.059104037
49	0xbd07cfe8	-0.03315726
50	0xbd79c3bf	-0.060977694
51	0xbd849c8e	-0.06475173
52	0xbda3ebf7	-0.08003991
53	0xbcd1985b	-0.025585344
54	0xbc827c33	-0.015928363
55	0xbd050b59	-0.032481525
56	0xbcc5239d	-0.024064833
57	0x3dc59a2c	0.096485466
58	0x3d0492af	0.03236645
59	0x3c75e89b	0.015009071
60	0x3c987a5f	0.018613039
61	0x3b888e70	0.0041673705
62	0xbc574283	-0.013138416
63	0xbc6636d9	-0.014051163
64	0xbaca8067	-0.0015449644
65	0xbb125a93	-0.0022331818
66	0xbd987055	-0.07443301
67	0xbd5e8b8a	-0.054332294
68	0xbd36e3ac	-0.04465072
69	0xbdedabfb	-0.11605068
70	0xbcee7108	-0.029106632
71	0x3a5bb45a	0.00083810615
72	0xbcdb6d6c	-0.026785575
73	0xbc503902	-0.012708904
74	0xbd805e4b	-0.06267985
75	0xbd0e9797	-0.034812536
76	0x3a813b4f	0.0009859594
77	0x3c66a755	0.014077981
78	0xbceec876	-0.029148322
79	0xbb9be87f	-0.0047579403
80	0xbd6ba61d	-0.057531465
81	0xbc7d1c22	-0.015448602
82	0xbbd0e096	-0.006374429
83	0x3d543b56	0.0518144
84	0xbd8f2980	-0.06990337
85	0xbb93232b	-0.0044902763
86	0x3b8545ec	0.004067173
87	0xbd38ca72	-0.045114942
88	0xbca39ad9	-0.019971298
89	0xbd3ae2b8	-0.045626372
90	0xbd060272	-0.032717176
91	0xbc1298ac	-0.008947533
92	0xbcd821b9	-0.026383268
93	0x3d394a63	0.045236956
94	0xbcd7382f	-0.026271908
95	0xbd71007e	-0.05883836
96	0x3de9189a	0.113816455
97	0x3d5d465e	0.054022186
98	0x3cdf5775	0.027263382
99	0x3b3e5d0e	0.0029047164
100	0xbd76e197	-0.060273733
101	0xbd31db41	-0.043421987
102	0x3c8c5721	0.01713139
103	0xbc9c7006	-0.019096386
104	0xbd03b46f	-0.032154497
105	0x3dcfffc8	0.10156208
106	0x3d2f6704	0.042822853
107	0xbc2ccc69	-0.010546782
108	0x3daa4cec	0.08315453
109	0x3d6dc427	0.058048394
110	0x3d344042	0.044006594
111	0x3c30c41b	0.010788943
112	0xbd8b4df2	-0.06801976
113	0xbd8c46b9	-0.06849427
114	0xbd413025	-0.047165055
115	0xbd576ea0	-0.052595735
116	0xbdabc869	-0.083878346
117	0xbcf0bf85	-0.029388199
118	0xbcbdd32b	-0.023171982
119	0xbd2e1e88	-0.042509586
120	0xbc15eaa8	-0.009150185
121	0xbd286065	-0.041107554
122	0xbd8d68b4	-0.06904736
123	0x3c94f254	0.018181957
124	0xbd2a74bf	-0.041615244
125	0xbd271139	-0.04078791
126	0xbcf6c715	-0.030124227
127	0x3bfabc79	0.007651862
128	0xbb87a720	-0.004139796
129	0x3d10b008	0.035324126
130	0x3c18f26d	0.009335143
131	0x3d1c03be	0.038089506
132	0x3db0b773	0.0862874
133	0x3cfbc454	0.030733265
134	0x3d060cd3	0.032727074
135	0x3d8ffa96	0.07030217
136	0xbd2a55bd	-0.041585673
137	0xbd38bb41	-0.045100454
138	0x3df1b8f3	0.118028544
139	0x3d4baa6a	0.049723066
140	0x3c8fed60	0.017569244
141	0xbd9c1571	-0.07621277
142	0xbd7531e2	-0.059862025
143	0x3d3780ee	0.04480069
144	0xbda22d15	-0.07918755
145	0xbdb8e8f8	-0.0902881
146	0xbced358c	-0.028956197
147	0x3cb5ec31	0.022207351
148	0x3c8dec80	0.017324686
149	0xbccd7b70	-0.025083274
150	0x3d196d64	0.03745784
151	0x3cb3f6bf	0.021968244
152	0xbc721d56	-0.014777502
153	0xbd83c062	-0.064331785
154	0x3d98d386	0.0746222
155	0x3d99044c	0.07471523
156	0xbd4690e5	-0.048478026
157	0x3b9581f3	0.0045626103
158	0xbcfcb17e	-0.030846354
159	0xbd80dfd7	-0.06292694
160	0xbc2b3289	-0.01044906
161	0xbd801d03	-0.062555335
162	0xbd8b904f	-0.06814634
163	0xbc75cd7b	-0.015002604
164	0x3d31f71d	0.043448556
165	0xbd1dbf60	-0.038512588
166	0xbce87e57	-0.028380556
167	0x3d127536	0.035756312
168	0xbd69d629	-0.057089005
169	0x3ba01e1c	0.004886402
170	0x3da07681	0.07835103
171	0x3d2ae797	0.041724768
172	0x3d2e0d68	0.042493254
173	0x3d6c582c	0.057701275
174	0xbcf2d843	-0.029644137
175	0x3cf85fc0	0.030319095
176	0x3b6585d3	0.0035022392
177	0xbd029886	-0.03188374
178	0xbd05fb0b	-0.032710116
179	0xbcb59010	-0.02216342
180	0x3c74d259	0.014942729
181	0x3ceec330	0.029145807
182	0x3d4b49e5	0.04963102
183	0x3a15a3a8	0.00057082856
184	0xbd08ee4f	-0.033430394
185	0xbcc45655	-0.023966948
186	0x3cf34eba	0.029700626
187	0xbd8adb4d	-0.067801096
188	0xbd60484c	-0.054756448
189	0xbc61e6b7	-0.013787917
190	0xbc2c09b0	-0.010500357
191	0xbca1f5eb	-0.019770583
192	0x3d55e760	0.05222261
193	0x3d48c3c8	0.049014837
194	0x3d1445e2	0.036199458
195	0xbca8efb0	-0.020622104
196	0xbc708f8e	-0.014682664
197	0xbccb4561	-0.024813356
198	0xbdb574b9	-0.08860154
199	0xbdef8523	-0.11695316
200	0xbdc8bacf	-0.09801256
201	0xbdcb6434	-0.099312216
202	0xbd2ccaa0	-0.042185426
203	0xbdb38e3f	-0.08767366
204	0x3b63adf1	0.0034741128
205	0xbc69f97e	-0.014280675
206	0x3ca44d4b	0.020056387
207	0xbd576bf6	-0.052593194
208	0xbc752ed1	-0.014964775
209	0xbd321a36	-0.043482028
210	0xbadbfee2	-0.0016784335
211	0x3cc152ac	0.023598991
212	0xbc32f8d2	-0.010923581
213	0xbd787f93	-0.06066854
214	0xbd0e14b9	-0.03468773
215	0xbc2e52b2	-0.010639833
216	0x3d21db5a	0.03951583
217	0x3d3ddab4	0.04635115
218	0x3d2ad725	0.041709084
219	0x3c450b5c	0.012026634
220	0xbcb99351	-0.022653254
221	0xbd49daf2	-0.04928107
222	0x3dc52016	0.096252605
223	0x3d9e2198	0.07721251
224	0x3c8b68af	0.01701769
225	0x3d6154c2	0.055012472
226	0x3cd89f5c	0.026443176
227	0xbc654d28	-0.013995446
228	0x3d19fc13	0.037593912
229	0xbb10ecaa	-0.002211372
230	0x3d40b50d	0.047047663
231	0x3b1c351e	0.0023835371
232	0x3c59d709	0.013295897
233	0x3c9fa7d4	0.019489206
234	0xbd70004c	-0.058594033
235	0xbcdab475	-0.026697377
236	0x3d0f7fb3	0.035033893
237	0x3d20e527	0.039281037
238	0x3c8b4471	0.017000409
239	0x3d2a5a92	0.04159028
240	0x3d649a03	0.05581094
241	0x3d583c36	0.052791797
242	0x3d60707f	0.054794785
243	0xbb7b79cd	-0.003837216
244	0x3dc8b89b	0.09800836
245	0x3e0bf56e	0.13667843
246	0xbddb3435	-0.10703317
247	0x3cf16513	0.029467141
248	0xbada2351	-0.0016642605
249	0xbd19613d	-0.03744625
250	0xbc9ee448	-0.019395962
251	0xbc9ab6ef	-0.018886058
252	0xbdfa9401	-0.12235261
253	0xbdba0ed0	-0.090848565
254	0xbdbc7748	-0.092024386
255	0xbab917a8	-0.001412143

body.block2.conv.bias f4 [32]
0	0x3cab1158	0.020882294
1	0x3d9fee35	0.07809106
2	0xbca1a5ba	-0.019732345
3	0x3d3b8adc	0.045786723
4	0x3d7fa6ec	0.06241505
5	0xbaa15cb5	-0.0012310954
6	0xbcb0cecf	-0.021582989
7	0x3b848592	0.004044243
8	0x3dbee9bb	0.09321924
9	0xbd47a08a	-0.048737086
10	0x3cb4df90	0.02207926
11	0x3d99c6ac	0.07508597
12	0xbd81f14a	-0.0634485
13	0x3cb0585c	0.021526508
14	0x3d4b8792	0.049689837
15	0x3d51dd33	0.051236343
16	0x3daee22a	0.08539231
17	0x3d89d325	0.06729726
18	0x3df6989f	0.12040829
19	0x3df52b15	0.11971108
20	0xbcb53d07	-0.022123827
21	0x3d96c5ec	0.07361969
22	0xbcc16eb7	-0.023612363
23	0x3c0e697b	0.008692141
24	0xbbdc9f27	-0.0067328396
25	0x3d4cde0c	0.050016448
26	0x3dd50b41	0.10402537
27	0x3de1f6d5	0.110334076
28	0x3dbb4ea2	0.091458574
29	0x3dd05679	0.10172743
30	0x3c0a8510	0.008454576
31	0x3d2135a5	0.0393578

body.block2.norm.weight f4 [32]
0	0x3f6ae51a	0.9175583
1	0x3f6042fa	0.876022
2	0x3f8047d7	1.0021924
3	0x3f56d111	0.8391276
4	0x3f6982c2	0.91215146
5	0x3f76aa07	0.9635319
6	0x3f8778a7	1.0583695
7	0x3f77b029	0.96753174
8	0x3f7347cf	0.95031446
9	0x3f6b3475	0.9187692
10	0x3f6dbf1f	0.9286975
11	0x3f652ac4	0.8951838
12	0x3f6de053	0.92920417
13	0x3f73982b	0.95154065
14	0x3f703340	0.938282
15	0x3f4bba0e	0.7958077
16	0x3f7b9f59	0.9829002
17	0x3f3d8ce7	0.74043125
18	0x3f4b5496	0.7942594
19	0x3f8106ce	1.0080202
20	0x3f83a8e2	1.0285914
21	0x3f67887c	0.90442634
22	0x3f78b375	0.9714883
23	0x3f5cceb2	0.8625289
24	0x3f74a65c	0.95566344
25	0x3f78ba1f	0.97159
26	0x3f547205	0.8298648
27	0x3f6ca31b	0.9243638
28	0x3f778478	0.96686506
29	0x3f69105a	0.91040576
30	0x3f72e21a	0.94876254
31	0x3f6ce302	0.92533886

body.block2.norm.bias f4 [32]
0	0x3f0e0a41	0.55484396
1	0x3eed61ec	0.4636377
2	0x3e69d1d3	0.22833948
3	0x3e86dd96	0.26340932
4	0x3ea226fc	0.31670368
5	0x3afe35f1	0.0019394738
6	0x3ea2bf38	0.31786513
7	0x3ed30850	0.4121728
8	0x3ea90c0b	0.33017
9	0x3c0bb54a	0.008527109
10	0x3e9784b2	0.29593426
11	0x3efa5a5f	0.48897073
12	0x3eb168b1	0.34650186
13	0x3e9a3367	0.30117342
14	0x3e8e4344	0.27785695
15	0x3f5741f9	0.8408504
16	0x3edb3d8c	0.42820394
17	0x3f47595f	0.77870744
18	0x3f1d5efa	0.6147305
19	0x3f0456fd	0.51695234
20	0x3eb2a500	0.3489151
21	0x3f587165	0.84548026
22	0x3eec0969	0.4610093
23	0x3eb23872	0.3480869
24	0x3e73a0bd	0.23791786
25	0xbd95147e	-0.07279299
26	0x3f30c5cc	0.69051814
27	0x3f18587e	0.5951003
28	0x3f0ca12f	0.54933447
29	0x3f2a9da9	0.6664682
30	0x3e0d833f	0.13819598
31	0x3f341c6a	0.70355856

body.block2.norm.running_mean f4 [32]
0	0xbf33a3a6	-0.7017158
1	0xbe6cd49d	-0.2312798
2	0x3f232bda	0.6373879
3	0xbf3c88d1	-0.73646265
4	0xbf15401a	-0.58300936
5	0x3f4a45b4	0.7901261
6	0xbf9aa4a3	-1.2081493
7	0x3dfdeb2f	0.12398373
8	0x3e4165a5	0.1888643
9	0xbf27ece4	-0.6559584
10	0xbf714cc4	-0.9425776
11	0x3d64e0da	0.055878498
12	0x3e4f3da0	0.20238352
13	0xbd317558	-0.0433248
14	0x3f624f2f	0.88402075
15	0xbe85078d	-0.25982323
16	0x3fa5acc3	1.2943348
17	0xbf562f16	-0.836656
18	0xbf3e52ae	-0.7434491
19	0xbed724f3	-0.42020378
20	0x3ea35e11	0.31907704
21	0xbfb28126	-1.3945663
22	0xbf25f1f8	-0.6482234
23	0xbf62a8ed	-0.8853901
24	0x3f0d0323	0.5508291
25	0xbf1c40d3	-0.61036414
26	0x3f024849	0.5089155
27	0x3f92980c	1.1452651
28	0x3e98c1c1	0.29835322
29	0xbcaf2949	-0.021381991
30	0x3fb408e3	1.4065212
31	0xbca8d5dd	-0.02060979

body.block2.norm.running_var f4 [32]
0	0x3f0b68ae	0.54456604
1	0x3ed1d134	0.40979922
2	0x3f1dd5f2	0.6165458
3	0x3f101452	0.56281006
4	0x3f837b6e	1.0272043
5	0x3f5880e6	0.84571683
6	0x3f244d1e	0.6418017
7	0x3f6504b9	0.8946033
8	0x3f32cd41	0.6984444
9	0x3f9e1ace	1.235193
10	0x3ef59817	0.47967598
11	0x3fa23b2d	1.2674309
12	0x3f343fb6	0.70409715
13	0x3fa2cb40	1.2718277
14	0x3f8c72dc	1.0972552
15	0x3ee07588	0.4383967
16	0x3f59c1a2	0.85061085
17	0x3f1914d1	0.5979739
18	0x3f1e5d8f	0.6186151
19	0x3fc975fb	1.573913
20	0x3f504e2f	0.813693
21	0x3f4b84fd	0.794998
22	0x3fa5ac19	1.2943145
23	0x3ea20847	0.3164694
24	0x3f29e4fa	0.66365016
25	0x3eb63bc3	0.3559247
26	0x3f3fb5db	0.74886864
27	0x3f0ad040	0.54224014
28	0x4019df5f	2.4042585
29	0x3ed59a62	0.41719347
30	0x3f195742	0.5989877
31	0x3f348925	0.70521766

body.block3.conv.weight f4 [32, 32, 3, 3]
0	0x3cdaad09	0.026693838
1	0x3dc0fb7b	0.09422966
2	0x3d0c2b99	0.034221265
3	0xbc031a95	-0.008001943
4	0x3ce1f900	0.027584553
5	0x3c7e9d5c	0.015540447
6	0xbcd75230	-0.026284307
7	0xbd2add80	-0.041715145
8	0xbc7ef2d5	-0.015560825
9	0x3d417a81	0.04723597
10	0x3b88c3eb	0.004173746
11	0x3d67fee8	0.056639582
12	0xbae3386c	-0.0017335541
13	0xbc7cff63	-0.015441748
14	0x3d1e54a7	0.03865495
15	0xbc864968	-0.016392425
16	0xbcd46f72	-0.025932048
17	0xbce89343	-0.028390532
18	0xbd0b630e	-0.034030013
19	0xbc10cdbc	-0.008838113
20	0xbd0e8ba9	-0.03480116
21	0xbd838d3a	-0.06423421
22	0xbbb17cd7	-0.0054164934
23	0xbd0cce1e	-0.034376256
24	0x3ca31c34	0.01991091
25	0x3d08ba10	0.033380568
26	0xbcd21dfe	-0.025649067
27	0xbcdca3de	-0.026933607
28	0xbce14f22	-0.027503554
29	0xbb707375	-0.0036689912
30	0xba2820af	-0.00064135616
31	0xbd0f23f6	-0.034946404
32	0xbc945811	-0.0181084
33	0xbc8e3cb1	-0.017362924
34	0xbd3fcfd2	-0.046829052
35	0x3d4e777e	0.050406925
36	0xbc188190	-0.009308234
37	0xbb6ef3cd	-0.0036461235
38	0xbb6864bf	-0.003546044
39	0x3d20621d	0.039156068
40	0xbd085684	-0.033285633
41	0xbd357a4a	-0.044306077
42	0x3d691041	0.056900267
43	0x3cb33f7f	0.021880863
44	0xbbd87b08	-0.0066064633
45	0xbc06c6d9	-0.00822612
46	0x3c855973	0.016278004
47	0xbd2af1a8	-0.041734368
48	0xbb89ef6e	-0.0042094504
49	0xbcb4bc19	-0.022062348
50	0xbd467fd5	-0.048461754
51	0x3b834f2e	0.0040072417
52	0xbd10ab7f	-0.0353198
53	0xbd670577	-0.056401696
54	0x3e00f176	0.1259211
55	0xbc913b3c	-0.01772844
56	0xbd819fcf	-0.06329309
57	0x3dcd9d8b	0.100398146
58	0xbc7178d9	-0.014738285
59	0xbd103b25	-0.035212655
60	0x3cf3c8f3	0.029758906
61	0x3cf2049c	0.029543214
62	0xbc9551f9	-0.018227564
63	0xbc85248c	-0.016252778
64	0x3cf76bad	0.030202711
65	0xbbdab7be	-0.006674736
66	0xbcd6a463	-0.026201433
67	0xbbbd28ac	-0.0057726707
68	0x3b1497e8	0.002267355
69	0x3ca62e7f	0.020285843
70	0x3ac16ff2	0.0014758094
71	0xbc4e0193	-0.0125736175
72	0x3d8b96ac	0.06815848
73	0xb9cb6081	-0.00038791078
74	0xbbd769d2	-0.006573894
75	0xbc1d88c3	-0.009615126
76	0x3cbc425c	0.022980861
77	0x3c374aa9	0.011187234
78	0xbcc04916	-0.02347235
79	0x3c5835c5	0.013196413
80	0x3dcc0670	0.09962165
81	0xbc38d2ea	-0.011280755
82	0xbd560682	-0.0522523
83	0xbda23c04	-0.07921603
84	0xbc6d101f	-0.014469176
85	0xbbd9720a	-0.006635909
86	0x3c46c9e3	0.0121330945
87	0xbbe97020	-0.007123962
88	0xbc26ca03	-0.010179999
89	0x3bd882bb	0.006607381
90	0x3acc7bae	0.0015600824
91	0xbc36ca82	-0.01115668
92	0xbd7908bf	-0.060799357
93	0x3cbda978	0.023152098
94	0x3c8b870e	0.017032173
95	0x3ca6b0a7	0.020347906
96	0x3cd1bd69	0.025603013
97	0xbc32293f	-0.010874092
98	0x3cd49092	0.025947843
99	0x3ce3c558	0.027804062
100	0xbd219152	-0.03944523
101	0xbc8ff5b6	-0.017573219
102	0x3cd44b14	0.025914706
103	0x3c71ac40	0.01475054
104	0xbcdcf6d3	-0.026973164
105	0x3d4cd257	0.050005283
106	0x3d941f32	0.072325125
107	0x3dfe358b	0.12412556
108	0xbc3e32cb	-0.01160879
109	0x3c75702e	0.014980359
110	0x3cdea418	0.027177855
111	0xbd03a8ab	-0.032143276
112	0xbc92ebec	-0.017934762
113	0xbb89f5af	-0.004210196
114	0xbd0a70dc	-0.033799037
115	0xbd41acc4	-0.047283903
116	0xbc869b7a	-0.016431559
117	0xbd338548	-0.04382828
118	0xbb8c44d2	-0.004280665
119	0x3cd2ca0e	0.025731113
120	0xbd0576a6	-0.032583855
121	0xbc290995	-0.010317226
122	0x3d049c73	0.032375764
123	0xbc8ef1e0	-0.01744932
124	0xbd07215d	-0.032990802
125	0x3cf598ee	0.02998015
126	0x3d64410a	0.05572609
127	0x3c84455d	0.016146356
128	0xbcefc14c	-0.029266976
129	0xbcc7c995	-0.024388114
130	0xbc009348	-0.007847615
131	0xb8f9e243	-0.0001191539
132	0xbcbd65e2	-0.02311987
133	0xbb30c1ae	-0.002697091
134	0xbcda15df	-0.026621757
135	0x3e001952	0.12509659
136	0x3cdebaba	0.027188648
137	0xbce13a74	-0.027493693
138	0x3d93c286	0.07214837
139	0x3da1b162	0.07895161
140	0x3da88db7	0.08230155
141	0xbc88181a	-0.016613055
142	0xbc1c594f	-0.009542777
143	0x3d42973a	0.047507502
144	0x3cc28caf	0.023748724
145	0xbd1a8395	-0.037723143
146	0xbdc2fb61	-0.09520603
147	0x398a0fe3	0.00026333248
148	0x3c927737	0.017879112
149	0x3b8a9b5c	0.004229946
150	0x3c83632c	0.0160385
151	0x3da5bd65	0.08092765
152	0x3d7f24ee	0.06229108
153	0x3d187046	0.037216447
154	0xbae26a96	-0.0017274197
155	0x3d154fb1	0.036452953
156	0xbc968f0c	-0.018378757
157	0x3d0f8b4d	0.035044957
158	0xbaf08cfe	-0.0018352566
159	0xbbed92ba	-0.007250157
160	0x3d07e2c3	0.03317524
161	0x3b75c0ce	0.0037498954
162	0x3cd5e302	0.026109222
163	0x3abfa5e8	0.0014621587
164	0xbd022216	-0.031770788
165	0x3cb81aba	0.022473682
166	0x3d12ad9b	0.035810094
167	0x3c700aed	0.014651042
168	0x3cd1c50e	0.025606658
169	0x3c9de634	0.019274808
170	0x3dbb61cc	0.09149513
171	0xbd643155	-0.05571111
172	0xbd993a54	-0.07481828
173	0xbd687dc6	-0.056760572
174	0xbd96e255	-0.07367388
175	0xbd4fc674	-0.05072637
176	0xbcd4e446	-0.025987756
177	0xbcbf111a	-0.023323584
178	0xbab18de3	-0.0013546314
179	0x3c97ca57	0.0185291
180	0xbcc57dd5	-0.024107853
181	0xbc79b089	-0.015239843
182	0xbcf65510	-0.030069858
183	0xbd707956	-0.058709465
184	0xbcbdaf97	-0.023155017
185	0x3a3a3c3a	0.00071043114
186	0x3d06b63f	0.032888647
187	0xbb191014	-0.002335553
188	0xbc48aade	-0.012247769
189	0xbc948788	-0.018131033
190	0xbd5a7098	-0.053330034
191	0x3d669a41	0.05629945
192	0x3d8f356d	0.06992612
193	0x3d392385	0.04519989
194	0x3e088c49	0.13334765
195	0x3c5ec112	0.013595836
196	0x3d61f913	0.055169176
197	0x3e18b8bf	0.14914225
198	0xbceccfae	-0.028907623
199	0xbcfd0ee2	-0.030890886
200	0x3b758b1b	0.0037466947
201	0x3d5be075	0.053680856
202	0x3d3b6a68	0.045755774
203	0x3d94db7c	0.07268426
204	0x3ddff3e6	0.10935192
205	0x3d583e09	0.052793536
206	0x3d94e56d	0.07270322
207	0xbb3d7c40	-0.002891317
208	0xbc650938	-0.013979249
209	0xbcd6ecd2	-0.026235972
210	0x3c94189d	0.018078143
211	0x3b9f4497	0.0048604715
212	0x3c622674	0.013803113
213	0x3cd6d461	0.026224317
214	0xba7877b8	-0.00094782887
215	0x3cb0a668	0.021563724
216	0xbcbabc1b	-0.022794774
217	0xbcb5e713	-0.022204911
218	0xbd15f68e	-0.036612086
219	0x3c95a4b2	0.01826701
220	0xbc85d9fd	-0.016339296
221	0xbd9798f1	-0.07402218
222	0x3c9d8496	0.019228261
223	0xbb797e57	-0.003806969
224	0xbd137215	-0.03599747
225	0xbcc771f3	-0.024346327
226	0x3d5f1062	0.054458983
227	0x3d3eb29b	0.04655705
228	0xbc9ce9f8	-0.019154534
229	0x3bdefc06	0.006804946
230	0x3d09b47f	0.0336194
231	0xbc6bd2e9	-0.014393547
232	0xbcf04de2	-0.029334012
233	0x3c43a650	0.011941507
234	0x3d08d4fd	0.033406246
235	0xbd9104c2	-0.070809856
236	0xbd935610	-0.071941495
237	0x3d11ecc4	0.035626188
238	0xbd221e23	-0.039579522
239	0xbda95953	-0.0826899
240	0x3d9ddef4	0.077085406
241	0xbce12cb3	-0.027487135
242	0x3d961a9a	0.073292926
243	0x3c469b81	0.012122036
244	0xbd2cbcc6	-0.042172216
245	0xbbd3c076	-0.006462152
246	0x3d34f7bf	0.04418158
247	0x3ccffbf9	0.025388705
248	0xbcb07dbd	-0.021544332
249	0xbd633d18	-0.055478185
250	0xbd49677d	-0.04917096
251	0xbd91a7a2	-0.071120515
252	0xbd6f70a0	-0.058457017
253	0xbd4c2630	-0.049841106
254	0xbd8b1bc0	-0.06792402
255	0xbd3d8576	-0.046269856

body.block3.conv.bias f4 [32]
0	0xbce6dd43	-0.028181678
1	0xbd83e393	-0.06439891
2	0xbcfc1a54	-0.030774273
3	0x3bf8d66f	0.007593922
4	0x3d0f86a5	0.035040516
5	0xbcb05361	-0.021524133
6	0x3bdc69ef	0.0067264955
7	0x3dbacdd7	0.09121292
8	0xbc51fc01	-0.01281643
9	0x3d673392	0.056445666
10	0x3d3db50e	0.046315245
11	0x3b8b118c	0.004244035
12	0xbd53ecd6	-0.051739536
13	0xbd326858	-0.04355654
14	0x3be8c26d	0.0071032555
15	0xbcb34433	-0.021883106
16	0x3d302ab9	0.043009493
17	0x3c024bd6	0.007952651
18	0x3db5bc5b	0.088738166
19	0xbc027f7d	-0.007964966
20	0x3e024d3a	0.12724772
21	0x3bab0c12	0.0052199448
22	0x3d853469	0.06504137
23	0xbda540eb	-0.08069023
24	0x3b0daa6e	0.0021616477
25	0xbcccbb8a	-0.02499177
26	0xbd8178c4	-0.06321862
27	0xbda053bb	-0.0782847
28	0xbc7f019d	-0.0155643495
29	0xbc7f7446	-0.015591687
30	0x3c597c02	0.013274195
31	0x3d267cc8	0.040646344

body.block3.norm.weight f4 [32]
0	0x3f90691c	1.1282077
1	0x3f9cfecb	1.2265257
2	0x3f9d4e05	1.2289435
3	0x3f863296	1.0484188
4	0x3f960b2c	1.1722159
5	0x3f7d81d5	0.9902623
6	0x3fa01616	1.250674
7	0x3f80b133	1.0054077
8	0x3f93e51e	1.1554296
9	0x3f81c238	1.0137396
10	0x3f7e88ef	0.99427694
11	0x3f8da067	1.1064576
12	0x3f92a2e4	1.145596
13	0x3fa2350d	1.267244
14	0x3f95ead2	1.1712286
15	0x3fb6a305	1.42685
16	0x3fc07938	1.5036993
17	0x3f899a72	1.0750258
18	0x3f814522	1.0099223
19	0x3f831af8	1.0242605
20	0x3f86c34e	1.0528352
21	0x3fa21957	1.2663983
22	0x3f81bbb9	1.0135413
23	0x3f8f9cd5	1.1219736
24	0x3f9d61d3	1.2295479
25	0x3f9adc3a	1.2098458
26	0x3f90e403	1.1319584
27	0x3f8fa698	1.1222715
28	0x3f970221	1.1797525
29	0x3f8cfa39	1.1013862
30	0x3f901834	1.1257386
31	0x3fab9bb7	1.3406895

body.block3.norm.bias f4 [32]
0	0x3f470d7f	0.7775497
1	0x3f32c278	0.69827986
2	0x3f3f9c2a	0.7484766
3	0xbf2390c7	-0.6389279
4	0x3f5da35a	0.8657738
5	0x3f519a76	0.81876314
6	0x3f1fe794	0.62462735
7	0xbf22ed5b	-0.63643426
8	0x3ed753cf	0.42056128
9	0xbf1981c2	-0.5996362
10	0xbf1c072f	-0.6094846
11	0xbeaca38e	-0.33718532
12	0x3f62e1a1	0.8862553
13	0x3e849e61	0.25902084
14	0x3f910a93	1.1331352
15	0x3e52938a	0.20564094
16	0x3f64dc7d	0.8939894
17	0xbf2a060d	-0.6641548
18	0xbf1f1edd	-0.6215647
19	0xbf1d55a9	-0.6145883
20	0xbf25210b	-0.64503545
21	0x3f434978	0.7628398
22	0xbf236a84	-0.63834405
23	0x3f4e973f	0.80699533
24	0x3f3e9abf	0.74454874
25	0x3e9c69cb	0.30549464
26	0x3f4e3350	0.80547047
27	0x3f844408	1.0333261
28	0x3f4086f8	0.75205946
29	0x3f92f3b9	1.1480628
30	0xbf19d36b	-0.60088223
31	0x3f38d217	0.7219557

body.block3.norm.running_mean f4 [32]
0	0x3f625395	0.88408786
1	0x4004e7c4	2.0766459
2	0x3f9fea51	1.2493383
3	0xbfa2ab51	-1.2708532
4	0x3f8af547	1.0856103
5	0x3dbbca48	0.091694415
6	0x3d7383c6	0.05945184
7	0xbfa72c75	-1.3060442
8	0xbf33122f	-0.6994962
9	0xbfb210a6	-1.3911331
10	0xbfaaf2d9	-1.3355361
11	0xbec88573	-0.39164314
12	0xbf6bf162	-0.92165196
13	0xbcdf60cb	-0.027267834
14	0xbf2ed348	-0.6829114
15	0xbe8189ca	-0.25300437
16	0xbd71cd41	-0.059033636
17	0xbfabf036	-1.3432682
18	0xbfa6472f	-1.2990474
19	0xbfba4f52	-1.4555457
20	0xbfac4a6b	-1.346021
21	0xbfd48ed4	-1.6606088
22	0xbfaa93b4	-1.3326325
23	0xbf8416bd	-1.0319439
24	0x3fdfb07f	1.7475737
25	0xbd8133c4	-0.06308702
26	0x3f326aac	0.6969402
27	0xbebacce3	-0.3648444
28	0x3fb528f3	1.4153122
29	0xbf5247c4	-0.82140756
30	0xbf96df16	-1.178683
31	0xbfac7d08	-1.3475657

body.block3.norm.running_var f4 [32]
0	0x3ff37e31	1.9022886
1	0x3fe76e6f	1.8080577
2	0x4016545d	2.3488991
3	0x3f1cebae	0.6129712
4	0x3ffc1484	1.9693761
5	0x3ea284cc	0.3174194
6	0x3f2c213c	0.6723821
7	0x3f271b95	0.6527646
8	0x3ef31b49	0.47481754
9	0x3f069639	0.5257297
10	0x3f135f06	0.5756687
11	0x3f0c8187	0.54885143
12	0x3fcd636c	1.6045966
13	0x3ef39cf4	0.47580683
14	0x3f2a5be5	0.6654647
15	0x3ed658ad	0.4186453
16	0x3f0fc1fd	0.5615538
17	0x3f02b56f	0.51058096
18	0x3f32c58e	0.69832695
19	0x3f28a9b2	0.65883934
20	0x3f1a04ca	0.6016356
21	0x3e8c14f1	0.27359727
22	0x3f2e2509	0.6802526
23	0x3f53e8b6	0.82776964
24	0x3fa07ceb	1.2538122
25	0x3e6df68d	0.23238583
26	0x3fa841b1	1.3145047
27	0x3fc76978	1.5579062
28	0x3fe097f5	1.7546374
29	0x3f891ebc	1.0712504
30	0x3f00aaa8	0.502604
31	0x3eccdfc2	0.40014464
