TrainedModels/0035-sample/scale_factor=0.750000,alpha=10/0/netG.pth (torch, 130902 bytes, 26 tensors)

head.conv.weight f4 [32, 4, 3, 3]
00000000: ad6d 923c 92d6 e6bb b4fa 3abd f10d 15bc
00000010: 91ad d13c 7a62 083c ddb3 f63b 994f b0ba
00000020: 91a2 bebd b0fe 103c 359b 043c fae1 993c
00000030: aa50 34bc b2a1 e1bc ecb1 943b e9ad c33b
00000040: 88ee 7a3c a113 ebbd 18da 043b 8170 de3b
00000050: 995c c53c 0890 063d 35ad 563c 523c 5ebb
00000060: 5f40 31bc 99a4 60bc cca6 e0bd 9e79 a6bc
00000070: d03e 54bc 456c b03b ef7b 8cbc 52bd 1f3a
00000080: 9d09 6a3c 42cd c7bb a65a 6439 0b60 eebd
00000090: 2aba cf3a 84e8 fbba cf92 2cbb 1474 86bc
000000a0: c188 e3bb 9b00 7f3c 2a29 87bc f0b8 16bc
000000b0: 8e4b a33d 1e62 00bc b7a6 893b 2bc3 e13c
000000c0: f122 863c a653 4dbc 5a50 31bb f693 963c
000000d0: 0310 16bd ace7 513d db10 2a3c 162f b43c
000000e0: f9a6 203c d0bb 1a3b 59e9 083c 4c8f 7d3c
000000f0: ef60 0dbc f4e1 b23b 6b7d d73d b87d 8bbb
00000100: a50e 63bc 65bb fabc 46dc 463c 8933 cb3b
00000110: 2bf9 cfbc 0bcd 083d e7b0 6b39 71cc 973d
00000120: f958 31bd e948 693c d3c1 173e d73e b63c
00000130: 4d52 a7bc 066a 0b3a 0cb0 bdbb ee9c abbc
00000140: 01b9 f63b 2cab fa3c 9098 d1bb 7f1b 043e
00000150: de4a c2bc d429 f2ba 5d7b 2bbc 017c b4bb
00000160: 777d 6db8 9472 73bc c3b4 1d3b 167c 8b39
00000170: abe8 e33d 6f94 7bbc 677b 1a3c 5604 0e3c
00000180: 6e40 e63c 8019 953c 60ba adbc dd74 193c
00000190: 6055 85bb bec6 033e ca68 ac3c 6dd1 263c
000001a0: 616f 45bb 11af 98bc 16a5 033c fb0b f43c
000001b0: 88f8 84bd 1a69 2a3c 6f0d 60bc b23b 10bb
000001c0: 6e8e 87bc 8875 da3c 951d 81bd fb35 cebb
000001d0: dd27 363c 48e1 86bd b3dd 8d3b 6745 0cbc
000001e0: 3c57 1a3d b592 ebbc 174b d0bc 50c1 cdbb
000001f0: 86ae c43c b700 10bb 4cbd cabc 6016 bcbc
00000200: 4577 403c 4bf5 ed3c 27a2 233d ca1d d5ba
00000210: b829 e8bc d76a 98bc 7ab0 2d3c 6f4c 4dbd
00000220: 154c 973b 3288 103c a94c b63c 4cae bf3b
00000230: 1c1c c339 cd86 1abd 6c03 feba edf8 b5bc
00000240: 95a2 a43b 4182 06bb dc10 d2bd efcc 283c
00000250: 16eb 4bbc 24a2 123b ab35 703c 1327 e4bc
00000260: fd79 5e3c 33a9 86bb 71e6 57bc fb72 debd
00000270: b0b6 6b3a 89ff 843c 4279 6c3c 1d96 453b
00000280: c3f8 c3bc 16a3 37bd 98b9 2039 724d 36bc
00000290: 5141 34be b91e 83bc 5951 443c 0f2f 36bd
000002a0: 37ab c3bc dcdf f13c c20c 583d edfa 593b
000002b0: 7d5c 023d 5b08 0dbe 55e7 d13b f4be 2dbc
000002c0: 1ca2 023d a05d 6b3c dddf bb3c e4d2 74bc
000002d0: 1998 17bd 3675 0b3c e537 da3c 2e06 8ebb
000002e0: 0a09 dc3c cf2a a9bc e880 de3c 7546 0d3c
000002f0: 6b21 80bd f3b5 f03c 8219 0fbb f2ce 98bc
00000300: a31f 3bbc 5b1c 1fbb 506b 943c 9863 20bd
00000310: 91e6 493c 5252 aabd b74c 3d3d 0738 7d3c
00000320: 6582 823c fa96 323c 51f9 82bc c29d 123c
00000330: f8dc ae3c ffe7 343c a7f3 ecbd d4ea b9bc
00000340: de17 febc 2ed0 b2bc ab69 c8ba 2706 c13a
00000350: 6938 b63a 656f a3bb 5af7 4d3b c1ef b1bd
00000360: 6d1c e7bc 5f65 90bc 0ace bdbd 85af e5bb
00000370: 9585 22bb d274 0b3c ac61 123c 3e11 04bd
00000380: 8962 cb3c 24bf 61bc f7ea c53c 591c cebd
00000390: 80e7 a53c eec4 c23b 4ea8 21bc 7ac0 fe3a
000003a0: 9607 173c c81c 23bd cc50 da3c eb53 743c
000003b0: 43cd e1bd 3dc4 c1bc c019 31ba d819 ff3c
000003c0: a6b6 acbb b4f1 773b c923 953c 5c8c a03c
000003d0: ccd8 24bc b518 dcbd 8919 883c 0e80 5b3c
000003e0: 9ae1 39bc 8670 843b 5c1a 7d3c 1cfa 2c3c
000003f0: 438f aa3b 9453 b33b e291 fa3b 292a e33b
0.017874563 -0.0070446217 -0.045649245 -0.009097562 0.025595458 0.00832426 0.0075287656 -0.0013451456
-0.09308351 0.008849785 0.008093645 0.018784512 -0.01100556 -0.027542923 0.0045378115 0.0059716594
0.015315659 -0.11478353 0.0020271596 0.006788314 0.024092006 0.032852203 0.013102819 -0.0033910465
-0.01081857 -0.013711118 -0.10969314 -0.020321663 -0.012954429 0.0053840005 -0.01714894 0.00060935796
0.014284519 -0.0060974667 0.00021777544 -0.116394125 0.0015848328 -0.0019219075 -0.0026332622 -0.016412772
-0.0069437926 0.015564109 -0.01649912 -0.009199366 0.07973395 -0.007835893 0.004200782 0.027558884
0.016374083 -0.01253215 -0.002705595 0.0183811 -0.036636364 0.05124633 0.010379995 0.021995109
0.009805434 0.002361048 0.008356416 0.015476059 -0.008629068 0.0054590646 0.105219685 -0.00425693
-0.013858472 -0.030606935 0.012137478 0.006201212 -0.025387367 0.03339867 0.00022477248 0.07412041
-0.04329774 0.014238575 0.14820032 0.022246761 -0.020424986 0.0005318228 -0.0057888087 -0.020948853
0.0075293784 0.0305992 -0.0063963607 0.12901114 -0.02371734 -0.00184756 -0.010466424 -0.0055079465
-5.662205e-05 -0.0148588605 0.0024064041 0.00026604597 0.11128362 -0.015355214 0.0094288355 0.008668026
0.028106894 0.018200636 -0.021207035 0.009366241 -0.0040690154 0.12868783 0.021046061 0.010181767
-0.0030126201 -0.018638166 0.008034965 0.029790869 -0.06492716 0.010401035 -0.013675078 -0.0022008237
-0.016547408 0.026667371 -0.063044704 -0.006293056 0.011117903 -0.06585938 0.004329407 -0.008561469
0.03768085 -0.028756479 -0.02542643 -0.006279148 0.024009 -0.0021973082 -0.024748467 -0.022959888
0.011747186 0.029047629 0.039949562 -0.0016259488 -0.028340206 -0.018605633 0.010601157 -0.05012172
0.004617224 0.008821534 0.022253351 0.005849635 0.00037214241 -0.037726212 -0.0019379682 -0.022213424
0.005024264 -0.0020524415 -0.10257122 0.010302766 -0.012446186 0.0022374475 0.014661233 -0.027850663
0.013578889 -0.0041095256 -0.0131775 -0.108617745 0.0008991761 0.01623513 0.014433207 0.003014929
-0.02392233 -0.044833265 0.00015327928 -0.011126863 -0.17603041 -0.01600586 0.011982285 -0.044478472
-0.023885353 0.02952569 0.05274654 0.0033261136 0.031826485 -0.13772719 0.0064057508 -0.010604609
0.03189288 0.014365584 0.022933895 -0.014942858 -0.037010286 0.008511832 0.02663798 -0.004334233
0.026859779 -0.020650296 0.027161077 0.008622755 -0.06256374 0.029383635 -0.0021835272 -0.018653367
-0.011421117 -0.0024278376 0.018117577 -0.03915748 0.012323038 -0.083164826 0.04621574 0.0154552525
0.015931318 0.010900253 -0.015988024 0.008948745 0.0213456 0.01104164 -0.115699105 -0.022694983
-0.03101724 -0.021827783 -0.001529028 0.0014726565 0.001390231 -0.0049876445 0.003142795 -0.086883076
-0.028211797 -0.017626463 -0.092678145 -0.007009449 -0.002479886 0.008511739 0.00893442 -0.032243006
0.024827259 -0.013778482 0.024159892 -0.10064001 0.02025199 0.005943886 -0.009866787 0.0019436025
0.009218117 -0.03982237 0.026649855 0.014912586 -0.11025479 -0.023653144 -0.0006755851 0.031140253
-0.005270797 0.0037833275 0.01820554 0.019598179 -0.010061454 -0.107469 0.016613739 0.01339723
-0.0113452915 0.004041734 0.015448179 0.010557678 0.0052050664 0.00547261 0.007646785 0.006932516

head.conv.bias f4 [32]
00000000: a201 0a3e 3f29 a9bc d078 223e f496 913d
00000010: 4bef 503d 496d c23d 8597 c93d c8f9 be3d
00000020: ed44 f43d 4e5a 843c ccbc 5b3d 6336 37be
00000030: bee6 0f3e 1a4a 22be 9672 1fbd d12a a83d
00000040: cca6 0fbd 6bdd f9bd 5cdf 1f3e 8236 0c3e
00000050: b619 ce3d d9d9 e4bd 200e 953d 408e 36bc
00000060: 1f79 d83c 3aa3 0b3e 34c5 7ebc e6c9 a13d
00000070: fadf 853d caa3 073e 2a94 f8bd f53a f93b
0.13477185 -0.02064955 0.15866399 0.0710887 0.051009458 0.09493501 0.09843353 0.09324986
0.11927209 0.016156342 0.053646848 -0.1789184 0.14052865 -0.1584858 -0.038927637 0.082112916
-0.03507118 -0.12200435 0.15612549 0.13692668 0.10063498 -0.11174364 0.07278085 -0.0111423135
0.026424943 0.13636485 -0.015549947 0.07899837 0.06536861 0.13246074 -0.12137635 0.007605905

head.norm.weight f4 [32]
00000000: 34d0 863f bf4f 713f dd2c 8e3f 94bc 783f
00000010: b4e1 7b3f 4575 843f 77c4 7b3f cab6 6d3f
00000020: ca33 833f 2079 833f af72 7f3f 74ee 743f
00000030: d104 883f b191 723f 8d7f 6c3f 1b38 6b3f
00000040: 8d38 713f 3074 7d3f 308a 7d3f 640f 8c3f
00000050: c496 683f d878 6f3f 4955 843f 8435 753f
00000060: 48ba 703f 84c6 873f 570b 6d3f 4234 883f
00000070: a1cf 833f 92e3 763f aad0 6f3f bd75 673f
1.0532289 0.9426231 1.1107441 0.9716275 0.9839127 1.0348288 0.98346657 0.9285704
1.025018 1.027134 0.9978437 0.9567635 1.062647 0.9475356 0.9238213 0.91882485
0.94226915 0.99005413 0.9903898 1.0942197 0.9085505 0.9354377 1.0338527 0.95784783
0.9403424 1.0607457 0.9259543 1.0640948 1.0297738 0.96440995 0.9367777 0.9041403

head.norm.bias f4 [32]
00000000: b256 2bbd 3e82 0dbd b7b5 6abc c601 3abc
00000010: d227 55bc bb2d 35bd 63df cbbc 73fb 54bc
00000020: 9406 a0bc 2eda 4cbc 624c 95bc e372 bdbc
00000030: 7579 8cbc e263 76bc d88f 38bd 6cd5 10bd
00000040: 8b9f 39bd 92db 19bd db75 dcbc c788 d3bc
00000050: 9664 bdbc aba1 adbc 9b1c 94bc 5eb1 c3bc
00000060: 7206 46bd 16cc 66bc 6ae3 38bd 0c49 8abc
00000070: 83bd 43bd 5a2c 82bc a42c 21bd 992f 25bd
-0.041830726 -0.034548037 -0.014325551 -0.011352962 -0.013009982 -0.044233065 -0.024886793 -0.012999403
-0.019534387 -0.01250319 -0.018224899 -0.023126071 -0.017147759 -0.015038462 -0.045059055 -0.035359785
-0.045318168 -0.037562914 -0.026911667 -0.025822056 -0.023119252 -0.021195253 -0.018080046 -0.023888286
-0.04834599 -0.014086744 -0.045138754 -0.016880535 -0.047788154 -0.01589029 -0.039349213 -0.040328596

head.norm.running_mean f4 [32]
00000000: c2a9 0a3e d37c adbc 2e8c 213e c378 923d
00000010: fc3b 543d a95c c33d 06cc ca3d 72ba be3d
00000020: c208 f53d 2499 803c 4847 593d 753f 37be
00000030: 021c 0f3e 5164 22be abd8 20bd 380a a83d
00000040: 069b 0fbd ad96 fabd 229b 1f3e b04d 0b3e
00000050: 0675 cd3d af81 e5bd 3687 963d 5b00 3cbc
00000060: 1902 d83c dd59 0c3e a1b8 7fbc 300b a03d
00000070: 7ddb 853d 3266 073e 0d22 f8bd 3fd7 ee3b
0.1354132 -0.021177685 0.1577613 0.0715194 0.051815018 0.09539158 0.09902196 0.09312905
0.11964561 0.015698023 0.053046495 -0.178953 0.13975528 -0.1585858 -0.03926913 0.08205074
-0.03505995 -0.122357704 0.15586522 0.13603854 0.10032086 -0.11206376 0.07350008 -0.011474694
0.026368188 0.13706155 -0.015607984 0.07814634 0.06536005 0.13222578 -0.1211587 0.007288843

head.norm.running_var f4 [32]
00000000: 8d71 e03d d050 6c3d 3b51 1e3e ed9d 1f3d
00000010: 8657 233e 1771 923d bcb8 c93d 5754 193d
00000020: 1b15 823d 3784 813d 85d3 933d 46cf 283d
00000030: 86ad 173e f4e3 1a3d a999 f33c 9f09 fa3c
00000040: d989 c53c 40c9 203d 92f2 ec3c 764d 223e
00000050: b6f2 053d f545 063d 59ec e53d d656 163d
00000060: db01 163d 3af7 f83d 293f 023d 33fd 083e
00000070: cfb7 033d f744 da3c 9f9b 123d 05c8 1c3d
0.10959158 0.057694256 0.15460674 0.03896897 0.15951356 0.071504764 0.098496884 0.03743395
0.06351682 0.06324046 0.072180785 0.041213296 0.14812288 0.03781505 0.029736357 0.030522166
0.024113582 0.039254427 0.02892426 0.15849862 0.03270217 0.03278156 0.1122672 0.036703907
0.036622863 0.1215653 0.031798515 0.13377838 0.032157715 0.026644213 0.035792943 0.03827669

body.block1.conv.weight f4 [32, 32, 3, 3]
00000000: 47ab 5cbd 9d61 183d 1a70 ed3c 35f2 fc3a
00000010: 5729 cd3c 8985 903c ee1c c83b 826a 173c
00000020: f09d 5e3d 5d5a 0c3b fc23 003b 5667 3bbb
00000030: a886 fabb 32cf a1bc cccd 9c3b fa65 db3b
00000040: 34b6 99bc a9fb 263c 46fb a13c a629 063d
00000050: 298e a53d 9f1c abbc 7f6c 2c3c f936 653c
00000060: 43d7 1abc c621 243c 4187 3a3b 8d7c f03c
00000070: 6f2a a03d 8a04 a3bb 53be 8ebd 2f1d cabc
00000080: bab0 fe3a 74e9 943b 10ff 8a3d da84 0bbd
00000090: 941b 1e3c f874 05bd a0aa 183d e318 d63b
000000a0: 6f40 a0bc f016 faba 7acf 9dbd 805d c63a
000000b0: e699 8d3c 7d3a dcba cac3 f03a 3212 4abc
000000c0: 4e0b 85bc 219c f6bc 4a78 2e3d e454 003c
000000d0: ded6 693c 6e5e 253c 7f00 793c 2cbf f5bb
000000e0: d4a5 433d bb23 8d3c c006 0abd 333b 8fbc
000000f0: 5fe5 fb3b 4674 f53c 7641 3f3d f83b a63c
00000100: ae1b 163c e801 f8bc 8205 3dbd 60ab 4abb
00000110: a6f6 f73c 2fa2 0f3d 05b4 893a 21d8 a2bc
00000120: 8ced 5f3b 5dcd 163c d0ff 343d b7e4 49bc
00000130: a11b 5bbb 15ff 453d edc8 9cbb eb92 283d
00000140: bd34 d9bc 0974 393d 31d8 933b bbe8 18bc
00000150: 62c9 07bd 1f87 613d 6c5e af3c ecc7 823b
00000160: 1839 8b3c 8f4c 83bc ebdd cebc f053 533d
00000170: e390 9eba 36f7 b1bc 390b 33bb 04fb 873c
00000180: a626 0c3d c5e9 bd3c 0d39 31bb 2524 29bc
00000190: 1805 9bbc 604b 413b 27a7 d23c d1fb 933b
000001a0: 9e69 5ebd 64c7 3bbb 2aa0 eebb b6a1 6a3c
000001b0: d2c1 c0bc a020 8cbc 84b2 823b c3db 373c
000001c0: 0cad 1839 3ba4 f2bc 2791 31bc 32be 83bc
000001d0: 0582 793c 20ff eabc 9154 2dbc 98f4 93bb
000001e0: 3f83 51bc 4eb1 4cbd 1a51 983c 86a0 4d3a
000001f0: 892d 60bc 9594 993c 5d3d b23b b3af f2bc
00000200: e108 36bc 1302 efbb fbbf 8cbb a9cf a9bc
00000210: 3b41 adba bb2d 21bc a7a5 413c a170 63bc
00000220: 4524 4e3c 96b5 023c 18de fe3a 3821 a5bd
00000230: 7669 4bbd fcbb 803c 982e 1fbb dcef f13c
00000240: 9c9f aa3c 87be 5dbb 7210 20bc ec39 6abc
00000250: b176 cfbc 54d0 e9bc 08b3 c83a 4a20 0ebd
00000260: ef21 a4bc 2822 1bbd 1184 9e3b 4b51 153d
00000270: 4b89 51bc 6263 4f3c e00b 0a3c c1bd cbbb
00000280: 46a8 c2bc 2636 75bc 386a 41bd edde 99bb
00000290: 0a7e 32bd 8531 fd3b 034f 3b3b b994 cfbb
000002a0: 04b4 473d 8d9d fb3b c46d f7ba 7112 4e3c
000002b0: bb3e a1bc d266 82b8 772b 41bc af63 343c
000002c0: 48ae 693d f377 5e3d efb3 683d 762b 9f3d
000002d0: 6045 dd3c 60df 293c 694c 7abc a9ab 93bb
000002e0: 6a24 02bd 0931 94bc a587 e43b 35bb 8ebc
000002f0: 9f82 bb3b 3a1f 933d aa0d 763c 70c9 c8bb
00000300: 2d78 4cbc ece4 9d3c 0704 6bbc fc81 ca3c
00000310: 0610 9dbc 8549 b6bc 9863 873c 4429 21bc
00000320: eada 393c ceb0 b53c 10c2 81bc 4573 c6bc
00000330: bdd7 40bd 743a c33b 0a00 df3c 0fe1 3ebb
00000340: 767b 443c 135b 2138 a6ba 3ebb 50c3 d8bc
00000350: 2dcf d93b d1d2 1c3d 0308 5d3a 0125 fc3c
00000360: 3175 9a3c 200d 493b ca16 8e3b 3a57 113c
00000370: a32c fbbb a92f a4bc baa7 383c 957a c83c
00000380: 0008 bdbc fe9a cc3c 97c7 e83c e7d2 493d
00000390: 1b50 c23b 5118 d5bc de11 87bc f847 e3bc
000003a0: 29d5 21bc 63bd 42bc 817c 03bd 1d21 1abd
000003b0: 85bd d93c c07a 193c 28d0 84bb eef6 963b
000003c0: 66cf 97bc 7b2c 26bc d9a4 233b ecba 963b
000003d0: fa72 1c3d 4955 b93c 9e42 603b 7fc0 323c
000003e0: a2aa c93b edc1 183d 7fc2 0cbc 25ef 89bc
000003f0: b273 8dbc 6db9 9abc 8692 5fbd 1585 1cbc
-0.05387428 0.037202466 0.028984118 0.0019298258 0.025044126 0.0176418 0.0061069643 0.009241702
0.05434984 0.0021416165 0.0019552698 -0.0028595529 -0.007645447 -0.019752119 0.004785275 0.006695506
-0.018763639 0.010191836 0.019773137 0.032754563 0.080837555 -0.020887671 0.010523914 0.013990157
-0.009450736 0.010017818 0.0028461965 0.029356265 0.078205936 -0.0049749063 -0.06969895 -0.024672119
0.0019431331 0.0045444313 0.067869306 -0.034062244 0.00965013 -0.032582253 0.037272096 0.0065337284
-0.019561974 -0.0019080322 -0.07705589 0.0015134066 0.017285299 -0.0016802099 0.0018368897 -0.01233344
-0.016240742 -0.030103745 0.042595185 0.0078327395 0.01427242 0.010093315 0.015197872 -0.007499596
0.047765568 0.017228952 -0.033697844 -0.017484283 0.0076872553 0.02996267 0.046693288 0.020292267
0.009161873 -0.030274346 -0.04614783 -0.0030924901 0.030268978 0.03506678 0.001050592 -0.019878449
0.0034168689 0.009204236 0.044189274 -0.012322596 -0.0033433216 0.04833897 -0.0047846944 0.041155737
-0.026514405 0.045276675 0.004511856 -0.009332831 -0.033151038 0.055060502 0.021407329 0.0039911177
0.016994998 -0.016027717 -0.025252303 0.05159372 -0.0012097623 -0.021724325 -0.0027319922 0.016599186
0.034216546 0.023182759 -0.0027042062 -0.010323559 -0.018923327 0.002949439 0.02571447 0.004516103
-0.054299943 -0.0028652782 -0.0072822766 0.014320781 -0.02352992 -0.0171054 0.003988566 0.011221829
0.00014560315 -0.029619327 -0.01083783 -0.016081903 0.015228753 -0.028686106 -0.010579244 -0.004515242
-0.012787639 -0.04997378 0.01859336 0.0007844049 -0.013682731 0.018747607 0.005439444 -0.029624796
-0.011110515 -0.0072939484 -0.004295347 -0.020728903 -0.0013218293 -0.009837563 0.01181928 -0.013881833
0.0125818895 0.007977864 0.0019444851 -0.080629766 -0.049661122 0.015714638 -0.0024289247 0.02953332
0.02082806 -0.0033835487 -0.009769546 -0.014296036 -0.025325151 -0.028541721 0.0015312145 -0.034698762
-0.020035712 -0.03787437 0.004837521 0.03645448 -0.012789081 0.012657972 0.008425683 -0.006217689
-0.02376188 -0.014966523 -0.04722044 -0.0046957643 -0.04357723 0.0077268505 0.002858103 -0.006334868
0.04875566 0.0076786936 -0.0018877317 0.012577639 -0.019683233 -6.218035e-05 -0.011790148 0.011010095
0.057050973 0.05431361 0.056812223 0.077719614 0.02701062 0.010368198 -0.015277007 -0.0045065475
-0.03177301 -0.018089788 0.006974178 -0.017423252 0.0057223584 0.0718369 0.015017906 -0.006127529
-0.012479824 0.019274198 -0.014344222 0.024720185 -0.01917268 -0.022251854 0.016526982 -0.009836499
0.011343697 0.022179034 -0.015839607 -0.024224887 -0.047080744 0.005957896 0.027221698 -0.0029125845
0.011992326 3.847021e-05 -0.002910295 -0.02646032 0.0066470117 0.038286988 0.0008431675 0.030779364
0.01885471 0.003067799 0.0043362128 0.008870894 -0.007665233 -0.020042257 0.011270458 0.024472514
-0.023075104 0.02497625 0.028415484 0.049273398 0.0059299595 -0.026012572 -0.016488012 -0.027744278
-0.0098774815 -0.011885974 -0.032101158 -0.037629236 0.026579628 0.009367645 -0.0040531345 0.004607073
-0.018531512 -0.010142441 0.0024970083 0.0045999195 0.038195588 0.022623675 0.0034219394 0.010910152
0.006154374 0.037294317 -0.008591293 -0.016837666 -0.017267082 -0.018887246 -0.054583095 -0.009553214

body.block1.conv.bias f4 [32]
00000000: 0f0d 453d 907f 00bd 7ea1 65bd cca3 8dbc
00000010: 0b9d f4bc 0fe2 d23c 63b0 7cbd 13f8 7f3d
00000020: 4c54 733d 6007 7e3c 49d4 dc3c 2dc8 6dbc
00000030: a8ba 37bd 8624 45bc b435 f1bc 8e24 61bc
00000040: 0888 31bc c097 95bc 83dc e63b 5f62 4cbd
00000050: 6761 62bd 105c 27bd 280f 493d 36b1 8b3c
00000060: d2c2 19bd 7722 8cbd 54f8 473c bbec f93b
00000070: c1b0 9f3d b946 14bd 8969 f0bb ebab 18bc
0.048108157 -0.031371653 -0.056062214 -0.017290018 -0.02986004 0.025742559 -0.061691653 0.06249244
0.059406564 0.015504688 0.026956694 -0.014513058 -0.044855744 -0.012032634 -0.029444553 -0.0137416255
-0.010835655 -0.018260837 0.00704533 -0.0498985 -0.05526867 -0.040859282 0.04908672 0.017052274
-0.03753931 -0.06842511 0.012205202 0.0076270974 0.07797385 -0.03620026 -0.0073367995 -0.009318332

body.block1.norm.weight f4 [32]
00000000: c772 6d3f 0bda 853f ab5b 773f 807d 7a3f
00000010: 7340 783f 0d1e 753f 146a 813f eea9 6b3f
00000020: 5f49 773f 4909 763f 0407 903f 6021 733f
00000030: 6904 603f c32e 923f dee8 703f ab8b 6a3f
00000040: 857b 903f 9052 743f f8ca 7b3f 01fc 703f
00000050: c8cf 763f b2f2 733f e319 8f3f 5d44 6a3f
00000060: be53 873f 26ca 713f ee69 7a3f 2da8 773f
00000070: d8fd 6c3f d25c 803f 6c8a 783f 9870 743f
0.9275326 1.0457166 0.9662425 0.9784775 0.9697334 0.9574898 1.0110497 0.9205617
0.9659633 0.9610792 1.1252141 0.949728 0.8750673 1.142052 0.9410533 0.91619366
1.1287695 0.9543848 0.9835658 0.9413453 0.964108 0.952922 1.1179775 0.91510564
1.0572431 0.9444908 0.97817886 0.9674099 0.92574835 1.0028327 0.97086215 0.95484304

body.block1.norm.bias f4 [32]
00000000: 4868 87bd 7550 1a3b dfeb 2cbd d2da 04bd
00000010: d302 92bc 7315 ffbc 5322 2b3c 4e4b f5bc
00000020: 922c 07bd 7138 4bbd c18b 503d 59d5 d2bc
00000030: c889 08bd 412e fd3c 1cec f5bc 16e1 adbc
00000040: d834 e0bd 6bcd f9bc 7e9a 953c bbf8 86bc
00000050: 56ab f7bc 2c9d 4c3c 81aa 5dbc 3b7a 01bc
00000060: 3e40 02bd 29a7 54bd 7749 a4bc fa9f a4bc
00000070: 8893 41bd 5a40 fd3b 3c1c ac3a 4c20 c7bc
-0.06611687 0.0023546491 -0.04221713 -0.032435246 -0.017823612 -0.031138157 0.010445195 -0.029943135
-0.03300149 -0.049614374 0.05091453 -0.025736498 -0.033334523 0.030905845 -0.030019812 -0.021225493
-0.10947579 -0.030493459 0.018262144 -0.016476026 -0.030233067 0.012488645 -0.013529421 -0.007902677
-0.031799547 -0.05191723 -0.020054562 -0.020095814 -0.047259837 0.0077286186 0.0013130973 -0.024307393

body.block1.norm.running_mean f4 [32]
00000000: c9f2 0f3e 0896 f5be 59aa 8b3e e157 b5bd
00000010: 594a 62be 6fe6 553f caf4 a2be 09c7 3fbf
00000020: ae89 afbd 7920 1cbf e448 efbe ecf4 113f
00000030: a326 5e3e 1e5b f0be e1f7 d1be cc37 d03d
00000040: b630 04bf 29a5 083f e369 703f 455e 6f3e
00000050: d1ca 97bb 2678 1e3f 391e f2be 6686 123f
00000060: 98b1 cdbe 130c d53e 9a36 08be 737a 3c3e
00000070: 6575 283f 4299 2dbf 1bd0 4e3f 4efb f9be
0.14057459 -0.47966027 0.27278402 -0.08854652 -0.22098674 0.8355474 -0.31827384 -0.7491308
-0.08571182 -0.6098705 -0.467353 0.57014346 0.21694426 -0.46944517 -0.4100943 0.101668924
-0.51636827 0.53377014 0.9391157 0.23375805 -0.004632332 0.6190208 -0.47288683 0.57236326
-0.40174556 0.41610774 -0.13302079 0.18406086 0.6580413 -0.6781198 0.80786294 -0.48824543

body.block1.norm.running_var f4 [32]
00000000: 8fc2 d73e 5a83 623e abee 9f3e ba9f d63e
00000010: aace b83e 62da ed3e 90b8 073e 5c35 d43e
00000020: e6aa dd3e 706f c93e 06e7 8b3e 26e8 ee3e
00000030: cfb7 8c3e ef84 6f3e 1dcf e63e ba91 9c3e
00000040: b82d 593e 500d a23e 1bb9 d53e cdbb 7b3e
00000050: 5513 953e 12bd b73e c805 7a3e 2aeb 883e
00000060: 57ac 563e 59f8 b83e d0c6 f43e e9fc 763e
00000070: 316d 073f 9072 dd3e 8491 fa3e 2b77 053f
0.42140624 0.22120419 0.31236777 0.41918737 0.36095172 0.46455675 0.13253999 0.4144696
0.43294448 0.39342833 0.27324694 0.4666149 0.27483985 0.23390554 0.4507989 0.3057993
0.21208847 0.31650782 0.41742787 0.24583359 0.29116312 0.35886437 0.24416268 0.26741916
0.2096418 0.36126974 0.47807932 0.24119915 0.5290099 0.43251467 0.48939145 0.5213496

body.block2.conv.weight f4 [32, 32, 3, 3]
00000000: f09a ae3c 9c76 bb3c d07e cc39 be9f 213c
00000010: 26a6 21bc daff b63c a935 fcbb 33a1 8d3c
00000020: 4a59 c7bc 6955 a7bc a3b7 e0bc 442a 303c
00000030: ef93 dfbc 2e1b 0bbd cb06 583d 8bd1 20bd
00000040: 7d7f 4ebc c3fb 433c d776 31bc b520 8ebc
00000050: 2c5a ddbc 560f ccbc 6fd5 7fbc ccb5 d6bc
00000060: 0790 763c 77a6 933a 379e 8bbc e979 4fbd
00000070: 4160 9eba 4329 273d e20e 9a3c ba49 843a
00000080: 6297 183b 4c96 9cbc ae12 5f3c fd39 f23c
00000090: d56a ca3b a56f 123d 49a6 ee3b 0709 fe3c
000000a0: 5622 b9bb daf3 883c 9a25 80bb 3510 0dbc
000000b0: bca5 11bc af9e a23c 4469 683c dce3 c7bc
000000c0: 2cf1 93bc 5d8f 73bc 0ca3 a23b b2c9 633a
000000d0: 96cd 9d3c d09b 80bc 357c 133c 5e70 24bb
000000e0: ad84 75bc c436 323b 3ab2 0c3d aa3d c6bb
000000f0: 5235 4e3d 51ce 7b3c b666 95bc 2437 953c
00000100: 9dc1 ebbc 312e a33c 3e66 1ebc d04b 543c
00000110: 0aa5 5d3c 7162 a4bb 11f9 20bd 397f a6bb
00000120: b9b9 233d 6bec e93b 6a9b b73c e2a1 b6bb
00000130: da89 853c edd7 f13b 07f0 d2ba b419 56bc
00000140: 010a d93c 17c5 4b3c ffa2 333c 24b3 80bc
00000150: 4b3c 153c e127 1d3b 7c31 d23c 7c6d e0bb
00000160: 748f 83bb c5c4 59bc 8550 4fbc f224 edbc
00000170: 9620 df3b 210b 933c 2b19 08bc b2cc f8bc
00000180: 5705 013c 7234 96bc e263 b83b 6a50 45b9
00000190: 4999 743c b61a 8ebb bea2 b03c 0065 e43c
000001a0: 2a51 4c3c 3661 233d cb1d a23c fc04 cbbc
000001b0: 210f b93c 1cb0 0e3d 2bee 78bd 1440 2d3c
000001c0: 25da aabb 080d 15bd 7c5d 673b 165f da3b
000001d0: cd3a 4b3b ab27 45bd 1162 42bd 6d0d f33d
000001e0: 3062 0bbd 99c9 f5bc 2241 173e 4749 71bc
000001f0: 4669 66bc 835e e93d 6804 44ba 8108 173c
00000200: 0ef3 18bb f39c 0e3c 9314 053c b29f 9cbc
00000210: 0bd2 383c b8de dabb e3fb c2bc 93f9 833c
00000220: f11e e23c ef69 64bc 9f00 0dbc 51e4 b63c
00000230: dd49 4abc bd2b 053d 8e1d e83c 2585 d9bc
00000240: 8b95 85bd 2b9f 03bd 8831 033b e343 a1ba
00000250: a94c bcbc 1c01 9a39 6be7 663d 776c dd3b
00000260: 9631 5c3b df1d 983c 376b 993c feb0 49bd
00000270: 199a 4b3c 46ff ff3b 1b2b 16bd 7af1 263c
00000280: c094 dc3c 11d5 a1bc a706 ce3c 48f4 163c
00000290: 3b58 3cbd 0025 80bc 17ca 8d3c 6030 92bc
000002a0: 7ea1 3ebc c92c 21bc 1ea3 a43c 1577 343d
000002b0: ecc2 923d 58bf 5abd 2414 383c f0c4 bb3b
000002c0: 3cfb b1bc 2f18 dd3c a4b9 b1bc 7f26 10bd
000002d0: 485b 433d 8671 66bb 2a8a 703a fcdf 673c
000002e0: 3fa2 f03c 62fd 653c 883c d8bc 8e35 1b3c
000002f0: b953 98bc 8183 0a3d 1dfb 0b3c 6eec d3bc
00000300: d3d1 fa3c 74ee 8e3c d75c 32bd dae9 d73c
00000310: af86 b73c 4897 1bbc c550 67bd 9bb1 18bd
00000320: 6f0b a8bc 49da 06bc fba2 2cbc 3849 293c
00000330: 0eb6 403c 4d9f 6a3a 7218 6f3b 9c33 113c
00000340: 5ae2 99bb 9b20 7dbc d008 d1bc 4431 433c
00000350: e873 dbbc 824e a7bc f154 01bc 5d44 723c
00000360: 37d6 183a df1f 84ba 1721 c13d 7825 88bc
00000370: 7caa 87bc ee4d e23d 520d abbc 1df2 f0bc
00000380: 1a59 f93d 9419 323b 57d0 7cbb f380 41bc
00000390: 3a76 a53c 9ba1 8d3a fdf9 00bc e278 1d3d
000003a0: f9d9 d5bb 13d0 99ba 92b5 893c 8aef 8f3c
000003b0: 528e 24bc 0762 a0bb f7cc 073d a13a 143c
000003c0: 0226 e9bb 24b3 233c 03a6 35bc 40c3 9d3b
000003d0: 49ee 86bb 5495 a9bc d9d5 2ebb 4299 c03b
000003e0: 6617 35bd 8860 833c 9fd7 14bc 813a a9bc
000003f0: 9f88 2bbc 1914 e83c 13de 89bb a930 a9bc
0.021314114 0.022883706 0.00039004395 0.009864746 -0.009866273 0.022338796 -0.0076968265 0.01728878
-0.024334569 -0.020426469 -0.027431315 0.010752264 -0.02729222 -0.033961467 0.052740853 -0.039262336
-0.012603638 0.01196188 -0.010831556 -0.01734958 -0.027020536 -0.024909656 -0.015614851 -0.026209734
0.015048987 0.001126482 -0.017043216 -0.050653372 -0.0012083129 0.040810835 0.018805925 0.0010092773
0.002328359 -0.019114636 0.013615293 0.029568667 0.006177286 0.035751004 0.0072830063 0.031010164
-0.005649845 0.01671784 -0.0039107325 -0.008609821 -0.008889612 0.019851057 0.0141852535 -0.024400644
-0.018059336 -0.014865723 0.0049632844 0.0008689418 0.01926307 -0.015699297 0.009001781 -0.002509139
-0.014985246 0.0027193287 0.034349658 -0.0060498314 0.05034382 0.015369014 -0.018237453 0.01821477
-0.028778845 0.019919487 -0.009667931 0.012957528 0.013528118 -0.005016618 -0.03930003 -0.005081084
0.03997204 0.007138779 0.022412974 -0.005573497 0.016301084 0.0073804767 -0.0016093262 -0.013067652
0.026494028 0.012437127 0.010964154 -0.01571042 0.009108613 0.0023980069 0.025658362 -0.006848989
-0.0040149037 -0.013291542 -0.012653475 -0.028948281 0.0068093045 0.017949643 -0.008306782 -0.030371044
0.007874808 -0.018335555 0.0056271413 -0.0001881734 0.014929124 -0.0043366803 0.021561977 0.027880192
0.012470523 0.03988763 0.019789597 -0.02478265 0.022590222 0.03483592 -0.06077401 0.010574359
-0.005213993 -0.03638938 0.0035303524 0.006664167 0.003101039 -0.048133533 -0.047456805 0.11867795
-0.034029186 -0.030003356 0.1477094 -0.014726943 -0.014063185 0.1139498 -0.0007477463 0.009218336
-0.0023338231 0.008704412 0.008122581 -0.019119117 0.011280547 -0.006679382 -0.02380175 0.016110217
0.027602645 -0.013941272 -0.008606105 0.022325667 -0.012346712 0.032512415 0.028334405 -0.026552746
-0.06522664 -0.032134216 0.0020018537 -0.0012303557 -0.022985773 0.00029373995 0.05637304 0.006757315
0.0033598891 0.018568931 0.018727882 -0.04924106 0.012426876 0.0078124134 -0.036662202 0.010189408
0.026926398 -0.019754918 0.025149656 0.009213515 -0.04598258 -0.015642643 0.017308278 -0.017845333
-0.011635182 -0.009837338 0.020097312 0.044058878 0.07166085 -0.053405136 0.011235271 0.005730264
-0.021726243 0.02698907 -0.021694966 -0.035192963 0.047694474 -0.003516288 0.00091758615 0.014152523
0.02937424 0.014037462 -0.026396051 0.009473218 -0.01859461 0.03381682 0.008543757 -0.025869574
0.03061763 0.017447688 -0.04354557 0.026356626 0.02240309 -0.0094965175 -0.056473512 -0.037278753
-0.020513264 -0.008230754 -0.010536904 0.010332398 0.011762155 0.0008950129 0.0036483076 0.008862402
-0.0046961727 -0.015449668 -0.025516897 0.011913601 -0.026788667 -0.020423178 -0.007893787 0.014786807
0.00058302603 -0.0010080299 0.094301395 -0.016619429 -0.016560785 0.1105002 -0.020880375 -0.029412324
0.12175198 0.002717589 -0.0038576329 -0.011810529 0.020197976 0.0010805608 -0.007872102 0.03844536
-0.0065262285 -0.0011734985 0.016810212 0.017570276 -0.010043697 -0.0048944983 0.033154454 0.009047181
-0.0071151266 0.009991441 -0.011086944 0.0048145354 -0.0041177613 -0.020701088 -0.0026677756 0.0058776448
-0.044211768 0.01603724 -0.009084611 -0.02065778 -0.010469585 0.028329896 -0.0042073815 -0.020653086

body.block2.conv.bias f4 [32]
00000000: 5534 19bc 0bf1 0a3d d554 dbbb a736 8cbd
00000010: bebd d5bc 98fe 163d 188b 523c 7c8f 12bc
00000020: 6900 dbbc 7e55 723d c330 77bd 9559 d33b
00000030: e9de dc3b 6aba 023d 87dd 3fbd 976c 5abc
00000040: 7541 fdbc 285f cc3c 16ca 35bc 7981 973d
00000050: d8d8 833c 4e99 68bd 63e5 e63c ae90 dbbc
00000060: bc75 e1bc f67f 143d 4d13 91bd 1628 753c
00000070: 69aa 04bd b6f6 cf3a 9be9 e9bc 00ee 1cbd
-0.009350856 0.033921283 -0.0066934624 -0.068463616 -0.026091453 0.036863893 0.012850545 -0.008945342
-0.026733594 0.059163563 -0.060349237 0.006449888 0.00674044 0.03191606 -0.046842124 -0.013331554
-0.030915001 0.024947718 -0.011095544 0.07397742 0.01609461 -0.056786828 0.028185552 -0.026802387
-0.02752196 0.036254846 -0.070837595 0.0149631705 -0.03238908 0.0015866372 -0.028553775 -0.038312912

body.block2.norm.weight f4 [32]
00000000: c098 863f 53cc 683f a409 793f 9be8 6e3f
00000010: b248 6a3f 08bc 7e3f 2931 873f d46e 7c3f
00000020: 1fc2 893f a1e4 673f 04fb 7f3f 02fe 803f
00000030: 9744 813f 6e79 703f bb2a 7e3f 08aa 7b3f
00000040: 6913 7b3f f5ca 743f 4d4a 823f b0d6 883f
00000050: 66e2 823f 0136 7b3f 3cb6 863f 76cb 883f
00000060: e170 663f 14ea 7e3f 466b 7c3f 6114 7a3f
00000070: bf2c 763f 299d 803f f7d4 623f 6f7e 8a3f
1.0515366 0.90936774 0.97280335 0.9332368 0.91517174 0.9950566 1.0561877 0.9860661
1.0762366 0.90583235 0.99992394 1.0077517 1.0099057 0.93935287 0.9928395 0.9830632
0.9807649 0.9562219 1.0178925 1.0690517 1.0225341 0.9812928 1.0524364 1.0687091
0.9001599 0.99575925 0.98601186 0.97687346 0.9616203 1.0047961 0.8860621 1.0819834

body.block2.norm.bias f4 [32]
00000000: e764 13be 4ebf 50bc c9ae 8fbc 1eef 2abd
00000010: cfae 09bd 62b1 89bc 4162 81bc d09f dc3c
00000020: 63ef 8ebd a841 66bc 65e9 3a3d 5022 43bd
00000030: 5f3b 893b f75d 83bd e7fd b33c 425e e7bc
00000040: e7ef af3c be34 043c d011 85bb 8259 06bd
00000050: c8c0 b1bd 9524 3f3d 1f03 4fbd bbc5 68bd
00000060: 361f 75bd aa0b 0fbd 7f31 e1bc 4320 8e3b
00000070: d06e d9bc ae3f dc3c ce5c 85bd 42b8 cebd
-0.1439396 -0.012740923 -0.017539399 -0.041731946 -0.033613976 -0.016808216 -0.015793921 0.026931673
-0.06979253 -0.01405374 0.04563274 -0.047640145 0.004187986 -0.06414407 0.021971656 -0.028243188
0.021476699 0.008069215 -0.0040609613 -0.032800205 -0.08679348 0.046665747 -0.050540086 -0.056829195
-0.05984422 -0.034923233 -0.027489422 0.004337342 -0.026542097 0.026885834 -0.06511842 -0.10093738

body.block2.norm.running_mean f4 [32]
00000000: 9567 fb3d a970 213e 5fe7 2fbe 1ea5 17bf
00000010: b471 e4bd 8f70 fabe 59e8 57be a0ff 31be
00000020: 66b4 003e c275 45bf 0705 20be 3a20 f23e
00000030: a00b acbc 57d1 fe3e eff8 d6be 8764 a23d
00000040: 37dd ae3d 0fac b8be d39f 72bd ae6f 243f
00000050: 4fa8 a63d e2fb e2be da30 113e df1e 10bf
00000060: 9613 1fbf b652 c63e cc31 42be dc43 f3be
00000070: fc63 0fbf 78b7 33bf 9673 2bbe 0bbe 933e
0.12275616 0.15765633 -0.17178105 -0.59236324 -0.111545 -0.48914 -0.21084727 -0.1738267
0.12568817 -0.7713281 -0.15626918 0.47290212 -0.021001637 0.4976909 -0.41986796 0.0792933
0.08538287 -0.3606877 -0.05923445 0.6423291 0.08137571 -0.44332796 0.14178792 -0.56297106
-0.6213926 0.38734978 -0.18964309 -0.4751271 -0.5601194 -0.70201826 -0.16743311 0.2885593

body.block2.norm.running_var f4 [32]
00000000: 06b6 803e be8f ea3e 9569 6d3e 28c4 a63e
00000010: 4e9c d83e dd06 9f3e b13a d03e 7a5e b83e
00000020: d8ff bd3e d0e3 e73e 6222 8b3f a7fc de3e
00000030: 0ce3 4d3f c7a9 2b3f d4ed 043f 869a 063f
00000040: 936f 9f3f b63b b53e 8d14 c03e 0a4f b23e
00000050: 4092 8b3e 1b28 503e dd1d 403e f8e6 093f
00000060: e308 3c3e a663 893f 0ebc 743e f844 783e
00000070: 55f2 a73e 3035 203f 2073 143f 8dff 9a3e
0.25138873 0.45812792 0.23184808 0.3257153 0.4230675 0.31059924 0.40669778 0.3600958
0.37109256 0.45290995 1.0869868 0.43552133 0.8042457 0.67055935 0.51925397 0.52579534
1.2455925 0.35397118 0.3751568 0.34825927 0.27260017 0.20327799 0.18761392 0.53868055
0.18362765 1.0733535 0.23899862 0.2424506 0.32802072 0.6258116 0.57988167 0.30273095

body.block3.conv.weight f4 [32, 32, 3, 3]
00000000: cc3e f93a 6974 ddbc 6dce 63bd a781 39ba
00000010: 1508 623c fe75 143b 3069 19ba 8021 843a
00000020: bb43 4c3c 2100 1e3d b2f7 a03c 5c9c 05bc
00000030: 128b b9bb ae34 87bb f684 f2bc ccfb 463b
00000040: 878a 83bb c617 9d3c 5988 a0bd 5acd 6b3c
00000050: 1bbc 373c 7a98 a2bd aa42 f8bc d132 9abb
00000060: 1fee a5bd e0ea 823b f0b9 99bc 3f27 2a3d
00000070: bbe5 943b c053 97bc 9943 1c3d ff01 b63c
00000080: 8401 bf3b 0f0e 8aba f92c 0bbd 3e67 4bbc
00000090: 5280 7d3c 5647 a2bc 79c8 3fbc e850 db3c
000000a0: 592b 3b3c b6e1 d9bc c33a a23c 617c 5c3c
000000b0: 3189 dcbc d5a4 d7bc 9184 05ba 9a41 f2bc
000000c0: 5141 493d 7632 9abd e39c 27bd fd2f 603c
000000d0: ca1f 2f3b f4f6 41bc 8702 f7bc 2831 febc
000000e0: 71f4 82bd 8bcb 9ebc 5791 ca3c 2030 b0bc
000000f0: b2f6 b9ba e1f1 1a3c e51b 9e3c 394d 2bbc
00000100: b505 efbb 6985 c63b d267 26bc 2442 dfbc
00000110: a9c0 fcbb b1da 983c 1ac0 823c 8755 ed3c
00000120: 1ba1 76bd 850c 123c 4b00 71bd e4ef cbbb
00000130: abc0 8cbc fd5c 81bc e582 dd3b 2ce1 97bc
00000140: 73bf d93c b72b cfbc d00f d4bc 7b7b 5d3c
00000150: a5e7 873c e878 b9bb dd36 883b 8f19 bebc
00000160: 9671 b2bc 3b60 f63c a4be 51bd 6a7e 0cbc
00000170: 561c e93c f310 80bb 7bce dd3c 0837 27bc
00000180: 93aa 33bd 40e2 133c 57d5 1ebd bad6 8d3b
00000190: 6e6e adbc b393 f9bc e386 8bba dec8 b6bc
000001a0: 2e31 993c 52a2 07bd 62e0 0dbc 6f36 6fbb
000001b0: 49de 45bb 8435 91bb dc76 ec3c af38 4dbd
000001c0: f500 1f3d 6fc9 0cbc b800 fdbc c042 cc3b
000001d0: 6cd9 5bbc 593b 6b3b 89e1 0b3c c65c 05bb
000001e0: cbc2 b33c 1d2a d83b 8c3f 743c 3360 14bc
000001f0: 1afa 8abc 1efa b1bc 4013 74bd e6a0 01bd
00000200: 606d 2c3c b589 6fbd 44dc b0bc 4547 453d
00000210: c669 003c 6166 48bc d1de 6e39 5ebe 4eb9
00000220: bee6 0abd d8d7 bcbc 8aa8 11bc dbce 51bd
00000230: a20e 22bd c619 96bc d883 f2bb 851a 4fbc
00000240: 8229 a23a 7020 fbba 4685 283d 15a3 083d
00000250: e370 9a3c e6e1 10bc 64dd 2e3d 3a40 f53c
00000260: 86e3 2f3d c7fb d13c 6003 d8bc 328f 89bb
00000270: ab41 45bc 375e d4bc e9cf 91bc 844e c439
00000280: 827e cebc 2f60 cdbc 007d abbc 3929 26bd
00000290: 1fab 1c3c 39d7 313a 4d4b b0bb a403 a23c
000002a0: 3ff6 483d daf0 fe3a f185 cd3c a6a1 64bb
000002b0: 0c0c 9e3c f5bd 4d3b 8438 23bd 7ac0 1c3a
000002c0: d765 d4bc 1c38 2cbd 2106 06bc 5177 81bc
000002d0: 520a b13c f759 1cbd 116f 34bd 5655 abb9
000002e0: 0b6e 66bc e627 0ebd b936 d339 0bfd af3c
000002f0: 5f0f 473b d94f 05bb 4f09 cfbb e777 363c
00000300: d063 953c e824 a33b 6ff5 98bc 7d6f 933c
00000310: 1474 34bc 5b22 b33b 91a4 a8bc c983 493d
00000320: 549a 8cbc 7f81 963c 69e7 953c 51f1 8d3c
00000330: e5ba 943d 6fcb ae3c ba3c cb3d 3124 813b
00000340: b96a de3c cf4f a53c 5712 ab3b ea38 ff3c
00000350: e550 093c 1cba 133c ee56 103d 6633 3ebb
00000360: c58e 81bc 44c6 4b3b 6b30 623c cba0 48bc
00000370: b5a4 a6bc 1914 2cbd 8a5f e3bc 06c5 4a3b
00000380: 0147 bf3b 923f 84bc d5c5 b8bc acc4 58bb
00000390: 9672 f1bb 0da2 843c e3c7 aebc 8bac 35bd
000003a0: 63f1 e9bc a0e1 cb3b 51cf 373d 2f35 f43c
000003b0: 92f6 81bc dd4d 0c3d c69b 7a3c 1c07 24bd
000003c0: 23df f13b dad1 14bd 86a6 50bc 664e 6b3d
000003d0: 19e0 a0bb e50a 82bc 0fbb 143d 8a6f 17bd
000003e0: 5ca9 31bc f8ee 343d 49e5 47bc 9518 41bd
000003f0: 0247 35bd 5237 07bc 8e81 9bbc e0c6 22bd
0.0019015907 -0.027033048 -0.055616785 -0.00070765096 0.013795872 0.0022653337 -0.0005852161 0.0010080785
0.01246732 0.03857434 0.01964936 -0.008154955 -0.0056623304 -0.004126153 -0.029604416 0.0030362485
-0.0040143165 0.019176375 -0.07838506 0.014392221 0.011214281 -0.07939239 -0.030305225 -0.004705765
-0.081020586 0.0039952844 -0.01876542 0.041541334 0.0045439876 -0.018472552 0.038150404 0.022217749
0.005829038 -0.0010532754 -0.033978436 -0.012414752 0.0154724885 -0.019809406 -0.011705511 0.026771978
0.011423909 -0.026596885 0.01980341 0.013457389 -0.026920887 -0.026323715 -0.00050933013 -0.029572297
0.049134556 -0.07529156 -0.040921103 0.013683316 0.0026721829 -0.011838663 -0.030152572 -0.031029299
-0.0639428 -0.019384166 0.024727507 -0.021507323 -0.0014187901 0.0094570825 0.01930041 -0.010455423
-0.0072943815 0.006058384 -0.010156589 -0.027253218 -0.0077133966 0.018658968 0.015960742 0.028971447
-0.060212236 0.008914118 -0.05883817 -0.0062236656 -0.017181715 -0.01579141 0.0067599886 -0.018539988
0.026580548 -0.0252894 -0.025886446 0.01351821 0.016589949 -0.005660165 0.004156931 -0.023205547
-0.021782678 0.030075183 -0.0512072 -0.008575061 0.028455894 -0.0039082705 0.027075997 -0.010205992
-0.043863844 0.00902611 -0.038777675 0.004328576 -0.021170821 -0.030465936 -0.0010645058 -0.022312578
0.018700209 -0.033113785 -0.008659454 -0.003650095 -0.0030192307 -0.0044314284 0.02886527 -0.050102886
0.038819272 -0.008592947 -0.030884132 0.006233543 -0.013418537 0.0035893528 0.0085376585 -0.0020349487
0.02194347 0.006596817 0.014907729 -0.009056139 -0.01696496 -0.02172571 -0.05958867 -0.031647585
0.010524124 -0.058480937 -0.021589406 0.04816367 0.007837718 -0.01223144 0.00022780454 -0.00019716608
-0.03391146 -0.023052141 -0.0088902805 -0.051222663 -0.039564736 -0.018322837 -0.007400971 -0.0126406
0.001237199 -0.0019159447 0.041142724 0.033358652 0.018852657 -0.008842921 0.042691603 0.029937852
0.042941593 0.025632752 -0.026368797 -0.0041979784 -0.012039582 -0.025923831 -0.017799335 0.00037442532
-0.025206808 -0.025070278 -0.020933628 -0.040566657 0.009562283 0.0006784085 -0.0053800703 0.019777127
0.049062964 0.0019450441 0.025088282 -0.003488639 0.019292854 0.003139374 -0.03984882 0.0005979609
-0.025927467 -0.042045698 -0.008180172 -0.015803965 0.021611366 -0.038171735 -0.044051234 -0.00032679242
-0.014064322 -0.03470602 0.00040285828 0.021482965 0.0030374152 -0.0020341782 -0.0063182483 0.011136985
0.01823607 0.004978765 -0.01867172 0.017997498 -0.011014003 0.005466742 -0.020586284 0.049197946
-0.017163433 0.018372295 0.018298822 0.017326983 0.0726221 0.02133724 0.09923692 0.003941082
0.027150499 0.020179657 0.005220692 0.031155068 0.008381103 0.00901654 0.035239153 -0.0029022335
-0.015815148 0.0031093517 0.013805489 -0.012245367 -0.02034221 -0.042011354 -0.027755518 0.003094019
0.0058373217 -0.016143594 -0.022555271 -0.003307621 -0.007368396 0.016190553 -0.021335548 -0.044354003
-0.028557485 0.006221965 0.044875447 0.029810516 -0.015864644 0.034253944 0.015295928 -0.040045843
0.0073813363 -0.036332943 -0.012735015 0.057447813 -0.004909527 -0.015874336 0.036311205 -0.036971606
-0.010843601 0.04417321 -0.012200662 -0.047142584 -0.04425717 -0.0082529355 -0.018982675 -0.039740443

body.block3.conv.bias f4 [32]
00000000: 0a86 0f3d 7949 1ebc c39b 3b3d c2a1 1cbd
00000010: 8f68 f6bb be7c b6bd 1547 363c bf4c 083d
00000020: 54f6 73bd f941 0dbc c0fc d23c 1bed cf3c
00000030: 70c3 25bc 80e2 69ba c3dd 0e3d bfb2 95bc
00000040: 0a3f 4f3b 0b6e 0b3d 05a2 313d 24f4 123d
00000050: 62ff 79bd 61de 6dbd 107f a1bc 8558 0cbd
00000060: 74f4 66bd a9a1 45bd a60d 0abd 2f83 3b3d
00000070: 08dc fabc 91b4 0f3d bdbe 57bd 0c66 d93b
0.03503994 -0.009661072 0.045802843 -0.0382402 -0.0075197886 -0.089105114 0.011125346 0.033276316
-0.05956109 -0.008621686 0.025755286 0.025381615 -0.010117397 -0.0008921996 0.034879457 -0.01827371
0.0031623268 0.034040492 0.043367404 0.035877362 -0.061034568 -0.058073405 -0.019713908 -0.034264106
-0.056385472 -0.048249874 -0.033704422 0.045779403 -0.030622497 0.03508431 -0.052672137 0.0066344794

body.block3.norm.weight f4 [32]
00000000: fe54 753f 11ac 793f 1ec1 7a3f 9b77 7f3f
00000010: b0eb 613f d174 703f 029a 823f f583 733f
00000020: d141 833f bdd2 713f 1aae 8c3f f62c 843f
00000030: ac7b 7f3f 1d90 7c3f 8c2e 7f3f 0a1e 733f
00000040: 3e2a 7e3f c8cb 743f 523a 7a3f 6b1d 723f
00000050: a5a1 833f fffe 743f 9c08 7f3f 4859 813f
00000060: ee1d 803f 7a19 743f 9806 703f 276b 773f
00000070: 737e 623f 5777 7f3f 7cd7 733f f1dd 7a3f
0.9583281 0.9752818 0.97950923 0.9979188 0.88250256 0.9392825 1.020325 0.95123225
1.025446 0.94462186 1.0990632 1.0326221 0.99798083 0.986574 0.996804 0.9496771
0.99283206 0.95623446 0.9774524 0.9457614 1.0283705 0.95701593 0.9962251 1.0105371
1.0009134 0.95351374 0.9376006 0.96647877 0.88474196 0.99791473 0.9525068 0.97994906

body.block3.norm.bias f4 [32]
00000000: 3761 943c 8e55 febc a43f 96bc 114a b0bc
00000010: 9708 043b 540d d93c d8f1 5e3c 274b eabc
00000020: 4ff7 63bd 5c13 64bc cade a3bd 8998 9bbd
00000030: 5fe4 23bc 764e 3e3d 2940 1bbd 2299 1fbc
00000040: e130 fabc dfab 8c3b d54b 50bc dd08 7ebd
00000050: ce98 843d 1d47 1a3d 7fc1 5abd 968d 9d3c
00000060: a3d3 90bd c6ae 5dbc 140e 23bd 526e 783d
00000070: 007a bc39 0b94 c3bc 062c 1b3d dfa9 a1ba
0.018112762 -0.031046655 -0.018340893 -0.021519693 0.0020146722 0.026495613 0.013607465 -0.028600289
-0.055655774 -0.013920631 -0.08001478 -0.07597453 -0.010003178 0.046461545 -0.037902985 -0.0097411
-0.030540885 0.0042929496 -0.012713392 -0.06202017 0.06474458 0.037665475 -0.05340719 0.019232552
-0.070716165 -0.013530439 -0.039808348 0.060652085 0.0003594905 -0.023874303 0.03788378 -0.0012333951

body.block3.norm.running_mean f4 [32]
00000000: 10e8 94be 3205 38bd 6bc7 03be 025a 833b
00000010: 0b26 45bf 260a 21bf e6f1 01bf dd0e ff3d
00000020: 1bad 9cbe 1826 af3e a773 d13c 412f a03e
00000030: 0bd6 bebe f9e1 eabe d124 84bb 7750 80bf
00000040: 69fe 953d 0754 48bf e910 d5be a115 1dbd
00000050: 24f9 75bf 0e3e b5be e149 c83a 7823 44bf
00000060: 02bd e13d 0551 f0be b0f0 8bbd 2a57 b0be
00000070: 1d04 84bf c583 eabe e1c6 3ebf 09ed 03bf
-0.290833 -0.04492683 -0.1286904 0.0040085325 -0.77011174 -0.6290611 -0.5075973 0.12454007
-0.3060082 0.3420875 0.025567843 0.31286052 -0.37272677 -0.45875528 -0.004032709 -1.0024556
0.073239155 -0.78253216 -0.41614464 -0.038350705 -0.96083283 -0.35398906 0.0015280807 -0.7661662
0.110223785 -0.46936813 -0.06833017 -0.344415 -1.0313755 -0.45803657 -0.74522215 -0.5153356

body.block3.norm.running_var f4 [32]
00000000: 5ea1 543e 4c7f ac3e 4647 ad3f 1eb0 fb3e
00000010: ad4f 1a3f 9863 743f 34d0 943f 3d2b ea3e
00000020: 5c92 333f 214f 543f 18db 223f cd95 3c3f
00000030: a719 193f bf03 e83f b9d2 0f3f 4d6e 0d3f
00000040: 8a50 173f c372 cd3e 7060 213f 5ebf f33f
00000050: 2837 993f 6eef bd3f 239a f23e 07a3 903f
00000060: bba2 ec3e cfeb 273f 4fe9 6d3e 761f 7b3f
00000070: a4c1 3b3f 865a 943e 4882 9c3f d132 5c3f
0.20764682 0.3369087 1.3537376 0.49157804 0.60277826 0.9546447 1.1626039 0.45736113
0.701452 0.8293324 0.6361556 0.7366608 0.5980477 1.8126143 0.5618091 0.5524643
0.5910727 0.4012662 0.63037777 1.9042776 1.1969957 1.4838693 0.47383222 1.1299752
0.46217903 0.6559419 0.23233531 0.9809488 0.7334235 0.28975314 1.2227259 0.8601504

tail.0.weight f4 [4, 32, 3, 3]
00000000: 2511 3b3c c899 32bd 8ba0 d8bc 5022 ecbb
00000010: 9008 563c 956d bbbc efb8 4d3b 875e 183b
00000020: 4afe 42b7 618f 2bbc e0b3 58bc 8b36 adbc
00000030: b427 3ebc 1a4a 04bc 549b 363c 2a39 a3bc
00000040: af2d b63c 4fb7 c13b eac4 90bb 4971 54bc
00000050: 6548 24bd b73b b13c 3316 01bd 78d5 d73a
00000060: 12ab 36bc 69df 8a3c 0b67 27ba 92ce 8f3b
00000070: bbc9 66bc 5af3 87bd 156b 8c3b f269 3038
00000080: 4131 cf3c 6a9e 333c 028f 75bc 8d7d 08bd
00000090: 9b90 79bc 5435 e8bc 6752 7e3c fa09 b1bc
000000a0: efb7 9ebc fbc9 83ba f019 733b 6556 3fbc
000000b0: 5c8d 913a 3d20 60bd 50e6 03bd 0c37 bebc
000000c0: ce8e 15bc 8482 b73c 04b8 843c 9f83 1cbd
000000d0: 47a4 813c 1745 13bd f83e 4dbd fa91 8cba
000000e0: a02b 3fbc 8e38 25bc fb35 79bb 42be 91bb
000000f0: f539 a7bc afa5 b7bc d5be d13c a021 40bc
00000100: d155 40bc 256f 0cbc a7ef 363b 110f eebc
00000110: 86e9 e0b9 1023 afbc 5a93 bf3c c945 3cbb
00000120: 0526 e1bc c1de f3bb dd3c 7ebd 333d c2bc
00000130: cd52 a3bc fe98 f3bc 6ad4 983a 1c9c acbc
00000140: fc9b 12bd a645 66bb 8d8d 653b eeef 91ba
00000150: 2ade e83b ad89 493c ba1e 88b9 529a 0bbd
00000160: 5807 b5bc d3b9 00bd 1274 7e3c 4593 d13c
00000170: 412c cb3c b01f 263c 4cb0 863c 48d6 8c3b
00000180: ca2d 2bbc 7051 82bc f6d6 09bd e3e2 e5bc
00000190: b46c cbbc 607e 09bc 583f 98bc bc61 53bc
000001a0: a274 f1bb 82ce e8bb 7e49 a0bc 2735 6f3c
000001b0: 4fd7 e5bb cb19 2e3c 7e78 3d3d 3048 babb
000001c0: 7bfe 63bb 1d8f 9a3c 6553 9bbb ea82 55bc
000001d0: b469 c93b 6a87 b5bc 623f 7dbc 2fab 80bc
000001e0: 2a51 473c 2779 f93c edad ab3b 3dff afbc
000001f0: ef76 22bc 7094 d4bc 56df 333c 4fd6 2c3c
00000200: ee76 bc3c 8a27 1abd 34fd 2db9 1398 e2bc
00000210: 3eaf 2cbc cc3b d63b 5f4b 843b 3b2a c7bc
00000220: 6ffb d939 269d 61bc ac8e 4bbd 25f1 69bb
00000230: 8d5a 2cbc 5d95 cfbc 8a30 bcb9 f8c7 d5bb
00000240: 29d7 11bc f946 1cbc 96de b13b c483 4d3c
00000250: 3705 50bc 6b5c c7bb 124b fcbb 82f2 cbb9
00000260: 3217 ecb8 76b9 93bc caeb febc 22a9 f6bc
00000270: 8f01 c6bb 9006 123c 6eb1 d03b da23 3d3c
00000280: e042 1f3b 830c 00bc b501 ddbb efa1 513c
00000290: 4815 a4bc f9fe 9f3c c849 df3a 9713 1b3c
000002a0: c416 23bb fcc2 6f3b d16a e9bc 5494 b23b
000002b0: 9d07 06bc 50a7 913c a289 163c 79d1 23bc
000002c0: 041f 05bd 2e1e 923b eca4 a4bc be49 35bc
000002d0: 6cc2 12bc ceda 80bc a33c 26bc a884 7e3c
000002e0: d4e6 1e3c e2ce 65bb 8ee3 9dbc f13b 82bc
000002f0: 4102 a0bc a47e 4abc b3bb 8d3c 0d18 02bc
00000300: 9e51 69bc 5106 ccbc ac51 89bc a0e4 1ebd
00000310: 578e d8bc 2eec c63c 563c 16bc 3c1c 3b3c
00000320: 5c3d a13c 57c1 a63c c51a 193c 069d 803c
00000330: fdb0 863c 4594 4e3c d987 a33b 206c 85bc
00000340: 7e10 c1bb 93bd d138 a7d3 0d3d 23db 2bbc
00000350: 4985 b3bb 8e62 04bd d49b 8bbc 54a7 ebbb
00000360: d6d7 01bc d631 083c 8277 f1bc dc62 4abc
00000370: 84eb 043c 0530 2bbb 33b6 4e38 0fdb 48bc
00000380: c281 05bc 5862 433c 0563 51bb 08bc 94bb
00000390: 948b 323d 793a 2e3d 90e4 3d3c 2b56 7dbd
000003a0: 26db 8c3c 744a c5bc f734 f13b 9d0e 1cbc
000003b0: 84ee 91bb b9e1 c6bb 7447 033b c698 7ebc
000003c0: cc0e 1b3c 57f4 42bc 919d f03b 58ce a0bb
000003d0: 70ff 95bc 5750 11bd 81d6 9bbc 6bf9 7cbc
000003e0: 33e1 23bc 3378 74bb ada1 11bd 7762 c8bc
000003f0: b957 26bd 69e8 5cbc ce66 a1bc ba17 4b3c
0.011417662 -0.04360369 -0.02644374 -0.007206239 0.013063565 -0.022879401 0.0031390747 0.0023249702
-1.1622507e-05 -0.010471196 -0.013226479 -0.021144172 -0.011606146 -0.008074308 0.011145432 -0.019924719
0.02223858 0.0059117447 -0.0044180052 -0.012966462 -0.040108103 0.02163492 -0.03151531 0.0016466817
-0.011149185 0.016952233 -0.0006385899 0.004388639 -0.014086182 -0.066382125 0.004285226 4.206034e-05
0.02529204 0.010963062 -0.014987709 -0.03332286 -0.015232231 -0.028345741 0.015522576 -0.021611203
-0.019374816 -0.0010054702 0.0037094317 -0.011678313 0.001110475 -0.054718245 -0.032202065 -0.023219608
-0.009128286 0.022401102 0.016201027 -0.03821146 0.015825404 -0.03595456 -0.05010888 -0.0010724657
-0.011668116 -0.0100842845 -0.003802656 -0.0044477293 -0.020413378 -0.022417871 0.025603691 -0.011726767
-0.01173921 -0.008571421 0.002791384 -0.029059919 -0.00042898598 -0.021379024 0.023385692 -0.0028728119
-0.02748395 -0.007442326 -0.062069762 -0.023710823 -0.019936943 -0.029736038 0.0011659984 -0.021070533
-0.03579329 -0.0035136729 0.0035026998 -0.0011134127 0.007106562 0.012300891 -0.00025962834 -0.03408272
-0.022098228 -0.031427216 0.015530603 0.025582919 0.024801375 0.010139391 0.016441487 0.0042980053
-0.010447929 -0.015907973 -0.03365227 -0.02806229 -0.024832107 -0.008391947 -0.018584892 -0.01290172
-0.00736864 -0.007104696 -0.019566294 0.014600075 -0.007014192 0.010626267 0.04625749 -0.005684875
-0.0034789133 0.01886707 -0.004740166 -0.013031701 0.006146634 -0.022159297 -0.015457006 -0.015706627
0.012165347 0.030453278 0.0052392394 -0.021484012 -0.009916051 -0.025949687 0.01097854 0.010549142
0.023005929 -0.037635364 -0.00016592891 -0.027660405 -0.010539828 0.00653789 0.0040373052 -0.02431213
0.00041576798 -0.013770377 -0.04969661 -0.0035696712 -0.010519636 -0.025339777 -0.0003589432 -0.0065240823
-0.008901396 -0.009538406 0.0054281456 0.012543622 -0.012696556 -0.006084015 -0.0076993788 -0.0003889986
-0.000112576774 -0.01803277 -0.031118292 -0.030109946 -0.0060426663 0.008912697 0.0063688075 0.011544192
0.0024301335 -0.007815483 -0.0067445883 0.012794956 -0.020029679 0.01953076 0.0017035538 0.00946512
-0.0024885396 0.0036584726 -0.028493317 0.005449811 -0.008180526 0.017779976 0.009188088 -0.009998673
-0.032500282 0.004459164 -0.020098172 -0.011064945 -0.008957487 -0.015729334 -0.010146293 0.015534557
0.009698588 -0.0035065939 -0.019273546 -0.015897723 -0.019532325 -0.012359295 0.017301416 -0.007940304
-0.01424065 -0.024905356 -0.016762577 -0.038792253 -0.02643506 0.024282541 -0.009169659 0.011420306
0.019682579 0.020355863 0.009344761 0.015699875 0.016441816 0.012608592 0.0049905595 -0.01628691
-0.0058918586 0.000100012076 0.034625676 -0.010489258 -0.0054785353 -0.03232055 -0.017042078 -0.007191578
-0.007924994 0.008312663 -0.029475931 -0.0123526715 0.008112792 -0.0026121151 4.9283914e-05 -0.012259259
-0.008148612 0.011925302 -0.003194989 -0.0045390166 0.043590143 0.042536233 0.011590138 -0.061849754
0.017194342 -0.024083354 0.00736105 -0.009524968 -0.004453482 -0.0060693887 0.0020031603 -0.015539354
0.009463977 -0.0118990755 0.007343002 -0.0049074106 -0.018310279 -0.03547701 -0.019023182 -0.015440325
-0.010002422 -0.003730309 -0.035554577 -0.024461014 -0.040611003 -0.013483145 -0.019702341 0.012395794

tail.0.bias f4 [4]
00000000: 9052 01be 0053 8ebd fef7 adbc a3b0 2ebd
-0.12629151 -0.06949425 -0.021236416 -0.042648923
