TrainedModels/0035-sample/scale_factor=0.850000,alpha=10/0/netD.pth (torch, 127382 bytes, 25 tensors)

head.conv.weight f4 [32, 4, 3, 3]
-0.022153042 0.020787299 0.010494786 -0.0042018252 0.011054035 0.014914038 -0.022709833 -0.002742445
0.033443063 -0.021382328 0.02097285 0.021543615 -0.010729732 3.0421947e-05 0.013291543 -0.022989653
-0.013606806 0.021094924 -0.029008962 0.023495153 0.01531555 -0.02680283 0.00012320961 0.017384391
-0.031771254 -0.02347748 0.022252303 -0.06851047 -0.09213573 -0.082745135 0.035914388 0.04539217
-0.010111355 0.07423361 0.037593603 0.04380255 -0.024554623 -0.0072489367 -0.021966118 -0.027346153
-0.020312853 -0.031641006 0.00015125657 0.010022763 0.06045107 0.004830134 -0.023015754 -0.014730954
-0.016504947 -0.032809965 -0.005479935 0.054882806 0.060800236 0.082151905 0.0008067982 -0.02637874
-0.034252632 0.003269069 -0.019635273 -0.0015529192 0.08956993 0.088161126 0.12436056 0.08002441
0.0073383767 0.05616908 -0.040212423 -0.03689791 0.017939312 -0.014437084 0.00871725 0.03705384
-0.018819623 -0.0056097843 -0.03445403 -0.020711018 -0.020983636 -0.029654747 0.0138741275 0.016690243
0.028434534 -0.019030299 -0.01440575 -0.012880546 -0.02602342 -0.01598138 -0.03780897 0.018794445
0.004263653 0.050490282 -0.021866906 -0.015860112 -0.032415133 -0.04398802 -0.027384702 -0.046310745
0.01703946 0.01989093 0.057971682 -0.06826681 -0.0059954985 -0.05452696 -0.04438973 -0.0064193127
-0.013238075 0.030477397 0.046668198 0.071792796 0.020445794 0.027919471 0.010570727 -2.1051472e-05
-0.00091713475 0.0037463033 -0.0446487 -0.016486771 -0.008865375 0.028791197 -0.0019762758 0.043803398
-0.014885743 0.007242552 0.022465866 -0.022666857 -0.011678984 0.0061508017 0.024439707 0.020374717
0.062344223 0.0114376405 0.0006733321 0.035663556 -0.050299063 -0.006354715 0.007973434 0.06399452
-0.0042481413 -0.08335442 0.046417825 0.016328262 -0.05747739 0.0354881 -0.017732684 -0.10023066
0.03849165 0.02190809 0.04234249 -0.01160139 0.0051276213 0.028878132 -0.040648784 -0.06425138
-0.00738506 0.057201162 0.008403401 0.021186568 0.0064186566 0.0025016803 0.014489418 -0.023460792
-0.019629914 0.028505458 0.05506117 0.008496346 0.037572358 0.009154015 -0.012976423 0.047976542
0.005651428 -0.048868075 0.0049894396 0.09703541 0.03713499 0.0722016 0.014772208 -0.02214993
0.0031224007 -0.06822673 -0.04495468 -0.02975272 -0.034373917 -0.0061206925 0.04213852 -0.015811814
-0.0032926728 0.036485925 -0.013094902 0.0014272312 0.046324026 -0.040700994 -0.008827774 0.036603127
-0.022398252 0.004695898 0.048652418 -0.03891642 -0.007450172 0.040785946 -0.063138135 0.0062914053
0.038103577 -0.024977569 0.012819802 0.05686286 -0.058875736 -0.022059122 0.046191815 -0.0045816535
0.023599723 0.06455392 -0.061412368 -0.014192103 0.041009262 -0.016161678 0.04711243 0.06965458
0.010627328 -0.019381568 0.02611894 -0.024396189 -0.031723715 0.0011074259 -0.027399788 -0.019181555
0.013581917 0.01698256 -0.0028817295 0.039077647 -0.015619746 -0.015427433 0.028270885 -0.036571342
-0.019603254 0.04355483 0.014636515 -0.002240495 0.04462479 -0.026909787 -0.013791088 0.038679242
-0.061625656 -0.020558255 0.04109086 0.02845348 -0.026111228 0.050211415 -0.007880611 -0.074261434
-0.06817954 0.12365802 0.06394168 -0.012989566 -0.0017864857 0.0102706095 -0.008867411 0.034720883
00000000: 4c7a b5bc 204a aa3c 53f2 2b3c 77af 89bb
00000010: fc1b 353c 025a 743c f909 babc 98ba 33bb
00000020: 98fb 083d fe29 afbc 41cf ab3c 3c7c b03c
00000030: c2cb 2fbc a232 ff37 c6c4 593c cc54 bcbc
00000040: 15ef 5ebc 43cf ac3c 34a4 edbc e878 c03c
00000050: 13ee 7a3c 9c91 dbbc d431 0139 b669 8e3c
00000060: 9322 02bd d853 c0bc 764a b63c 384f 8cbd
00000070: a8b1 bcbd 4876 a9bd f71a 133d 24ed 393d
00000080: 19aa 25bc ca07 983d c0fb 193d 4d6a 333d
00000090: c726 c9bc 7d88 edbb 4af2 b3bc 0a05 e0bc
000000a0: 2467 a6bc 009a 01bd a09a 1e39 8436 243c
000000b0: 8b9b 773d 1a46 9e3b 898b bcbc 195a 71bc
000000c0: 6235 87bc be63 06bd 0791 b3bb cbcc 603d
000000d0: ab09 793d 423f a83d 507f 533a 3a18 d8bc
000000e0: 7d4c 0cbd e03d 563b 27da a0bc 528b cbba
000000f0: 7170 b73d d28d b43d c0b0 fe3d d6e3 a33d
00000100: c476 f03b 8d11 663d c8b5 24bd 4322 17bd
00000110: 77f5 923c 8589 6cbc ccd2 0e3c c4c5 173d
00000120: 9c2b 9abc 48d2 b7bb ab1f 0dbd 27aa a9bc
00000130: e0e5 abbc 83ee f2bc 4f50 633c fab9 883c
00000140: 8aef e83c 6ee5 9bbc 1806 6cbc ed08 53bc
00000150: 112f d5bc 62eb 82bc 94dd 1abd cff6 993c
00000160: 1db6 8b3b e6ce 4e3d 3a22 b3bc 11ed 81bc
00000170: bbc5 04bd c82c 34bd e255 e0bc 56b0 3dbd
00000180: 5696 8b3c 4ef2 a23c b773 6d3d 78cf 8bbd
00000190: e375 c4bb a957 5fbd 01d2 35bd 1959 d2bb
000001a0: 83e4 58bc bcab f93c 2727 3f3d 1a08 933d
000001b0: f07d a73c 60b7 e43c d830 2d3c b197 b0b7
000001c0: df6b 70ba 8a84 753b 8ee1 36bd 440f 87bc
000001d0: 1440 11bc 84db eb3c 6884 01bb 316b 333d
000001e0: 55e3 73bc ee52 ed3b 560a b83c d8af b9bc
000001f0: 3659 3fbc aa8c c93b c835 c83c e1e8 a63c
00000200: a85c 7f3d f164 3b3c 8d82 303a f313 123d
00000210: 6406 4ebd 373b d0bb 02a3 023c 8f0f 833d
00000220: fe33 8bbb b9b5 aabd 9e20 3e3d d9c2 853c
00000230: 696d 6bbd f85b 113d 2244 91bc bb45 cdbd
00000240: 6ca9 1d3d 9878 b33c 526f 2d3d c213 3ebc
00000250: 9b05 a83b d591 ec3c 577f 26bd 3a96 83bd
00000260: 60fe f1bb c44b 6a3d 6bae 093c 748f ad3c
00000270: 9853 d23b 3bf3 233b 0665 6d3c d930 c0bc
00000280: eace a0bc 4784 e93c d287 613d 4234 0b3c
00000290: 79e5 193d b9fa 153c 109b 54bc 0d83 443d
000002a0: 9d2f b93b e429 48bd 747e a33b 80ba c63d
000002b0: dc1a 183d 6fde 933d 2207 723c c573 b5bc
000002c0: 31a1 4c3b 75ba 8bbd 6622 38bd fabb f3bc
000002d0: aacb 0cbd 1790 c8bb 7199 2c3d c787 81bc
000002e0: e2c9 57bb 4472 153d 008c 56bc ef11 bb3a
000002f0: 43be 3d3d 16b6 26bd 5ea2 10bc 29ed 153d
00000300: 8a7c b7bc 0ce0 993b c247 473d d366 1fbd
00000310: 9320 f4bb 2a0f 273d 914e 81bd 2228 ce3b
00000320: 7f12 1c3d c29d ccbc 260a 523c 08e9 683d
00000330: af27 71bd 55b5 b4bc a133 3d3d b221 96bb
00000340: 3554 c13c d834 843d 898b 7bbd ff85 68bc
00000350: 54f9 273d 7f65 84bc f7f8 403d 0fa7 8e3d
00000360: 3f1e 2e3c 18c6 9ebc 63f7 d53c 84da c7bc
00000370: baf0 01bd 0c27 913a 8575 e0bc a322 9dbc
00000380: b086 5e3c 021f 8b3c 66db 3cbb e20f 203d
00000390: f7e9 7fbc 58c3 7cbc 5898 e73c d5cb 15bd
000003a0: 0197 a0bc 8d66 323d fecd 6f3c 45d5 12bb
000003b0: 7cc8 363d ea71 dcbc 04f4 61bc 206e 1e3d
000003c0: 2f6b 7cbd c969 a8bc e44e 283d 4617 e93c
000003d0: 37e7 d5bc 7caa 4d3d ae1d 01bc 6116 98bd
000003e0: b7a1 8bbd 6a40 fd3d dbf3 823d 30d2 54bc
000003f0: 8328 eaba 0f46 283c 9e48 11bc 7c37 0e3d

head.conv.bias f4 [32]
-0.17256631 -0.02550632 0.06254141 -0.044407908 0.0985136 0.027753575 -0.03837964 -0.07437281
-0.072673954 -0.18854235 -0.10190861 0.08294364 -0.093762964 0.094729766 0.06648849 0.35488543
0.10102713 -0.4475982 -0.24210162 0.105887234 0.044623405 -0.011767639 -0.033263538 0.0020519474
0.42233354 -0.5611396 -0.053256415 0.12019766 0.11846833 -0.026522888 -0.41453385 0.00858842
00000000: 39b5 30be a1f2 d0bc b615 803d 11e5 35bd
00000010: 80c1 c93d 775b e33c f833 1dbd c650 98bd
00000020: 15d6 94bd 3f11 41be 76b5 d0bd 5bde a93d
00000030: cc06 c0bd ae01 c23d 1e2b 883d 8bb3 b53e
00000040: 50e7 ce3d 972b e5be 7de9 77be 68db d83d
00000050: 08c7 363d 0ecd 40bc 593f 08bd f779 063b
00000060: 1a3c d83e d8a6 0fbf 6623 5abd 312a f63d
00000070: 869f f23d 8746 d9bc c83d d4be 72b6 0c3c

head.norm.weight f4 [32]
1.0068926 0.6705477 1.0850128 0.6880674 0.8403934 0.8878627 0.73298347 0.909355
0.84791625 0.81900144 0.8911113 0.85221 0.9527394 0.93598986 0.9843516 0.80889976
0.8987413 0.9741383 0.88936645 0.79577273 0.85628587 0.8843653 0.85363 1.0280114
0.8353884 0.830253 0.89497375 0.8534944 0.78800875 0.7998797 0.94305676 0.83465767
00000000: dbe1 803f 04a9 2b3f b3e1 8a3f 2f25 303f
00000010: 0624 573f f84a 633f cea4 3b3f 7dcb 683f
00000020: 0a11 593f 14aa 513f df1f 643f 6f2a 5a3f
00000030: bbe6 733f 089d 6f3f 77fe 7b3f 0e14 4f3f
00000040: e913 663f 2161 793f 85ad 633f c3b7 4b3f
00000050: 8d35 5b3f c465 623f 7f87 5a3f e195 833f
00000060: 04dc 553f 768b 543f 001d 653f 9c7e 5a3f
00000070: f1ba 493f ebc4 4c3f 2b6c 713f 20ac 553f

head.norm.bias f4 [32]
0.17748025 1.0591259 0.2945326 1.0768433 0.59055305 0.7196606 0.89187175 0.33449984
0.33190948 0.6963725 0.68525916 0.77212715 0.39491364 0.6602428 -0.18921794 -0.8471531
0.4952815 0.61013323 0.3434766 0.8437149 0.5026387 0.38798735 0.6861782 0.03435458
0.8655626 0.8016718 1.2238077 0.81199944 0.7554835 0.7855383 0.62229246 0.5071959
00000000: 62bd 353e 7091 873f facc 963e 00d6 893f
00000010: 7c2e 173f ad3b 383f b551 643f 9043 ab3e
00000020: 0af0 a93e 7845 323f 256d 2f3f 20aa 453f
00000030: 1f32 ca3e ac05 293f 59c2 41be 07df 58bf
00000040: 8995 fd3e b131 1c3f 2adc af3e b3fd 573f
00000050: eeac 003f 47a6 c63e 60a9 2f3f 63b7 0c3d
00000060: 8395 5d3f 5d3a 4d3f bba5 9c3f 32df 4f3f
00000070: 5e67 413f 0a19 493f 8f4e 1f3f 97d7 013f

head.norm.running_mean f4 [32]
-0.18659896 -0.1096927 0.13850556 -0.067287825 0.027562844 -0.022676097 -0.020449378 -0.08414311
-0.0836437 -0.5538163 0.028005136 0.0395202 0.017344337 0.14841686 0.08031234 0.30020836
-0.011646729 -0.39197275 -0.14588434 0.024498073 -0.15931854 -0.119019456 -0.01121673 0.07134392
0.5309486 -0.68840224 -0.056558963 0.044766594 0.0019013798 0.07523717 -0.40115353 -0.20900059
00000000: cc13 3fbe 91a6 e0bd 67d4 0d3e 33ce 89bd
00000010: 79cb e13c 39c3 b9bc 7485 a7bc 3953 acbd
00000020: 634d abbd e8c6 0dbf 076b e53c efdf 213d
00000030: b615 8e3c 97fa 173e cc7a a43d e9b4 993e
00000040: ecd1 3ebc a7b0 c8be b462 15be 2fb0 c83c
00000050: 6624 23be 79c0 f3bd 60c6 37bc c31c 923d
00000060: 3fec 073f 213b 30bf 5faa 67bd 2d5d 373d
00000070: b837 f93a f215 9a3d ff63 cdbe 4004 56be

head.norm.running_var f4 [32]
0.010718374 0.017094934 0.011396301 0.014629069 0.015280783 0.0215041 0.0063409954 0.054862242
0.014925776 0.03750564 0.035679944 0.0051937173 0.012319125 0.056945596 0.007260793 0.04541899
0.008318842 0.03716562 0.017364634 0.01987157 0.03818735 0.0071071815 0.006960104 0.019588884
0.011435525 0.056763027 0.026856305 0.014177904 0.04546548 0.015671715 0.05687651 0.06878349
00000000: 1e9c 2f3c ad0a 8c3c 8db7 3a3c c3ae 6f3c
00000010: 405c 7a3c 5e29 b03c 20c8 cf3b 3bb7 603d
00000020: 3e8b 743c 849f 193d 2225 123d 0f30 aa3b
00000030: 28d6 493c c93f 693d f2eb ed3b 4309 3a3d
00000040: c14b 083c fa3a 183d 4740 8e3c b4c9 a23c
00000050: 576a 1c3d 5ce3 e83b 9611 e43b de78 a03c
00000060: 115c 3b3c 5980 683d c101 dc3c 714a 683c
00000070: 033a 3a3d f861 803c 58f7 683d 5cde 8c3d

body.block1.conv.weight f4 [32, 32, 3, 3]
0.0072782678 0.020530479 0.06479256 0.0387197 0.027699081 -0.011061909 0.06091979 0.013177718
0.05665958 0.031591017 0.0120186545 0.054804422 -0.028323747 0.036872413 0.022798255 0.006662226
-0.022632856 -0.006286574 0.071745075 -0.018832762 0.012548969 -0.015459562 -0.021197302 -0.011917109
-0.0019839422 0.04842642 0.11442237 -0.004572257 -0.012289042 0.03199835 0.0073135765 -0.008021993
-0.009899363 0.10961584 0.013840175 -0.012362519 0.025986439 -0.036756944 -0.065001115 0.011867179
-0.01813877 -0.04902929 0.027499309 -0.0020841372 0.025434202 -0.08203725 -0.07989406 -0.104780234
-0.08971886 -0.072653994 -0.016363464 -0.058758777 -0.009573108 -0.014502633 -0.007486807 -0.047332272
-0.023788465 0.042825833 0.022700414 0.04122144 -0.024061771 -0.016135236 0.040617924 -0.053190306
0.052567292 0.072261125 -0.086815394 0.024545526 0.040017083 -0.13333866 -0.06575005 -0.053642612
0.01980205 0.020072935 -0.0130430125 -0.030034462 -0.03408195 0.021008492 0.009040244 -0.0006963158
-0.0027442505 0.08650619 0.026108313 0.061028287 0.07120826 0.018886432 -0.0075208507 0.008960966
0.026670791 0.033410612 0.0050132144 0.045554303 -0.0203839 0.043823287 0.023937339 -0.028827777
0.044719517 0.033370323 0.005209017 0.015710864 -0.02924863 -0.034227688 0.017509524 0.0144509
-0.03952143 -0.057476778 -0.00035113102 -0.025396764 0.024471385 0.013244753 -0.037620664 0.0106262155
0.012441167 -0.009104362 -0.067476004 -0.0070270244 0.063376755 -0.01264901 -0.008470768 0.0046061985
0.012392151 -0.05678168 -0.0629738 -0.061134968 -0.015090276 -0.06604561 -0.07703744 0.0054294146
0.046509102 -0.020849377 -0.00177378 0.01888557 0.0403384 0.058353554 0.017489858 -0.056407306
0.03874977 0.10869923 -0.06729965 0.048886742 0.08738299 -0.07323416 -0.04460261 0.0024833449
0.005081046 -0.0036999083 0.034524698 -0.012552601 0.025987202 0.035024125 0.014765212 0.0022041544
-0.039418157 0.012176447 -0.023841055 -0.001441845 0.007867217 -0.013614918 -0.028744962 -0.019778067
-0.019829376 -0.020361228 0.016410524 -0.046611827 -0.009067412 -0.02737044 -0.00562186 -0.07485449
0.081484176 -0.004325498 0.035247292 0.022817357 0.02449303 -0.022250678 -0.005441825 -0.020170573
-0.049808092 -0.069251955 0.019857371 -0.042761147 0.015247953 0.031734683 0.0072954004 0.00024189385
0.009328524 0.021425968 -0.07084538 -0.05071978 -0.022108568 0.02305592 0.002585884 0.028665116
0.061166104 -0.0128125725 0.051443327 -0.049367916 -0.04519431 0.040006362 0.052523956 0.004111192
0.0582163 0.007014626 -0.019276014 0.011349069 -0.0325325 -0.024627462 0.052205395 0.054390255
0.042539418 -0.016576018 0.083442874 0.003778483 0.054211713 0.032941997 -0.02006758 -0.008077286
-0.08813742 0.018471923 0.023431452 -0.076305375 -0.015629683 0.0050193663 -0.039516956 -0.06238812
-0.069570504 0.053165883 0.047539413 -0.01093771 0.005017192 0.01883345 0.006124631 -0.017005092
-0.029052468 -0.0050831963 -0.18283184 0.021416502 0.05031152 -0.0953033 -0.0030356625 0.081798494
0.1225131 0.06761728 0.095571585 0.011885386 0.023349658 -0.03248376 0.009463438 -0.04893537
-0.038056124 -0.021665 -0.06294006 -0.032400023 -0.00031280002 -0.003510366 -0.037718687 -0.032021623
00000000: 897e ee3b 892f a83c f6b1 843d 8c98 1e3d
00000010: 2fe9 e23c 023d 35bc 0887 793d 5be7 573c
00000020: e013 683d 9565 013d e4e9 443c 9a7a 603d
00000030: 3407 e8bc 8707 173d 68c3 ba3c cd4e da3b
00000040: 8a68 b9bc 9bff cdbb 15ef 923d 2a47 9abc
00000050: 319a 4d3c 1a4a 7dbc f7a5 adbc fa3f 43bc
00000060: 0705 02bb c85a 463d 4756 ea3d dfd2 95bb
00000070: fa57 49bc b410 033d baa6 ef3b ad6e 03bc
00000080: f030 22bc 457e e03d e7c1 623c 2a8c 4abc
00000090: 83e1 d43c 738e 16bd 4e1f 85bd 8e6e 423c
000000a0: c297 94bc f0d2 48bd 3b46 e13c 0596 08bb
000000b0: 635b d03c 2503 a8bd 7f9f a3bd 0597 d6bd
000000c0: 86be b7bd 9ecb 94bd ac0c 86bc 0bad 70bd
000000d0: 86d8 1cbc 749c 6dbc e453 f5bb 7cdf 41bd
000000e0: 07e0 c2bc 246a 2f3d 38f6 b93c d0d7 283d
000000f0: 311d c5bc 0b2e 84bc fb5e 263d 14de 59bd
00000100: cd50 573d a4fd 933d 45cc b1bd b313 c93c
00000110: f4e8 233d ee89 08be f6a7 86bd 5bb8 5bbd
00000120: e937 a23c ff6f a43c 5cb2 55bc d50a f6bc
00000130: 8499 0bbd 001a ac3c 881d 143c f688 36ba
00000140: e2d8 33bb 282a b13d 1ae1 d53c ccf8 793d
00000150: a3d5 913d b8b7 9a3c 7871 f6bb 04d1 123c
00000160: b47c da3c 91d9 083d e445 a43b 2697 3a3d
00000170: 23fc a6bc 0c80 333d 3d18 c43c 3b28 ecbc
00000180: d02b 373d 52af 083d 67b0 aa3b 12b4 803c
00000190: d39a efbc 5532 0cbd 2270 8f3c 78c3 6c3c
000001a0: 39e1 21bd c56c 6bbd 0218 b8b9 e00c d0bc
000001b0: 3778 c83c 8500 593c 2018 1abd 9419 2e3c
000001c0: 09d6 4b3c 762a 15bc dc30 8abd f442 e6bb
000001d0: accb 813d cb3d 4fbc fac8 0abc 98ef 963b
000001e0: 7308 4b3c e893 68bd 68f8 80bd a968 7abd
000001f0: 343d 77bc ec42 87bd cec5 9dbd 3be9 b13b
00000200: 5480 3e3d 50cc aabc 2e7e e8ba e9b5 9a3c
00000210: e139 253d 2304 6f3d e446 8f3c 590b 67bd
00000220: 14b8 1e3d b49d de3d 66d4 89bd 773d 483d
00000230: daf5 b23d cbfb 95bd 3ab1 36bd 9dbf 223b
00000240: e77e a63b 297a 72bb c569 0d3d 6da9 4dbc
00000250: 1de3 d43c 7575 0f3d cae9 713c 9373 103b
00000260: ef74 21bd b87f 473c 514e c3bc 4afc bcba
00000270: 80e5 003c 1b11 5fbc 8e7a ebbc 9d05 a2bc
00000280: 3771 a2bc 97cc a6bc 5d6f 863c 0bec 3ebd
00000290: 7b8f 14bc f937 e0bc 9437 b8bb 504d 99bd
000002a0: 2de1 a63d e8bc 8dbb 775f 103d 77eb ba3c
000002b0: 9ba5 c83c 0e47 b6bc 5651 b2bb c23c a5bc
000002c0: 9203 4cbd f8d3 8dbd edab a23c 5026 2fbd
000002d0: 8dd2 793c 3afc 013d 410e ef3b e3a4 7d39
000002e0: aad6 183c 8385 af3c 6217 91bd 8bbf 4fbd
000002f0: 071d b5bc c5df bc3c ef77 293b 1bd3 ea3c
00000300: 4f89 7a3d d3eb 51bc 3db6 523d 0336 4abd
00000310: ab1d 39bd b6dd 233d 5c23 573d 2eb7 863b
00000320: 3774 6e3d f3da e53b bbe8 9dbc 72f1 393c
00000330: cc40 05bd 88bf c9bc 53d5 553d 51c8 5e3d
00000340: d03d 2e3d 6eca 87bc 19e4 aa3d 6da0 773b
00000350: 1a0d 5e3d 30ee 063d c464 a4bc 9856 04bc
00000360: 6481 b4bd 6e52 973c 51f3 bf3c fe45 9cbd
00000370: d209 80bc 7f79 a43b 88dc 21bd af8a 7fbd
00000380: fb7a 8ebd 78c4 593d b0b8 423d 1534 33bc
00000390: 4267 a43b 9b48 9a3c 21b1 c83b 434e 8bbc
000003a0: 71ff edbc f190 a6bb 4538 3bbe a971 af3c
000003b0: 7413 4e3d 602e c3bd f7f1 46bb f885 a73d
000003c0: 26e8 fa3d ee7a 8a3d 09bb c33d ecba 423c
000003d0: c847 bf3c b10d 05bd 890c 1b3c 7470 48bd
000003e0: bde0 1bbd cc7a b1bc b8e6 80bd e3b5 04bd
000003f0: 4fff a3b9 2b0e 66bb e97e 1abd 1b29 03bd

body.block1.conv.bias f4 [32]
-0.037195195 -0.066519514 0.060473807 -0.06986862 -0.044757914 -0.023330918 -0.06198551 0.0035203246
0.013153694 -0.04706709 -0.044365026 -0.06701968 0.009685768 0.06067048 -0.045392387 0.045472983
-0.021561714 0.0051538646 -0.00995842 0.002146271 -0.025106596 -0.030006329 0.035824947 0.026985902
0.025984263 0.01024429 -0.08963939 0.032193225 -0.046108354 -0.12014489 -0.0156606 0.009115166
00000000: fd59 18bd 623b 88bd 62b3 773d 4717 8fbd
00000010: 1354 37bd 7b20 bfbc 85e4 7dbd 3fb5 663b
00000020: 9782 573c 6cc9 40bd 1ab8 35bd 9d41 89bd
00000030: 0eb1 1e3c 9c81 783d 5eed 39bd e141 3a3d
00000040: 31a2 b0bc c0e1 a83b a428 23bc 74a8 0c3b
00000050: 59ac cdbc d5cf f5bc 2ebd 123d 8a11 dd3c
00000060: f3dc d43c abd7 273c db94 b7bd 0bdd 033d
00000070: 1ddc 3cbd 860e f6bd a94a 80bc c757 153c

body.block1.norm.weight f4 [32]
0.8714849 0.89778435 0.93511325 0.92416465 0.9504489 0.86065143 0.9124781 0.8553665
0.93623286 0.9507496 0.8438395 0.94803584 0.7907368 0.88022524 0.8863916 0.93318635
0.99160033 0.876944 1.0357755 1.0140579 0.97413015 0.76121366 0.9547536 0.9065508
0.9540101 1.0266908 0.85657436 0.88676804 0.8249219 0.8731974 0.8328793 0.80829567
00000000: a219 5f3f 32d5 653f 9563 6f3f 0e96 6c3f
00000010: 9e50 733f a753 5c3f 2a98 693f 4df9 5a3f
00000020: f5ac 6f3f 5364 733f de05 583f 7ab2 723f
00000030: ba6d 4a3f 7156 613f 8fea 623f 4de5 6e3f
00000040: 85d9 7d3f 677f 603f 4b94 843f a6cc 813f
00000050: 9860 793f e6de 423f bb6a 743f b713 683f
00000060: 023a 743f 9b6a 833f 7548 5b3f 3b03 633f
00000070: 152e 533f dd89 5f3f 9437 553f 77ec 4e3f

body.block1.norm.bias f4 [32]
0.4862332 0.47771752 0.15046044 0.5254439 0.2306175 0.37725127 0.22212109 0.54289657
0.13244994 0.18841721 0.75403947 0.49344313 1.1188052 0.49233702 0.66562116 0.481454
0.44135702 0.38415948 0.42238066 0.21848862 0.38006023 0.6879391 0.26057523 0.73162055
0.3923505 -0.24625096 0.37010622 0.68969226 0.7785133 0.6431597 0.7125787 0.7213646
00000000: 8ff3 f83e 6497 f43e 4d12 1a3e 7e83 063f
00000010: fe26 6c3e 1427 c13e b673 633e 45fb 0a3f
00000020: f5a0 073e 71f0 403e bb08 413f 94a4 fc3e
00000030: 0235 8f3f 9913 fc3e 2666 2a3f 2481 f63e
00000040: 8cf9 e13e 8db0 c43e 4742 d83e 7bbb 5f3e
00000050: 4197 c23e c71c 303f 1e6a 853e 7c4b 3b3f
00000060: 2ae2 c83e 3629 7cbe 907e bd3e ac8f 303f
00000070: a64c 473f 1da6 243f 8f6b 363f 5aab 383f

body.block1.norm.running_mean f4 [32]
-0.71605796 0.38955742 -2.2263522 -1.4102796 -1.8088337 1.3360871 -1.0586987 -2.287443
-1.6308315 -0.3848008 -0.8555224 -1.4548657 -0.49162233 -1.8236675 0.080812 -3.2186768
-1.418604 -2.4021027 2.5855358 -2.4655097 -1.4975471 -2.395278 -3.019108 -2.4993174
-1.2749746 0.31627822 -0.68418586 1.0634557 1.6561041 -0.45498437 -2.2117977 0.62306964
00000000: 934f 37bf 1274 c73e 8e7c 0ec0 0b84 b4bf
00000010: dd87 e7bf e704 ab3f 7083 87bf 7765 12c0
00000020: 16bf d0bf 9c04 c5be 8403 5bbf 0a39 babf
00000030: ecb5 fbbe f06d e9bf c380 a53d cdfe 4dc0
00000040: d194 b5bf 0dbc 19c0 6b79 2540 e9ca 1dc0
00000050: a0af bfbf 3c4c 19c0 1139 41c0 d1f4 1fc0
00000060: 5e32 a3bf 38ef a13e ce26 2fbf 511f 883f
00000070: 38fb d33f b6f3 e8be 188e 0dc0 7e81 1f3f

body.block1.norm.running_var f4 [32]
0.21831547 1.1461008 0.90743834 1.3207527 0.6642921 0.90899116 0.6414225 0.36821434
2.5850995 1.1316851 1.694637 2.113909 0.92439306 1.2023286 1.0704199 0.5997135
1.0881821 0.22371206 1.0943465 1.5473505 2.411015 2.7827377 0.920741 0.79109526
0.6742221 0.9828645 1.2189453 0.8234691 1.3486251 0.90533334 0.41688427 1.1224718
00000000: 178e 5f3e 6eb3 923f e14d 683f 6d0e a93f
00000010: 0c0f 2a3f a5b3 683f 4434 243f 9786 bc3e
00000020: 4572 2540 0fdb 903f dde9 d83f 494a 0740
00000030: 06a5 6c3f e7e5 993f 8503 893f d386 193f
00000040: 8d49 8b3f c614 653e 8c13 8c3f 950f c63f
00000050: 124e 1a40 6018 3240 afb5 6b3f 3885 4a3f
00000060: d299 2c3f 029d 7b3f 6606 9c3f dfce 523f
00000070: bf9f ac3f edc3 673f db71 d53e 28ad 8f3f

body.block2.conv.weight f4 [32, 32, 3, 3]
-0.010899067 -0.01848952 -0.004806181 0.030175457 0.02891421 -0.01933165 0.030458849 0.039008696
-0.0121279275 -0.0777053 -0.0013490362 0.07400493 -0.036894456 0.019523231 -0.007347792 -0.021675222
0.01384487 0.04677613 0.05817532 -0.0051067667 0.022740746 -0.02649285 -0.039730683 0.019195443
0.026708256 0.015306547 0.0588356 -0.09170447 -0.065050066 0.009431208 -0.028462838 -0.07967927
-0.025351217 0.0001463046 -0.0062464224 -0.05728097 -0.0133046 0.009788831 0.0066076126 0.06791818
0.02916438 0.0765507 0.089078575 0.06745897 0.09494102 -0.021655813 -0.030072138 -0.04794055
-0.010766985 0.015641922 0.014997392 -0.00046817475 0.033936825 0.041475195 0.023543937 -0.018382562
0.011944714 0.008428544 0.005074603 0.0318562 0.08035437 0.017312719 0.02695954 0.014690831
0.021424975 0.013567645 0.043053936 -0.044962008 0.032186776 0.025158426 -0.032024305 0.06388842
-0.038086683 -0.028362514 -0.096208714 -0.055338796 -0.008139721 -0.048580505 -0.019605655 0.0036522557
-0.108240284 0.040199913 0.0061845263 -0.02213234 0.048665777 0.07229478 0.024101 0.045645844
0.038118526 -0.055035405 -0.043510173 -0.04821157 -0.051452916 -0.03862523 -0.017150417 -0.002887181
-0.079426624 -0.037773516 -0.052503508 0.008010389 0.0087589 0.007942317 -0.07208628 -0.058345336
-0.023398321 0.06816233 0.07398704 0.10017169 -0.029585466 -0.055042554 -0.013250135 -0.043523293
-0.048101023 0.042405676 0.023276957 0.0568023 0.09295319 -0.069786556 -0.08463374 -0.0674212
-0.08157825 -0.03988813 -0.038287565 -0.018116545 0.0006786521 -0.09470353 -0.031256974 -0.06631284
-0.044550665 0.050600395 0.040946707 -0.044698875 0.02182563 0.0100551965 -0.004328939 -0.012846185
0.013882581 -0.04625195 0.019908126 0.031389683 -0.02327025 0.030242307 0.021869617 0.0010067958
0.07585638 0.017698271 0.012005699 0.045145586 -0.0047996654 0.020277897 -0.03690698 -0.030633489
-0.021248117 0.022659373 0.07851059 0.041341227 -0.015137344 0.04805657 0.041673865 0.016666912
0.017331494 0.024824642 0.01692264 0.021819921 -0.04087374 0.049590256 0.014883639 -0.038656935
0.00803057 0.0063652387 -0.0071423757 0.037153684 -0.07996365 0.009134124 0.0038648471 -0.07075617
0.0070224283 -0.016575305 -0.014045007 0.090666875 -0.082841724 -0.0089224735 -0.02196271 0.013071318
0.01469289 -0.036771458 0.076006286 -0.01860314 -0.06308408 0.053148936 -0.01953839 -0.023905326
0.048801 -0.021351704 -0.048869286 0.026795793 0.007177662 0.0037152872 -0.0575976 -0.086889334
-0.08305837 -0.016320914 -0.093801044 -0.10799771 0.051587794 -0.040418293 -0.07434097 0.016241185
-0.059147347 0.055133075 0.028213387 0.0073684626 0.011783042 0.079660915 -0.005739224 0.046171386
0.068652555 0.058574338 0.039418697 -0.0014701644 0.052387778 -0.030631565 0.019309564 0.024710646
-0.037517674 0.026189886 0.039919995 -0.0020035421 -0.022918236 0.018261535 0.082153074 -0.024062581
0.04676237 0.1025476 -0.027859567 -0.059756603 -0.090469286 0.02786387 -0.018419547 -0.09030369
-0.030210964 -0.025852518 -0.091595985 -0.057427507 -0.0058263154 0.037125062 -0.07187305 -0.0269548
3.6131525e-05 -0.040418424 -0.035816934 -0.08772144 -0.0022391328 0.033217065 -0.06915582 -0.04860274
00000000: 0092 32bc 5577 97bc 2b7d 9dbb 8532 f73c
00000010: 7edd ec3c 695d 9ebc d684 f93c 95c7 1f3d
00000020: 37b4 46bc f523 9fbd 25d2 b0ba e68f 973d
00000030: a41e 17bd 2fef 9f3c bfc5 f0bb 3c90 b1bc
00000040: 98d5 623c 5498 3f3d 3f49 6e3d aa56 a7bb
00000050: cd4a ba3c 8907 d9bc a4bc 22bd c33f 9d3c
00000060: 46cb da3c 50c8 7a3c 99fd 703d 8ecf bbbd
00000070: f838 85bd 5a85 1a3c e62a e9bc e32e a3bd
00000080: 5bad cfbc 5869 1939 caae ccbb 739f 6abd
00000090: 89fb 59bc 5561 203c ac84 d83b b018 8b3d
000000a0: 23ea ee3c 9dc6 9c3d d46e b63d ee27 8a3d
000000b0: 7070 c23d 8867 b1bc d859 f6bc 4f5d 44bd
000000c0: 0268 30bc 7d23 803c 9fb7 753c 5a75 f5b9
000000d0: 5701 0b3d e5e1 293d 37df c03c 0797 96bc
000000e0: c3b3 433c e017 0a3c db48 a63b a67b 023d
000000f0: d590 a43d 67d3 8d3c 41da dc3c d0b1 703c
00000100: 6e83 af3c d44a 5e3c 5359 303d 152a 38bd
00000110: 48d6 033d 0b19 ce3c eb2b 03bd efd7 823d
00000120: c800 1cbd 8158 e8bc 1309 c5bd efaa 62bd
00000130: 775c 05bc 5afc 46bd 0a9c a0bc af5a 6f3b
00000140: 15ad ddbd aaa8 243d 91a7 ca3b e24e b5bc
00000150: c455 473d 490f 943d 766f c53c 23f7 3a3d
00000160: 2c22 1c3d ce6c 61bd b937 32bd 7f79 45bd
00000170: 4bc0 52bd 7d35 1ebd 087f 8cbc dc36 3dbb
00000180: 6daa a2bd 67b8 1abd eb0d 57bd 023e 033c
00000190: 7d81 0f3c 7e20 023c f9a1 93bd 85fb 6ebd
000001a0: d6ad bfbc b198 8b3d 8486 973d d126 cd3d
000001b0: 385d f2bc 4d74 61bd 1817 59bc 7b45 32bd
000001c0: 9405 45bd 93b1 2d3d 51af be3c 87a9 683d
000001d0: 3e5e be3d 41ec 8ebd 7454 adbd 2014 8abd
000001e0: 7f12 a7bd bc61 23bd 6cd3 1cbd 2669 94bc
000001f0: 92e7 313a edf3 c1bd 5007 00bd 07cf 87bd
00000200: c27a 36bd 5c42 4f3d bcb7 273d 2b16 37bd
00000210: aacb b23c 8dbe 243c c6d9 8dbb ce78 52bc
00000220: c473 633c af72 3dbd 5e16 a33c 7892 003d
00000230: 40a1 bebc b7be f73c e927 b33c 76f6 833a
00000240: 975a 9b3d f7fb 903c 8db3 443c 94ea 383d
00000250: 8346 9dbb d51d a63c c62b 17bd 15f3 fabc
00000260: 8810 aebc 26a0 b93c 29ca a03d 6b55 293d
00000270: 9f02 78bc f7d6 443d 37b2 2a3d 0c89 883c
00000280: c7fa 8d3c 0c5d cb3c 59a1 8a3c b1bf b23c
00000290: 396b 27bd 271f 4b3d 82da 733c bc56 1ebd
000002a0: a792 033c 7e93 d03b 970a eabb 762e 183d
000002b0: fbc3 a3bd 4ba7 153c 6049 7d3b 9ce8 90bd
000002c0: 661c e63b efc8 87bc 071d 66bc 8eaf b93d
000002d0: eca8 a9bd 912f 12bc 24eb b3bc 1529 563c
000002e0: 73ba 703c ab9d 16bd 2fa9 9b3d 9d65 98bc
000002f0: 3a32 81bd b3b2 593d f90e a0bc 1ad5 c3bc
00000300: 8fe3 473d c5e9 aebc 292b 48bd da82 db3c
00000310: 9832 eb3b 2d7c 733b 76eb 6bbd 09f3 b1bd
00000320: 821a aabd 70b3 85bc c31a c0bd e72d ddbd
00000330: b94d 533d a78d 25bd 1440 98bd 3c0c 853c
00000340: 7d44 72bd 38d3 613d c31f e73c 2573 f13b
00000350: a90d 413c 4325 a33d 1a10 bcbb 351e 3d3d
00000360: b699 8c3d a5eb 6f3d 8075 213d 88b2 c0ba
00000370: 9194 563d 0cef fabc 172f 9e3c fb6d ca3c
00000380: 22ac 19bd 2c8c d63c 2683 233d dc4d 03bb
00000390: 06bf bbbc 3799 953c df3f a83d e41e c5bc
000003a0: e689 3f3d 7a04 d23d bf39 e4bc 57c3 74bd
000003b0: f647 b9bd c542 e43c 97e4 96bc 24f1 b8bd
000003c0: fc7c f7bc a9c8 d3bc ad96 bbbd 1b39 6bbd
000003d0: adea bebb 7310 183d 2d32 93bd 50d0 dcbc
000003e0: ee8b 1738 ca8d 25bd c7b4 12bd 4ca7 b3bd
000003f0: 6abe 12bb 9e0e 083d 91a1 8dbd ab13 47bd

body.block2.conv.bias f4 [32]
0.03028236 0.03656921 0.12489472 0.01816283 -0.0048330547 0.023651894 0.16544317 0.0318025
0.057777155 0.017204711 -0.06641956 0.07854786 0.062444385 0.054203823 -0.009139071 0.10951403
-0.011973633 0.0464365 0.062306166 0.08702417 0.044757787 0.10346354 0.02216232 0.14615609
0.13256398 0.028474137 0.0467362 0.06725696 0.15244034 0.060917307 0.019654602 0.03179498
00000000: b612 f83c 99c9 153d cec8 ff3d 37ca 943c
00000010: 9a5e 9ebb 9ec1 c13c ef69 293e 5743 023d
00000020: bda7 6c3d e5f0 8c3c fa06 88bd b3dd a03d
00000030: afc5 7f3d d404 5e3d 0bbc 15bc e448 e03d
00000040: 0f2d 44bc 3334 3e3d c034 7f3d ba39 b23d
00000050: f153 373d b1e4 d33d c18d b53c f1a9 153e
00000060: dabe 073e 9842 e93c 756e 3f3d 04be 893d
00000070: 5219 1c3e 6d84 793d b002 a13c 743b 023d

body.block2.norm.weight f4 [32]
0.9752551 0.9621881 0.8903362 0.8932917 0.9279521 0.9199243 0.9671683 0.8540023
0.7572092 0.99962544 0.8931243 0.7867347 0.97744155 1.0674444 0.98691547 0.8912968
0.92764676 0.9368151 0.8523327 0.9402029 0.9502459 0.8698832 0.958889 0.83129466
0.7567453 0.92200667 0.965185 0.8970334 0.9014142 0.9170873 0.95284617 0.9046027
00000000: 51aa 793f f651 763f 13ed 633f c4ae 643f
00000010: 458e 6d3f 2980 6b3f 5798 773f e59f 5a3f
00000020: 76d8 413f 74e7 7f3f cba3 643f 7267 493f
00000030: 9c39 7a3f 05a2 883f 7ea6 7c3f 072c 643f
00000040: 427a 6d3f 1dd3 6f3f 7a32 5a3f 23b1 703f
00000050: 5143 733f aab0 5e3f c079 753f bacf 543f
00000060: 0fba 413f a108 6c3f 5d16 773f fba3 653f
00000070: 15c3 663f 3cc6 6a3f baed 733f 0b94 673f

body.block2.norm.bias f4 [32]
-0.08634209 0.31999674 0.7049054 0.6158523 0.45764482 0.18213107 0.6071692 0.5309288
0.7306621 0.4409576 0.078816764 0.8226747 0.2795192 0.28901443 0.117737524 0.47739643
0.28289655 0.60262203 0.40993622 0.2648007 0.33171722 0.6990914 0.10526513 0.9572349
0.9956225 0.651891 0.092793554 0.6650088 0.6541766 0.5702619 0.20206396 0.29499575
00000000: 1fd4 b0bd 9dd6 a33e ae74 343f 7fa8 1d3f
00000010: 6c50 ea3e 9180 3a3e 716f 1b3f f3ea 073f
00000020: ac0c 3b3f 32c5 e13e af6a a13d cf9a 523f
00000030: 241d 8f3e b3f9 933e 5f20 f13d 4e6d f43e
00000040: d1d7 903e 7045 1a3f 29e3 d13e f593 873e
00000050: d7d6 a93e a7f7 323f 3f95 d73d 590d 753f
00000060: 1ee1 7e3f 54e2 263f 8c0a be3d 043e 2a3f
00000070: 1e78 273f affc 113f dbe9 4e3e af09 973e

body.block2.norm.running_mean f4 [32]
-0.48609582 -0.65322345 0.77651227 0.9274561 -1.964543 -0.50942844 -0.23726721 -0.7017935
0.24162166 -0.5958054 -1.1420808 1.1691808 0.7654128 -0.39918822 -0.45060438 0.7569748
-1.6681495 0.3355497 0.088203736 -0.69052523 1.0887059 0.6640362 -0.504022 0.7990922
0.09132496 0.39724544 -0.68901026 -0.78919137 0.43235004 -0.9138485 1.276933 -0.8388878
00000000: 8de1 f8be a739 27bf 82c9 463f c36d 6d3f
00000010: 2576 fbbf e769 02bf 2df6 72be bda8 33bf
00000020: ab6b 773e b486 18bf b42f 92bf b7a7 953f
00000030: 18f2 433f 6662 ccbe 9eb5 e6be 1ac9 413f
00000040: ec85 d5bf 2ccd ab3e 29a4 b43d 43c6 30bf
00000050: b75a 8b3f 47fe 293f 9607 01bf 4e91 4c3f
00000060: 9508 bb3d c163 cb3e fa62 30bf 7208 4abf
00000070: fc5c dd3e faf1 69bf 8a72 a33f 5ac1 56bf

body.block2.norm.running_var f4 [32]
1.2150041 1.1249474 1.784014 0.95777464 0.8987306 0.7596716 0.66419524 1.1177684
1.7373588 1.527627 0.5822825 0.7578831 0.36082345 0.7025222 0.93544745 0.63429123
0.74631536 0.26473644 0.4496845 1.1554703 0.6171139 0.73746574 0.77125317 0.99855685
0.8986114 1.7919184 0.47952113 0.41359144 0.6228798 0.9895458 0.7657212 0.6001996
00000000: 4185 9b3f 47fe 8f3f 925a e43f b830 753f
00000010: 3513 663f d779 423f b308 2a3f 0913 8f3f
00000020: c661 de3f 4889 c33f 7710 153f a004 423f
00000030: dabd b83e 7fd8 333f 7c79 6f3f e960 223f
00000040: 860e 3f3f 898b 873e 0c3d e63e 73e6 933f
00000050: 2dfb 1d3f 8eca 3c3f d970 453f 6ca1 7f3f
00000060: 660b 663f 955d e53f cb83 f53e 42c2 d33e
00000070: 0d75 1f3f e052 7d3f 4e06 443f aea6 193f

body.block3.conv.weight f4 [32, 32, 3, 3]
-0.02253385 0.013432036 -0.114255145 0.044823315 0.03400967 -0.08931403 0.004903029 -0.021993041
-0.12859875 0.05907154 0.017759932 -0.034744665 0.044011 -0.0048882603 0.055435203 0.024791332
0.0223021 -0.021326866 0.028205913 -0.05487714 -0.061086304 -0.0058474657 -0.04988308 -0.042935386
0.04709815 -0.016915176 -0.018215502 -0.05383654 0.02696391 0.045839228 -0.06519598 0.012062064
0.040874816 0.053593494 0.09001478 0.053388126 0.12300006 0.122918315 0.09317853 0.08784543
0.024934398 0.051963605 0.055587098 -0.020952 -0.056150503 0.027048059 0.0026161221 0.0042800135
-0.020565094 -0.0069600916 -0.01900256 -0.028683063 -0.038507916 0.015013768 0.03096573 -0.0009560835
-0.02833675 0.020482784 0.0134184165 -0.031955495 0.029858954 -0.021430612 -0.027381584 -0.0142997205
-0.020287482 -0.042977992 0.020969003 -0.035350528 -0.089561306 0.03839462 -0.019728823 -0.035474207
-0.01697913 -0.04438425 0.027035648 -0.011868954 -0.028545668 -0.015731161 -0.045920573 -0.04685199
-0.012719056 -0.0258096 -0.080383725 -0.06611157 0.0007872247 -0.024476051 -0.003027152 0.044342436
0.0004242712 -0.028659597 0.008302172 0.028629005 0.027935976 0.0069078472 -0.014456476 -0.0038241288
-0.0016602551 -0.023186844 -0.001509678 0.020646898 0.022338595 -0.011661411 -0.07297188 -0.009901007
-0.034961034 -0.08234351 -0.023190912 -0.011766383 0.032842092 0.0023017975 -0.069251984 0.05774397
0.015066123 -0.033242412 0.09782647 0.0601982 -0.0019202232 -0.00022135557 0.033663776 0.02503491
-0.03208941 0.016268888 0.017777035 -0.023425447 0.07226825 0.04527312 -0.034096297 0.01725542
0.023205517 -0.031340763 -0.007059883 -0.015919099 -0.069871366 -0.056485917 -0.08576899 0.008788264
-0.012545466 -0.005002023 -0.023767522 -0.015677236 -0.008293619 -0.010431065 -0.011108892 0.031863328
-0.00881071 0.003445548 0.059397873 0.025254896 0.02406492 0.018158246 -0.017942712 -0.010484193
0.043473106 0.0154531235 0.0030994809 0.030576602 -0.038893644 0.012295365 -0.023166435 -0.068018064
0.008627973 -0.037938025 -0.001106179 -0.019017344 -0.022117415 0.03974623 0.024563326 0.018497502
0.027651671 -0.0023504158 0.035963614 -0.07383949 -0.017110992 -0.04571361 -0.05815583 0.034654826
-0.02778142 -0.011561609 0.012829157 -0.0069924807 -0.02768623 0.020418752 0.040538963 -0.04737519
-0.018138863 0.012906954 -0.05752893 -0.007862657 -0.009631151 -0.049316127 -0.005542971 -0.0067323847
0.016778158 -0.000105900755 -0.0177849 0.020125765 0.008898803 -0.0020885107 0.063763775 0.021963354
0.021114217 0.0452501 0.04585294 0.03630476 0.0468601 -0.0044331425 -0.0022573387 0.060129233
-0.000748453 0.0036426687 -0.04392221 -0.08180441 -0.031167299 0.002273741 -0.008144957 -0.023802774
0.01716242 -0.022969374 0.038605463 -0.010786443 -0.01452424 -0.01989214 -0.07630446 -0.06374991
-0.019753488 -0.07864445 -0.07245848 -0.0697413 -0.040400393 -0.007304607 -0.008727587 0.004196138
0.015963286 0.0027465946 -0.06111958 -0.046812244 -0.026808443 -0.009548285 0.0039103404 -0.0031169313
0.0036308072 0.01355034 0.009272675 -0.038402878 -0.05985305 0.0006497814 0.006099772 0.020204803
0.004758689 0.026974557 -0.0053660823 0.011779983 -0.007132947 -0.008404918 -0.047187977 -0.013218891
00000000: e998 b8bc 0b12 5c3c 9afe e9bd a798 373d
00000010: b94d 0b3d 46ea b6bd 97a9 a03b c02a b4bc
00000020: 64af 03be 00f5 713d 477d 913c 6c50 0ebd
00000030: e144 343d b32d a0bb 0610 633d 3117 cb3c
00000040: e5b2 b63c aeb5 aebc 1610 e73c dac6 60bd
00000050: a235 7abd 199c bfbb 3352 4cbd 04dd 2fbd
00000060: fde9 403d b291 8abc ad38 95bc b483 5cbd
00000070: 6be3 dc3c eac1 3b3d 7885 85bd f79f 453c
00000080: 5a6c 273d da84 5b3d ab59 b83d 82ad 5a3d
00000090: 75e7 fb3d 99bc fb3d 63d4 be3d 4ee8 b33d
000000a0: 3943 cc3c cad7 543d 4caf 633d 87a3 abbc
000000b0: 12fe 65bd e493 dd3c 3f73 2b3b 5b3f 8c3b
000000c0: 2178 a8bc 7b11 e4bb 42ab 9bbc bef8 eabc
000000d0: 7aba 1dbd 4ffc 753c d8ab fd3c ada1 7aba
000000e0: 7922 e8bc 83cb a73c ebd8 5b3c c4e3 02bd
000000f0: c49a f43c 408f afbc 584f e0bc 6049 6abc
00000100: ef31 a6bc b109 30bd 30c7 ab3c b7cb 10bd
00000110: eb6b b7bd ad43 1d3d 579e a1bc 674d 11bd
00000120: d117 8bbc 42cc 35bd dd79 dd3c 0076 42bc
00000130: 9bd8 e9bc a3de 80bc 3617 3cbd dfe7 3fbd
00000140: 9663 50bc a76e d3bc 39a0 a4bd 8165 87bd
00000150: c15d 4e3a 0082 c8bc 2f63 46bb 6aa0 353d
00000160: b770 de39 88c7 eabc d505 083c 6087 ea3c
00000170: fdd9 e43c 395b e23b dbda 6cbc 3c9e 7abb
00000180: eb9c d9ba 56f2 bdbc 63e0 c5ba af23 a93c
00000190: 6eff b63c 810f 3fbc 4872 95bd d537 22bc
000001a0: 4d33 0fbd b7a3 a8bd defa bdbc cac7 40bc
000001b0: 6e85 063d c1d9 163b fcd3 8dbd f184 6c3d
000001c0: e6d7 763c 3229 08bd 3f59 c83d 6392 763d
000001d0: 00b0 fbba af1b 68b9 07e3 093d 0316 cd3c
000001e0: 2f70 03bd 5546 853c 25a1 913c b9e6 bfbc
000001f0: 6001 943d 4f70 393d 8fa8 0bbd 3d5b 8d3c
00000200: 7f19 be3c 2c5f 00bd 9756 e7bb c568 82bc
00000210: b818 8fbd c75d 67bd a7a7 afbd a7fc 0f3c
00000220: 808b 4dbc 03e8 a3bb 1bb4 c2bc 8c6d 80bc
00000230: f6e1 07bc 0fe7 2abc 1202 36bc 1f83 023d
00000240: cc5a 10bc b4ce 613b 2f4b 733d 5be3 ce3c
00000250: cc23 c53c 9ac0 943c 98fc 92bc e5c5 2bbc
00000260: db10 323d 192f 7d3c a920 4b3b c87b fa3c
00000270: f14e 1fbd 8072 493c 89c7 bdbc 0e4d 8bbd
00000280: 575c 0d3c e764 1bbd 35fd 90ba 43ca 9bbc
00000290: 952f b5bc f1cc 223d 0739 c93c 1388 973c
000002a0: c285 e23c 6f09 1abb 954e 133d 2939 97bd
000002b0: 5a2c 8cbc 323e 3bbd cf34 6ebd 38f2 0d3d
000002c0: dc95 e3bc e76c 3dbc 6231 523c 2e21 e5bb
000002d0: 3cce e2bc 3a45 a73c 2f0c 263d 7d0c 42bd
000002e0: f497 94bc b077 533c 75a3 6bbd 60d2 00bc
000002f0: facb 1dbc b5ff 49bd d0a1 b5bb 569b dcbb
00000300: 5972 893c 0917 deb8 a3b1 91bc cade a43c
00000310: 49cc 113c 65df 08bb 9596 823d 7eec b33c
00000320: b9f7 ac3c 2b58 393d 4bd0 3b3d 4db4 143d
00000330: 60f0 3f3d e543 91bb dcef 13bb 124a 763d
00000340: d533 44ba d7b9 6e3b c6e7 33bd 1289 a7bd
00000350: 9052 ffbc 0b03 153b 6d72 05bc 09fe c2bc
00000360: 3498 8c3c 452a bcbc c320 1e3d 9fb9 30bc
00000370: 14f7 6dbc d7f4 a2bc 8345 9cbd 508f 82bd
00000380: 11d2 a1bc 5710 a1bd 1d65 94bd 87d4 8ebd
00000390: e27a 25bd 7c5b efbb 27fe 0ebc c27f 893b
000003a0: 70c5 823c 3600 343b 8658 7abd 32be 3fbd
000003b0: 619d dbbc 6970 1cbc 5022 803b 6e45 4cbb
000003c0: d6f2 6d3b 3f02 5e3c 6bec 173c 564c 1dbd
000003d0: 7928 75bd 1756 2a3a 99e0 c73b 8b84 a53c
000003e0: c7ee 9b3b bff9 dc3c f6d5 afbb d400 413c
000003f0: 7fbb e9bb c8b4 09bc 2e48 41bd 0c94 58bc

body.block3.conv.bias f4 [32]
-0.082567625 0.009909035 -0.052085318 -0.014925824 -0.008932896 0.03432876 -0.10359613 -0.13755949
-0.07316392 0.13153274 0.03942396 -0.13738658 -0.013205557 -0.0040581822 -0.005777445 -0.120973974
0.048186056 0.027172118 -0.0023829106 0.10023463 -0.115430675 0.14903818 0.14403735 0.06147984
0.030561449 -0.033506244 0.10016632 0.001075109 0.0050684907 0.006559171 0.09389205 -0.07326418
00000000: 3719 a9bd 8159 223c 6a57 55bd 718b 74bc
00000010: 485b 12bc 509c 0c3d 352a d4bd 65dc 0cbe
00000020: f7d6 95bd 85b0 063e 057b 213d 11af 0cbe
00000030: 1f5c 58bc 80fa 84bb b950 bdbb 34c1 f7bd
00000040: be5e 453d 1098 de3c 9b2a 1cbb d047 cd3d
00000050: eb66 ecbd 779d 183e 877e 133e 49d2 7b3d
00000060: 015c fa3c d83d 09bd 0024 cd3d acea 8c3a
00000070: 9515 a63b 50ee d63b 7a4a c03d 880b 96bd

body.block3.norm.weight f4 [32]
1.1443475 1.2256769 1.0800661 1.4121814 1.1884817 0.9908519 1.2325532 1.2939614
1.0797993 1.0124534 0.98454595 1.3517402 1.3009049 1.4004838 1.2549258 1.3849744
1.0232371 1.0754771 1.1300609 1.1749659 1.1407644 1.1709354 1.1293718 1.199855
1.2157704 0.9842643 0.94246125 1.1085095 1.2740968 1.1361697 1.0803993 1.2600821
00000000: fb79 923f fbe2 9c3f 9b3f 8a3f 5cc2 b43f
00000010: 2b20 983f 78a8 7d3f 4ec4 9d3f 87a0 a53f
00000020: dd36 8a3f 1398 813f 340b 7c3f d305 ad3f
00000030: 0d84 a63f 0e43 b33f 69a1 a03f d746 b13f
00000040: 6ff9 823f 3ca9 893f d6a5 903f 4865 963f
00000050: 9104 923f 36e1 953f 418f 903f d994 993f
00000060: 5d9e 9b3f bff8 7b3f 2445 713f a4e3 8d3f
00000070: 9b15 a33f 026e 913f 864a 8a3f 5f4a a13f

body.block3.norm.bias f4 [32]
0.95002687 -0.092409246 0.92154735 0.5880272 -0.4580517 -0.75816697 0.8718875 1.0202177
0.88219666 -0.788465 -0.76448613 0.60346276 0.8022617 -0.33410117 0.86424744 0.678354
-0.7209343 0.9230959 -0.48730117 -0.6246761 0.9688657 -0.79135203 -0.7905895 -0.05070063
-0.7948114 -0.7227304 -0.73848313 -0.7642864 0.06358397 0.9428511 -0.7839217 0.7876921
00000000: f634 733f 0f41 bdbd 87ea 6b3f f388 163f
00000010: c185 eabe 3b17 42bf 0534 5f3f 7e96 823f
00000020: a4d7 613f d8d8 49bf 5db5 43bf 897c 1a3f
00000030: 0661 4d3f 4f0f abbe 523f 5d3f 9ca8 2d3f
00000040: 268f 38bf 0350 6c3f 8a7f f9be c6ea 1fbf
00000050: 9507 783f 0c96 4abf 1364 4abf 77ab 4fbd
00000060: c378 4bbf dc04 39bf 3b0d 3dbf 46a8 43bf
00000070: 5038 823d b15e 713f 18af 48bf 31a6 493f

body.block3.norm.running_mean f4 [32]
-1.2817596 -0.4857721 -1.7240397 1.2981441 -0.9956897 -1.4763634 0.25196815 -0.49212915
-1.3175889 -1.4197662 -1.5098795 -0.08440303 0.46643215 0.48742855 -0.08651406 0.9406213
-0.76914275 -1.3312554 -1.4754949 -2.2247846 -0.67658865 -0.8755162 -2.3125527 -0.49871972
-0.48202607 -1.9301217 -1.0060126 -2.3941205 -0.73002183 -1.0602157 -1.3162574 -0.44613186
00000000: b310 a4bf 1fb7 f8be 55ad dcbf 9629 a63f
00000010: 85e5 7ebf 7af9 bcbf f801 813e 5af8 fbbe
00000020: c1a6 a8bf e6ba b5bf bb43 c1bf 7fdb acbd
00000030: 32d0 ee3e 3c90 f93e 492e b1bd 8fcc 703f
00000040: 8ae6 44bf 9466 aabf 04dd bcbf df62 0ec0
00000050: ea34 2dbf d421 60bf dd00 14c0 3158 ffbe
00000060: 1fcc f6be 3a0e f7bf 05c5 80bf 4539 19c0
00000070: b6e2 3abf 26b5 87bf 1f7b a8bf 656b e4be

body.block3.norm.running_var f4 [32]
0.8521594 0.44150668 0.9567653 0.7133669 0.33846208 0.57165897 1.927452 0.5168361
0.8567322 0.56854856 0.4246656 0.34104013 1.0942197 0.37882867 0.96927565 1.0702553
0.30762386 0.89548576 0.30991814 0.5274786 1.0616882 0.55837566 0.7417061 0.34074798
0.5886663 0.64009154 0.35210955 0.87488383 0.29796275 0.89295304 0.26051018 0.6796175
00000000: 1e27 5a3f 2a0d e23e 92ee 743f 379f 363f
00000010: e74a ad3e 3e58 123f bfb6 f63f 5f4f 043f
00000020: cd52 5b3f 668c 113f c56d d93e d09c ae3e
00000030: 640f 8c3f d5f5 c13e 7322 783f 20fe 883f
00000040: e080 9d3e 8e3e 653f 97ad 9e3e d608 073f
00000050: 66e5 873f b5f1 0e3f 73e0 3d3f 8576 ae3e
00000060: d6b2 163f 0add 233f b447 b43e 63f8 5f3f
00000070: 938e 983e 9298 643f 9761 853e 6afb 2d3f

tail.weight f4 [1, 32, 3, 3]
0.09500756 -0.18899056 -0.29103237 -0.027073333 -0.20848411 -0.30682886 -0.06472013 -0.24227068
-0.29445353 0.24657044 0.14033444 0.02880334 0.24186532 0.11073969 -0.112398304 0.19736798
0.016713211 -0.26548916 -0.09890448 -0.21250612 -0.08907873 -0.15583041 -0.273568 -0.19857444
-0.1423347 -0.25760648 -0.2275708 -0.4371818 -0.40298307 -0.42554164 -0.38388994 -0.39586672
-0.44092777 -0.1880947 -0.26530316 -0.31063047 0.23607618 0.20420146 0.05638273 0.19961078
0.12582125 -0.061990846 0.17456469 0.04048639 -0.19040187 0.18005782 0.15651041 0.11439775
0.13316557 0.14378287 0.05957849 0.121934816 0.049538746 0.038036987 0.037853204 -0.2892874
-0.34462562 -0.05934336 -0.3263881 -0.321824 -0.13402855 -0.2545665 -0.266445 0.41485488
-0.19931582 -0.34682378 0.07404156 -0.30486065 -0.3961209 -0.034170315 -0.2666984 -0.3679819
0.087409034 -0.19445634 -0.27141467 -0.07692255 -0.24764124 -0.31154 -0.059142374 -0.21852933
-0.28504035 0.18510741 0.17711306 0.13793461 0.08989257 0.11838926 0.18852498 0.11008019
0.1312244 0.098042145 0.08209207 0.065949686 0.080919504 0.08458311 0.04051773 0.106139526
0.085340194 0.1014365 0.1389589 0.11046967 -0.22751275 -0.28266436 -0.1627987 -0.40294906
-0.32319948 -0.19620267 -0.34477413 -0.26956728 -0.3257661 -0.3153096 -0.29714608 -0.29265398
-0.35875964 -0.38248444 -0.06104391 -0.24498306 -0.33376965 0.4446799 0.16531262 -0.20913322
0.36725375 0.11595009 -0.15115826 0.3077732 0.1626819 -0.14997979 -0.31174728 -0.31118435
-0.15308642 -0.2536191 -0.3092478 -0.2880291 -0.18991148 -0.23365922 -0.29201794 -0.4045
-0.41235694 -0.37597668 -0.3725765 -0.40763882 -0.46774656 -0.21257326 -0.31189817 -0.3641676
0.10763793 0.019657517 -0.079001725 0.12876943 0.09843763 -0.067618236 0.16307425 0.080768555
0.010949884 -0.06953505 -0.21193413 -0.20184396 -0.14682585 -0.24570352 -0.23166427 -0.18390903
-0.24220425 -0.29336777 0.17291908 0.21532393 0.16692337 0.14892611 0.09618929 0.036472432
0.07226997 0.016865244 -0.030449733 0.32837963 0.25205395 0.27544186 0.24984942 0.16746409
0.18912528 0.19607495 0.14761078 0.11607494 -0.16198732 -0.2678214 -0.2500115 -0.10471858
-0.26196864 -0.3323366 0.0029362366 -0.17992617 -0.27701038 0.20750052 0.16976213 0.091262974
0.28419188 0.20272124 0.15875289 0.26402524 0.19570194 0.21495295 0.25563926 0.23701707
0.26210374 0.19344659 0.18599683 0.23117666 0.0709472 0.08465396 0.11260499 0.22972588
0.16892885 0.05121585 0.20969106 0.056507945 -0.06376902 0.12970312 -0.03766715 -0.29413575
0.29725716 0.19266325 0.09077956 0.27061427 0.1807795 0.019697143 0.22635359 0.1023446
-0.054819383 0.15856908 0.17359646 0.20744793 0.13134041 0.15302232 0.18206379 0.12363211
0.1018654 0.10696801 0.06142503 0.006496748 0.008385993 0.08849834 0.02404584 0.048533913
0.15278998 0.070389956 0.07270755 0.17810899 0.23497689 0.22842406 0.19259648 0.14944954
0.1809656 0.1440019 0.07488111 0.12692896 0.29185292 0.2129266 0.04963866 0.2734901
00000000: 5393 c23d be86 41be 3202 95be e5c8 ddbc
00000010: dc7c 55be ac18 9dbe fd8b 84bd ce15 78be
00000020: 9dc2 96be f67c 7c3e d5b3 0f3e fbf4 eb3c
00000030: 8bab 773e 7ecb e23d 1531 e6bd d51a 4a3e
00000040: 25ea 883c 32ee 87be 6f8e cabd 349b 59be
00000050: e96e b6bd 0292 1fbe 1b11 8cbe 1957 4bbe
00000060: 30c0 11be ffe4 83be 5208 69be 4bd6 dfbe
00000070: cc53 cebe 98e0 d9be 398d c4be 0baf cabe
00000080: 49c1 e1be e69b 40be d1d5 87be f50a 9fbe
00000090: f4bd 713e 301a 513e 94f1 663d c566 4c3e
000000a0: 49d7 003e 1dea 7dbd 16c1 323e 0fd5 253d
000000b0: b5f8 42be 1461 383e 4444 203e 5e49 ea3d
000000c0: 8e5c 083e d13b 133e 9308 743d f6b8 f93d
000000d0: 24e9 4a3d accc 1b3d f60b 1b3d 7a1d 94be
000000e0: c572 b0be 0612 73bd 571c a7be 1ec6 a4be
000000f0: c83e 09be 8a56 82be 7b6b 88be dc67 d43e
00000100: 7219 4cbe e392 b1be 1aa3 973d b216 9cbe
00000110: 5cd0 cabe 2cf6 0bbd b18c 88be 2068 bcbe
00000120: 8203 b33d 901f 47be ddf6 8abe 9289 9dbd
00000130: aa95 7dbe 2c82 9fbe 463f 72bd 27c6 5fbe
00000140: cff0 91be cc8c 3d3e 205d 353e bb3e 0d3e
00000150: 9919 b83d 1176 f23d b10c 413e b971 e13d
00000160: b05f 063e 52ca c83d e31f a83d a110 873d
00000170: 20b9 a53d e939 ad3d ebf5 253d ae5f d93d
00000180: d7c6 ae3d f1bd cf3d 3e4b 0e3e ec3d e23d
00000190: 1af9 68be 62b9 90be b4b4 26be 574f cebe
000001a0: 677a a5be 5ae9 48be 3c86 b0be b904 8abe
000001b0: d0ca a6be 4370 a1be 8823 98be bed6 95be
000001c0: 58af b7be 00d5 c3be 2e09 7abd d7dc 7abe
000001d0: dbe3 aabe 15ad e33e b647 293e 0527 56be
000001e0: af08 bc3e 3e77 ed3d 3bc9 1abe 7394 9d3e
000001f0: 1696 263e 4d94 19be 579d 9fbe 8e53 9fbe
00000200: b0c2 1cbe 5dda 81be ba55 9ebe 8d78 93be
00000210: 2878 42be 5d44 6fbe 6083 95be a01a cfbe
00000220: 7320 d3be 0480 c0be 59c2 bebe 09b6 d0be
00000230: 7a7c efbe ceac 59be 1eb1 9fbe 2d74 babe
00000240: 4671 dc3d cd08 a13c a8cb a1bd 22dc 033e
00000250: ab99 c93d 6e7b 8abd f0fc 263e fc69 a53d
00000260: 2467 333c 6468 8ebd 4305 59be 2fb0 4ebe
00000270: 8459 16be b499 7bbe 6639 6dbe a652 3cbe
00000280: 6404 78be 4d34 96be b311 313e e07d 5c3e
00000290: f6ed 2a3e 1680 183e e4fe c43d 1e64 153d
000002a0: 4702 943d fb28 8a3c b871 f9bc 6021 a83e
000002b0: 370d 813e b706 8d3e 87d8 7f3e b57b 2b3e
000002c0: 0faa 413e dfc7 483e 4827 173e b3b8 ed3d
000002d0: 01e0 25be e31f 89be 8201 80be b276 d6bd
000002e0: c120 86be 0628 aabe e06d 403b 913e 38be
000002f0: 4ed4 8dbe 047b 543e 20d6 2d3e 15e8 ba3d
00000300: 9981 913e 2896 4f3e 1e90 223e 512e 873e
00000310: 1766 483e a01c 5c3e 26e3 823e 9ab4 723e
00000320: 7632 863e dd16 463e f475 3e3e 93b9 6c3e
00000330: c44c 913d 0e5f ad3d 729d e63d 433d 6b3e
00000340: affb 2c3e b6c7 513d 41b9 563e e074 673d
00000350: 5599 82bd e5d0 043e df48 1abd f698 96be
00000360: 1732 983e 8449 453e a2ea b93d f48d 8a3e
00000370: 431e 393e e75b a13c 3cc9 673e 0c9a d13d
00000380: 4a8a 60bd ef5f 223e 45c3 313e 3b6d 543e
00000390: 1a7e 063e e2b1 1c3e ee6e 3a3e d532 fd3d
000003a0: cf9e d03d 0b12 db3d d098 7b3d ace2 d43b
000003b0: 6765 093c 9e3e b53d c8fb c43c 7fcb 463d
000003c0: fa74 1c3e 9c28 903d b2e7 943d 3462 363e
000003d0: c89d 703e ffe7 693e 0338 453e 4d09 193e
000003e0: 0c4f 393e 3c75 133e 445b 993d aaf9 013e
000003f0: bf6d 953e 6e09 5a3e e851 4b3d e506 8c3e
