TrainedModels/0035-sample/scale_factor=0.850000,alpha=10/2/netD.pth (torch, 127382 bytes, 25 tensors)

head.conv.weight f4 [32, 4, 3, 3]
000000 37 97 44 bd ce ea b5 3c 81 54 91 3c 0d 08 8a bc
       -0.047995772 0.02220669 0.01774049 -0.016849542
000010 59 e9 10 3d 12 7f 4d 3c 56 ee e1 bc df 34 fb 3c
       0.035378788 0.012542503 -0.027579468 0.03066486
000020 b8 06 4e 3d 5d 0a 80 bd e4 f2 8b bc c2 ea ce 3c
       0.050299376 -0.06251977 -0.017083593 0.025258426
000030 ff cc 26 bc a6 01 17 3d 5e c9 35 3d 31 de 09 bd
       -0.010180711 0.036866806 0.04438149 -0.033659164
000040 dc 31 c3 3c 5d 50 7f 3d f3 1c 12 be 06 67 e5 bc
       0.023827486 0.0623325 -0.14268856 -0.028003227
000050 4e 43 13 3c f0 8d 45 bd a8 21 04 3d b4 86 30 3d
       0.008988215 -0.048231065 0.03225866 0.043097213
000060 7b 92 0f bd fe 7c 92 3c 3e 35 bf 3d d9 91 49 bd
       -0.035051804 0.017881867 0.09336327 -0.049211357
000070 8f d9 b8 bd 15 aa e0 bd 0f 33 b8 3b 32 76 55 3d
       -0.09025871 -0.109699406 0.005621321 0.052114673
000080 0b c3 cd 3c 73 b8 51 3d 54 06 8d 3d 0a e2 59 3d
       0.025117418 0.051201295 0.068859726 0.053194083
000090 cc d7 af 3b bc ad 5c 3c 0b fd a4 bd ad b0 e6 bc
       0.005366301 0.013469156 -0.080560766 -0.028160417
0000a0 f2 f4 64 bd 6d dd 43 bd b6 41 42 bb 01 d4 51 3c
       -0.05589766 -0.04781859 -0.0029641218 0.012806893
0000b0 ca bd fb 3d 09 f5 a0 ba 4d 2a bb bb ad c9 d8 bc
       0.12292059 -0.0012280057 -0.0057118298 -0.026463354
0000c0 19 b3 14 bc a9 8f 16 bd 74 c8 68 3c 6c ee 2b 3d
       -0.009075903 -0.0367581 0.014207948 0.041975424
0000d0 56 7a 47 3d 2a 47 09 3e aa eb 55 bc 0f ce 26 bd
       0.048700653 0.13406053 -0.013056675 -0.040723857
0000e0 9b 9f 00 bd 70 f9 17 bc bc 6d 45 bd 7b 21 40 3b
       -0.03140221 -0.009275779 -0.048200354 0.002931683
0000f0 4c 60 46 3d c8 58 55 3d ef b0 6c 3e 00 f0 b6 3d
       0.04843168 0.05208662 0.2311437 0.08932495
000100 04 e7 b3 3c c0 70 ca 3d 42 78 83 bd 84 34 bd bc
       0.021960743 0.098847866 -0.06419422 -0.02309633
000110 3c af 0e 3d 30 36 99 bd 38 20 a7 bc 8e 8f 5f 3c
       0.034835085 -0.074810386 -0.020401105 0.013645066
000120 54 8e e9 bc b9 0d 90 bd df 11 de bd 44 32 3c bb
       -0.02851025 -0.070338674 -0.108432524 -0.0028716484
000130 3c 8f 40 ba 7d 70 05 bd 90 19 59 3d 25 e8 0e 3d
       -0.00073455623 -0.03257798 0.053002894 0.03488936
000140 f5 0a 91 3d fe 6e 23 bd 06 86 8a bd 32 2d ca bd
       0.07082168 -0.039900772 -0.06763844 -0.098719016
000150 1f 4e 8b 3a a5 0a 4c bc 6b dc 81 bd e4 74 05 3d
       0.001062814 -0.01245371 -0.063408695 0.03258218
000160 10 d9 12 3d 4f 20 7f 3d a0 d6 66 bd 26 00 d8 bd
       0.03585154 0.06228667 -0.056357026 -0.10546903
000170 89 db 1a be 0a 55 36 3c 12 58 a8 bb 1c 6b 8f bd
       -0.15122809 0.011128673 -0.005137452 -0.07002851
000180 2a 5d 79 3d 0d 2a af 3c 4c 2c c1 3d a5 75 d2 bd
       0.060879864 0.021382356 0.09432277 -0.10276345
000190 d5 14 06 3b 8d e7 4f bd 5e a6 58 3c b0 23 e1 bb
       0.0020459194 -0.050757933 0.013223259 -0.0068707094
0001a0 12 43 2e bd 5d 57 30 3d d9 c5 1e 3d 7d 90 8d 3d
       -0.042544432 0.043052066 0.0387629 0.069123246
0001b0 14 49 81 3d 0a 58 82 3d 3d a3 40 3c c9 a8 93 3b
       0.06312767 0.06364448 0.011757669 0.0045062047
0001c0 b5 a5 3c 3d 87 97 b1 3c 73 ac 3d bc c8 68 26 3c
       0.046056468 0.0216787 -0.01157676 0.010156818
0001d0 21 03 a6 bc 46 4a c6 3c 66 25 26 bc a6 d6 ad bb
       -0.020265164 0.024205338 -0.010140752 -0.005305129
0001e0 cc 4a 0d bd c0 65 fb bb a8 0f bc bc 7c 08 0e bd
       -0.03449516 -0.0076720417 -0.022956684 -0.03467606
0001f0 02 21 3c bb 13 4e b3 bb d7 2b 30 3a f3 55 19 bd
       -0.0028706198 -0.0054719537 0.00067204 -0.037435483
000200 c5 bf 79 3c a6 80 92 bb eb 60 0c bd c1 1d cd 3c
       0.015243475 -0.0044709025 -0.034272116 0.025038602
000210 01 ef 9a bb 3c 7c 8e 3c 5f e1 25 3d 35 92 b1 3d
       -0.0047281985 0.017393224 0.040498134 0.08670465
000220 a9 f9 53 3c 63 ab 0f be be b1 01 3d ac 1e 8f 3d
       0.012937942 -0.14030223 0.03166365 0.06988272
000230 c9 a0 8f bd b5 14 c7 3c 7f f7 2c bd ab 3d 32 be
       -0.07013089 0.024301866 -0.04222822 -0.17406337
000240 f0 26 40 3d c5 72 5d bc 2b 98 7e 3d f4 2b 12 bb
       0.046912134 -0.013516133 0.062156837 -0.002230403
000250 69 3c 37 bd 85 7e 02 3c 94 5d bf ba 0a 68 5c bd
       -0.044735346 0.007964735 -0.0014600032 -0.053810157
000260 2a 38 45 3c 8c 72 7b 3d 17 74 4d 3c d0 ad 83 3d
       0.012037316 0.061388537 0.012539885 0.064296365
000270 05 02 68 bc 2f 29 21 bd 65 91 94 3c eb 71 7d bd
       -0.014160638 -0.039345916 0.018135736 -0.06187622
000280 f0 d2 86 bd 1b 4d 0d 3d 93 f8 ea 3d ca 4b 9a 3c
       -0.06583202 0.03449736 0.11473193 0.018834967
000290 d1 d5 e0 3d 64 af 92 bc 5f 52 4d bd 3b 17 72 3d
       0.10978282 -0.017905898 -0.050127383 0.059104186
0002a0 33 c3 9b bd 6d 95 99 bd ce bd 3d 3d 89 03 19 3e
       -0.07605591 -0.07499204 0.04632359 0.14942755
0002b0 8a 91 17 3d 42 2b 4d 3d da f8 f0 3c 72 1e 18 bd
       0.03700403 0.050090082 0.029415537 -0.03713841
0002c0 86 90 14 3c 83 62 83 bd dc 2a dc bc 88 ec 05 bc
       0.00906766 -0.06415274 -0.026875906 -0.008174069
0002d0 0e 43 fa bc 12 f1 8e 3b d7 14 96 3d 3f f0 4f 3d
       -0.030549552 0.004362234 0.07328194 0.050766226
0002e0 97 1e fe 3c ab a3 8d 3d ac 86 98 3d 9a 28 9a 3d
       0.031020446 0.06915983 0.074475616 0.075272754
0002f0 83 2e ce 3d 51 a8 2b bd 21 d6 cf ba 01 5e 6c 3d
       0.10067465 -0.041908566 -0.0015856662 0.057706837
000300 77 7d d1 3b 27 b9 d0 3c 4e 6d 29 3d e0 61 f7 bb
       0.0063931304 0.025478913 0.041364007 -0.0075495094
000310 a2 c0 f6 3c cd 81 8b 3d 12 51 f4 bd 1d d0 78 bd
       0.030121151 0.06811867 -0.119295254 -0.060745347
000320 31 06 83 bc c9 b5 3b bd 12 a2 88 bc 50 a0 21 3c
       -0.015994163 -0.04582766 -0.016678844 0.009864882
000330 65 ae 9c bd 7a 35 52 bd ff c5 f3 3c c8 b7 dc bc
       -0.076504506 -0.05132053 0.029757498 -0.026943102
000340 0b 0b 8e bb ba 37 bf 3d 54 1d 5a bd 5c 60 17 bd
       -0.0043348125 0.09336801 -0.053250626 -0.03695713
000350 9f 0b 96 3d e2 9a 0a bd 41 d9 38 3d 2c ec 9b 3d
       0.07326435 -0.033839114 0.045129064 0.076134056
000360 87 b3 03 bd 1d 8c 98 bd 9d 75 56 bc 64 bd 95 bd
       -0.032153632 -0.074485995 -0.013089565 -0.07311514
000370 23 be f4 bd ea 6c b8 bc 0e 0d f0 bd 4a f8 1c be
       -0.11950328 -0.022512872 -0.1172124 -0.1532909
000380 43 62 22 bd a6 03 09 3d 26 16 9c bc fb 29 e7 3c
       -0.03964449 0.033450745 -0.01905353 0.02821826
000390 92 63 e7 3b be 6d 05 bd 6f 5e 2f 3b f5 29 81 bd
       0.0070614303 -0.03257536 0.0026759168 -0.06306831
0003a0 f6 3d aa bd fc 9a ae 3c f4 a3 57 3c 77 8e 7f 3c
       -0.08312599 0.021314137 0.013161648 0.015597931
0003b0 dd 88 2a 3d f3 40 e2 3d 60 28 56 3d e5 69 75 3d
       0.04163443 0.11047544 0.0522846 0.059915442
0003c0 ee 1d 77 3d b8 6e bb 3c 0d c4 b2 3d 77 98 a6 3b
       0.060331278 0.022879943 0.087288 0.005084093
0003d0 40 0d 1c bd 47 a8 72 3d 0c 2a c9 3c 87 2e 9f bd
       -0.038098574 0.059242513 0.024556182 -0.07772546
0003e0 11 c5 d1 bc af f2 16 3e ee f9 20 3d bc 82 2f 3c
       -0.025606664 0.14741014 0.03930085 0.010712322
0003f0 8e c8 00 bd 6d 45 a3 bc 35 f2 5b bc 96 0b 9e bb
       -0.031441264 -0.019930566 -0.013424446 -0.0048231585

head.conv.bias f4 [32]
000000 3c bf 40 be c0 42 08 bd 99 3d c9 3d 8c 5d 9a bd
       -0.1882295 -0.033266783 0.09826202 -0.07537374
000010 6f 3b 02 3e 7e 94 bd bb 93 a5 b1 bc d6 01 42 bd
       0.12717985 -0.005785524 -0.021685397 -0.047365032
000020 d0 aa 3d bd b7 05 41 be 08 8f 28 be 8f f9 91 3d
       -0.046305478 -0.18849836 -0.16460812 0.07127678
000030 17 e9 bd bd 82 18 23 3e 7a e8 7a 3d 47 d0 c3 3e
       -0.09272974 0.15927318 0.061256863 0.3824484
000040 a8 3f b5 3d e9 07 fc be b3 17 70 be 8b de 30 3e
       0.08850032 -0.49224785 -0.2344654 0.17272393
000050 13 0b 1e 3d 6e e3 0d 3d 6b 79 3d bd 06 47 94 3b
       0.03858478 0.034640722 -0.04625837 0.004525068
000060 52 0f 00 3f fb f3 15 bf 95 aa 0c bd 43 b4 5f 3e
       0.50023377 -0.5857541 -0.034342367 0.21846108
000070 54 55 12 3e 13 96 ba bc e3 98 b2 be 57 c5 26 bc
       0.14290363 -0.02277664 -0.34882268 -0.010178885

head.norm.weight f4 [32]
000000 20 9b 7f 3f df 27 45 3f 82 9f 8e 3f de 05 2e 3f
       0.99846077 0.77013963 1.1142428 0.679777
000010 b8 07 5c 3f 20 35 57 3f 17 d3 30 3f 59 21 82 3f
       0.8594928 0.8406544 0.690721 1.0166427
000020 f0 e5 45 3f 4c 1e 42 3f 04 2a 65 3f ba 2d 65 3f
       0.7730398 0.7582748 0.89517236 0.895229
000030 8b b6 84 3f 2d e1 61 3f 1c cc 81 3f ba 5a 4d 3f
       1.0368208 0.88234216 1.0140414 0.8021656
000040 55 d7 5d 3f ce 97 7c 3f 77 bc 64 3f fd 2d 50 3f
       0.86656696 0.98669136 0.89350075 0.8132017
000050 2c 0f 32 3f f8 65 60 3f 5d a6 4d 3f 8c 0d 8d 3f
       0.695544 0.8765559 0.80331975 1.1019759
000060 0f 65 4d 3f 85 51 7c 3f 7c da 51 3f 6a f8 4c 3f
       0.8023233 0.9856189 0.81974006 0.8006655
000070 5a ab 3d 3f 52 95 4a 3f da 36 3f 3f 6a c9 68 3f
       0.74089587 0.79134095 0.7469307 0.90932333

head.norm.bias f4 [32]
000000 6b 51 92 3e be 28 56 3f 95 bb e9 3e a9 ae 5d 3f
       0.28577742 0.8365592 0.45650926 0.86594635
000010 ed 83 33 3f 9b 35 2e 3f f7 19 17 3f 39 f3 a3 3c
       0.7012318 0.68050545 0.59023994 0.020013439
000020 59 f9 21 3f 7d ad 02 3f 59 aa 51 3f 9e 4c 20 3f
       0.632711 0.5104597 0.81900555 0.6261691
000030 39 0b dd 3e 7e a7 4b 3f c4 f8 cc 3c bc 72 72 bf
       0.43172625 0.7955245 0.025020964 -0.9470632
000040 c9 d1 d1 3e 8e bf 2f 3f 72 f3 eb 3e 36 0d 1c 3f
       0.40980366 0.68651664 0.46084172 0.6095766
000050 e8 bd 26 3f b0 48 10 3f 90 b1 37 3f 40 cf ad bd
       0.65133524 0.5636091 0.71755314 -0.084867954
000060 18 73 57 3f 57 6b 1f 3f 32 ef 9d 3f 64 8c 38 3f
       0.84159994 0.6227316 1.2338622 0.7208922
000070 65 e4 33 3f d2 2d 36 3f 09 35 4c 3f 85 16 e0 3e
       0.7027038 0.71163666 0.79768425 0.4376718

head.norm.running_mean f4 [32]
000000 e5 27 82 be 7d 57 0b be 4f dc 79 3e 0c 67 d1 bd
       -0.25421062 -0.13607593 0.24400447 -0.10224733
000010 ff ff a3 3d d3 eb 8d be 34 41 83 3e aa 84 41 bd
       0.08007812 -0.27718982 0.25635684 -0.04724566
000020 a6 2a de bd 2e eb 58 be ee 01 5f be 61 8f 8a 3d
       -0.10847978 -0.21183464 -0.2177808 0.067656286
000030 9c b8 1e 3e 0b a9 53 3e 77 a8 23 3e 6f 68 88 3e
       0.1550011 0.20669954 0.15982233 0.26642177
000040 91 c8 a3 3d 04 b3 00 bf f3 72 e8 be 91 e2 79 bd
       0.079972394 -0.50273156 -0.454002 -0.061007086
000050 73 64 55 3e 5c 7e 28 be df d7 0a be 5b 53 8d 3c
       0.208391 -0.16454452 -0.13558911 0.017251661
000060 ba d8 03 3f 89 de 42 bf 90 97 49 bc 27 72 4a 3e
       0.51502573 -0.7612081 -0.012304202 0.19770108
000070 3c 37 b6 3d a7 9a 1f be ae 64 9a be 70 da a7 be
       0.08897254 -0.15586339 -0.30154938 -0.32783842

head.norm.running_var f4 [32]
000000 cf 25 ad 3c a0 c4 e6 3c 89 2f 32 3d 37 ef 1b 3d
       0.021136193 0.02816993 0.043502364 0.03806993
000010 d2 72 10 3d 77 b7 1f 3d 61 d5 26 3c fe 24 69 3d
       0.03526575 0.038993325 0.010182709 0.056920044
000020 f5 56 be 3c 0b 25 b4 3c d4 5e 81 3e c1 08 98 3c
       0.023234824 0.02199032 0.2526766 0.018558862
000030 ac 41 81 3d 22 7f 05 3d 00 e1 19 3d 9d 14 9c 3f
       0.06311354 0.032591946 0.037568092 1.2193791
000040 80 b1 39 3c 89 2b d5 3d a7 9a cb 3c 49 32 31 3d
       0.011333823 0.10408694 0.024854017 0.043260846
000050 40 22 5f 3c 14 95 ed 3c 4b 4d 1c 3c cd a6 d8 3d
       0.013619006 0.02900175 0.009539912 0.1057869
000060 f8 cc 33 3c 15 56 e1 3d 5e 49 a2 3c 78 1f a5 3c
       0.010974161 0.11002747 0.019810375 0.020156607
000070 a9 56 05 3e d1 4f f6 3c 8f 10 4f 3c eb 8b 3a 3e
       0.1302134 0.030067356 0.012638225 0.18217437

body.block1.conv.weight f4 [32, 32, 3, 3]
000000 c4 cb c7 3c 96 ea 5d bc 16 0f 3d 3d 8e ff 00 bc
       0.024389155 -0.013544699 0.046156965 -0.007873429
000010 9e d9 da bc ef 28 9a bd be 2a 6d 3c 93 24 80 3d
       -0.026715096 -0.07527339 0.014475523 0.06256976
000020 5a c7 da 3d 71 ea 9a 3d db 64 89 3c 26 65 c5 3d
       0.106825545 0.075642474 0.016771724 0.09638433
000030 c6 44 e6 3c a3 18 78 3d 9d 40 cf 3c 3f 2b 05 3d
       0.028108966 0.06057037 0.025299365 0.032511946
000040 06 22 bd 3c d5 6b 7b 3d 73 59 0d bd 55 b0 5c 3c
       0.023087513 0.061382134 -0.034509134 0.013469775
000050 99 54 77 3d c9 6f 9d bd 0e 2b ce bc 6e 19 85 bd
       0.060383413 -0.07687337 -0.025167014 -0.06498991
000060 8e f8 e7 b9 b1 7f fc 3d 4c 6a 1d 3e c9 ca 3c bd
       -0.0004424494 0.12329043 0.1537258 -0.04609183
000070 45 c7 b0 bc 86 7a c4 3b 45 64 15 bd 03 db 3d 3c
       -0.021579394 0.0059960512 -0.036472578 0.011587861
000080 54 59 49 3b 4b 7c 81 3d 89 53 1e 3c 38 ff 5d 3c
       0.003072341 0.06322535 0.009663471 0.013549618
000090 6b e7 69 3d 93 55 ca bd f1 a0 dd bc 25 48 8a 3d
       0.057105463 -0.09879603 -0.027054282 0.06752042
0000a0 db 67 0d bd 4c 7a a9 bc 17 3f 5e 3d 19 72 3e bc
       -0.034522872 -0.020688199 0.054259386 -0.011623883
0000b0 68 62 44 3c ba 73 97 bd 98 be 95 bd 0b 61 8e bd
       0.0119863525 -0.0739512 -0.073117435 -0.06952103
0000c0 df 48 aa bd 26 ae 95 bd 64 05 3c bc fd 44 d1 bd
       -0.0831468 -0.07308607 -0.011475895 -0.102182366
0000d0 e1 aa d4 bb 4f 27 0c bd 4d 43 30 3d e9 7d 24 bd
       -0.006490097 -0.034217175 0.043032933 -0.04015914
0000e0 6d f8 4b bd ec ce 88 3d d2 fb 0e 3c 38 91 2a 36
       -0.049797464 0.06680092 0.008727031 2.5416502e-06
0000f0 a5 03 03 bd 00 22 de bc 8c 06 51 3d 4c 9b 79 bd
       -0.031985898 -0.027115822 0.051031634 -0.06093912
000100 8e ab f0 3c fa 86 72 3d 36 94 f2 bd dd a7 89 3d
       0.029378679 0.059210755 -0.11844675 0.067214705
000110 40 d4 1f 3d ab 09 1e be 68 a0 a0 bd 13 5b f6 bd
       0.039020777 -0.15433376 -0.07843095 -0.1202909
000120 bc 5b e8 bc 5d 02 e3 bb 20 13 4c bd 35 2d 26 bd
       -0.028364055 -0.006927772 -0.049822927 -0.040570457
000130 3c 74 97 bb 84 a6 16 3d bf 3d c8 bc ea 74 ef 3c
       -0.0046220105 0.036779895 -0.024443505 0.029230554
000140 48 ed 38 3c 5e 4a cf 3d 8b 1e a1 3d d4 24 9e 3d
       0.011287041 0.10121606 0.07867154 0.07721868
000150 28 6a 32 3d 73 b4 dc 3c 31 11 e3 3b 8d 67 24 3d
       0.04355827 0.026941514 0.0069295396 0.040137816
000160 3c 6b aa 3d f9 e2 f2 3d d3 17 f4 3c 68 45 f1 3c
       0.083212346 0.11859698 0.029796517 0.02945204
000170 e3 23 81 bc 69 8f 86 3d 5a 36 f4 3c 00 b3 ec bc
       -0.015764182 0.06570322 0.029811073 -0.028893948
000180 d2 3e e7 3c 37 0d 6a ba 83 77 d7 3c c0 38 b9 3c
       0.028228197 -0.0008928361 0.026302105 0.022610068
000190 d3 02 a3 bd d9 ce 82 bd 0c d8 28 3d f3 ea 6a bd
       -0.07959523 -0.06387109 0.041221663 -0.05735297
0001a0 2f 05 87 bd bb 0d 3b bd 4d 1c 1c bc 73 27 ef ba
       -0.065927856 -0.04566739 -0.009528232 -0.001824601
0001b0 8f 73 34 3e 50 fd 53 3d ca 12 5b bc 80 3a 4f 3d
       0.17622207 0.05175525 -0.013371179 0.0505929
0001c0 5e c1 9a bc ae 80 01 bd 7c bd 02 be b1 d2 63 3b
       -0.018891033 -0.03161686 -0.12767595 0.0034763033
0001d0 9e 05 c7 3d 8d c3 c5 3b ef 9e 3c bc 5b 9d a1 3c
       0.09717868 0.0060352744 -0.011512502 0.019728353
0001e0 0b 75 91 bc 1a 3e c0 bd 73 49 ed bd 62 44 a9 bd
       -0.017756006 -0.09386845 -0.11586275 -0.08264996
0001f0 ec 2b 96 bd 7d dc 31 be ad ae 6e bd a1 01 c8 3c
       -0.07332596 -0.17369266 -0.058272053 0.02441484
000200 6b 71 90 3c 0d a3 f2 bc 90 e6 d9 bb cc 49 b1 bd
       0.017632207 -0.029618764 -0.0066497996 -0.08656654
000210 bc 71 ae 3d 9b 4d 06 3e 98 06 03 3d 0b 81 4f 3d
       0.08517787 0.13115542 0.03198871 0.050660174
000220 ca 7c 33 3e ce 39 1a 3e 30 6b 6a bc c5 4f df 3d
       0.17528072 0.15061113 -0.014307782 0.10903887
000230 88 aa b7 3d 95 90 76 bd bf 32 7c 3d cc 64 89 3d
       0.08968073 -0.060196478 0.061571833 0.067086786
000240 52 32 d0 b9 d2 10 e6 bc 31 69 76 3c 32 fa 04 bd
       -0.00039710343 -0.028084192 0.015039728 -0.032465167
000250 de e0 53 3d bc 92 14 3c 4f 54 af 3c 6d 5c c5 3c
       0.051728122 0.009068187 0.021402506 0.024091924
000260 fd 8b 53 bd ae f1 1e 3c 89 e4 1f bc ed 12 fb bc
       -0.051647175 0.009701176 -0.009759077 -0.030648673
000270 c1 56 06 bd 9b 1c 16 3c 28 c4 19 bd 8a c8 dd bc
       -0.03279758 0.0091620935 -0.037540585 -0.027073164
000280 0d c0 ca 3c 0f ae 66 bd 95 20 08 3d 8f 9b 73 3c
       0.02474978 -0.05631834 0.033234198 0.014868631
000290 0c 22 1f 3d 1d f2 2f bd 55 0c 2a bc 14 47 31 bd
       0.03885083 -0.042955507 -0.010378917 -0.043280676
0002a0 af 25 06 3e af 71 ba bb 23 5f d8 3c d6 07 13 3d
       0.13100313 -0.0056898217 0.026412552 0.035896145
0002b0 af 0a 08 3d 8a 83 f0 bc a1 ac 7a 3c 82 aa 13 bd
       0.033213314 -0.029359598 0.015299947 -0.03605128
0002c0 e7 bb 8c bd 2c 7e b8 bd 3d d4 1f bc b4 a6 0d bd
       -0.06871777 -0.090084404 -0.009755191 -0.03458281
0002d0 98 60 17 bc c9 c7 ca 3d 3f 8d c1 3d 90 b7 1e 3c
       -0.009239338 0.09901387 0.09450769 0.009687319
0002e0 d8 a8 01 3d 00 2e d8 3c 18 b7 a5 bd 41 85 a1 bb
       0.031655163 0.026389122 -0.08091563 -0.004929215
0002f0 88 1a 9b 3b d6 47 4b 3d cf 86 87 3b 82 d4 3c 3d
       0.0047333874 0.049629055 0.0041359435 0.0461011
000300 16 93 b7 3d d7 9e 78 bd 96 80 d3 3c 8c ab 12 3d
       0.08963601 -0.060698356 0.02581815 0.03580813
000310 62 27 d5 3b 28 e0 ae 3d bc 75 94 3d 35 f0 30 bd
       0.006504939 0.08538848 0.072490185 -0.04319783
000320 3d 59 72 bc 46 0f 0e 3d a2 10 09 ba f8 d4 10 bd
       -0.014791784 0.034682535 -0.0005228614 -0.035359353
000330 8a 70 72 bc 2b 7a a0 3c d2 3a 1e 3d 78 1c b0 3d
       -0.014797339 0.019589504 0.038630314 0.0859918
000340 01 4a b9 3d ce 12 68 3d a2 25 b2 3d dd cd 29 bd
       0.09047318 0.05665856 0.08698584 -0.041456092
000350 ff 95 6b 3d 0d e1 5d 3d 72 20 ea 3a 6f 69 c0 bc
       0.057516094 0.054169703 0.0017862453 -0.023487775
000360 14 4f 25 bd f1 23 69 3d bc 51 4c 3d 1d 44 9e bc
       -0.040358618 0.056919042 0.049882635 -0.019319588
000370 c0 e7 3c bd e9 2c d8 bc 08 68 7c bd c4 1f 6a 3d
       -0.04611945 -0.026388602 -0.06162265 0.0571592
000380 d5 71 88 bd 6d ad cf 3d 16 96 e2 3d 13 f9 86 3c
       -0.06662337 0.101405 0.11063783 0.01647619
000390 53 30 33 bc 7b 57 cd 3c d3 c8 4a 3d 88 ac b5 bc
       -0.010936814 0.025066128 0.049507927 -0.022176996
0003a0 43 6b 68 bd d5 c3 09 bd 9b 4b 10 be 83 f7 10 3d
       -0.056742918 -0.033634026 -0.14091341 0.035392296
0003b0 b9 0f 10 3d 9a 2d a8 bd d6 0a 02 bd b5 b1 2d bc
       0.035171244 -0.08211823 -0.031748615 -0.010601451
0003c0 dd 06 19 3e 08 65 55 3d ba e8 1c 3d 7d 35 ab bb
       0.14944024 0.052098304 0.038307883 -0.005224882
0003d0 0e d1 c1 bc ce 86 3d bd 3a 60 01 bc 83 aa cd bd
       -0.023659255 -0.046271138 -0.007896477 -0.10042288
0003e0 d4 55 be bd ab ad a2 bd 0d 05 33 bd 0d 3e 19 bd
       -0.09293714 -0.07943281 -0.04370599 -0.03741269
0003f0 91 fa d8 3c 7f f8 d9 ba 95 21 00 bd d0 30 b0 ba
       0.026486667 -0.0016629844 -0.031282026 -0.0013442282

body.block1.conv.bias f4 [32]
000000 3d 16 c1 bd a5 d2 44 bd 85 a3 93 3d 9b 9e 62 bd
       -0.0942807 -0.04805245 0.07208923 -0.05532704
000010 36 94 49 bd 7d 8c 1e bd 3d 49 69 bd 5f 0c 40 bd
       -0.04921361 -0.0387082 -0.05695461 -0.046886798
000020 7a 7f 1b 3d 01 f7 ad bc 52 23 82 bc 44 32 e3 bc
       0.037963368 -0.021235945 -0.015885983 -0.02773393
000030 60 f9 07 bd 73 5f b0 3d 62 19 b8 bc 37 23 23 3d
       -0.033196807 0.086119555 -0.022473041 0.039828505
000040 cc 89 ad bc d8 05 b3 3c 27 f6 3c 3d f4 b6 95 bc
       -0.02118387 0.021853372 0.046133187 -0.018275715
000050 8f 44 3c 3c 62 88 80 bd a6 c8 03 3d a8 fa d5 3c
       0.011490955 -0.06276013 0.032173775 0.026120499
000060 97 0a f5 bc cd 23 81 3d 53 79 a1 bd 35 d9 89 3d
       -0.029912276 0.063056566 -0.07884469 0.06730882
000070 f7 04 95 bd 05 5e c7 bd 33 ed 4c bd 98 df 71 3d
       -0.072763376 -0.0973473 -0.0500309 0.059051126

body.block1.norm.weight f4 [32]
000000 6d 57 4f 3f 34 39 6f 3f 21 dd 81 3f de ca 4c 3f
       0.80992776 0.9344666 1.0145608 0.7999705
000010 45 f5 7b 3f e9 d2 6c 3f 9a 8b 6b 3f 71 5f 59 3f
       0.98421127 0.92509323 0.9200989 0.8491126
000020 e6 a5 71 3f bc 28 82 3f a9 6f 5f 3f 25 26 81 3f
       0.94393766 1.0168681 0.87279755 1.0089766
000030 cf 42 45 3f 9d 69 51 3f 74 a4 5a 3f 0a dc 42 3f
       0.77055067 0.8180178 0.85407186 0.76117
000040 3e e0 7e 3f 60 97 4b 3f b8 3a 74 3f 3c f7 52 3f
       0.99560916 0.79527855 0.954021 0.824085
000050 8d d9 43 3f fd aa 51 3f b6 23 6e 3f a8 d4 3f 3f
       0.7650383 0.8190153 0.9302324 0.7493386
000060 5a ac 67 3f cc 72 8b 3f 2f ba 71 3f 87 74 43 3f
       0.9049736 1.0894408 0.9442472 0.7634968
000070 82 b1 48 3f b6 c9 4f 3f d5 66 66 3f 8d dc 2f 3f
       0.78395855 0.8116716 0.9000066 0.6869591

body.block1.norm.bias f4 [32]
000000 e0 47 28 3f 44 d6 18 3e bf 1c 35 3e e0 7d 21 3f
       0.6573467 0.14925486 0.17686747 0.63082695
000010 7b 65 94 3e 10 bf 78 3e e0 d3 dc 3e a7 e3 82 3e
       0.28983673 0.24291635 0.43130398 0.2556431
000020 9e f0 d6 3c 05 15 42 bd 0a 33 1c 3f 90 ae 0f 3f
       0.026237782 -0.047383327 0.6101538 0.56125736
000030 cb 49 80 3f 96 d4 2e 3f 34 a9 2e 3f 1f 7f 5d 3f
       1.002252 0.6829313 0.68226933 0.86522096
000040 23 e1 a2 3e bf c2 30 3f 29 de 29 3f 24 43 3e 3f
       0.3181239 0.6904716 0.66354614 0.743212
000050 2d 6a 83 3f af 5e 32 3f 08 98 b5 3e 99 ea 5e 3f
       1.0266777 0.69675726 0.35467553 0.8707672
000060 ea 10 35 3f b8 13 64 be 08 9e df 3e 95 e9 46 3f
       0.70728934 -0.22273147 0.43675256 0.7770017
000070 e4 74 58 3f 5f ec 3b 3f fa 1f 5f 3f 41 66 6b 3f
       0.8455336 0.7340755 0.8715817 0.919529

body.block1.norm.running_mean f4 [32]
000000 1c 3d fb be d7 ec 68 3f 77 08 fe bf 45 22 00 c0
       -0.4907006 0.9098639 -1.9846333 -2.0020916
000010 8b ef e6 bf d0 4a 5c 3f f4 ec 7b be 6e c5 5e c0
       -1.8041853 0.86051655 -0.24602109 -3.4808002
000020 d9 ba 79 bf b9 0e 1f bf ec b0 1a bf 20 c9 06 bf
       -0.9755073 -0.6213184 -0.6042621 -0.5265064
000030 f7 81 a9 bf c1 76 ed bf 99 e9 0d bf fe 9c 67 c0
       -1.3242787 -1.8551866 -0.55434567 -3.618957
000040 24 fd 9a bf de 4e 7e bf d4 17 35 40 c3 1c e5 bf
       -1.2108502 -0.9933909 2.8295794 -1.7899402
000050 ed 4a a7 bf 2f 64 17 c0 7d 48 69 c0 ef 36 0e c0
       -1.306974 -2.3654897 -3.6450493 -2.2221029
000060 75 46 8f 3f be 8d 82 3f 2c 47 00 bf 30 e5 f3 3f
       1.1193377 1.0199506 -0.501086 1.9054317
000070 f5 7e 08 40 82 a2 13 c0 28 41 0f c0 66 8b f6 3f
       2.1327488 -2.3067937 -2.2383518 1.9261291

body.block1.norm.running_var f4 [32]
000000 bd d8 63 3e 86 10 a8 3f a6 97 95 3f 15 04 1c 3f
       0.22250648 1.3130043 1.1686904 0.6094373
000010 5a bd 63 3f 3d d6 99 3f 18 89 55 3f fc 93 69 3f
       0.889608 1.2018505 0.83412313 0.9124143
000020 7f 4b aa 3f e4 3d d6 3f 92 0f c8 3f cc 7e 1e 3f
       1.330429 1.6737638 1.5629752 0.61912227
000030 f0 c3 c7 3f c5 b0 fa 3f 91 96 1b 40 53 09 2e 3f
       1.560667 1.9585196 2.4310648 0.6798298
000040 ba 4a 40 3f 10 b3 3c 3f 02 22 b6 3f c5 b4 bf 3e
       0.75114024 0.7371073 1.4229128 0.37442604
000050 23 a2 ad 3f 23 7d 25 3f 8b 2d 81 3f 75 f7 13 3f
       1.3565105 0.6464407 1.0092024 0.57799464
000060 8a 1a 6d 3f 10 e6 1b 3f fa 8a 7e 3f 99 b5 90 3f
       0.9261862 0.6089792 0.9943081 1.1305419
000070 7f d9 81 3f d3 96 1d 3f 2f 1e b6 3e c0 51 7a 3f
       1.01445 0.61558264 0.35569903 0.9778099

body.block2.conv.weight f4 [32, 32, 3, 3]
000000 97 36 f6 3c 94 49 64 bd 83 38 e3 bd 24 64 75 3c
       0.030055327 -0.055734232 -0.11094763 0.014977489
000010 b0 94 9f bd 82 0c 92 bd 82 bd 1a 3d 9d ae 19 3c
       -0.07792032 -0.07131292 0.037778385 0.00938001
000020 e2 6e 0b bd e5 49 56 bd ca 33 42 3c 0d b3 6c 3d
       -0.034041293 -0.052316565 0.011853168 0.057787944
000030 58 ba 7e bd 0e 37 21 3d 9f 6c 02 bd f7 f1 14 bd
       -0.06218943 0.039359145 -0.03184187 -0.03636357
000040 29 5e 7c 3c 27 3b bf 3c 6d 1f e8 3d ee 4d 43 bd
       0.015403309 0.023343636 0.11334119 -0.04768174
000050 20 95 c2 bd f8 a7 81 3d 24 9d 7a 39 90 98 cb 3d
       -0.095010996 0.063308656 0.00023900397 0.09941208
000060 85 e9 bf 3d 68 16 cd 3d 37 68 e7 3d 2a da da bd
       0.09370712 0.10014039 0.11299174 -0.10686143
000070 3a 3a c8 bd 96 b4 0b 3d 1b f2 3e bd 71 1b c4 bd
       -0.09776731 0.034107767 -0.04661761 -0.095755465
000080 5f 28 10 bd 85 5b 39 bd 8c 5b be bc 09 da d6 bd
       -0.03519475 -0.045253295 -0.023237012 -0.10490806
000090 19 53 bd bd db 8f 1a bd 3c 97 ca bd 98 ad 8e bd
       -0.09244365 -0.037734848 -0.09892127 -0.06966704
0000a0 60 a6 67 3c 17 aa 87 bb 82 ee 51 3d ad e0 5c 3d
       0.014138788 -0.0041401493 0.05125285 0.053925205
0000b0 60 69 5f 3d db aa 1d bb ff 05 79 bd c2 21 a2 bd
       0.054543853 -0.0024058137 -0.060796734 -0.07916595
0000c0 6d 82 e1 3c db 26 bb 3c 39 6c c0 bc fe b3 da 3d
       0.027528012 0.022845676 -0.023489105 0.10678862
0000d0 dc b7 6b 3d 5c d5 a4 3c 83 8f b7 3b 99 ea 5a 3d
       0.05754839 0.020121269 0.0056018247 0.053446386
0000e0 6d 13 d9 bd bb 67 1d 3d 63 ce 4d 3d 1e 19 2d bd
       -0.10599408 0.038429003 0.050245654 -0.04226028
0000f0 0e 55 0f 3e 31 d0 ae 3d 4e 95 e1 3d ba 5f da 3c
       0.1399729 0.08535803 0.11014806 0.026656974
000100 ff e1 df bb f2 7e 1a be 31 04 b3 3d 33 2a e9 bc
       -0.0068323608 -0.15087488 0.08741034 -0.028462505
000110 da 70 a8 bd 8a 47 36 3d c9 13 cf bc f1 a8 6a 3d
       -0.0822465 0.04450182 -0.025277989 0.05729002
000120 6f f6 6c bd 63 10 a5 3c e0 0c c7 bd 38 0b b9 bc
       -0.057852205 0.020149415 -0.097192526 -0.022588357
000130 ab 97 72 3d b3 94 17 3d 03 01 e8 bb 85 ec d3 3d
       0.059226673 0.037007045 -0.0070801987 0.10347847
000140 33 40 4e 3d 6e 10 eb bc 3f 72 c6 bc d2 7d 62 bd
       0.050354194 -0.028694358 -0.024224399 -0.055295773
000150 ad 0b 04 3d e9 5a 2b 3d e5 2c c2 3d 54 99 45 3b
       0.032237697 0.041834746 0.09481219 0.0030151205
000160 8d 0e 82 3d 67 7f 40 3d 9d e4 34 bd 11 7f 9e bd
       0.063504316 0.0469965 -0.044163335 -0.0773908
000170 00 21 d5 bd 62 04 53 3c b1 6f 1c 3c 8c b8 4f 3d
       -0.10406685 0.012879463 0.009548114 0.050713107
000180 6d 24 5f bd 98 bd a0 3c b5 cd f7 39 70 9c 16 bb
       -0.054478098 0.019621655 0.00047264775 -0.0022981428
000190 69 77 70 3d ec 7d 82 3d c6 05 af bd b5 d9 d1 3b
       0.05870763 0.06371674 -0.08546023 0.0064041265
0001a0 04 de 99 bc be 0d ce 3c 9d 72 6c 3d 7d b9 86 3c
       -0.018782623 0.025153037 0.05772649 0.01644587
0001b0 7f 8e 78 bd a2 62 ad bd 74 ff b0 3c 82 33 4b bd
       -0.06068277 -0.08466078 0.021606185 -0.04960967
0001c0 02 ca 92 bd 69 dd 2c 3d 36 ae 60 ba cc 40 b7 bb
       -0.07167436 0.04220334 -0.00085708813 -0.005592441
0001d0 e4 7d cd 3c 6d 7d 41 bd c4 96 9f bc dc 1d 71 bd
       0.025084443 -0.047238756 -0.01948107 -0.058866367
0001e0 4c 24 b0 bd 00 cb 6e bc 14 9b 03 bc ef aa 83 bc
       -0.08600673 -0.014574766 -0.008032579 -0.016072718
0001f0 7b a2 38 3c 14 5f 38 bd 3d f8 61 bd 19 ac 3c bd
       0.011269207 -0.04501255 -0.05516838 -0.046062563
000200 cb 3d 21 bc 23 68 12 3e 6e b2 b9 3d 24 2c a4 bc
       -0.009841393 0.14297538 0.09067236 -0.02004058
000210 6f af e5 3d 95 cf ab 3d 09 55 e4 3c 66 32 b5 3d
       0.11215102 0.083892025 0.02787258 0.08847503
000220 73 3c eb 3d 25 84 9d bd e2 62 a7 3d a0 41 9e 3d
       0.11486139 -0.0769122 0.08173157 0.07727361
000230 13 39 f0 bc d7 3d 7e 3d af 4d 5b 3c be 42 1e 3d
       -0.02932409 0.062070694 0.01338522 0.03863787
000240 d6 0d 47 3d 08 87 42 3b 52 7d 47 bb 5a 80 8c 3d
       0.04859718 0.0029682536 -0.0030439687 0.068604186
000250 dd 17 bd 3c 59 71 88 3d e4 d8 65 bb 48 40 84 bc
       0.023082668 0.06662244 -0.0035071904 -0.016143933
000260 d5 42 20 3d 25 44 04 3d d1 ce ac 3d d2 ac 34 3e
       0.039126236 0.03229155 0.084378846 0.1764405
000270 eb 56 bc bb f4 67 7f bb 4c 82 e6 3d 44 a7 b2 3d
       -0.005747666 -0.0038971873 0.11255321 0.0872331
000280 04 6f 39 bc 3b d9 a8 3d ca aa fd bb de 66 e3 3c
       -0.011317972 0.082445584 -0.007741307 0.027759012
000290 52 fc 61 3b 9f 76 0d bd d4 74 c0 ba 05 2f 66 bb
       0.003448267 -0.034536954 -0.0014683255 -0.003512324
0002a0 a0 7c 3a bd 7d 1b 6d bd 92 d0 2a 3c 94 4e 42 3e
       -0.045529008 -0.057887543 0.010425704 0.18975288
0002b0 a7 e6 b8 bc d2 be 29 3c ad 27 5c 3c 5a e4 d4 bc
       -0.022570921 0.0103604365 0.013437194 -0.025987793
0002c0 c1 82 f6 bc d2 39 25 bd cd f5 1b 3b 38 d5 9b bb
       -0.030091645 -0.040338345 0.0023797632 -0.0047556423
0002d0 7c 05 cf bd 10 a7 bc 3c c2 06 d7 3c 90 3a 0b bd
       -0.10108468 0.02302888 0.02624834 -0.033991396
0002e0 93 90 11 3d 17 17 d9 bc 76 a0 ce 3d e2 8a d6 bc
       0.035538267 -0.026500268 0.10089199 -0.026189271
0002f0 48 9c 9c bd 51 78 5e 3d c4 d9 63 3d bb 3f af 3d
       -0.07646996 0.05431396 0.0556276 0.085570775
000300 6f 49 19 3d 60 fc 15 bd a1 7e 11 3c 91 16 b3 3d
       0.037423547 -0.036617637 0.008880288 0.087445386
000310 b8 c7 25 3d 6c 74 c0 3c 38 50 9a 3c 2d 80 ef 3b
       0.04047367 0.023493014 0.01883708 0.007308981
000320 5b 86 be bd 2a f9 06 3d 86 e4 00 be c9 96 25 bd
       -0.0930297 0.032952465 -0.12587175 -0.040427003
000330 ed 65 18 3d a6 dc ff bd f3 70 da bd cc d5 b8 3d
       0.03720658 -0.12493257 -0.106660746 0.090251535
000340 16 36 28 bc 81 bf f8 3c a0 79 d3 ba a5 fe 64 bb
       -0.010266801 0.030364754 -0.001613427 -0.003494182
000350 25 40 58 bc e7 d3 d9 3b 55 95 5d bd 80 a1 b6 3b
       -0.013198887 0.006647575 -0.054097492 0.0055734515
000360 0d 3f 55 3d 61 1b 34 bc 84 4c 0c bd 5b 56 43 bc
       0.052062083 -0.010992856 -0.03425266 -0.011922444
000370 97 21 cc 3b 75 8e c7 bd e4 9c 01 bc 8a e6 13 bd
       0.00622959 -0.097439684 -0.007910941 -0.03610853
000380 79 61 f5 bd c1 81 82 bd 59 cf a5 3b f4 5b 78 3d
       -0.11981482 -0.06372405 0.005060118 0.06063457
000390 05 1d df bd 14 28 71 bc 08 3c 84 3d de 46 fd bd
       -0.10894207 -0.014719028 0.064567626 -0.123670325
0003a0 9f 58 fe 3c 3d cd 9d 3d a1 e0 20 be 5a b0 24 bd
       0.031048117 0.07705162 -0.15710689 -0.040207244
0003b0 36 78 d4 3d 18 47 85 bc e7 26 a2 3d 5e e8 e1 bb
       0.10374491 -0.016269252 0.07917576 -0.0068941554
0003c0 31 51 54 bc bc ab 99 3d 58 36 c3 bd 33 2c cf bc
       -0.012958811 0.07503459 -0.095318496 -0.02528963
0003d0 b6 33 79 3d a3 0a 95 3b 0c ac d7 bd 01 da d6 bc
       0.06084033 0.004548387 -0.10530862 -0.026227
0003e0 20 ca 16 bd 58 1e 85 bc 96 07 3e 3c bc a2 25 bd
       -0.036813855 -0.01624982 0.011598488 -0.0404384
0003f0 d2 29 09 3e 56 f7 a5 3d ad 66 29 bd 65 38 aa bc
       0.1339486 0.08103816 -0.041357685 -0.020778844

body.block2.conv.bias f4 [32]
000000 68 8a 3b 3d b0 b1 83 3d 09 19 09 3e d3 a1 32 37
       0.04578629 0.064303756 0.13388456 1.0647304e-05
000010 dd 27 1b 3c d6 70 09 3d a8 4c 50 3e af 21 f4 3c
       0.009469953 0.033554874 0.20341742 0.029801218
000020 f0 29 79 3d aa ad 43 bd 3c 4b ac bd d7 64 5b 3d
       0.06083101 -0.04777304 -0.08412787 0.053562965
000030 1b bd 88 3d ae a8 3b 3d 6b 84 cf bc a3 e7 aa 3d
       0.06676694 0.045815162 -0.025331696 0.083449624
000040 69 0c 2a bd 76 e6 6a 3d be 70 9b 3d b6 fd a8 3d
       -0.04151574 0.05734869 0.07589863 0.082515165
000050 e5 ef dc 3c b1 58 66 3d 4d ef 78 3c bb a8 10 3e
       0.02696986 0.056236926 0.0151937725 0.14126866
000060 17 3d 0b 3e 87 18 0e 3d 15 9e d8 3d 23 71 95 3d
       0.13597523 0.03469136 0.10577027 0.0729697
000070 11 3d 23 3e 61 c8 73 3d 39 aa 67 bc 34 a6 40 3d
       0.15941264 0.059517268 -0.014139705 0.047033504

body.block2.norm.weight f4 [32]
000000 f7 30 6d 3f 00 c5 5d 3f 38 eb 57 3f 2b be 4c 3f
       0.9265284 0.86628723 0.8434329 0.79977673
000010 31 30 52 3f 6c f5 62 3f 68 52 66 3f 61 bf 65 3f
       0.82104784 0.88655734 0.8996949 0.89745146
000020 5d 3a 4b 3f 57 ad 5b 3f 08 52 88 3f 96 f9 49 3f
       0.7938593 0.8581137 1.0650034 0.7889646
000030 36 cc 88 3f 9d 47 77 3f 4f 6e 83 3f 60 d4 68 3f
       1.068732 0.9659365 1.0268039 0.9094906
000040 b1 21 62 3f 53 87 6e 3f c6 8f 4c 3f 54 16 65 3f
       0.8833266 0.9317524 0.7990688 0.89487195
000050 a9 c8 3b 3f 24 ee 59 3f 74 90 80 3f dc 2f 4e 3f
       0.7335306 0.85129 1.0044084 0.8054178
000060 43 85 42 3f 13 00 61 3f 01 a4 7d 3f 79 83 51 3f
       0.7598459 0.8789074 0.99078375 0.81841236
000070 2a a1 60 3f 6e bf 74 3f d8 52 6e 3f ba 45 6d 3f
       0.87745917 0.956046 0.9309516 0.9268452

body.block2.norm.bias f4 [32]
000000 08 a7 4c 3e 3c c9 16 3f d9 07 6c 3f 7a 5c 6e 3f
       0.19985592 0.5890081 0.92199475 0.9310986
000010 ef 80 00 3f 72 3f a5 3e 21 b1 5c 3f e4 00 08 3f
       0.5019674 0.32274967 0.8620778 0.5312636
000020 cb c2 3b 3f 89 1b 27 3f 5a d3 68 3e b2 6e 3f 3f
       0.73344105 0.6527639 0.22736874 0.7477828
000030 6f 1f 37 3e e8 ae 18 3f f4 aa 25 3e 8c cb 08 3f
       0.17883085 0.59641886 0.16178495 0.5343559
000040 a8 76 06 3f 38 d2 ae 3e c7 10 34 3f e2 7e 10 3f
       0.52524805 0.3414476 0.703381 0.5644361
000050 d9 95 55 3f 94 b7 35 3f 4b 57 6b 3e ab 70 3e 3f
       0.83431774 0.70983243 0.22982518 0.7439067
000060 cc d9 53 3f e4 0c 43 3f ad 11 86 3e 58 54 3a 3f
       0.82754207 0.76191545 0.2618536 0.7278495
000070 3e 7c 34 3f 2b 35 18 3f c1 73 b8 3e 0e 55 ed 3e
       0.7050208 0.5945613 0.36025813 0.46353954

body.block2.norm.running_mean f4 [32]
000000 8a 69 5a 3e 51 da ad bf 65 d8 8b 3f 53 a3 ec be
       0.21329322 -1.358225 1.0925413 -0.46218356
000010 32 73 00 c0 41 92 54 bf d0 d3 8c 3f c7 cf a2 bf
       -2.007031 -0.83035666 1.100214 -1.2719659
000020 a0 52 d2 3e fa fd 18 bf 8b 94 23 c0 b3 a1 f9 3f
       0.41078663 -0.5976254 -2.5559413 1.9502472
000030 8b 44 ba bd c0 8c 2a bf d4 96 bf 3d a2 dd f7 3f
       -0.09095105 -0.6662102 0.0935494 1.9364512
000040 45 4d 7f bf 6d 35 86 3f 81 c2 26 bf fa 6f 01 3e
       -0.9972728 1.0485054 -0.6514054 0.12640372
000050 a5 91 04 40 39 c7 dd 3f 6f c9 ca be 69 12 ee 3f
       2.0713894 1.7326423 -0.39606807 1.8599368
000060 d3 2b b9 3d e3 c0 d5 3f 13 87 bf 3e 25 fb dc be
       0.09041562 1.6699489 0.3740774 -0.43160358
000070 71 68 7a 3f e4 5b 8f bf c7 1f 5e 3e ae d5 df 3e
       0.97815615 -1.1199918 0.2169181 0.43717712

body.block2.norm.running_var f4 [32]
000000 a5 6a ca 3f 1f f1 3a 3f b0 03 94 3f 47 33 22 3f
       1.5813795 0.7302417 1.1563625 0.63359493
000010 70 72 82 3f 81 61 a1 3e cc 75 45 3f de bf 64 3f
       1.0191174 0.31519702 0.7713287 0.89355266
000020 42 50 b0 3f 7a 51 95 3f 2c 29 16 3f 64 df cc 3e
       1.3774493 1.166549 0.58656573 0.40014184
000030 d0 2f d9 3f 28 62 9c 3e 3f 2d 3c 3f 4c 07 f7 3f
       1.6967716 0.30543637 0.7350654 1.9299102
000040 d7 93 d5 3e af 34 21 3f 16 79 db 3e 48 82 a9 3e
       0.41714355 0.62971014 0.4286582 0.3310721
000050 bd 94 d3 3e fa 78 83 3f 9b 13 23 3f 6d 65 e1 3f
       0.41324416 1.0271294 0.6370179 1.7609078
000060 e3 16 0b 40 9f f8 84 3f 3e e6 81 3f f9 66 33 3f
       2.173272 1.0388373 1.0148389 0.70079
000070 03 a2 6d 3f ff e9 78 3f 99 fe 3f 3f a6 af cc 3e
       0.92825335 0.9723205 0.7499786 0.3997776

body.block3.conv.weight f4 [32, 32, 3, 3]
000000 b2 68 25 3c b4 fe 16 3d f9 cd 16 be 6c d3 bb 3d
       0.010095762 0.036863998 -0.1472701 0.09171185
000010 ae 0f cb 3d b2 72 c3 bd bc 24 10 3d 0f bb 74 3d
       0.099151 -0.09543361 0.035191283 0.059748705
000020 a9 48 dc bd 38 69 8d 3d df e2 e4 3c 0b 16 e9 bc
       -0.10756046 0.069048345 0.027940212 -0.028452894
000030 a4 01 81 3d e2 1d e2 bc a4 2f b7 3c 7a 5a 6b 3d
       0.06299141 -0.02760214 0.022361584 0.057459332
000040 f0 7c 5b 3d b5 56 04 bc 9c 1f ca bc f6 8a 30 bd
       0.053585947 -0.008077313 -0.024673276 -0.043101273
000050 7e 64 d2 bd 78 e5 d8 bc 8c 51 89 bd 62 37 a6 bd
       -0.102730736 -0.026476607 -0.06705007 -0.08116032
000060 12 a9 87 bd 94 fd f3 bd 0b 17 9e bd 70 09 7a bd
       -0.066240445 -0.119136006 -0.07719239 -0.061044157
000070 67 1b 53 bd 00 07 48 bc 07 3a cd bd b0 2d da bc
       -0.051539805 -0.0122087 -0.100208335 -0.026633114
000080 25 c9 d6 3c 3d 9a b3 bc a0 80 ed 3c d5 ed c8 3d
       0.02621896 -0.021924132 0.028991997 0.09810988
000090 6d d9 ac bd ec 74 2f bd 9e ff 33 3c f9 c9 88 3b
       -0.08439908 -0.042836115 0.010986237 0.0041744676
0000a0 1b e8 5b bd 16 32 f4 3c 22 77 0d 3d f9 5c 58 bd
       -0.05368815 0.02980904 0.034537442 -0.05282304
0000b0 35 0b 87 bd 8d ac cd 3c d1 93 32 bc b5 25 9b bb
       -0.065939344 0.025106693 -0.0108995 -0.0047347196
0000c0 ad 0e 92 bc e8 e7 2e bb b6 5b 18 bc f9 d9 91 3d
       -0.017829264 -0.002668852 -0.009299209 0.07121653
0000d0 d5 bd 03 3d 87 77 57 3d 26 86 0a 3e 94 97 1b 3d
       0.03216346 0.052604225 0.13527736 0.037986353
0000e0 e7 25 45 3d e6 ac 1b 3e b7 08 99 3d 1c 5f 19 3c
       0.04813185 0.15202674 0.07472365 0.009361055
0000f0 e1 6f 1f 3e 1a 6d 12 3d 52 73 bc bc 6c 58 bb 3b
       0.15570022 0.03574858 -0.023004208 0.005717328
000100 44 b6 ac 3b 77 7a 80 bd 24 a5 85 3c 17 93 ee bb
       0.005270751 -0.06273358 0.016314097 -0.007280718
000110 55 5b 78 bd 10 ae f2 3b ec 4a 68 bc 43 40 13 bd
       -0.060633976 0.007406004 -0.014178019 -0.035949957
000120 3a d0 c9 3d 5f e9 9a bd 84 38 75 bd f4 02 9e 3d
       0.09854169 -0.07564043 -0.05986835 0.07715407
000130 7c 9c 48 bd d5 39 4c bd 6c e7 b8 3c a4 08 8a bd
       -0.04897736 -0.04985984 0.022571288 -0.06739929
000140 f5 e7 63 3b a4 2d 72 bd 0b 3d 97 bd 8e 51 70 bd
       0.0034775708 -0.059125558 -0.0738469 -0.058671527
000150 0f 10 c6 bc 5d 6c ff bc 8b 7c 0f 3d 9f c9 4d 3c
       -0.02417758 -0.031179601 0.035030883 0.012560277
000160 2a e4 32 bd d5 2a 56 bd 15 ce 9f 3c 8d 9d 7c 3d
       -0.043674625 -0.05228694 0.019507447 0.06167369
000170 99 4c b6 3c f0 f4 f0 bc 60 88 06 bd ee 0e 57 bc
       0.022253321 -0.02941367 -0.0328449 -0.013126118
000180 0a 2e a5 bd bd a5 c7 bc ea 10 45 3c 2a fb 1d bd
       -0.08065422 -0.024371022 0.012027958 -0.038569607
000190 c1 97 73 3d 47 fc 88 3d 10 19 1c be 48 fc b9 bb
       0.059470896 0.06688743 -0.15243936 -0.005675826
0001a0 47 ba 13 3c 7d 8e 35 be 98 55 d7 bd 9d ed 41 3c
       0.00901658 -0.17730136 -0.105143726 0.011836437
0001b0 e8 fd 6f 3d d2 43 1d bd fb d7 00 bd 82 b8 81 3d
       0.058591753 -0.038394757 -0.031455975 0.0633402
0001c0 d2 fd db 3a 94 b7 a1 3c 0c 19 c5 3d bb 60 69 3d
       0.0016784018 0.019740857 0.09623918 0.056977015
0001d0 c3 b0 58 3d a6 ab 51 bd f1 88 d9 3c 16 c7 92 bc
       0.052902948 -0.051189087 0.026554557 -0.017917197
0001e0 c5 4c 70 bd f0 4b 73 3d a9 0f 34 3c 16 b6 05 be
       -0.058666963 0.05939859 0.010990062 -0.13057742
0001f0 d1 78 68 3d a5 93 ab bd c8 f7 71 3c 1f 97 9d 3d
       0.056755845 -0.0837777 0.014768548 0.0769484
000200 47 73 27 3d c7 6a 06 bd bc 32 98 3c 0b cd a8 bc
       0.04088142 -0.032816675 0.01857888 -0.020605585
000210 50 23 11 bd 03 14 79 bb 15 ae 67 bd 4b db 95 bd
       -0.035434067 -0.0038006313 -0.056562502 -0.073172174
000220 42 06 bc bc 88 6e 4d bd 5a 33 ef bd 0a 2b 32 3c
       -0.022952203 -0.05015424 -0.116797164 0.010874519
000230 90 c1 9a 3b 2e 93 21 be fd 58 ed bc ee 31 61 3c
       0.0047227815 -0.15778801 -0.028973097 0.013744814
000240 42 61 ae bd ce 9b fd bc ec 73 9c 3d ba a0 36 bd
       -0.08514644 -0.030958083 0.07639298 -0.044586875
000250 ee 96 74 bb c3 e7 17 3d d5 91 f8 bc 12 30 b4 bc
       -0.0037321406 0.03708626 -0.030342976 -0.021995578
000260 41 b5 d8 3d 95 86 45 3d 77 dc 18 3d f1 f4 4f 3d
       0.105814464 0.04822405 0.037319627 0.050770704
000270 e2 cd f5 bc 1e ae bc 3c d1 c5 a8 3b d3 68 32 be
       -0.0300054 0.023032244 0.0051505347 -0.174228
000280 2d 39 87 bd 64 42 0f 3d a7 3b 46 3d f4 c8 bc b9
       -0.06602702 0.034975424 0.048396733 -0.00036007876
000290 b4 08 86 bc 26 2f 16 3e 3a 87 b7 3c f9 37 8a 3c
       -0.016361572 0.14666423 0.022403348 0.016872393
0002a0 9f c4 c1 3d 3c b5 5e 3d 21 77 9e 3d 99 8d d2 b8
       0.094613306 0.054372057 0.07737566 -0.00010039955
0002b0 7b e5 10 bb b7 b6 45 bd 19 eb 69 bd 36 45 f3 bc
       -0.0022109437 -0.048269954 -0.057108972 -0.029696088
0002c0 56 09 07 bd b2 b1 dc bd b3 54 7e bd 5d 2e db 3c
       -0.032967888 -0.1077608 -0.062092494 0.026755506
0002d0 9f fb 4f 3d db e7 ae 3d 1f 31 3a 3d 46 f9 40 bd
       0.050777074 0.08540317 0.045457 -0.047112726
0002e0 fe 5d f5 3b 1b 4d 8f 3c 3a 3a 00 bd 46 05 7a 3d
       0.0074880114 0.017492821 -0.03130553 0.061040185
0002f0 aa 50 3a 3d af 49 db bc f9 f6 83 bb 44 1b 32 3d
       0.045487083 -0.026768534 -0.004027244 0.043483034
000300 88 95 8f 3d 9f 24 33 3d a7 25 d2 3c 65 3a 21 3e
       0.07010943 0.043736096 0.02565272 0.15744932
000310 99 41 c2 3d 25 07 6b 3d 64 70 9b 3a 36 7e 71 bd
       0.09485168 0.05737986 0.0011859057 -0.058958255
000320 4c e2 23 3d e4 73 24 bc 65 09 05 3c 10 19 91 3d
       0.040010735 -0.010037396 0.008119916 0.070848584
000330 c9 c8 50 bd fd a1 42 bd 04 86 a9 3d d4 d7 c9 3b
       -0.050972734 -0.047517765 0.082775146 0.006159762
000340 62 d2 d0 bc 86 90 ff 3a a2 27 d6 bd 1b e1 bd bd
       -0.025490943 0.0019498027 -0.10456778 -0.09271451
000350 7e 62 22 bd 6b a1 47 bd cb 7c 00 bc be 3a cf 3b
       -0.03964471 -0.048737925 -0.007842253 0.0063241413
000360 96 2b ac bc 31 4e ca bd ab ef 83 bd 59 09 bd 3c
       -0.021016877 -0.09878195 -0.064421974 0.023075746
000370 d2 84 c5 bc 5c ce 00 bd 69 fc 5a bd 95 36 a1 bd
       -0.024111185 -0.0314468 -0.053463373 -0.07871739
000380 90 a5 c4 bc 67 31 98 bd 4c 5a 06 3c f3 cd 6f bd
       -0.024004728 -0.07431298 0.008200239 -0.058546018
000390 62 99 23 3b 3b eb 3d 3d b3 e7 71 bc 72 65 67 3d
       0.002496325 0.04636691 -0.014764714 0.05649323
0003a0 65 aa dc 3d 7a 5a 93 3d 03 89 0e be 34 3d b9 ba
       0.10774688 0.071949914 -0.13919453 -0.001413262
0003b0 9e 59 e4 3c 8b 90 50 bd d8 e1 67 3d bf 97 52 3d
       0.027874764 -0.050919097 0.056611866 0.051414248
0003c0 be 9d 9a bc b2 d4 44 3c b2 f6 f0 3c 84 63 50 bc
       -0.018874045 0.012013601 0.029414508 -0.012719039
0003d0 b1 e0 55 bd 5a b0 b3 3c 13 e2 aa 3b b9 f9 8c bc
       -0.052216236 0.021934677 0.0052149384 -0.01720892
0003e0 18 bd 25 bd eb 9c c0 3c db 60 4f bc 0d d0 22 bd
       -0.040463537 0.023512324 -0.0126573695 -0.039749194
0003f0 56 0b 1e 3c 77 8c ac 3d 0d 66 03 bd cd 5b 7b bd
       0.009646257 0.08425229 -0.032079745 -0.061366845

body.block3.conv.bias f4 [32]
000000 ef 80 96 bd 93 ab 91 3b 6a 45 c6 bd 99 2b d5 bc
       -0.07348811 0.004445502 -0.096812084 -0.026021766
000010 bf 46 ee bc 98 d5 af 3d 08 18 c4 bd 6b 72 6c be
       -0.029086469 0.08585662 -0.09574896 -0.23090522
000020 da 04 ad bd cc 21 24 3e 8a a4 ba 3d 1a 49 e5 bd
       -0.08448191 0.16028517 0.091134146 -0.11195584
000030 a2 36 4b 3d 0e a5 0e 3d fc fe 60 3d bc a1 f7 bd
       0.04961265 0.034825377 0.054930672 -0.12091395
000040 20 de da 3b ef d2 3a 3d 4f f5 06 bd 6e b7 1b 3e
       0.0066793114 0.04561132 -0.03294879 0.15206692
000050 02 36 b3 bd 42 f9 62 3e aa f2 1c 3e c2 42 a9 3d
       -0.087505355 0.22165397 0.15326944 0.08264686
000060 09 35 bb b9 80 41 9c bd 87 4b cd 3d f7 2b a2 3c
       -0.00035706934 -0.07629681 0.10024171 0.019796355
000070 63 4b 1a 3d 62 00 0f 3d de fc c0 3d e4 ba c5 bd
       0.03766955 0.034912474 0.094232306 -0.09654787

body.block3.norm.weight f4 [32]
000000 7f b3 91 3f 34 50 9e 3f 92 62 8e 3f ed 85 a5 3f
       1.1382903 1.2368226 1.1123831 1.2931496
000010 a6 d4 9c 3f 0c a7 85 3f e4 2c 94 3f 37 03 9f 3f
       1.2252395 1.0441604 1.15762 1.2422856
000020 f6 d3 9a 3f d2 9b 69 3f 6e 32 70 3f 92 ca 9f 3f
       1.2095935 0.9125339 0.9382695 1.2483695
000030 1e 3f 99 3f f7 17 b3 3f ca 7a a0 3f c4 52 9f 3f
       1.1972387 1.3991688 1.2537472 1.2447133
000040 f9 56 b7 3f a9 98 a2 3f 62 ea 7f 3f b3 2b 8a 3f
       1.4323417 1.2702838 0.99967015 1.0794586
000050 64 bd 9b 3f ce de 8d 3f 15 1f 8d 3f 84 d8 a3 3f
       1.2167172 1.108362 1.102511 1.280045
000060 6b a3 95 3f 5a a7 6d 3f 12 97 7a 3f 9b fb 88 3f
       1.1690496 0.92833483 0.97886765 1.0701784
000070 3a 28 8d 3f ba 40 94 3f a6 f5 9d 3f 38 75 9b 3f
       1.1027901 1.1582253 1.2340591 1.2145147

body.block3.norm.bias f4 [32]
000000 b8 ab 4c 3f 71 fd 29 bd 71 cf 1d 3f 5a ec ab 3e
       0.7994952 -0.041501466 0.61644655 0.3357876
000010 36 39 d9 3d e1 e8 23 bf ef 8f 31 3f ab 0f 86 3f
       0.10606615 -0.6402722 0.6936025 1.0473531
000020 9b 97 05 3f eb db 59 bf bd ef 59 bf 41 e4 06 3f
       0.52184457 -0.85101193 -0.85131437 0.5269204
000030 db d6 16 3f 61 72 b1 3e 1b e0 09 3f 23 68 f5 3e
       0.58921593 0.34657577 0.5385758 0.47931013
000040 13 25 09 bf 71 29 15 3f 2d ac 4d bf 3b e9 1e bf
       -0.53572196 0.5826636 -0.80340844 -0.6207463
000050 0b de 1d 3f 90 15 48 bf 6f 20 4d bf b4 fb 1f 3f
       0.61666936 -0.781579 -0.80127615 0.62493443
000060 1b 00 6a bf 7d bd 2f bf 32 27 37 bf 37 e0 75 bf
       -0.9140641 -0.6864851 -0.7154418 -0.9604525
000070 78 be 4a 3f 55 ab 3b 3f 85 e7 c6 be f3 92 94 3e
       0.7919688 0.73308307 -0.3884851 0.29018363

body.block3.norm.running_mean f4 [32]
000000 bf 2b a5 bf 6e e3 29 3f 22 aa e0 be 3f 2e df 3f
       -1.2903975 0.66362655 -0.438798 1.7435988
000010 f6 d1 56 3e 48 0b 85 3d a2 3a 99 bf e5 38 8d bf
       0.20978531 0.06496292 -1.1971018 -1.1032988
000020 97 48 58 bf c6 1a fe ba 8f 9a c4 be 98 b9 ba 3f
       -0.84485763 -0.0019386641 -0.3839917 1.4587889
000030 72 88 3a 3f bb 42 82 be 00 bd a1 3f 3b 6c 5a 3f
       0.7286445 -0.25441536 1.2635803 0.85321397
000040 a8 a1 f9 be 12 4d ec bf bd eb 79 be 29 df c3 be
       -0.48756146 -1.846102 -0.24406333 -0.38256195
000050 dc 23 c1 be a4 ff f2 be 8c 77 48 3f 18 b7 75 3f
       -0.3772267 -0.47460663 0.78307414 0.95982504
000060 44 7a 09 bf 0d 95 ab bf a2 fa c1 3d b0 4b 4c bf
       -0.5370219 -1.3404862 0.094716325 -0.7980299
000070 07 c1 8e 3f 19 69 d0 be cf 88 04 3f 65 58 41 3f
       1.1152657 -0.40705183 0.51771253 0.75525504

body.block3.norm.running_var f4 [32]
000000 ee e7 3d 3f cd 85 e8 3e f2 82 c7 3e 9c 0d ac 3f
       0.7418202 0.45414582 0.3896709 1.3441653
000010 c0 54 64 3e 89 9e 8f 3e b1 b7 52 3f 71 d1 da 3e
       0.22297955 0.2805064 0.8231154 0.42737916
000020 28 37 0f 3f 8c 37 d9 3e 20 b3 0e 3f b9 c1 86 3f
       0.55943537 0.4242519 0.55742073 1.052787
000030 62 d8 87 3f 9b 23 d2 3e 54 8b d3 3f 65 15 c3 3f
       1.061291 0.4104279 1.6526895 1.5240904
000040 62 68 b6 3f 01 54 92 3e ec 4d 98 3e ec b3 88 3e
       1.4250605 0.28579715 0.2974695 0.2669977
000050 99 7e 8b 3f 8a 91 01 3f ae 93 ff 3e b6 97 03 3f
       1.089801 0.506127 0.49917358 0.5140337
000060 91 e8 e3 3d 69 de 80 3e 86 e4 09 3f f1 57 f9 3e
       0.11128343 0.25169685 0.53864324 0.48699906
000070 14 a5 77 3e 0c 91 e0 3e 70 20 78 3f 27 37 e2 3e
       0.24184066 0.43860662 0.96924496 0.44182703
