TrainedModels/0035-sample/scale_factor=0.750000,alpha=10/2/netD.pth (torch, 127382 bytes, 25 tensors)

head.conv.weight f4 [32, 4, 3, 3]
000000 1a b9 70 3c 4c be 62 3c f7 a2 00 3b cf d7 44 3c
       0.014692569 0.013839316 0.0019628385 0.012014343
000010 66 ee b6 bb a8 86 23 bc 38 81 08 bd 29 6f f0 bb
       -0.0055826185 -0.009980835 -0.033326358 -0.00733747
000020 37 16 41 3b a5 91 8a 3b 48 ef cf ba cd 23 21 bc
       0.0029462704 0.004228788 -0.0015864158 -0.009835196
000030 df c2 f6 3b bc f1 18 bc 2e 8f 43 3c fa 06 a1 3b
       0.0075305547 -0.009334978 0.011935992 0.0049141617
000040 fb a6 8c 3a 80 ea 01 3b f7 b2 07 bc 07 58 e2 bb
       0.0010730916 0.001982361 -0.008282415 -0.0069074663
000050 34 12 04 3c a9 b2 8b bc 9e 21 38 3c 06 65 ab bb
       0.008060981 -0.017052965 0.011238484 -0.005230549
000060 b3 0f 87 3c 76 4c 91 3b dd b8 7f bb 0c 50 93 bd
       0.016486978 0.0044341637 -0.00390201 -0.07193002
000070 88 ca a3 3d bc 1f 31 3e 61 c4 f0 bd c3 01 ca bd
       0.07997614 0.17297262 -0.11756206 -0.09863617
000080 45 17 8c 3d 9a 6b 71 bd 80 47 bc 3d 08 06 de 3d
       0.06840376 -0.058940507 0.09193325 0.10840994
000090 36 60 3d bd bb 6f a7 bc e6 72 a8 bc b0 4d 1b 3c
       -0.046234332 -0.02043902 -0.0205626 0.009478971
0000a0 84 bf 28 bb fc 14 2b bb a2 d6 39 3c a5 d8 e9 3b
       -0.0025748918 -0.0026105037 0.011342676 0.0071364217
0000b0 b6 f0 71 3d ac 61 0f bd f2 a1 5c bc b3 1b 00 bd
       0.05906745 -0.035005257 -0.013466345 -0.031276416
0000c0 2f 32 3e 3c 37 4d cb 3c b5 a7 1f bb be be c1 39
       0.011608644 0.024817092 -0.0024361436 0.00036953943
0000d0 58 e3 98 3c 27 82 86 3d 75 47 4b bd 36 1a 19 bd
       0.018663093 0.06567793 -0.049628694 -0.037378512
0000e0 65 20 8c bd 15 5d 94 3c e1 92 66 3c 79 48 1f 3b
       -0.06842116 0.018110791 0.014073105 0.0024304672
0000f0 88 d9 9f 3c 76 16 2a 3d 1e bf ae 3d 2a 1c f6 bd
       0.019512907 0.041525327 0.085325465 -0.120170906
000100 31 51 38 bd 43 14 0f bc e7 87 5e bd 48 30 03 3b
       -0.044999305 -0.008732858 -0.054328825 0.0020017792
000110 51 6a fb 3b 89 a6 80 3d 55 92 d5 3d b8 ec a8 3d
       0.007672586 0.06281764 0.10428301 0.082482755
000120 56 90 03 bd dc e5 eb bc 26 2b a0 bd ea e7 09 bd
       -0.03212007 -0.028796129 -0.0782073 -0.033668436
000130 e2 89 f4 bb f0 9d 39 bd 56 b8 a0 bd c1 40 d7 bc
       -0.007462726 -0.045316637 -0.07847659 -0.026275994
000140 3f ff a9 bd a2 81 37 bd e9 21 28 bd 7e 92 98 bd
       -0.083006375 -0.04480136 -0.041047964 -0.07449816
000150 96 1b 40 3c 82 77 68 3d 99 92 ea bc af 65 49 bd
       0.011725327 0.056754597 -0.028634356 -0.04916924
000160 a4 91 80 bc e3 fe cc bd e7 19 b8 bc 0e 1e 9e bc
       -0.015694447 -0.10009553 -0.022473289 -0.01930144
000170 8a c7 80 bd 30 91 37 3d e6 b1 c9 3d 91 16 b5 bc
       -0.06288059 0.044816196 0.098483846 -0.022105487
000180 1c 3a 23 bd 28 48 ae 3c d9 6d e5 bd d7 5d 88 3d
       -0.03985034 0.021274641 -0.112025924 0.066585235
000190 9c 24 c0 3d d3 9c a7 3d 48 10 36 bc 5a 3c 69 3c
       0.09381983 0.08184209 -0.01111228 0.01423558
0001a0 9f e3 21 3d 9a 32 48 bd 43 46 83 bd cd 43 b5 bd
       0.039523717 -0.048876382 -0.06409886 -0.088508226
0001b0 2b 95 2e bd e0 02 8b 3c b7 1a 70 3d 86 04 1d bd
       -0.042622726 0.016969144 0.058619227 -0.038334392
0001c0 91 80 c1 bc cb 7e b4 bc ed 55 33 bd 82 09 77 bd
       -0.023620876 -0.022033116 -0.043783117 -0.0603118
0001d0 98 05 3c bd e2 2b d1 bc f1 9b 04 3d 43 8d be 3d
       -0.045903772 -0.02553362 0.03237528 0.09304287
0001e0 ca ca fe bc db be 60 bc 3b 4b df 3c 55 0c 65 bd
       -0.031102557 -0.0137173785 0.027257552 -0.055919964
0001f0 b2 ea f2 bc a3 36 fe 3a 32 83 16 3d 6c 56 ae 3d
       -0.029652927 0.0019394945 0.03674621 0.085125774
000200 03 0a 3d 3e 8f 92 b6 bc 39 9a 9c 3c d5 54 22 3d
       0.1846085 -0.022286681 0.019116508 0.039631683
000210 f9 fa 70 bd b7 4b 16 bd 31 27 01 3c 0e a4 76 bd
       -0.058833096 -0.0366933 0.007882879 -0.06021505
000220 02 88 df bc ab c3 85 bd 1c 74 c7 3c b8 17 5c 3c
       -0.027286533 -0.06531461 0.024347357 0.013433389
000230 b2 70 5a 3d 34 02 a4 3c 06 9a f4 3c f7 7b bf 3d
       0.05333013 0.020020582 0.0298586 0.09349816
000240 46 23 e2 bd 8a d6 c6 3b 0f 88 a3 3d 5e c6 6d bd
       -0.11041884 0.0060680555 0.079849355 -0.058050506
000250 76 a7 c7 3c d5 72 b9 3c 5b 49 a2 3b 8c 70 79 3d
       0.024371844 0.022637764 0.0049525923 0.06089835
000260 d6 0e 83 3d 3d 11 10 be 4a f7 5f bc 6c 12 9f 3d
       0.06399314 -0.14069076 -0.013669798 0.077671856
000270 eb 55 90 bd ad 88 b8 3c 7e f1 48 3d c9 94 1e bb
       -0.070476376 0.02252611 0.04905843 -0.002419757
000280 b4 ff 29 3d eb 4e 59 3d 86 5b 3c be 48 4f 8f bc
       0.041503623 0.053053778 -0.18394288 -0.017493859
000290 d4 e5 b4 3d fd fb b9 bd c6 54 13 3d 45 99 b0 3d
       0.08832899 -0.09081266 0.035969518 0.08622984
0002a0 26 74 c7 bc cd 6c 83 3d 19 f1 bd 3d a3 f2 01 3c
       -0.024347376 0.064172365 0.09274501 0.007931384
0002b0 d8 7a d3 3c c4 6d 14 bd 17 34 f8 bc 3c f9 a9 3c
       0.025815412 -0.036237493 -0.030298276 0.020748727
0002c0 0a bb fd 3c 0b dd cf 3c 1d 51 90 3c 74 df c7 bb
       0.030972976 0.025373956 0.017616803 -0.0060996357
0002d0 6d 8e d3 bd 20 98 13 be 37 a8 2c bd 39 6f 36 bd
       -0.103299 -0.144135 -0.04215261 -0.044539664
0002e0 9a f8 81 bb 9c 72 c0 3d b7 06 4b 3a de dd 7a 3d
       -0.003966403 0.0939686 0.0007744836 0.061246745
0002f0 b0 00 91 3c 99 be ca bd 25 5f 8c bd 58 d9 89 3c
       0.017700523 -0.09899635 -0.06854085 0.01682727
000300 a0 29 18 ba c2 de 7d bc 7b 57 a2 3d 65 40 8a bc
       -0.00058045425 -0.015495004 0.07926842 -0.016876409
000310 95 44 e2 3b bd cc 02 3d 24 ad 81 bd f3 ce 68 bc
       0.0069051483 0.031933535 -0.06331852 -0.014209497
000320 5e 5d a7 3d 1e d5 5f 3c c2 70 62 bc 69 c3 da 3d
       0.08172105 0.013661651 -0.013820829 0.10681803
000330 74 85 ae bb c9 86 9f ba 7e 5b f6 3c ae 6f 13 3d
       -0.0053259674 -0.0012170906 0.030072924 0.035995178
000340 93 ae 02 bd 47 5b a3 bd be f9 ea bc 22 3a 88 3d
       -0.03190477 -0.07976394 -0.02868354 0.06651713
000350 4c e7 9e bc eb 2f cf bd d8 c8 ed ba 25 2e a3 bd
       -0.0193974 -0.101165615 -0.0018141521 -0.07967786
000360 9f 1d 90 bd 99 7d 67 bd 5c fa 80 bd d0 e1 8d bd
       -0.070369 -0.056516264 -0.06297752 -0.06927836
000370 93 c4 89 bc ee dc f1 3a 17 e3 a6 3b 67 4b 3e 3c
       -0.016817367 0.0018452683 0.005092989 0.011614657
000380 a4 40 88 bb 8f 9c 87 3c 64 37 99 bc 11 91 b4 bd
       -0.0041580964 0.016554145 -0.01870317 -0.08816732
000390 5d 1e ff bc 6d 1f d5 bc af 19 a6 bc a3 dc 08 3d
       -0.031142408 -0.026015962 -0.020275919 0.03341354
0003a0 4c 1e d9 3c 2f 76 5a bb 75 43 e2 3c c9 e6 b3 3c
       0.026503704 -0.0033334603 0.027620057 0.021960633
0003b0 35 6f aa bd a0 b9 e9 3c 6d fb 98 3c ef 0d 16 3c
       -0.08321992 0.028530896 0.018674577 0.009158595
0003c0 48 1d 88 3c 03 46 0b 3d af 6a 31 bd 48 53 4a bb
       0.016615525 0.034002315 -0.043314632 -0.0030872393
0003d0 7e d4 05 bc fb 38 94 bd f2 a4 3e bd 89 31 10 3d
       -0.008168338 -0.07237431 -0.046544023 0.03520349
0003e0 ca f6 36 3e 96 b8 8b 3b 10 5a 34 3b 87 25 07 3e
       0.1786758 0.0042639477 0.0027519502 0.1319791
0003f0 42 f9 2f bc 5a a9 34 bd c3 ba 42 bd 35 72 57 3d
       -0.01074058 -0.04410682 -0.04754139 0.05259915

head.conv.bias f4 [32]
000000 68 fc e1 bb 8a b2 23 3d 11 6d 83 3e 3a 59 c9 bc
       -0.0068965442 0.03996519 0.2566915 -0.02457868
000010 4c ea 5c 3d 6e e5 ad bd ca f5 0e 3b bd 62 2f 3e
       0.05393438 -0.08491026 0.0021813982 0.1712751
000020 8f b6 dd be a2 52 69 3d 28 20 9f be e0 fc 9b bb
       -0.43303344 0.05696357 -0.3107922 -0.0047603697
000030 3f 54 8e bd ee 4b 92 3d 79 48 0f be 75 8e aa 3d
       -0.069496624 0.07143389 -0.1399249 0.08327953
000040 ad 8a 5f be 1e 4f 9a bd 5c 80 2e be 37 b4 58 bd
       -0.21830244 -0.07534622 -0.17041153 -0.05290624
000050 a7 a0 f1 be f7 3f 42 3d 93 4f 7e bd 65 51 b6 bd
       -0.4719288 0.047424283 -0.062087607 -0.089022435
000060 82 cc 91 bd 0a dc bd 3e 45 0e a5 3d 05 1c 71 3c
       -0.07119085 0.3708194 0.08059362 0.014716153
000070 b9 a2 fd 3d 78 17 14 be f2 2e 7f 3d 9b 8a da 3c
       0.123845525 -0.14462078 0.06230063 0.02667742

head.norm.weight f4 [32]
000000 49 19 67 3f ed c5 84 3f 1a 87 84 3f 1d cc 30 3f
       0.9027296 1.0372902 1.035373 0.6906145
000010 9e 8f 75 3f 00 b0 4d 3f 15 83 2d 3f 2f d0 09 3f
       0.9592227 0.8034668 0.6777814 0.5383329
000020 49 3c 2a 3f 09 6d 19 3f 91 22 76 3f 72 9e 88 3f
       0.6649824 0.59932 0.96146494 1.0673354
000030 40 e4 5e 3f c0 b9 2e 3f 40 e3 3c 3f 4d 95 67 3f
       0.8706703 0.6825218 0.73784256 0.9046219
000040 a5 fc 3c 3f fe 0d 66 3f 2c 47 35 3f d5 44 55 3f
       0.73823005 0.898651 0.70811725 0.83308154
000050 57 b9 70 3f ef a6 66 3f ee 10 48 3f c6 eb 80 3f
       0.94032806 0.9009847 0.7815083 1.0071952
000060 37 21 49 3f 42 b4 85 3f 22 58 5e 3f 7b 26 72 3f
       0.78566307 1.0445635 0.8685323 0.94589967
000070 ff 5f 50 3f 9b fc 2b 3f 7e dc 2b 3f b8 8e 58 3f
       0.8139648 0.6718232 0.6713332 0.8459277

head.norm.bias f4 [32]
000000 ea b0 29 3f 0e 96 92 3e d3 29 f8 3e 63 f5 92 3f
       0.66285574 0.28630108 0.4846941 1.1481136
000010 59 69 c0 3e ad 8f 4c 3f 6f fa 50 3f 5c cf 92 3f
       0.37580374 0.7990673 0.8163213 1.1469531
000020 59 9b 9a 3f c6 41 ee 3f 97 cf 15 3f 84 f4 8d be
       1.2078658 1.8613822 0.5851988 -0.27725613
000030 50 ee b4 3e 5a 24 66 3f 62 c1 8e 3f 07 84 36 3c
       0.35338068 0.8989922 1.1152766 0.011139876
000040 89 92 97 3f cb ca 4b 3f e7 30 7e 3f 1a 55 48 3f
       1.1841594 0.7960631 0.9929337 0.78254855
000050 a2 60 33 3f 74 dc 33 bf d8 79 86 3e bc c9 87 3e
       0.70069325 -0.7025826 0.26264834 0.265211
000060 b5 3d 80 3f 0e 8e 87 be eb d7 84 3c 28 9b be be
       1.0018831 -0.26475567 0.016216239 -0.3722775
000070 7e c9 2d 3f 8c 1d 1e 3f 54 50 0f 3f 06 aa 41 3f
       0.6788558 0.61763835 0.55981946 0.7565006

head.norm.running_mean f4 [32]
000000 4b 33 c7 bc 30 4b 18 3c 00 b0 20 3f 8c 7e d6 3c
       -0.02431645 0.00929527 0.62768555 0.02618339
000010 c2 2c d4 bc 1c 77 56 3c 6f 55 29 3e ae 7d 30 3e
       -0.025900248 0.013089921 0.16536497 0.17235443
000020 5e 61 25 bf 1c 51 07 3d 37 4c 8d be 47 87 11 3c
       -0.64601696 0.033036336 -0.2759721 0.00888235
000030 7b 72 95 bd cf 00 4d bd 1a 52 03 3c 7c 42 91 3d
       -0.07297226 -0.0500496 0.00801518 0.07092759
000040 9d 12 ce be 3d ef 97 be 52 01 9f be 30 28 80 bd
       -0.40248576 -0.29674712 -0.31055695 -0.06257665
000050 d5 cb 04 bf 9f de cd 3e 5e a5 24 be 3f bc 0a bf
       -0.51873523 0.4020891 -0.16078708 -0.5419349
000060 28 cd 22 be 09 b9 a2 3e 9d 1a 2c 3d 1a 6b d6 3c
       -0.15898573 0.31781796 0.042017568 0.026174117
000070 c5 1d d2 3d d1 a3 e3 be a4 c1 17 3d 69 e7 1e 3c
       0.10259584 -0.4446092 0.037049904 0.009698727

head.norm.running_var f4 [32]
000000 55 44 0f 3d 2f f5 82 3c 97 8a 24 3d e1 29 56 3c
       0.034977276 0.015986053 0.040171232 0.013071508
000010 08 8f b0 3c 21 53 56 3d a9 29 29 3d 11 5d 14 3c
       0.021552578 0.05232537 0.041299496 0.009055392
000020 c9 f0 cd 3c 11 6b 60 3c 04 1c 5a 3d 5d bb 93 3d
       0.02513923 0.013697402 0.053249374 0.07213471
000030 5a 6b cb 3c 59 c1 ce 3c 42 ee 7f 3c 79 23 30 3c
       0.024831463 0.02523868 0.01562077 0.010750645
000040 83 c2 00 3d 0b c6 31 3d b0 25 79 3c 32 9e de 3c
       0.0314355 0.04340176 0.015206739 0.027175043
000050 6f b6 94 3d e2 52 43 3d 86 94 01 3c 94 80 18 3e
       0.07261359 0.047686465 0.007908946 0.14892799
000060 92 97 84 3c 28 db a9 3c 24 ed 8c 3c 9a c2 4d 3d
       0.016185556 0.020734385 0.017202921 0.050234415
000070 97 ef 90 3d c3 29 5d 3c 20 06 bf 3c 39 c0 10 3e
       0.07076948 0.013498726 0.02331835 0.14135827

body.block1.conv.weight f4 [32, 32, 3, 3]
000000 a2 d4 c1 bc a4 4f 2b bd d8 19 8a 3c e7 06 22 bd
       -0.023660962 -0.041823998 0.016858026 -0.039557364
000010 7d 36 4f bc 43 1d 9e ba ba a9 02 3a ab 68 ba bc
       -0.012647268 -0.0012063164 0.00049843977 -0.022754988
000020 b3 fc ec 3c 34 80 01 bd a5 52 ef bc 36 b3 0b bd
       0.02892909 -0.031616405 -0.029214213 -0.034106456
000030 a6 ec ea 3c ce 67 ac 3c 47 bf 90 3c 28 74 b0 3c
       0.028677296 0.021045592 0.017669333 0.021539763
000040 7e 4f 74 3d f2 ed d6 3c ab 4c 2b bd b8 ca f4 bd
       0.059646122 0.026236508 -0.041821163 -0.11952728
000050 c3 a2 33 be e5 21 b6 bc a0 c5 d0 bd e7 68 6b be
       -0.17542557 -0.022232959 -0.10193944 -0.22989236
000060 61 0d a9 3d 4c 7d c7 bd de 5f 16 be c4 b4 74 bd
       0.08254505 -0.09740695 -0.14685008 -0.059742704
000070 3f 6f fd bc 01 54 68 bc a4 d6 77 3c 86 63 72 3c
       -0.030936835 -0.014180184 0.015126858 0.014794236
000080 70 6d 66 3d 8f 57 dd bb 2c ff 8f 3d d8 b7 f8 3c
       0.05625671 -0.0067548226 0.07031092 0.030361101
000090 17 b8 40 bd eb ca 54 3d 90 51 2a 3d a5 15 0a bd
       -0.04705056 0.05195133 0.04158169 -0.033712048
0000a0 76 ea e3 bb de ee 2d bd a5 c2 18 be fd 3d ec bd
       -0.00695544 -0.04246413 -0.14918001 -0.11535261
0000b0 12 4b 12 be 39 d1 9d bd ef 2c 5d 3b 00 b6 b8 bd
       -0.1428645 -0.07705922 0.0033748706 -0.09019089
0000c0 7d 02 54 bd fe 66 a6 3b 3b ca 20 bd 49 9d 8d bc
       -0.051760186 0.0050781956 -0.039255362 -0.017286913
0000d0 db c1 19 bc 41 1b 79 bd d3 fa 66 3d d8 b4 8e bd
       -0.009384598 -0.060817007 0.05639155 -0.06968087
0000e0 f5 0b db bd a9 68 bf bb 58 4f d9 bc cb 3c e7 bc
       -0.1069564 -0.005841334 -0.026527092 -0.02822723
0000f0 34 0b 24 3d 40 91 d6 3c 70 fa 72 3d a4 84 f1 bc
       0.040049747 0.026192307 0.059320867 -0.029482193
000100 f5 5d 52 3d 59 9c 6f 3c c2 6c a9 3c 94 6a 29 bc
       0.051359136 0.0146246785 0.020681743 -0.010340352
000110 4a ed 56 3d d4 60 b3 3c ab 6c 88 3c 06 3b a4 bd
       0.05247239 0.021896757 0.01665338 -0.0801907
000120 e6 bb 63 bc 40 43 9d 3b 1b cd 05 bb 68 d4 21 bd
       -0.013899779 0.0047992766 -0.0020416442 -0.039509207
000130 2c 4a 27 bd 54 a3 35 bc ab 5f 86 bd 3a df 54 bd
       -0.04084222 -0.011086304 -0.06561216 -0.051970698
000140 67 f0 32 bd ab 18 33 bd f5 43 27 bd 9a 86 a7 3d
       -0.043686297 -0.043724697 -0.040836293 0.0817997
000150 ce 7e cd bd f7 24 99 bd 03 a9 54 bc d3 6e 95 bd
       -0.10033952 -0.074777536 -0.012979749 -0.07296529
000160 5d 8a 79 bc 07 58 2e bb 1e 36 30 bd a0 df 4f bd
       -0.015230742 -0.0026602761 -0.04302036 -0.050750375
000170 57 81 f9 bd bc f1 7d bd 10 74 31 bc 59 90 b6 bd
       -0.12182873 -0.061998114 -0.010830894 -0.08914251
000180 82 37 47 bd 2e d2 b2 bd d8 17 48 bd 00 45 87 3d
       -0.04863692 -0.08731495 -0.048850864 0.066049576
000190 a8 e0 8c 3d b1 c6 0c 3e a3 ab 5f 3d fa e7 67 3c
       0.06878787 0.1374767 0.054607045 0.014154429
0001a0 a7 35 c5 3d 58 4d 4c 3d 20 f0 91 3c 83 5e e0 3a
       0.09629374 0.04987845 0.017814696 0.001711801
0001b0 a6 91 48 bc 23 62 26 3d 40 54 d1 3d 66 2a 26 bd
       -0.012241757 0.040620934 0.102211475 -0.040567778
0001c0 cf 92 cf bc d5 eb 25 3d ed c8 76 3d fa 17 96 3c
       -0.025338558 0.04050811 0.06025021 0.01832198
0001d0 26 ca 80 3d 53 18 c7 bc 53 9d c9 3c f0 cb 0f 3d
       0.06288557 -0.02430359 0.02461115 0.0351066
0001e0 57 13 97 3c 2e 5e 98 3c 80 43 7b 3d 7b ed 43 bd
       0.01844184 0.018599596 0.06134367 -0.0478339
0001f0 29 12 88 3d d0 31 23 3d bc 87 4d bb 3c 65 8d bc
       0.06644089 0.039842427 -0.0031361422 -0.017260186
000200 0a f4 47 bc 17 9c 6c 3d 04 82 b4 3d 89 56 15 3d
       -0.01220418 0.057766046 0.08813861 0.03645948
000210 93 ad a3 3d f4 9f a3 3d 28 9b b0 3d 6c ca 28 bc
       0.07992091 0.07989493 0.08623344 -0.010302167
000220 bf ac 65 3c 4b e6 64 bc cd de 13 bd ba 4d 4a bd
       0.014018237 -0.013970922 -0.03610115 -0.049390532
000230 a3 ae 1f bd 7e 81 9f ba 46 38 4e 3c 0e d3 c7 3c
       -0.038984906 -0.0012169329 0.012586659 0.02439263
000240 27 93 cf 3c 50 bc 00 bd 56 8d dc 3d 43 ef 80 bd
       0.025338722 -0.03142959 0.10769145 -0.062956356
000250 16 79 41 bd a5 36 2b bd c3 28 93 3b 10 cf df b8
       -0.047234617 -0.04180016 0.004490943 -0.00010672037
000260 1d b7 f2 39 89 70 5d 3c 26 31 15 bd f5 58 8c bd
       0.00046294267 0.0135156 -0.036423825 -0.06852905
000270 f3 49 21 bd 4f c4 d1 bd 22 ac 9f bd 2a 12 f1 bc
       -0.039377164 -0.10242521 -0.077965036 -0.029427607
000280 92 70 97 bd ee 9e 95 bd 70 d1 af bc 6a 6e 73 3b
       -0.07394518 -0.07305704 -0.021462172 0.003714467
000290 47 d6 b1 3c 02 b4 00 bb 4a 26 72 3d e8 1c 02 bd
       0.02170862 -0.0019638543 0.059118547 -0.03176585
0002a0 20 21 b2 bd c6 b9 6d 3c 12 18 82 3c 1d c6 8d bd
       -0.08697724 0.014509624 0.015880618 -0.06922553
0002b0 66 97 26 bd 7d e2 d7 bc 3a 27 7a 38 54 e1 95 bc
       -0.04067173 -0.026353115 5.9641177e-05 -0.018295921
0002c0 a9 d3 4f bc 63 ab 6d bd d9 26 6e bc ea 95 3b bc
       -0.012684741 -0.058024775 -0.014535629 -0.0114493165
0002d0 5e 49 ef bc d2 eb 11 bb db f4 ce bd f7 67 c0 bd
       -0.029209789 -0.0022265804 -0.10105296 -0.0939483
0002e0 77 23 b2 bd d5 6c 09 bd 94 0d 45 bd 61 35 67 bd
       -0.08698171 -0.033551056 -0.048108652 -0.05644739
0002f0 7b ef 97 bd b9 7d 2b bc 6f 58 06 bd b9 0a 4b bc
       -0.07418724 -0.010466986 -0.03279918 -0.012392693
000300 3b 50 4c 3c ee 1a 47 bc 61 c3 06 3c 83 4b 9d bc
       0.0124703 -0.012152417 0.008225293 -0.019201046
000310 01 62 9d bd 70 4d 5e bc fd ed c1 3c 18 56 45 3c
       -0.076847084 -0.013568267 0.023673052 0.012044452
000320 cd 05 9a 3b d1 d6 a9 3b 66 c6 3f 3d a5 d4 2b bb
       0.0047003985 0.005183079 0.046820067 -0.0026219275
000330 b8 f2 d8 bb 2e 7f 49 3d a7 d4 db bb fd f6 51 3c
       -0.006620731 0.049193554 -0.0067086997 0.012815234
000340 a7 ac 49 3d 50 8b 91 3d 35 ba 3b 3c 4c 47 86 3c
       0.04923692 0.0710665 0.011457969 0.016391419
000350 38 49 b5 3d 2e 7e 4a bd 0e 0d 06 3d 2a a9 04 3c
       0.08851856 -0.04943674 0.032727294 0.0080969725
000360 fb 0d 95 bc c1 77 82 3d c6 79 cd 3d d6 39 58 bc
       -0.018195143 0.063704975 0.10032992 -0.013197383
000370 c6 9a 76 bc f4 32 58 3c b6 04 1e 3b 91 18 1c bd
       -0.015051549 0.013195742 0.0024111695 -0.038109366
000380 44 a3 c0 3b e8 f1 f5 bc 1e e6 3a bc 89 75 4c 3c
       0.005878838 -0.030022576 -0.011407403 0.012479194
000390 5a 76 05 3d dc 8b 07 bb bc b0 e9 3c 4e 9e 73 3d
       0.032583572 -0.0020682728 0.028526656 0.059477143
0003a0 29 6c b5 bc 11 63 23 bd a1 2e f8 3c 29 19 8c bd
       -0.022146301 -0.0398894 0.030295672 -0.068407364
0003b0 7c 58 83 bd 73 4f cd bc 1f c4 ae bd e7 8a 0c bd
       -0.064133614 -0.025062298 -0.08533501 -0.034312155
0003c0 3e 83 69 bd 2a 66 c2 bd a3 76 bd bc 22 28 bb 3c
       -0.057009928 -0.094921425 -0.02312786 0.022846285
0003d0 cc 36 75 3d f8 07 d4 3d cc d9 89 3a fc f6 67 bd
       0.05986671 0.103530824 0.0010517179 -0.056632027
0003e0 2e dd 89 3c 87 be 9d bd 78 e9 dd bd d1 14 0a b9
       0.0168291 -0.07702356 -0.10835546 -0.0001316846
0003f0 cb e8 2c bd e7 5a c9 3b be b1 ab 3d 38 fb 46 bd
       -0.042214196 0.0061448696 0.08383511 -0.048579425

body.block1.conv.bias f4 [32]
000000 e3 f2 54 3d ee 4e 2c 3d 01 b8 f8 3b 15 a2 35 3c
       0.051989447 0.04206746 0.0075902943 0.011086007
000010 fa 74 7a 3d 98 6d 73 3d 2d 5d 1a bd 44 96 37 3e
       0.061146714 0.05943069 -0.037686516 0.17928416
000020 d6 88 dd 3d 27 26 ab 3d f5 ba 28 bd f6 8e ea 3c
       0.10817115 0.08356886 -0.04119392 0.028632622
000030 be 47 5e 3d 48 13 b6 3c 07 7f eb 3d bd bf 5e 3d
       0.054267637 0.02222599 0.11498838 0.054382075
000040 67 03 19 bc 0a 09 0f 3d 05 77 f3 3d bb fc 7e 3c
       -0.00933919 0.03492073 0.118879355 0.015563185
000050 1b 51 24 3e 47 06 b8 3c 91 aa ed 3c 09 56 7d 3d
       0.16046564 0.02246393 0.029011996 0.061849628
000060 73 2c 38 3d c9 cd ad 3d 97 a2 27 3c d9 34 6e 3d
       0.044964265 0.08486516 0.0102316355 0.05815587
000070 82 8b 5c bc 5f ba a5 3d 36 89 c8 bc 46 2c 33 3e
       -0.013460996 0.08092188 -0.02447949 0.17497358

body.block1.norm.weight f4 [32]
000000 1d b2 2d 3f 1c 4b 5e 3f e6 3b 4d 3f f8 de 45 3f
       0.67849904 0.8683336 0.8016952 0.7729335
000010 4f 40 5a 3f be 6f 5e 3f aa e4 86 3f 33 67 4c 3f
       0.8525438 0.86889255 1.0538533 0.7984497
000020 cb b6 83 3f a5 e2 60 3f b2 2a 4c 3f 1d b8 43 3f
       1.0290159 0.8784583 0.7975265 0.7645281
000030 4d 13 5c 3f d5 43 5c 3f d4 24 53 3f 6e ab 2a 3f
       0.8596695 0.86041003 0.8247807 0.6666783
000040 38 2b 51 3f 03 65 7d 3f d0 65 31 3f 47 93 74 3f
       0.8170657 0.98982257 0.6929598 0.9553723
000050 5c cc 3d 3f f3 83 5d 3f a8 ae 4d 3f 4c 13 7b 3f
       0.7413995 0.86529464 0.8034463 0.9807632
000060 83 53 4b 3f 9f 9d 56 3f d0 5d 64 3f 0a e1 78 3f
       0.79424304 0.8383426 0.89205647 0.9721838
000070 f0 65 42 3f 7e 4a 71 3f a2 c2 87 3f be 00 44 3f
       0.75936794 0.9425429 1.0606272 0.7656363

body.block1.norm.bias f4 [32]
000000 65 c6 09 3f 94 4e 18 3f bc 2a 5e 3f 04 90 2c 3f
       0.5381835 0.594949 0.8678396 0.6740725
000010 30 bd 5b 3f 6d ae d0 3e b7 ac a6 3d df 82 66 3f
       0.8583555 0.40758076 0.081384115 0.90043443
000020 66 21 68 3d 38 0b 26 3f b8 c6 58 3f 5a 4f f8 3e
       0.056672476 0.6486087 0.8467822 0.4849804
000030 61 70 36 3f c6 48 04 3f cd c4 59 3f 21 b0 b6 3f
       0.71265227 0.51673543 0.8506592 1.42725
000040 2e 12 1c 3f 5a 4b fb 3e 60 9f 12 3f e6 65 05 3f
       0.6096524 0.49080926 0.57274437 0.5210861
000050 b6 41 8d 3f c3 60 00 3f af 52 5e 3f b2 a2 6b 3e
       1.1035678 0.50147647 0.86844915 0.23011282
000060 ab 0b 5f 3f 84 55 25 3f b2 d2 59 3f a8 41 ea 3e
       0.8712718 0.6458361 0.8508712 0.45753217
000070 90 a8 1f 3f f9 aa 2f 3f ae d8 e6 3d c1 a8 49 3f
       0.6236658 0.6862026 0.11271797 0.78773123

body.block1.norm.running_mean f4 [32]
000000 bf a4 3b c0 b8 61 42 bf 93 b2 b2 3d 75 91 9f c0
       -2.9319303 -0.75930357 0.087254666 -4.986506
000010 e1 de df 3e 40 d1 14 c0 c6 3a f7 bf f4 79 02 40
       0.4372473 -2.3252716 -1.9314811 2.0386934
000020 4e ba ad bf 86 4f 33 c0 d3 d7 f0 be 3b 72 e5 bf
       -1.3572481 -2.8017287 -0.4703966 -1.7925485
000030 f4 67 bd bf 9b 6e 57 3f b3 66 fe bc 69 9f 80 bf
       -1.4797349 0.84153146 -0.03105483 -1.0048648
000040 3a 36 0c c0 14 89 62 3f c6 67 1b bf ad 14 0a c0
       -2.1908097 0.88490415 -0.6070522 -2.157512
000050 2f 1b 6c 3f 53 ad 47 c0 70 7b b3 bf 00 94 bd 3d
       0.9222898 -3.1199539 -1.4022045 0.092567444
000060 10 d5 cb 3d 47 33 5b bf 7a 42 32 c0 bc 36 73 be
       0.09952748 -0.8562512 -2.7853074 -0.23751348
000070 46 f8 ff 3f c4 8b 4d c0 f8 73 65 3e 30 3d 22 40
       1.9997642 -3.2116556 0.2240752 2.5349846

body.block1.norm.running_var f4 [32]
000000 4b 32 0d 3f 90 ac c6 3e 3e 24 99 3f 9c 83 12 3f
       0.55154866 0.3880353 1.1964185 0.5723207
000010 6a 7f 3e 3f d0 5d f4 3e f1 f5 6b 3f ca 95 1b 3f
       0.7441317 0.47727823 0.9217215 0.60775435
000020 af 76 15 3f 64 f4 fe 3f 36 8a 3f 3f e0 c3 7b 3e
       0.5838422 1.9918332 0.7482027 0.24586439
000030 6c 5a d4 3e da 7e 14 3f 3d 36 c8 3f 5e f4 9a 3e
       0.41475236 0.5800606 1.5641552 0.30264562
000040 d4 5c ed 3e 80 cb 05 3f 04 8f e1 3f 54 1f eb 3e
       0.46359885 0.5226364 1.762177 0.4592234
000050 ce 02 d5 3e 0a 5f ed 3e dd 7e c0 3f 77 3f 05 3f
       0.41603702 0.46361572 1.5038716 0.52049965
000060 c5 39 03 3f 03 35 53 3f 7b b7 87 3f 22 e1 dc 3f
       0.51260024 0.82502764 1.0602869 1.7256205
000070 b2 12 28 3f 35 d2 e6 3f a6 ec c7 3f ff de a3 3e
       0.65653527 1.80329 1.5619094 0.3200607

body.block2.conv.weight f4 [32, 32, 3, 3]
000000 ae c2 0d bb db 43 39 bd e9 2e 93 bd ca b8 cc 3c
       -0.002163093 -0.045230728 -0.07186682 0.024990458
000010 02 b2 7f bd 77 39 7e 3d 53 ea 0b 3d 7d ff 9b 3c
       -0.06242562 0.06206652 0.034159016 0.019042725
000020 b9 ca 32 3d 8b bc 5e 3b b2 81 e2 bc 35 ca ac bd
       0.043650363 0.0033986892 -0.027649734 -0.084370054
000030 7a e7 bd 3d 4f 39 39 3c 40 f5 81 bd 4e ee 8b 3d
       0.09272666 0.011305167 -0.06345606 0.068325624
000040 7d 26 0c bd 3d 28 2d bd 52 0c 99 bb 5e 5e 26 bc
       -0.034216393 -0.042274702 -0.004670658 -0.010154335
000050 f4 97 4a bd 0d 4c 46 bb 7f b1 90 3c c4 db 92 bd
       -0.04946132 -0.0030257732 0.017662762 -0.07170823
000060 05 8f 20 3e 0f e3 02 3e 4a ec 63 3d cf dd 52 3d
       0.15679558 0.12781928 0.055645265 0.051481064
000070 4f 24 c3 3d 22 f4 43 bd 67 4a 61 bd 45 2d 99 3d
       0.0952841 -0.047840245 -0.055002596 0.074793376
000080 93 2d 5b 3c be 38 52 bd 38 ac 89 bc 14 bc 72 bd
       0.013377565 -0.051323645 -0.016805753 -0.059261397
000090 4c 14 36 3e b2 7b b2 3c 39 ae 91 3d b0 b0 e4 3c
       0.1778118 0.021787498 0.071133085 0.027916282
0000a0 11 7d 9f bd e4 bb 89 bd 07 71 f0 3d 48 45 4d bb
       -0.077875264 -0.067252904 0.11740308 -0.0031321812
0000b0 24 e0 d1 3a 34 5d cb bc 3e cb 90 3d 07 d8 8a 3d
       0.0016012234 -0.024824716 0.07070015 0.06779485
0000c0 53 69 5b bd e3 41 0e bd 49 d1 c5 3d 4d a4 87 bd
       -0.053567242 -0.034730803 0.096590586 -0.06623135
0000d0 aa ba d6 bd 65 b2 49 bd 90 d0 ab 3d 12 31 8e bd
       -0.10484822 -0.049242396 0.083893895 -0.06942953
0000e0 ad ed b6 bc 6b c2 22 3d 7b 2e 46 bd d4 a2 cb bd
       -0.02233013 0.039736193 -0.04838417 -0.099431664
0000f0 4d e9 95 3c ff 85 7e 3d 03 2c 42 3d 50 6a 59 bd
       0.018299723 0.062139507 0.047405254 -0.053079903
000100 89 1a 31 bc b8 4e fa bc c0 60 e6 bd e5 6a 15 bd
       -0.010809549 -0.030555114 -0.11248922 -0.036478896
000110 fe 20 d4 3c 69 7d a6 bd 7e ac 62 bc 31 6d 4b 3d
       0.025894638 -0.08129389 -0.013835071 0.04966468
000120 7c cc 69 bd f9 95 bc 3c 8d 9b 09 be 73 20 b1 bb
       -0.057079777 0.023020731 -0.13438244 -0.0054054796
000130 d3 ea 3f 3c 3f fd 7a bc 98 d9 e4 b9 26 b8 2f bd
       0.011713701 -0.015319168 -0.0004364967 -0.042900227
000140 2c aa c2 bd f2 15 76 bc 2d bc 9a bb 35 a7 01 3e
       -0.09505114 -0.015019881 -0.0047221393 0.1266144
000150 2f 5d 69 bd 21 a1 db bc 82 db 93 bc 35 f4 bf bc
       -0.056973632 -0.02681023 -0.018049005 -0.023431877
000160 85 cb 59 ba a7 32 fb bd 4d 3d e7 bc ba e3 b6 3c
       -0.000830822 -0.122655205 -0.028227473 0.022325385
000170 03 ed ce bb 80 73 04 bd 3a 49 15 bd 71 c5 0f bd
       -0.006314875 -0.032336712 -0.036446787 -0.035100404
000180 45 58 89 3d bd 30 87 3d ae 39 7c bb 79 bc 49 3d
       0.06706289 0.06601093 -0.0038486528 0.049252007
000190 20 2b 3d bd 2b d5 6d bc f9 43 55 3d a7 69 34 3a
       -0.046183705 -0.014516155 0.052066777 0.00068821985
0001a0 27 84 e7 bb 05 67 5f 3d e1 ea 49 bb cd fe 58 bd
       -0.0070653143 0.054541606 -0.0030810165 -0.052977372
0001b0 56 6d bb bb 2f 19 93 3d 8b 8c ae bd 35 2b 63 bd
       -0.005719821 0.07182538 -0.085229 -0.055461127
0001c0 71 8f 1b bc b7 ac b8 bc 69 33 c6 bd ca 90 e0 bd
       -0.009494648 -0.022543294 -0.096777745 -0.10965116
0001d0 d9 ab fd bc 75 20 a4 bc 4e c9 91 bc 8a 1b b3 bd
       -0.030965732 -0.020035008 -0.017796185 -0.08745487
0001e0 0e 6b 20 bc 8f b5 5a bc fa ca 0a bd 09 47 fc 3c
       -0.009791149 -0.013348951 -0.03388498 0.030795591
0001f0 50 d2 0f 3d 86 c7 5e 3d 88 c5 bc bc 4e 91 5c 3c
       0.03511268 0.0543895 -0.023043409 0.013462378
000200 8e 25 d6 3c 3d a4 45 3d 33 88 04 3c 60 3a 33 3d
       0.026140954 0.048252333 0.008089113 0.043756843
000210 ab 13 f3 3d 12 0e 3a 3d 23 53 35 3d 4c 21 c4 3c
       0.11868986 0.045423575 0.04426874 0.023941658
000220 3f aa 0c bc eb 02 70 bb 59 96 0e 3b b3 f3 36 bd
       -0.008585512 -0.0036622833 0.0021757095 -0.044666003
000230 7a 06 d0 bb 16 30 d0 bd 46 53 a9 bd df 16 2f 3d
       -0.0063484283 -0.10165422 -0.08267836 0.04274642
000240 f1 48 64 bb 56 22 78 bd 82 66 dd bd c2 eb c2 bd
       -0.0034833516 -0.06057962 -0.108105674 -0.095176235
000250 59 46 c8 bb 90 5b 18 3d 3e 32 fd bb 9e 79 fc 3d
       -0.0061119017 0.037196696 -0.0077269366 0.12327884
000260 db 28 52 3e 4e 77 86 bc e2 91 e1 3d 72 b3 cd 3d
       0.20523398 -0.01641431 0.11014153 0.10043992
000270 e5 a1 20 bd 19 2c ec 3c bf 9e 5a bd 22 b8 d0 bd
       -0.039216895 0.028829621 -0.05337405 -0.101913705
000280 4b 4b 67 3d 53 8f 11 bc 43 a1 2f 3d e1 ba 2e 3c
       0.05646829 -0.008884269 0.0428784 0.010664673
000290 a9 22 25 3b c9 d2 7f 3d ed cc b2 bc 64 af a7 3c
       0.002519766 0.06245688 -0.021826232 0.020469375
0002a0 4b 18 96 3c a6 89 6c 3d f6 bb f6 3d 8c 96 9d 3d
       0.01832213 0.05774846 0.120475695 0.0769473
0002b0 5c 50 2d 3d 55 a0 1c 3e 6c cf b1 3c 61 b6 e8 3c
       0.042312965 0.15295537 0.021705352 0.028407278
0002c0 d8 de 9d 3c 98 84 c5 3a a0 20 15 bc de c4 02 be
       0.0192713 0.0015069423 -0.009102017 -0.12770411
0002d0 80 bc 35 3d df 44 69 bd 01 05 06 3e 09 c8 65 3c
       0.04436922 -0.056950446 0.13087846 0.014024743
0002e0 12 5d 04 bd c3 82 33 3d e2 a1 29 3d a4 e7 64 3d
       -0.03231532 0.043825876 0.04141415 0.055884972
0002f0 cb 93 85 bd 15 bc 8e bd 5d 6e 4e 3c 13 77 21 bd
       -0.0652233 -0.069694676 0.012599555 -0.0394202
000300 67 bb 67 bc 2d 4d b6 3d 63 f5 e8 3c 8c d6 94 bd
       -0.014143801 0.08901439 0.028437322 -0.07267484
000310 b5 ff 18 3d 51 4f c3 3d c0 f0 45 bd 41 06 d6 bc
       0.037353236 0.09536613 -0.0483253 -0.026126029
000320 ee ab 6e bd e5 6b 04 be 0d 99 95 3a 2f d5 bd 3c
       -0.058269434 -0.12931783 0.001141341 0.023172943
000330 76 52 55 bd 7b 5e 6a 3c 65 a7 9f 3d ea 97 00 bd
       -0.052080594 0.014304752 0.077956 -0.031394877
000340 32 94 2a 3d 41 8a 61 bd a5 01 36 3c 0f 2c 99 3d
       0.041645236 -0.05506349 0.0111087905 0.07479107
000350 fa 26 af bd ab 8f d6 bd c2 4d 85 3c 5a 3c 3b bc
       -0.08552356 -0.10476621 0.01627243 -0.011427963
000360 80 aa 3f bc dc 85 66 3c 75 45 d4 3d 2d 8a 13 bd
       -0.011698365 0.0140700005 0.103648104 -0.036020447
000370 7c 32 6d bd f4 77 7a bd 40 fb bf 3d ba 2f ca 3d
       -0.057909474 -0.061149552 0.09374094 0.09872384
000380 f9 b1 65 bc 2f a9 af 3d a8 f0 d4 3c 22 51 45 bd
       -0.014019483 0.08577191 0.02599366 -0.048173077
000390 75 56 05 3d 3d 41 1c bc c3 08 6b bc a8 ba d3 3c
       0.032553155 -0.009537038 -0.014345351 0.02584584
0003a0 4a 0a 99 3c 9f 6a 25 bd 75 23 08 3d 5d 7a 21 3d
       0.018681664 -0.040384885 0.03323694 0.039423335
0003b0 54 c1 a3 3d 1d 28 77 3d b2 82 b9 3a d9 7a 54 bb
       0.07995859 0.06034099 0.001415333 -0.0032421856
0003c0 b0 f7 d6 3d 8d c0 71 3d f5 82 e2 3b b5 72 8c bb
       0.104964614 0.05902152 0.006912584 -0.004286135
0003d0 34 ff ff 3d 40 4e 47 3e 84 fa 3f bc ff 16 92 3d
       0.12499848 0.19463444 -0.011717442 0.071332924
0003e0 37 b8 0d 3d 69 24 6d bd c7 49 11 bd 35 64 af 3c
       0.03459951 -0.05789605 -0.03547075 0.021410087
0003f0 55 41 24 bd 9a 1b 45 bd d5 3d 94 bd 01 e2 00 3d
       -0.040101368 -0.048122026 -0.07238356 0.031465534

body.block2.conv.bias f4 [32]
000000 48 8a 5a 3c 08 1b b0 3d 88 9c 05 3d 84 10 c7 3c
       0.013338633 0.08598906 0.032619983 0.024299867
000010 bf 87 65 3d 81 ae 75 bd 80 8a c8 bd 29 26 a5 bc
       0.05603766 -0.059980873 -0.09792042 -0.020159798
000020 57 81 b7 3d 61 c3 99 bd f8 28 dc 3b 76 62 8b 3d
       0.089602165 -0.07507969 0.006718751 0.06805889
000030 9c 5e 92 bd 15 4a 34 3c 01 73 63 3d 14 d4 8b 3d
       -0.071469516 0.011003991 0.0555296 0.0682756
000040 73 2a a2 3d 1d 01 5c 3c 41 03 ed 3d bd da 22 3e
       0.07918253 0.013428 0.11572886 0.15903755
000050 e5 41 b7 bd ad dc ab 3d 32 88 3e bd 1d 95 25 bc
       -0.08948115 0.083917 -0.046516605 -0.010106352
000060 2e 49 55 bc 65 b0 b6 3d 8a 2f 06 3e 68 50 af 3d
       -0.013017936 0.08920363 0.13104072 0.08560258
000070 f0 6e 0a 3e 27 95 d9 3d 93 d0 9b 3c f2 73 30 3d
       0.13518882 0.10624152 0.019020354 0.043079324

body.block2.norm.weight f4 [32]
000000 91 cd 7b 3f 19 7c 4c 3f 12 b3 5d 3f c3 cd 6c 3f
       0.98360544 0.7987686 0.86601365 0.9250147
000010 e8 9f 85 3f 6d 00 70 3f 40 1f 65 3f 01 e1 42 3f
       1.0439425 0.9375065 0.8950081 0.7612458
000020 f9 51 5c 3f 0d 84 7e 3f 1a de 45 3f bf d0 3b 3f
       0.8606258 0.99420244 0.77292025 0.73365396
000030 07 4a 4d 3f ea d7 60 3f 26 d1 67 3f ce ea 38 3f
       0.8019108 0.8782946 0.9055351 0.72233284
000040 62 ac 75 3f 73 63 35 3f cb 0b 44 3f c9 5d 86 3f
       0.9596616 0.7085487 0.76580495 1.0497371
000050 73 72 7b 3f 28 5a 61 3f e4 b0 81 3f fb 83 53 3f
       0.9822151 0.8802819 1.0132108 0.8262326
000060 c7 64 67 3f 09 90 81 3f f1 04 41 3f 1a 76 68 3f
       0.9038815 1.0122081 0.75398165 0.9080521
000070 60 e0 5a 3f 55 b0 40 3f 24 ac 65 3f 96 55 75 3f
       0.8549862 0.7526906 0.8971579 0.9583372

body.block2.norm.bias f4 [32]
000000 89 8b 0b 3f da 9c 22 3f 73 20 27 3f 78 bf 10 bd
       0.5450979 0.63520586 0.6528389 -0.03533885
000010 45 e6 01 3d bd 4e 89 3e 0a ec 22 3f b0 5c 5e 3f
       0.031713743 0.26817885 0.6364142 0.8686018
000020 0b 08 1d 3f 0c e5 31 be 0c 0d 35 3f 68 95 4b 3f
       0.613404 -0.1737253 0.7072303 0.7952485
000030 20 1a 43 3f 32 5c f3 3e 07 ec fc 3e 16 44 9a 3f
       0.7621174 0.47531277 0.49398825 1.2052028
000040 0d 82 19 3f b5 94 3c 3f 03 d5 18 3f 94 de 11 3f
       0.59964067 0.7366441 0.5970003 0.5698025
000050 6b ae e5 3e 81 b2 31 3f 01 71 99 3e d2 e4 15 3f
       0.44859633 0.69413 0.29969028 0.5855228
000060 db 4b 20 3f e9 e2 9e 3e 58 74 91 3f 43 fc c7 3e
       0.62615746 0.31032494 1.136363 0.39059648
000070 26 75 54 3f ce fe 48 3f 2c b8 18 3f 6a 22 3a 3f
       0.82991254 0.785138 0.59656024 0.7270876

body.block2.norm.running_mean f4 [32]
000000 bd 74 5a 3f 33 91 d7 3d b3 1f f8 3d 71 1c 99 be
       0.8533438 0.105257414 0.12115421 -0.29904512
000010 65 e0 b8 bf 2c f6 2f 40 df d3 02 3f 8c cc 11 c0
       -1.444348 2.7494001 0.5110454 -2.2781096
000020 83 58 82 bf 9b f5 b6 bf 82 db c8 3f b5 36 a0 3e
       -1.0183262 -1.4293703 1.5691988 0.31291738
000030 1a 28 57 bf a1 c8 92 be d0 b4 3f bf 3f c2 9d bf
       -0.84045565 -0.28668693 -0.7488527 -1.2324904
000040 b0 e2 0b 40 6a c2 d2 3f 0e ac 93 bf fd 03 85 bf
       2.185711 1.646558 -1.1536882 -1.0391842
000050 80 0d 9f be 05 f0 e9 bf 87 f2 e8 be 88 54 06 c0
       -0.31064987 -1.8276373 -0.45497534 -2.0989094
000060 99 7c 5c 3f fb 01 1c 3f 33 4c 8f 3f 8c 22 d4 3e
       0.8612762 0.6094052 1.1195129 0.41432607
000070 8b 4d 6c be fb 3c 2e 40 3c 3b 6f bf 6e 37 25 bf
       -0.23076455 2.722472 -0.9344976 -0.64537704

body.block2.norm.running_var f4 [32]
000000 06 86 14 3f bf 76 45 3f 5e 5e d8 3e de 0d 1a 3f
       0.58017004 0.7713432 0.42259496 0.6017741
000010 75 23 1e 40 3e c9 ec 3e 94 be 40 3f 48 db 1d 3f
       2.4709141 0.46247286 0.752908 0.6166272
000020 e8 a1 1c 3f 9d 21 e3 3f a8 5b 6e 3f b0 fe d3 3f
       0.6118455 1.7744633 0.93108606 1.65621
000030 49 30 71 3f 73 d3 08 3f 16 00 ff 3e 1d 02 7d 3f
       0.942143 0.53447646 0.49804753 0.9883135
000040 7a 7f 05 3f 07 78 27 3f 6f e8 cb 3e 00 35 4d 40
       0.5214764 0.6541752 0.3982577 3.2063599
000050 f5 24 54 3f 3a 04 a7 3f aa ef 0a 3f d9 86 19 3f
       0.8286889 1.3048165 0.5427195 0.59971386
000060 ba c5 b9 3e 3d ae 6c 3f 3e bb 90 3f e4 88 fa 3e
       0.36283666 0.92453367 1.1307142 0.48932564
000070 a4 cc ec 3f bc 15 45 3f 01 90 17 3f 55 72 00 3f
       1.8499951 0.7698629 0.5920411 0.50174457

body.block3.conv.weight f4 [32, 32, 3, 3]
000000 4b 25 1a bb 9e d5 08 3d 59 e6 ad 3d b3 af 15 bd
       -0.0023520763 0.033406846 0.08491201 -0.036544513
000010 ee 61 a2 bd 8f 48 2f bc a0 36 d4 3c c1 c4 b3 bd
       -0.07928835 -0.010698452 0.025904953 -0.08777762
000020 86 b6 0e 3b 67 d8 dc 3d 26 b8 ff 3c 2b e6 a9 3c
       0.0021776273 0.10783463 0.031215739 0.020739635
000030 19 b6 35 3d de 05 d2 bc 94 ad 7b bd 24 46 d5 bc
       0.044363115 -0.025637563 -0.061444834 -0.026034422
000040 43 5f 48 bd f0 5e 23 bd 25 8a 47 bd 09 0b 0b 3d
       -0.048918974 -0.03988546 -0.04871573 0.03394607
000050 cd fc 0c bd 40 69 53 bd e3 1e 7a 3d ef 71 4d 3d
       -0.034420777 -0.051614046 0.061064612 0.050157484
000060 b0 bf ba 3d 41 7c 23 3e 57 ac c3 3d 93 a2 38 bd
       0.09118593 0.15965368 0.095543556 -0.045076918
000070 d4 86 44 bd c2 cf 95 ba 49 a4 a2 bb ee 76 fe bc
       -0.047980145 -0.0011429715 -0.004963432 -0.03106257
000080 65 e6 17 3c 82 51 91 bd 62 11 c9 bc 89 ee aa 3d
       0.009271239 -0.070956245 -0.024544422 0.08346278
000090 9c c6 75 3d fa 44 76 3d e8 e5 13 3c fb a6 63 3d
       0.06000386 0.060124375 0.009026982 0.055579167
0000a0 0a d6 9e bc 9b 03 87 bd 31 c5 66 3d 8b b3 64 3b
       -0.019389171 -0.065924846 0.0563404 0.0034897055
0000b0 59 dc 77 bd e0 af b5 3b 66 ab a1 3d 33 a1 b4 3d
       -0.060512874 0.0055446476 0.0789402 0.08819809
0000c0 52 6f 3c bd ce 02 c6 3c 71 28 0f 3d 19 d8 c0 bc
       -0.0460046 0.02417126 0.034950677 -0.023540543
0000d0 26 b1 0f bc aa 21 1e 3b 1a fb 13 3e 52 90 89 3c
       -0.008770263 0.0024128952 0.14451256 0.01679245
0000e0 20 01 49 3c 21 85 b3 3d d7 8f 55 bd 05 58 2c ba
       0.012268335 0.08765627 -0.05213913 -0.0006574395
0000f0 d1 60 ef bc 0e 93 45 bd 44 d7 46 bc 16 db 18 3d
       -0.02922097 -0.048235945 -0.012136284 0.03731831
000100 8c 63 35 3d 59 d9 94 ba e6 16 f4 bc 29 7c 0a bd
       0.04428439 -0.0011356279 -0.029796075 -0.033809815
000110 07 0e 69 3b bc f6 72 bc 49 07 e7 3c ce 56 20 3c
       0.003556134 -0.014829334 0.028201716 0.009786321
000120 14 4d d3 3d f1 66 8f bc 88 49 a7 3c b7 91 d7 3c
       0.10317436 -0.017505141 0.020420805 0.0263146
000130 28 a4 b4 ba 15 c4 b2 ba a6 b8 3d 3b 75 20 7c bd
       -0.0013781833 -0.0013638759 0.002894917 -0.06155439
000140 9a 50 52 3d fe 4e ac bd 4b db 99 bd ec 55 bc bd
       0.0513464 -0.08413504 -0.0751253 -0.09196076
000150 4d 1e e2 bd 22 f8 85 bd ab 11 7c bd 3e 46 b1 bd
       -0.11040936 -0.06541468 -0.061540287 -0.08655976
000160 ea f5 a0 bd c3 88 2c bd 85 d2 9b bd d3 45 42 bd
       -0.078594044 -0.042122614 -0.07608513 -0.04742987
000170 f5 2c fa bd 79 d2 ac bb 63 6c d8 3c b7 84 95 3c
       -0.12215606 -0.0052741137 0.02641887 0.01825176
000180 8e 6c 18 bd 9e ff a2 bd 91 9f d0 bc f7 df 86 bc
       -0.0372129 -0.07958911 -0.025466712 -0.016464217
000190 7d 14 33 bd ff a5 13 bd 7f f4 86 bd 73 ed e9 3a
       -0.04372071 -0.036046978 -0.06589603 0.0017847255
0001a0 1d 87 58 bc 07 ed 55 bd d2 be 1f 3d 9e a5 ff 3d
       -0.013215807 -0.052228 0.03900034 0.12482761
0001b0 88 d3 52 bd 95 5c 35 3d 4c 6d 82 3c 36 55 db bd
       -0.051471263 0.044277746 0.015921257 -0.10709612
0001c0 72 c2 bf ba 37 8d c1 3c d4 97 b6 bc 74 62 92 3d
       -0.0014630093 0.023626907 -0.022289194 0.07147685
0001d0 e7 54 6b 3d 52 a4 7e 3c fa ef c8 3c 9f e4 8e 3d
       0.057454016 0.015542107 0.024528492 0.069772
0001e0 c5 35 5d 3d 3d 9c 56 ba d9 19 64 3d 62 c2 01 3d
       0.054006357 -0.00081867335 0.055688713 0.03167952
0001f0 94 00 6e bc 47 d4 5f 3d b6 60 9e bc a5 d1 52 bd
       -0.014526505 0.054645803 -0.019333225 -0.051469464
000200 f2 e7 b7 bd 90 82 5b 3d e9 1a d9 3c a1 67 62 3c
       -0.08979787 0.05359131 0.02650209 0.013818652
000210 37 9b e5 bb f9 a0 de 3c a6 5b 95 bd 15 e2 52 3d
       -0.0070070284 0.027176367 -0.07292871 0.05148514
000220 88 65 56 bc 1c 53 be bc fd ac 1d 3d c6 60 5d 3c
       -0.01308573 -0.023232989 0.038495053 0.013511842
000230 71 15 02 3c ab 72 15 3d fb e6 88 3c bf bb 2f 3d
       0.007939682 0.03648631 0.016711703 0.042903658
000240 91 45 d2 3c ef 89 94 bd 73 b6 97 bd 85 c6 3d 3d
       0.025667937 -0.07252871 -0.07407846 0.0463319
000250 74 eb f2 3b bb a2 d9 3d ca de 97 bc e0 3a 20 3d
       0.007413322 0.106267415 -0.018538851 0.039118648
000260 f2 9a 9b 3d 87 73 7b bd 63 dc 4c bc e7 7f 11 bd
       0.07597913 -0.061389472 -0.012503716 -0.035522368
000270 64 4d f9 3c 50 bb 82 3c d7 ba c5 bd 8e 91 d2 3d
       0.03043241 0.015958458 -0.096547775 0.102816686
000280 77 7c d7 3d 2a dc 29 3c 46 ca 3d 3d 62 ef cf bd
       0.10521787 0.010367433 0.04633548 -0.101530805
000290 84 66 ea bc 55 f1 4d 3d 50 c0 1e bd 53 61 81 3d
       -0.028613336 0.05027898 -0.038757622 0.06317391
0002a0 f0 14 87 3d 60 e9 a8 3b d6 ce 3b 3e da 45 96 bd
       0.065957904 0.0051547736 0.1834062 -0.07337542
0002b0 f8 56 8d bd ab e0 31 bd ce e5 9c bd df 0a ca bc
       -0.069013536 -0.04342715 -0.07661019 -0.024663387
0002c0 ad 0f 04 bc bc d5 3d bc 1f 70 cb 3c e0 0f c3 3c
       -0.008060378 -0.011586603 0.024833737 0.02381128
0002d0 fd e2 01 3d a5 b4 29 3d 74 3f 90 3c 92 20 af bc
       0.031710614 0.04143204 0.017608382 -0.021377835
0002e0 86 b9 1d bd d0 f1 f1 b9 79 24 5b 3d aa df 04 bd
       -0.038507007 -0.00046147266 0.05350158 -0.032439865
0002f0 1c e2 e5 bc 95 c7 c6 bc 00 b9 fd bc 24 d7 c5 3d
       -0.028061919 -0.02426509 -0.030972004 0.096601754
000300 9e 37 96 3c 9b 9a 0c ba c2 49 fa 3d 13 15 bc bc
       0.018337067 -0.0005363614 0.122210994 -0.022959268
000310 e0 31 9a bb 4e e3 03 3e b8 83 11 bd 74 de 14 be
       -0.0047056526 0.12879679 -0.035526007 -0.14537984
000320 39 d9 49 bd 1b 19 7e 3d 12 9d 40 bd 56 fb eb 3c
       -0.049279425 0.06203566 -0.047024794 0.02880637
000330 ca 1c ee 3d 75 62 fc bc 08 02 a9 3d dc c8 53 3b
       0.11626585 -0.030808667 0.082523406 0.0032315766
000340 d5 09 77 3c 74 27 3e bc 11 46 b5 3d b1 a0 28 3d
       0.015078028 -0.011606086 0.08851255 0.041168872
000350 69 0e e9 bc fb 79 98 3d f0 d5 2c 3d d8 f2 94 bd
       -0.028449254 0.07445141 0.042196214 -0.07272881
000360 08 08 4d bd fb ef b9 bc eb 99 a4 bc 4e 42 58 3c
       -0.050056487 -0.02269744 -0.020092925 0.013199402
000370 1f e9 b3 bb 2d 55 a7 bd 47 93 37 3d 9e b1 88 3d
       -0.0054904367 -0.08170543 0.04481819 0.06674503
000380 eb c8 c5 bc 55 18 62 3d 84 fb c5 3d 20 ae 66 bc
       -0.024143657 0.055198986 0.096671134 -0.014079601
000390 15 40 8e 3d 99 5b 29 3d 43 94 a0 3b a6 ff 4c 3d
       0.069458164 0.04134712 0.0049004867 0.050048493
0003a0 6e b7 c4 bb 0d ab 92 ba b2 fa e2 3d ea c3 ee bd
       -0.006003312 -0.0011189893 0.110829726 -0.116584614
0003b0 cb b2 1f be e2 8e 44 3d 38 95 bb bd 00 74 10 be
       -0.15595548 0.047987826 -0.091593206 -0.1410675
0003c0 2e ec 61 3d 3f c1 f0 bd 2b 35 72 3a fc ca 9d 3b
       0.05515688 -0.11755609 0.000923949 0.0048154574
0003d0 86 1c 82 bd 2c d3 fe bb 1e 3f 89 3d 75 c8 b9 3c
       -0.06353097 -0.0077766385 0.06701492 0.022678593
0003e0 bd 7c 0b bd ce a4 22 3d a2 28 2e 3d 0b 0e a4 bd
       -0.034054507 0.03970795 0.04251922 -0.08010491
0003f0 32 b7 e7 bd 57 33 9b bd 1b b9 33 bd 24 45 63 bd
       -0.113142386 -0.07578152 -0.043877702 -0.05548586

body.block3.conv.bias f4 [32]
000000 74 10 65 bd ab b8 a3 bd e7 97 b0 3b 8d 71 4c 3d
       -0.055923894 -0.07994207 0.005389202 0.049912978
000010 47 ff 38 3d af 50 07 bd 83 af 52 3d a0 16 ef 3d
       0.045165326 -0.03303593 0.051436912 0.11674237
000020 45 32 04 3c a6 70 6f 3d 26 08 7e 3c 4c 92 3c bc
       0.008068626 0.05845704 0.015504872 -0.011509489
000030 d1 a1 98 bd 85 16 28 bd 0e f9 8d bc 7a 7f 91 3c
       -0.07452739 -0.0410371 -0.017330673 0.01776098
000040 80 56 a5 3d 9c 0a 7c 3c 61 2f 9e 3d 30 ce db bd
       0.08073139 0.015383389 0.077238806 -0.107326865
000050 a7 78 a9 3d 17 91 85 bd c5 24 19 3d 01 bd c1 bd
       0.08274966 -0.06521814 0.03738858 -0.09459878
000060 82 4a ff 3b a5 49 8e bc 1e 76 8f bc df 8f f3 3c
       0.0077908644 -0.0173691 -0.017512377 0.029731689
000070 24 aa 46 bd 7b 13 74 bb fc 28 a8 bd 2d 3b 94 3d
       -0.048502102 -0.0037243057 -0.08210942 0.072378494

body.block3.norm.weight f4 [32]
000000 ce 35 92 3f 34 d6 93 3f 86 bc 98 3f bd ca 93 3f
       1.142267 1.1549745 1.1932533 1.1546246
000010 b0 08 b3 3f 8b 33 62 3f 81 ab 93 3f 6e 0a 91 3f
       1.3987026 0.883599 1.1536714 1.1331308
000020 98 79 ce 3f 94 69 9d 3f 13 ff 8e 3f f3 af 83 3f
       1.6130857 1.2297845 1.1171592 1.028807
000030 d3 6d 93 3f bd ba 95 3f 8c aa 9a 3f db 0d a4 3f
       1.1517891 1.1697613 1.2083297 1.2816728
000040 af 82 b5 3f c2 95 a6 3f 7f 8c 95 3f 54 e5 82 3f
       1.4180506 1.3014452 1.1683501 1.0226235
000050 35 4e 85 3f 4c 77 9f 3f 1f fd 92 3f cc 59 8e 3f
       1.0414492 1.2458282 1.1483496 1.1121154
000060 89 2b 9f 3f ee e1 9e 3f 5d d2 84 3f 6b 26 90 3f
       1.2435161 1.2412698 1.0376698 1.1261724
000070 2c 8a af 3f c8 c9 98 3f 47 d6 99 3f 8b f3 a7 3f
       1.3714042 1.1936579 1.2018517 1.3121198

body.block3.norm.bias f4 [32]
000000 3f b7 8b 3e 48 7b 10 3f 20 75 f2 3e 8b fd 51 be
       0.27288243 0.5643811 0.47354984 -0.20506875
000010 64 de 8f 3e 13 24 a4 3f 5e 38 06 3f f4 76 82 be
       0.28099358 1.2823509 0.5242976 -0.2548138
000020 a7 d8 2f 3f 10 c5 33 be fe 54 87 be 07 4b 40 be
       0.6868996 -0.17555642 -0.2643203 -0.1877862
000030 f0 c8 2f 3f 58 aa 26 3e 27 ec 6f 3f 10 6e d6 3e
       0.6866598 0.16275918 0.93719715 0.41880846
000040 31 8b 81 3f 18 47 be be 52 17 96 bd ef 1a 28 bf
       1.0120603 -0.37163615 -0.07328667 -0.656661
000050 e6 e6 e4 be 55 47 38 3f 58 53 ae be fd 57 1a 3f
       -0.44707412 0.71983844 -0.3404796 0.6029051
000060 3c e4 e8 3e bf e5 62 3f 79 44 4e 3f 8c 97 2d 3f
       0.4548663 0.88631815 0.8057323 0.6780937
000070 5c 7e 86 3e f0 d6 50 3f a6 e3 1a bf 55 20 56 3f
       0.2626828 0.8157797 -0.60503614 0.83643085

body.block3.norm.running_mean f4 [32]
000000 01 71 8a 3e b3 97 ea 3e 80 65 e7 bc 86 00 1e bf
       0.2703934 0.45818862 -0.028246641 -0.6171955
000010 4a 70 3f 3e ec 04 58 3f a6 7d 0d 3f 1e 7f 42 bf
       0.18695179 0.8438251 0.5526985 -0.75975215
000020 7e 63 04 bf bd 2f 8b 3e 81 f8 17 bf a6 87 fd be
       -0.51714313 0.2718486 -0.5936356 -0.49517554
000030 d0 d9 d1 bf de 9c 5f bf 76 6b bc bf 7a 9b 10 3f
       -1.6394596 -0.87348735 -1.4720294 0.5648724
000040 4a 28 85 bf ab 39 0b bf a2 65 f3 be f0 29 da bf
       -1.040292 -0.5438487 -0.47538477 -1.7044048
000050 f2 f4 cf be e9 80 18 3f eb 2f d8 be 26 ab 98 be
       -0.40616566 0.595717 -0.42224059 -0.29818076
000060 07 80 39 3f 01 8b 9d bf f8 6f a6 bd e0 9e 0e c0
       0.7246098 -1.2308046 -0.08126825 -2.228447
000070 c5 c6 fd bb 00 f2 fd bf 64 45 6a 3f 58 51 23 c0
       -0.0077446424 -1.9839478 0.9151213 -2.5518398

body.block3.norm.running_var f4 [32]
000000 ef ef e9 3e cb f2 d2 3f 6f 97 18 3f b9 a7 56 3e
       0.45690867 1.6480345 0.5960607 0.20962419
000010 00 08 05 3f d0 bf a1 3e b2 b0 e4 3e 6a d4 2e 3e
       0.5196533 0.31591654 0.44666058 0.17073217
000020 a0 0f 73 3f 4c 40 89 3e cc f4 77 3e 2b 7b 08 3f
       0.94945717 0.26806867 0.24214476 0.5331294
000030 9e ec 0d 3f 87 c4 29 3f 9c 24 f3 3e d5 ed d0 3e
       0.55439174 0.663155 0.47488868 0.4080645
000040 e2 9c af 3e 3b e6 1c 3f d2 e0 c1 3e 94 c0 53 3e
       0.3429938 0.61288804 0.37866837 0.20678931
000050 59 ed 19 3e fa 71 fc 3e 4d 59 69 3e 40 3d d7 3e
       0.15031947 0.49305707 0.22787972 0.42038918
000060 71 f5 be 3e 50 ac e9 3e 3e 9e c8 3f b0 46 95 3f
       0.37296632 0.45639277 1.5673292 1.1662197
000070 69 19 4b 3e ca b7 04 3f a9 22 21 3f 89 a5 19 3f
       0.19833912 0.5184294 0.6294351 0.6001821
