TrainedModels/0035-sample/scale_factor=0.750000,alpha=10/2/netG.pth (torch, 130902 bytes, 26 tensors)

head.conv.weight f4 [32, 4, 3, 3]
000000 8f 78 aa 3c 32 97 2b bb a4 73 b1 bc b0 66 a9 bc
       0.02080944 -0.0026182649 -0.021661587 -0.020678848
000010 d6 db ad 3c b2 e0 fb 3c de 8e ea bc f1 a1 15 bd
       0.02122299 0.030746792 -0.028632578 -0.036531392
000020 b6 d2 b6 bd 3a 48 98 3c 98 f2 4b 3c e5 a7 03 3d
       -0.08926909 0.018589128 0.012447976 0.03214254
000030 ac fe 85 bc 80 90 c8 bc 44 55 aa 3c 7b 37 a7 bc
       -0.016356789 -0.024482965 0.020792611 -0.020412197
000040 e0 a8 41 3c 30 ec af bd fc e2 01 bc 79 ae 81 3b
       0.011820048 -0.08589971 -0.007927652 0.0039575663
000050 92 2c f6 3c 94 9a 33 3c 6a 51 de 3b 67 54 87 3b
       0.03005055 0.010962147 0.0067846077 0.0041299346
000060 99 9c 4d bd a6 50 da bc 2b 97 c0 bd c8 13 9a bc
       -0.05019817 -0.026649784 -0.09403833 -0.01880826
000070 02 26 48 3c 9d be aa 3c 30 ed 06 bd 59 da 0b 3d
       0.012216093 0.020842845 -0.032941043 0.03414378
000080 0c fb 57 3d e2 a2 a5 bd 9b 52 f8 bc 05 81 f2 bd
       0.05272965 -0.08087708 -0.030312827 -0.11841015
000090 40 42 1e ba 16 9f 5a ba 22 3d 4a bc 47 00 f4 bc
       -0.00060370937 -0.00083397457 -0.012343677 -0.029785288
0000a0 09 05 6d bc ed 09 ab bb 5c 65 bc bc be cd d5 bb
       -0.0144665325 -0.005219689 -0.02299755 -0.0065247705
0000b0 54 a2 8c 3d 09 2c a4 3b cb 17 a7 3c 96 36 dc 3c
       0.06866899 0.005010132 0.020397088 0.026881497
0000c0 dd 5a b9 3b f9 2f a0 bc a9 7b 04 bd e3 6b a2 3a
       0.0056565837 -0.019554125 -0.032344494 0.0012391772
0000d0 6d d4 46 bd 15 1d 83 3c 13 7d 92 3c 8d cb 3b 3d
       -0.04854243 0.016005078 0.017881906 0.045848418
0000e0 c8 76 c6 3c 1c ff 89 bc 5b b3 61 3b cc d7 1e bc
       0.024226561 -0.016845278 0.003443918 -0.009695005
0000f0 c7 86 58 bd 52 73 a2 bc 2d c0 5d 3d b8 cd 69 3c
       -0.05286291 -0.01983038 0.05413835 0.014270239
000100 67 c1 b3 bc 5b 32 36 bd fd 60 13 3d e0 c2 62 3c
       -0.021942807 -0.044481616 0.035981167 0.013840407
000110 7a 2b e9 b9 43 b8 47 3d 17 c9 5f 3c d4 71 05 3e
       -0.00044473616 0.04875971 0.013658783 0.13031703
000120 46 80 97 3a ba ea fe 3c 25 66 2e 3e 34 9f 21 3d
       0.0011558614 0.031117786 0.17031153 0.03945847
000130 61 ae c1 bc 30 83 16 3b 95 59 21 bb 5f 24 e4 bc
       -0.02364272 0.0022966377 -0.0024620045 -0.027849374
000140 17 a3 2a 3b ec 7e 33 3d 31 b4 a7 bc d2 d8 fb 3d
       0.002603715 0.043822214 -0.020471664 0.122972146
000150 2b a4 06 bd f3 06 f4 bc d6 c7 fe bc 22 c3 89 bc
       -0.032871407 -0.02978847 -0.031101149 -0.01681668
000160 e6 17 ad bc 45 a1 d9 bc 3b 20 07 bd 48 39 17 bd
       -0.02112956 -0.026566157 -0.03298972 -0.036919862
000170 52 49 aa 3d d1 51 6d bd 9f 8a 05 bd 03 31 d9 bc
       0.08314766 -0.057939354 -0.032602903 -0.026512628
000180 ee 10 61 bc 35 ae a0 bc 98 e0 5e bd a8 51 59 3d
       -0.0137369465 -0.019614318 -0.054413408 0.05305639
000190 b6 c9 b5 bc 48 52 d0 3d dc ba 08 3d cb 99 00 ba
       -0.02219091 0.10171944 0.033381328 -0.00049057294
0001a0 8d a0 c4 3b ea 9e f4 bc 6c ae d9 39 46 73 1a 3d
       0.0060005845 -0.029860932 0.0004151942 0.03770759
0001b0 8d 5b 26 bd fc 5e c5 3c 84 17 9e ba 24 71 05 3c
       -0.040614653 0.024093144 -0.0012061452 0.008144651
0001c0 bb e7 00 bc 59 c4 23 3d 3f 57 6d bd e7 ca 5c bc
       -0.007867749 0.039982174 -0.057944532 -0.01347611
0001d0 0a 37 bd 3b ec 38 6f bd 26 c3 b0 3a e9 75 84 bc
       0.0057743834 -0.058403894 0.0013485893 -0.016169505
0001e0 48 7e 2e 3d 44 a9 f3 bc 5b c4 c7 bc cf 3a 11 bc
       0.0426009 -0.029743798 -0.024385622 -0.008864119
0001f0 f2 3e b5 3b c1 5f 8f bc 39 f6 13 bc 6c c6 f8 bc
       0.0055311853 -0.017501714 -0.009030872 -0.030368052
000200 c5 26 a5 3b 22 34 5c 3d 30 66 2c 3d d6 4a 24 3c
       0.005040022 0.053760655 0.04208964 0.010027608
000210 41 f5 07 3c 33 71 b3 bc fb 75 3f 3c 0d 31 e0 bd
       0.008298219 -0.021904564 0.011685844 -0.10946856
000220 cb 1f e7 bc 49 30 d0 bc b2 e3 d9 3b b7 0a 93 3c
       -0.028213402 -0.02541365 0.006649458 0.017949445
000230 aa 56 d2 3b 1d de 32 bd 79 35 c7 3b a5 d7 db bc
       0.0064190226 -0.043668855 0.0060793725 -0.026836226
000240 34 75 c7 3a 6e ca ec 3a 36 15 02 be bf e0 86 bb
       0.0015217424 0.00180657 -0.12703404 -0.0041161473
000250 12 59 ac bc 7f a0 15 bd 08 2b 09 bc 17 ed 47 bd
       -0.021038566 -0.036530014 -0.008372076 -0.04881009
000260 b1 9a d2 bc 03 c8 e8 3b 1c 6c 97 3b e2 f7 a7 bd
       -0.025708528 0.0071039214 0.004621042 -0.08201577
000270 e9 d3 f5 3b 48 6c e2 3c 36 c7 13 3d f3 71 ca 3b
       0.0075020683 0.027639523 0.036078654 0.0061781346
000280 16 0f 7f bc 1c c8 c1 bc 2b 23 0e bb 31 52 2f 3c
       -0.015567562 -0.02365499 -0.0021688442 0.010700748
000290 65 14 25 be 53 07 ac bc 21 a1 e9 3c f6 a9 d6 bc
       -0.16121061 -0.020999586 0.028519215 -0.02620409
0002a0 87 95 8e bc 13 19 3b 3d df b2 9e 3d 7a d4 dc 3b
       -0.017405285 0.04567821 0.07748961 0.0067391964
0002b0 b7 8d 6b 3d 86 57 17 be 05 f8 b6 3b fc d0 6a 3c
       0.057508197 -0.14779481 0.0055837655 0.014332052
0002c0 6e 34 af 3c 8e fa fe 3b 23 34 eb 3c 24 35 5b bd
       0.021387305 0.0077813333 0.028711384 -0.053517476
0002d0 6c 7d c7 bc 88 8f d0 3c 0b 18 68 3d 36 34 ec bc
       -0.024351798 0.025459066 0.056663554 -0.02883349
0002e0 68 24 9d 3c ea a1 d6 bb 85 5f 3f 3b 3c 68 fe bb
       0.019182399 -0.0065500634 0.0029201221 -0.0077638905
0002f0 97 7e 6d bd 01 ef 57 3d d8 8d aa 3c 1f cd 0d 3c
       -0.057982054 0.052718166 0.02081959 0.008654862
000300 15 05 04 bd 0c 1a 38 bc 1c 57 b9 3c cc 4b 5f bd
       -0.03223141 -0.011236679 0.022624545 -0.054515645
000310 bd e0 29 3a 40 bb 9e bd 08 4a 57 3d f6 bf 97 3c
       0.0006480327 -0.07750559 0.052560836 0.018524151
000320 9f 8d cf 3c 02 51 e9 bb e8 2b dd bc a6 58 fd 3b
       0.025336085 -0.0071202526 -0.026998475 0.007731515
000330 72 47 8d 3c 5e 06 13 3c 46 a0 dd bd 2c 13 7f bd
       0.017245982 0.008973686 -0.10821585 -0.062274143
000340 8e ea 07 bd 2f 1f 2d bd ab 19 09 bd 2f d7 19 3d
       -0.033182673 -0.042266067 -0.033471745 0.03755873
000350 3d 41 4e 3b a3 8d 1c bd ce 77 2a 3d 12 bf 8f bd
       0.003147199 -0.038221013 0.04161816 -0.07018866
000360 c8 bc 19 3d cc 7b 43 3d a9 3b 83 bc 1f 2d 35 3c
       0.03753355 0.047725484 -0.01601966 0.011058121
000370 3b 1b b0 3c 50 9a 30 3d 6b f5 13 3b 42 89 f6 bc
       0.02149736 0.043115914 0.00225767 -0.030094747
000380 d3 5d df 3c 73 9d 27 3d 8a 10 90 3d c2 0e d6 bc
       0.027266419 0.04092164 0.070344046 -0.026130084
000390 1f 68 f6 3c 5a 93 80 3c 80 d9 01 3d c6 41 f5 bb
       0.030078946 0.015695263 0.031701565 -0.0074846474
0003a0 af 0f 3d 3c 0b 54 27 bc 5d 09 34 3d 9c 98 44 3d
       0.011539384 -0.0102129085 0.043954242 0.047997102
0003b0 8d a7 82 bd 18 e4 1b bd b0 4f b0 3b 14 d5 67 3d
       -0.06379614 -0.038059324 0.0053805932 0.05659969
0003c0 56 c5 c4 bc 9e 8a ce 3b 46 bb 17 3d a8 0d 0f 3d
       -0.024019878 0.0063031456 0.037043832 0.034925133
0003d0 e8 13 1a 3c ac 04 fa bd 60 6a 2e 3d d0 03 60 3d
       0.00940416 -0.12207922 0.042581916 0.054691136
0003e0 52 72 72 bc b1 7c 02 3d 67 af 24 3d 65 9f cc bc
       -0.014797764 0.031857196 0.04020634 -0.024978349
0003f0 48 6e 90 3c 94 65 9b 3c ef 93 1f 3c 42 c0 2b 3c
       0.017630711 0.018969335 0.00973986 0.01048285

head.conv.bias f4 [32]
000000 1c 0d b6 3d 95 69 94 bc 0c cd 0b 3e 6d e8 7e 3d
       0.08889219 -0.018116752 0.13652438 0.062233377
000010 23 19 80 3d 1d 23 cf 3d 7a 10 e3 3d 40 03 03 3e
       0.062547944 0.10114119 0.11087127 0.12794209
000020 8b 47 e6 3d 32 0b e8 ba 06 15 85 3d a9 94 24 be
       0.112441145 -0.0017703532 0.064981505 -0.16072334
000030 99 94 33 3e ca b6 e7 bd 2d da 86 bd 80 80 83 3d
       0.17537154 -0.11314161 -0.065845825 0.06420994
000040 c0 61 96 bd 83 ad de bd ae 15 f3 3d df 20 12 3e
       -0.07342863 -0.108729385 0.118693694 0.14270352
000050 ae f4 ec 3d e9 9a eb bd 82 0f a3 3d 54 2c a4 bc
       0.115701064 -0.11504156 0.07961942 -0.020040669
000060 e6 53 71 3c c8 00 ce 3d 5d 32 62 3c 7f 81 b0 3d
       0.014729476 0.10058743 0.013805953 0.086184494
000070 e0 69 9e 3d ce af e1 3d 80 e4 0b be cf d0 f6 3a
       0.07735038 0.1101986 -0.13661385 0.001883054

head.norm.weight f4 [32]
000000 ee 1e 88 3f 86 5e 71 3f bc ed 8b 3f af 60 74 3f
       1.0634439 0.94284856 1.0931926 0.9546003
000010 2f 77 7c 3f 89 46 86 3f 7b 63 82 3f b5 53 67 3f
       0.9861936 1.0490276 1.0186609 0.903621
000020 2b 90 7f 3f c2 17 81 3f 39 77 74 3f 97 e0 6e 3f
       0.9982936 1.0085375 0.9549442 0.93311447
000030 c1 b0 8b 3f 9b d1 7c 3f 09 d8 64 3f 97 07 62 3f
       1.0913316 0.9875733 0.89392143 0.8829283
000040 10 74 6c 3f 1f b8 7d 3f b9 58 80 3f 8b c8 87 3f
       0.923646 0.9910907 1.0027076 1.0608076
000050 06 02 6b 3f 2f 60 6c 3f 54 e8 80 3f 54 35 6c 3f
       0.9179996 0.92334265 1.0070901 0.9226887
000060 10 c1 79 3f 11 3d 8a 3f cb 33 75 3f ff 69 87 3f
       0.97560215 1.0799886 0.95782155 1.0579222
000070 f8 5a 81 3f e9 6a 80 3f 03 61 6c 3f a1 c0 77 3f
       1.0105886 1.0032626 0.9233553 0.96778303

head.norm.bias f4 [32]
000000 d5 ea 58 bc f6 1b c3 bd 7e 05 e8 bd 67 2f 17 bc
       -0.013239582 -0.095268175 -0.113291726 -0.00922761
000010 78 10 66 bc 6b c9 bf bb b5 45 9c bd 2d a6 32 3d
       -0.014042012 -0.0058528683 -0.07630483 0.04361551
000020 f6 29 0f bd bd da 85 bc a7 35 8e bc 56 23 5d bc
       -0.034952126 -0.016339654 -0.017359568 -0.013497194
000030 cd aa a7 bd e3 32 60 bc 51 4c 0b be 59 0a 7a bd
       -0.081868745 -0.013684007 -0.13603331 -0.061045025
000040 45 a4 02 be 04 dc fa bd 6b 67 1b be 2d 98 ba bd
       -0.12757976 -0.12248996 -0.1517617 -0.091110565
000050 c9 3a e6 bc 27 a9 71 bd 7f e2 27 3c 60 d4 c5 bd
       -0.028104203 -0.058999207 0.010246872 -0.09659648
000060 f5 15 8c bd 14 de 1e bd c7 4c f9 bd f1 52 ce bc
       -0.068401255 -0.03878601 -0.12172847 -0.025186034
000070 b6 00 9e bd d5 5f 92 bd d1 6c 6a bd f5 20 b4 bc
       -0.07714979 -0.07147185 -0.05723268 -0.021988371

head.norm.running_mean f4 [32]
000000 bc 33 40 3e 75 8b bb bc d7 e9 aa 3d cd fb ec 3d
       0.18769735 -0.022893647 0.08345383 0.11571465
000010 f5 9b 46 3e 30 06 18 3e 0b 6b 3b bc b6 5c 0c 3e
       0.1939543 0.1484611 -0.011439095 0.13707241
000020 4b 86 6e 3d 75 b5 90 bd 6c a4 89 bd 4f 9b 77 be
       0.05823354 -0.0706586 -0.06720814 -0.2418034
000030 5a 83 82 3d ca 7c 99 bd 45 ca 39 be ff 3d d0 bd
       0.063727096 -0.07494505 -0.18143566 -0.10168075
000040 52 82 06 be 89 53 98 bd 5a 83 17 3e ff 7e b0 3d
       -0.13135651 -0.07437808 0.147962 0.086179726
000050 71 37 f8 3d dc 94 af bd 17 e6 81 3e 99 01 8a bc
       0.121199496 -0.085733145 0.25370857 -0.016846465
000060 59 42 17 3e ec 15 e5 3d 13 e8 7b 3c df 61 54 3e
       0.14771403 0.11185822 0.015375155 0.2074046
000070 31 13 a8 3d fb 75 74 3d eb 12 c4 bd c8 b1 14 3c
       0.082067855 0.059682827 -0.09573921 0.0090755895

head.norm.running_var f4 [32]
000000 d7 5a e6 3c e2 76 93 3c 62 fb b2 3c 26 cc a5 3c
       0.028119488 0.018001024 0.021848384 0.020238947
000010 ff de 8d 3c 4c ee b8 3c 78 81 80 3c 43 81 f6 3a
       0.017318247 0.022574566 0.015686736 0.0018806834
000020 fb 4c d4 3b 70 7d 0d 3c 4a c0 b7 3c e6 0e ac 3c
       0.0064789033 0.008635864 0.022430558 0.021003198
000030 79 87 e3 3c c1 99 17 3b c5 0a 40 3c d8 0f 90 3c
       0.02777456 0.0023132416 0.011721318 0.01758568
000040 6f 43 9a 3b 2f be 06 3d 38 f9 2f 3b 18 06 17 3d
       0.0047077457 0.032896217 0.0026851427 0.036871046
000050 fc 40 ac 3b 01 5f 98 3b 71 33 42 3d 5e fb 2a 3c
       0.00525677 0.004649997 0.04741234 0.010435907
000060 8b ea 27 3c 35 32 77 3c 3d a4 b9 3b ac ca ae 3c
       0.0102487905 0.015087654 0.0056653307 0.021336876
000070 8a 49 92 3b a0 51 21 3c 6b c5 b5 3b fd 26 f4 3a
       0.004464333 0.009846121 0.0055472157 0.0018627342

body.block1.conv.weight f4 [32, 32, 3, 3]
000000 ad 5c 96 bd 6f 49 7b 3c f1 6f 81 39 41 40 d5 bc
       -0.07341895 0.015337332 0.000246882 -0.026031615
000010 7c 06 0c 3a 82 a0 8a bb 1f 03 1f bd ac e0 3a bc
       0.00053415424 -0.00423056 -0.038821336 -0.011406105
000020 a3 ac 06 3d e0 d2 9f bc 58 51 19 3c d8 05 79 3c
       0.032879483 -0.019509733 0.009357773 0.015199147
000030 55 12 8e bc da 45 2b bd 2d d2 88 bc 34 46 0a 3d
       -0.017342726 -0.041814663 -0.016701782 0.033758357
000040 ac 5c 25 bc 0c 91 e5 3b e8 0d 25 3c a1 6a 38 3c
       -0.0100928955 0.0070058163 0.010074116 0.011255891
000050 35 c0 90 3d d8 92 32 bd 92 53 61 3c 7f 3d 09 3d
       0.070679106 -0.043597072 0.013752835 0.033505913
000060 51 09 6d bd 9d cf 7e bb 40 1e bb 3b b6 a4 e5 3b
       -0.057870213 -0.0038881071 0.005710393 0.0070081605
000070 77 f4 6f 3d 32 e4 1d bc 6d 94 c9 bd df be 61 bd
       0.05858275 -0.0096369255 -0.09842763 -0.05511367
000080 80 21 0e bb 8b 10 1f bd 64 92 1d 3d a2 f2 27 bd
       -0.0021687448 -0.038834136 0.038469687 -0.041002877
000090 9c 9a 2b 3d 18 eb 9c 3b 48 3e 64 3d af 28 16 3d
       0.041895494 0.0047887675 0.05572346 0.036659893
0000a0 18 76 62 b9 14 2e d5 3b 6e b0 08 bd 9b 0f c3 3c
       -0.00021597033 0.006505737 -0.03337138 0.023811152
0000b0 1c 26 d1 3c 4a 1c 02 bc 67 d9 cd bb 22 a5 90 bc
       0.025530867 -0.007941315 -0.00628202 -0.017656866
0000c0 6e 43 3f bd 5a 00 5f bd b5 f9 db 3c 5b b3 db bc
       -0.046695165 -0.054443695 0.026852468 -0.026818922
0000d0 e6 5e 46 bc 25 6b 9b 38 49 72 76 bc 1a 9f 1a 3b
       -0.0121075865 7.410933e-05 -0.015041896 0.0023593367
0000e0 cf 35 ae 3d 6f d6 a1 3c 66 13 22 bd a1 8c ad b9
       0.08506357 0.01975557 -0.03956928 -0.00033101908
0000f0 d7 0f 7e 3d c2 c8 49 3d 63 5e af 3d 45 e3 e0 bc
       0.062026825 0.049263723 0.08562925 -0.02745212
000100 84 b9 52 bc 99 24 2e bc 5b fb 22 bd 8c cc b0 3b
       -0.012861613 -0.010628843 -0.039790493 0.0053954776
000110 ab 07 ff 3c 53 c5 a8 3c fc e7 fe 3c 44 02 dc bb
       0.031131586 0.020601904 0.031116478 -0.0067141373
000120 83 96 be bb 89 7a e1 bb 6d f2 29 3c 7d 75 16 bd
       -0.0058162822 -0.0068810624 0.01037274 -0.03673314
000130 24 7b 4c bc 75 3b 08 3d 71 7e 83 bd c4 a2 39 3c
       -0.012480531 0.033259828 -0.06420601 0.01133031
000140 af b7 48 bd c3 18 8d 3d 68 24 15 bc c5 1c d7 3c
       -0.0490033 0.068894885 -0.009102918 0.026258836
000150 6f 2a 6b bd e8 e9 31 3c a7 ad c9 3c 81 5c 1f bd
       -0.057413515 0.01085899 0.024618937 -0.038906578
000160 ce 20 ae bc b8 e0 19 bb 90 7e 1f bd b9 2a 86 3d
       -0.021255877 -0.002347989 -0.03893906 0.065511174
000170 27 6e 5d 3c 2d f5 2d bd 1d 22 23 3c 09 28 f3 3c
       0.013515032 -0.042470146 0.009956864 0.029682176
000180 50 ea 04 3d 4f 5d 54 3d 53 1e e5 3c f1 8b cd bc
       0.03245002 0.0518468 0.027968561 -0.025091143
000190 7e f3 00 bc ab 2f 12 3d 42 e5 63 bb fc 46 fe bb
       -0.007870553 0.03568999 -0.00347741 -0.007759927
0001a0 97 d8 3b bd ce 37 56 bc a2 20 e6 bb cd 32 e9 3c
       -0.045860853 -0.013074828 -0.007022933 0.028466607
0001b0 33 02 2b bd 38 3c 9d bc 73 a2 b6 3c 3f 0e 18 3c
       -0.041750144 -0.019193754 0.022294259 0.00928074
0001c0 bd bb 90 bc f4 e8 ba bc c2 d0 fc ba e7 c0 58 bd
       -0.017667646 -0.022816159 -0.0019288289 -0.05291834
0001d0 cd 39 45 bc ae 67 76 3b 1d e6 50 bd 24 a0 2b bd
       -0.012037707 0.003759842 -0.051000703 -0.04190077
0001e0 c8 3a be 3c 6b 7b 59 bd 87 89 2c 3c 8a ba ad bb
       0.023221388 -0.053096216 0.010530836 -0.005301778
0001f0 38 89 c8 bc b1 c4 d3 3c 45 1b a3 bb e2 5c 25 bd
       -0.024479493 0.025850626 -0.004977616 -0.040371783
000200 7e f6 91 bb a1 80 39 3b 9a 17 41 ba 39 07 e0 bb
       -0.004454433 0.0028305429 -0.00073658826 -0.0068367985
000210 d7 fc 7d bc ba fe 7a bc 63 32 de 3c 0e d4 9e bc
       -0.015502176 -0.015319521 0.027123636 -0.019388225
000220 cc 1c ac 3c 69 42 34 3b 1e d5 fb bc ff 9e aa bd
       0.021009825 0.0027505404 -0.03074127 -0.08331107
000230 67 db 77 bd 96 4c 09 bd 0b d5 38 bc 3e fa 7d 3c
       -0.060511973 -0.033520304 -0.011281262 0.015501557
000240 f8 c7 4b 3c c5 e9 9a 3c ad 4a d0 3c ef 71 45 39
       0.012437813 0.018910298 0.025426233 0.00018829828
000250 50 27 cb bc 50 4b 13 bd 6c 5e 28 3d ed 76 09 bd
       -0.02479902 -0.035960495 0.041105673 -0.033560682
000260 4f 2e 2c bd bb 5e 2e bd 3f eb 43 bc 63 28 59 3c
       -0.04203635 -0.04257081 -0.0119579425 0.013254258
000270 6c 11 91 bc aa b8 52 bb e3 6c fa 3b 62 4a 89 3c
       -0.017708503 -0.0032153525 0.007642375 0.016759101
000280 b7 aa fe bc 32 6b 48 bc bd f2 97 bd c8 7f be bc
       -0.031087263 -0.012232589 -0.074193455 -0.02325429
000290 43 12 de bd 60 0d 9f 3c 3c ac 13 3d 56 52 a8 bb
       -0.10843327 0.019415557 0.036052927 -0.0051367683
0002a0 4e 00 75 3d 1c 3c ab 3c 1b 83 77 bc ef 7e f4 bc
       0.059814744 0.020902686 -0.015106942 -0.029845683
0002b0 82 b1 4d bd 0e db 83 bc 1e 11 00 bd 94 25 98 bc
       -0.050218113 -0.016095664 -0.031266324 -0.018572606
0002c0 f6 a3 0e 3d 60 0b 84 3d aa b6 70 3d ff 1f 9a 3d
       0.034824334 0.06447482 0.058767952 0.07525634
0002d0 83 99 4f ba 36 73 89 3b 60 a5 81 bd 37 70 88 3c
       -0.00079192984 0.0041946424 -0.06330371 0.01665507
0002e0 81 85 61 3c 38 14 26 bd 98 af 36 3d e8 56 15 3d
       0.01376474 -0.040546626 0.044601053 0.036459833
0002f0 55 a3 c7 ba 43 7d b6 3c ee 33 a1 3c c8 17 28 3c
       -0.0015231172 0.022276526 0.019678082 0.010259576
000300 7a a6 05 bd 80 e4 fe 3c e0 fb c4 bb 41 c2 4b 3c
       -0.032629468 0.031114817 -0.006011471 0.01243645
000310 b9 3e a7 3a 9a b5 b6 bc 00 6f 83 bb 1c 20 9f bc
       0.0012759782 -0.022303391 -0.004011035 -0.01942449
000320 4c f2 35 bc db 23 a3 3b 0e 62 df bc 67 65 43 bd
       -0.011105131 0.0049786395 -0.027268436 -0.047704127
000330 b9 1c 74 bd 93 85 1c bc 59 94 cd b9 85 87 a4 bc
       -0.059597705 -0.009553331 -0.00039211175 -0.020084152
000340 d2 80 df bb 41 fb 05 bb 9c 37 79 bb 1e 1a fa bc
       -0.0068207765 -0.0020443948 -0.003802753 -0.030530032
000350 c7 43 37 3c 79 e1 4e 3d b7 23 18 3c c4 da 26 3d
       0.011185593 0.050507996 0.009285859 0.040735975
000360 cf 82 2f bc 68 77 50 bd 4f eb 48 bd 49 a2 21 bc
       -0.01071234 -0.050895125 -0.049052533 -0.009865352
000370 18 1e 9c bc 97 be 4f bc 7b 69 01 bd 2d 9e 53 bc
       -0.019057319 -0.0126797175 -0.031594735 -0.01291613
000380 cb 32 bf bc f3 59 6b 3c 10 6c 96 3c 6b fa 4a 3d
       -0.02333965 0.014364707 0.018362075 0.049555223
000390 6c a6 68 3c 1a 23 8b bc 20 2c 90 bb ef 57 30 bd
       0.014199834 -0.016984511 -0.0043997914 -0.04305261
0003a0 04 17 3c bc 96 57 d1 bb 26 9a 30 bd 2f 13 55 bd
       -0.011480097 -0.006388615 -0.043115757 -0.052020248
0003b0 e0 db 68 bc d7 7b 4b bc 99 69 80 bc af 77 d1 bc
       -0.014212579 -0.012419662 -0.015675353 -0.025569765
0003c0 4c f5 ab bc 99 ff bb bb de 84 35 3c 51 da 96 bb
       -0.02099099 -0.0057372567 0.011079041 -0.004603662
0003d0 ec d9 29 3c 31 5c 2a 3d 70 49 3c bc fe cc 8a 3c
       0.010366898 0.041591827 -0.011492118 0.016943451
0003e0 74 a0 9b 3d fa 8b db bc 58 6a d0 bc 23 10 e1 3c
       0.075989634 -0.026800144 -0.025441334 0.027473515
0003f0 ba 15 31 bd 46 fa 31 bd 52 6d 8b bd c7 9d 12 3c
       -0.04323361 -0.04345157 -0.068079606 0.00894875

body.block1.conv.bias f4 [32]
000000 04 c3 0c 3d ad 84 a5 bc 33 a3 3d bd 33 05 39 bc
       0.03436567 -0.020204866 -0.046298217 -0.0112927435
000010 62 0f 1d bd 35 64 41 3d e4 8a f9 bc b2 26 ad 3d
       -0.03834475 0.047214705 -0.030461736 0.08454646
000020 bc d6 6b 3d a7 37 03 3d af c9 11 3d dd 63 4a bb
       0.057577834 0.032035496 0.03559273 -0.0030882277
000030 8b 17 0d bd 0e 4b 57 bc 98 f2 37 bd 91 9b 74 bc
       -0.03444628 -0.013140453 -0.04490909 -0.014929668
000040 65 16 a9 3b d9 2d 9d bc 98 9d f8 3a a6 b2 12 bd
       0.0051601403 -0.0191869 0.0018967865 -0.035814904
000050 ff 3c cb bc fe a2 40 bd d8 66 2f 3d 21 58 ca 3c
       -0.024809359 -0.04703044 0.04282269 0.024700226
000060 1c 96 f2 bc b8 e6 a8 bd f1 cc 37 3d 56 a9 c2 3b
       -0.029612593 -0.08247131 0.04487318 0.0059405966
000070 5c c2 e3 3d a3 f5 10 bd e9 8b 47 3c a1 9e a5 bc
       0.111210555 -0.035390507 0.012179353 -0.020217242

body.block1.norm.weight f4 [32]
000000 55 90 77 3f 63 b3 7d 3f 17 00 73 3f af bb 7a 3f
       0.9670461 0.9910185 0.9492201 0.9794263
000010 64 67 80 3f 9c 1f 75 3f 47 c6 81 3f 6d 2e 64 3f
       1.0031552 0.9575136 1.0138634 0.8913334
000020 05 79 6d 3f 62 b6 77 3f c5 cf 90 3f 25 8a 6e 3f
       0.92762786 0.9676267 1.1313406 0.9317954
000030 17 93 5d 3f e5 e8 8c 3f 5a 36 82 3f 4b f2 77 3f
       0.86552566 1.1008574 1.0172837 0.96854085
000040 e6 18 8d 3f b5 ac 69 3f 02 0a 75 3f f9 49 71 3f
       1.1023223 0.91279155 0.95718396 0.942535
000050 ed 6f 82 3f 1f 68 6b 3f 80 f5 8c 3f 82 2e 6c 3f
       1.0190407 0.9195575 1.1012421 0.92258465
000060 d0 82 80 3f d3 48 7b 3f 1f 89 7e 3f 54 e2 6d 3f
       1.0039921 0.98157996 0.9942798 0.92923474
000070 f4 73 82 3f 47 bd 7c 3f 6f a7 78 3f 33 3b 7e 3f
       1.0191636 0.98726314 0.97130483 0.9930908

body.block1.norm.bias f4 [32]
000000 0e 90 2a be 5e ad e5 bd 02 c2 83 bd ff f0 a0 bd
       -0.16656515 -0.11214708 -0.064334884 -0.07858466
000010 e4 ba 8b bd 6e 11 1e be f7 ec 99 bd c6 45 fd bc
       -0.06822756 -0.15436336 -0.075159006 -0.03091706
000020 96 27 ae bd c4 a4 48 be 7c bc a5 bd 28 7c 24 be
       -0.08503644 -0.19594103 -0.08092591 -0.16062987
000030 30 e9 9d bd fe a2 81 bc 59 0d 87 bd b7 bc cf bb
       -0.077104926 -0.015824791 -0.06594343 -0.0063396352
000040 85 0e 48 be 59 44 bf bd 98 12 65 bd 46 39 10 be
       -0.19536789 -0.09339208 -0.055925936 -0.14084348
000050 ee 78 a7 be 1e eb 4c bd 84 85 3b bd b9 d9 83 3c
       -0.3270945 -0.050028913 -0.045781627 0.01609503
000060 b6 b7 e6 bd 0e 8f 41 bd 54 f6 32 be ca 56 04 bd
       -0.11265509 -0.04725557 -0.17476779 -0.03230933
000070 ff 20 1b be dc dc 75 bd d3 52 6a bd c0 65 73 bd
       -0.15149306 -0.06002508 -0.057207894 -0.05942321

body.block1.norm.running_mean f4 [32]
000000 36 75 c6 be f8 2e 0a be 2f cb 4b be cd 13 70 bf
       -0.387613 -0.1349448 -0.19901727 -0.93780214
000010 78 29 5a bf 84 95 e7 3e b3 dd d0 3e 77 db 92 bf
       -0.85219526 0.4523126 0.40794143 -1.1473225
000020 c5 9e 1e bf 32 51 be be b5 7f 58 bf cc 4f 3f be
       -0.61961013 -0.37171322 -0.84569865 -0.18682784
000030 6e e2 67 3e 27 cb 77 bf 88 b7 fb be 01 69 f0 be
       0.2264497 -0.9679436 -0.4916346 -0.46955112
000040 23 23 17 bf 04 99 56 3f f9 a4 6d 3f 44 21 0e 3f
       -0.5903799 0.83827233 0.92829853 0.5551951
000050 f5 a3 0f 3e 98 d5 d7 3e a2 a7 be be aa 9e ca 3e
       0.14027388 0.42155147 -0.3723727 0.39574176
000060 1e 01 90 bf 02 64 35 3f f8 48 ca bd f7 68 37 bf
       -1.1250341 0.70855725 -0.09877199 -0.7164454
000070 4c a6 a9 3e a1 a1 02 bf f1 e0 57 3f ff c5 81 bf
       0.33134687 -0.51027876 0.8432761 -1.0138549

body.block1.norm.running_var f4 [32]
000000 c4 95 24 3e 2d 35 1d 3f 91 5f 26 3e aa 17 95 3f
       0.16072756 0.61409265 0.16247393 1.1647847
000010 bb 8a 09 3f 00 ad e8 3f 4d d0 c9 3e 00 2a 90 3f
       0.5372731 1.8177795 0.39416733 1.1262817
000020 fd 92 44 40 0f 3e 7f 3e f0 8d 16 3f 97 57 cc 3e
       3.0714715 0.24926017 0.5881033 0.39910576
000030 83 43 c9 3e 2d 54 bc 3f 5d 7c 55 3e 27 0f 30 3f
       0.3930932 1.4713188 0.20848222 0.6877312
000040 16 5c 29 3f e8 58 de 3e 1d 9b a5 3e a4 bb 4d 3f
       0.66156137 0.43427205 0.32344905 0.8036444
000050 5a 1c 5f 3e 47 82 5f 3f 54 3e 25 40 fd 9b 0e 3f
       0.21788159 0.8730816 2.5819292 0.5570677
000060 9e 83 25 3f ad b0 b2 3e c4 fd 0b 3f d5 d0 99 3e
       0.64653957 0.34900418 0.5468409 0.3004214
000070 f1 01 5b 3e 8a 5a 1b 3f 1e 35 5b 3f 93 17 3e 3e
       0.2138746 0.60685027 0.85627925 0.1856368

body.block2.conv.weight f4 [32, 32, 3, 3]
000000 88 0e cb 3b 5b 67 31 3c e7 f8 bf 3c 3a 2e 17 bb
       0.0061968006 0.0108278645 0.023434116 -0.0023068325
000010 0d 46 8a 38 82 8a 7a bb 8c ca 04 bc 0b 77 54 3d
       6.593401e-05 -0.003822953 -0.008104932 0.05187134
000020 db 96 56 bc 84 6f 1f 3c 8c be 6d bd 15 4b 2f bd
       -0.01309749 0.009731177 -0.058043048 -0.042796213
000030 6a 89 94 bc 0a 4f 05 bd 47 81 81 3d 05 a3 ae bd
       -0.01813193 -0.03254608 0.06323486 -0.08527187
000040 3d 9d d7 bc aa 95 3d 3d 85 9f 43 bc 56 d7 73 bc
       -0.026320094 0.04628531 -0.011939888 -0.014882883
000050 e2 13 94 3c 96 47 b0 bc 03 ac 0c bc 57 ec 3b 3c
       0.018075887 -0.02151851 -0.008585933 0.011469922
000060 7d 15 17 3d 96 75 fd bb 7a 7b a5 3c 62 ee 1c bd
       0.036885727 -0.0077349646 0.02020048 -0.038313277
000070 4f d2 e1 3b b9 02 f0 3b 7d b3 b8 3c 2b db 05 bb
       0.006891526 0.0073245433 0.022546524 -0.0020424824
000080 9d fe 12 bd 34 bd 66 bc 8d 8a 5d 3a 00 62 85 bc
       -0.03588735 -0.0140831955 0.00084511266 -0.016282082
000090 04 2f 20 3d 3f ea 42 3d 65 e3 89 bc 8d 22 3c 3d
       0.039107338 0.047586676 -0.016832063 0.045931388
0000a0 20 63 7a 3b 2a e4 03 3b 75 ce 2a bc 5a bf 78 bc
       0.0038206056 0.002012501 -0.0104252 -0.0151823405
0000b0 6b 81 15 bd 8b 9c 47 3d 50 8f a4 3c 32 0e 0f bd
       -0.036500376 0.048733275 0.020087868 -0.034925647
0000c0 37 27 18 bd b9 82 c7 bc 0e 11 27 3c 8d 48 97 bc
       -0.037146773 -0.024354326 0.010196937 -0.018467212
0000d0 4e 26 f1 3b 25 67 01 bc 04 dd 70 3d f4 de 07 3c
       0.0073593026 -0.007898127 0.058804527 0.008292902
0000e0 7e ed bf 3b 88 97 53 bc 54 2d a7 3c 09 4a 2a 3c
       0.0058571687 -0.012914546 0.020407356 0.010393628
0000f0 c7 b3 1f 3d 09 b8 ca bb 54 5f be bb 24 71 d8 bc
       0.03898981 -0.0061864895 -0.005809704 -0.026421137
000100 82 87 33 bd ad 63 a8 bc 92 0d 3a bd 8f 72 d9 3b
       -0.043830402 -0.020555342 -0.045423098 0.006635971
000110 91 d6 b3 bc 60 a7 8b 3a 52 b7 07 bd 76 20 10 bd
       -0.0219529 0.001065474 -0.033133812 -0.035187207
000120 27 2c 13 3d f6 fa d1 3a 70 52 eb 3a 31 d8 ad bc
       0.03593078 0.0016020227 0.0017953645 -0.021221252
000130 1d 03 3e 3c 43 ca 98 b8 b0 1f 25 b8 b8 17 d8 3a
       0.011597422 -7.285599e-05 -3.9368577e-05 0.0016486561
000140 2f d6 d0 3c 54 82 dd 3c b8 9e 60 bc 51 57 d0 bd
       0.025492756 0.027039684 -0.0137097165 -0.10172904
000150 a7 ba 8a 3b d5 9f 32 3a ea 31 83 bc 47 86 3b bd
       0.0042336765 0.0006813978 -0.016015012 -0.045782354
000160 06 b7 b4 3c 06 e6 c2 3c 87 2b 27 bc 78 9e 68 bd
       0.022059929 0.023791324 -0.010203249 -0.056791753
000170 e8 cc c4 bc 4a fc 18 3d 7e d2 3c bb 99 47 33 bd
       -0.024023488 0.037349977 -0.0028811987 -0.043769453
000180 98 64 11 3c 93 1f 3b bc 6b 2c 91 ba f0 cc f2 3c
       0.008874081 -0.011421102 -0.001107586 0.029638737
000190 41 c6 0f 3d b9 12 c8 bc 7b a4 10 3d 44 35 06 3d
       0.03510118 -0.02442299 0.03531311 0.03276564
0001a0 2e 95 11 bc 39 d9 78 3c 0e a9 e2 3a 99 be 48 bd
       -0.008885665 0.015188509 0.0017292814 -0.049009893
0001b0 9b d5 8f 3c 12 e2 51 3d bb fd e8 bc 2c ce b8 3c
       0.01755791 0.051240988 -0.0284413 0.022559248
0001c0 b4 29 bc 3b 74 8c 2d bc 28 85 05 bb 64 42 b6 3b
       0.005742276 -0.010592569 -0.0020373557 0.0055621136
0001d0 cb 39 95 3c da fc 89 bd 73 3a 74 bd 3b 54 a3 3d
       0.018216034 -0.06737681 -0.059626054 0.0797505
0001e0 fd 92 2d bd fe 37 1a bd 2a 2c d3 3d 7e 10 3c bd
       -0.042376507 -0.037651055 0.10311158 -0.045914166
0001f0 41 28 16 bd 29 f9 8b 3d 8c 0f 1a bd fa fa 82 ba
       -0.036659483 0.06834633 -0.037612483 -0.000999301
000200 4d 63 83 3d 32 30 65 3c 55 8c 11 3d 7d 5f 7a 3d
       0.064154245 0.013988541 0.03553422 0.06112622
000210 83 45 0f 3d 09 0f 58 3d cc 61 8d 3d 28 78 8f 3b
       0.0349784 0.052748714 0.06903419 0.0043783374
000220 86 00 08 3c 70 8d 8b bc 37 49 fe bb 8c ba 1f 3d
       0.008300906 -0.017035216 -0.0077601927 0.038996264
000230 fd c0 b6 3b 49 ba 82 3d de cd 94 3d 48 2b ca 3c
       0.005577205 0.06383187 0.072658285 0.024678841
000240 13 62 ad bd 26 81 0e bd 42 fa 9b bc 86 ec 33 bc
       -0.08465972 -0.034791134 -0.01904023 -0.010981685
000250 a8 07 c6 bc 96 22 ff bc 5b b4 16 3d 8e 30 d0 3b
       -0.024173573 -0.031144422 0.036793094 0.0063534444
000260 66 45 01 bd c1 cb b2 3c 2f 82 98 3c b0 60 c1 bc
       -0.031560324 0.021825673 0.018616764 -0.023605675
000270 18 e3 3e ba 16 ce 8c bc d8 d0 b5 bc 17 bf cd ba
       -0.00072817644 -0.017188113 -0.022194311 -0.0015697208
000280 4d 1b 9f bb 08 e4 65 bc 45 20 b2 bc 09 21 80 bc
       -0.0048555494 -0.014031418 -0.021743903 -0.015640752
000290 c1 2b 89 bd ea e3 80 bd 9e 09 cc bb 99 c7 46 bd
       -0.066977985 -0.06293471 -0.0062267324 -0.048530195
0002a0 be 86 5e bb 0b d8 0e 3c 07 c0 27 3d c0 a1 76 3d
       -0.0033954824 0.008718501 0.040954616 0.06021285
0002b0 4d c8 7a 3d ac 4d 1b bd 2d 79 1d bb 66 b2 e9 bc
       0.061226178 -0.03791587 -0.0024028525 -0.02852745
0002c0 b1 c6 81 bb c5 55 8c 3d a1 fb af bb a7 b6 89 3b
       -0.0039604534 0.06852297 -0.0053705727 0.004202682
0002d0 b3 a2 0e 3e 86 77 18 3d da 0b bc bb 53 cb 6b 3d
       0.13929252 0.03722336 -0.0057387175 0.057566952
0002e0 14 a8 26 3d 95 fe 8e 3c 88 e6 9d 3d 82 82 5e 3d
       0.040687636 0.017455379 0.07709986 0.05432368
0002f0 a0 c1 b0 3c 4b 2e a9 bb 97 32 58 bc af 39 9e bc
       0.021576703 -0.0051629893 -0.013195655 -0.019314615
000300 ee 8f 2b bb 92 f1 0b bb 5f a2 39 bd bb 04 2f 3d
       -0.0026178318 -0.0021353704 -0.045320865 0.04272912
000310 63 44 22 3d 4b 37 a1 3c 27 ff 25 bd 69 1e 66 bc
       0.039616 0.019679686 -0.040526535 -0.014045336
000320 51 ab a7 3b 54 70 c7 3c 3a 98 e4 3c 60 ff 24 3d
       0.005116858 0.024345554 0.027904619 0.040282607
000330 e2 23 50 3c 75 3c 68 3c 73 a8 5f 3c 84 61 ff 3c
       0.012703868 0.01417457 0.013651001 0.031174429
000340 94 22 e1 3c f3 65 d0 3c b2 b9 72 bd f4 10 e8 3c
       0.027482308 0.025439238 -0.059259124 0.028328396
000350 3b 84 ee bc c8 b7 9d bd 3c 05 02 bd ac 22 ef bc
       -0.029115787 -0.07701069 -0.031743273 -0.029191338
000360 90 92 bc bb ff 5a eb bc 67 2d 65 3c ff 26 91 bd
       -0.0057547763 -0.028729914 0.013987876 -0.07087516
000370 cd df 9a bd 4d fa 3b 3c e1 b2 ad bd 5e 69 a5 bd
       -0.07562218 0.011473251 -0.08481384 -0.08076738
000380 78 ab 48 3d af 5f 3b 3b a7 db 00 3c 9a f2 44 3d
       0.04899165 0.0028590967 0.007864869 0.048082925
000390 17 9d 21 3d 01 98 03 3c a5 71 a3 3c 42 62 6e 3d
       0.039456453 0.008031846 0.01995165 0.058199175
0003a0 0c 25 08 bd 3e 62 14 bd 8b 8f 32 3d 31 32 23 3d
       -0.033238456 -0.036226504 0.043593924 0.039842788
0003b0 c4 8a 39 3c 45 98 0d 3d 25 dc 95 3d 83 67 3c 3d
       0.011324588 0.034569044 0.0731738 0.045997154
0003c0 af 84 9f 3d e1 91 8a 3d 5d b0 93 3c 72 0b 80 3c
       0.07788979 0.067661054 0.018028433 0.015630458
0003d0 d3 9d 2c 3b 51 c2 2b bc 51 43 1e 3d f0 88 fc 3c
       0.0026339188 -0.01048334 0.038638417 0.030827016
0003e0 85 09 b0 bc 21 11 93 3d ff e6 9b 3c f0 ae 4c 3b
       -0.021488914 0.071810015 0.019031046 0.00312322
0003f0 cb 01 13 3d 05 62 59 3d a7 09 ae bc 4f ac b6 bc
       0.03589038 0.053071994 -0.021244837 -0.02229896

body.block2.conv.bias f4 [32]
000000 2e f3 02 3c 67 0c 19 3d b1 85 7f bc 96 f3 7f bd
       0.007992549 0.037365343 -0.015595839 -0.06248816
000010 ce 73 8c bc d1 05 2e 3d f3 6d b6 3c 6e dd 21 bc
       -0.017145064 0.042486016 0.022269225 -0.009879453
000020 7c 00 a7 bc 25 22 b8 3d 99 7b 2f bd 8e f8 4a 3c
       -0.020385973 0.089908876 -0.04284248 0.012388362
000030 72 af 5e 3c bf aa db 3d 9d e2 2b bd e9 9f 6c bc
       0.013591634 0.107259266 -0.041964162 -0.014442422
000040 88 50 02 bd 3c 09 cc 3c 18 2a 94 bb 6e 90 8b 3d
       -0.03181508 0.024906747 -0.0045216195 0.06814657
000050 ec 09 0c 3d 10 a4 18 bd a0 76 2a 3d f7 6a 64 bc
       0.03418915 -0.037265837 0.041617036 -0.013941518
000060 8d 4d d1 bc d1 50 d9 3c bf da a2 bd 61 9f a3 3c
       -0.025549674 0.026527794 -0.07951879 0.019973459
000070 ad 46 6e bc ad e0 a6 3c 91 89 74 3b fb 09 41 bd
       -0.014543218 0.020370806 0.0037313441 -0.04712866

body.block2.norm.weight f4 [32]
000000 c9 ac 83 3f 2d a2 65 3f 18 70 79 3f 1b a1 75 3f
       1.0287105 0.89700586 0.97436666 0.9594895
000010 00 df 6b 3f 8f de 7c 3f 9b 6b 80 3f 2f a9 6f 3f
       0.92137146 0.987771 1.0032839 0.9361753
000020 8a 59 88 3f ef 77 71 3f b4 6f 7d 3f 17 ba 85 3f
       1.0652325 0.9432363 0.9899857 1.0447415
000030 15 d5 7e 3f 44 29 7d 3f 2b 5c 76 3f 98 6b 7d 3f
       0.9954389 0.9889109 0.9623439 0.989923
000040 3a 89 78 3f 76 8e 7c 3f 31 a3 84 3f e3 b3 85 3f
       0.9708439 0.9865488 1.0362302 1.0445522
000050 a8 4d 7c 3f 0a e4 7c 3f 04 c0 78 3f d0 ba 80 3f
       0.98555994 0.9878546 0.9716799 1.0057011
000060 b5 a4 7b 3f 38 06 85 3f be bd 7b 3f 74 b8 75 3f
       0.982982 1.0392523 0.983364 0.9598458
000070 52 9b 82 3f 88 87 71 3f 53 15 65 3f ba 78 86 3f
       1.020365 0.9434743 0.89485663 1.0505593

body.block2.norm.bias f4 [32]
000000 90 ff 8c be fb 51 4a bd 58 66 23 bd 4a f0 bb bd
       -0.2753873 -0.04939459 -0.039892524 -0.09176691
000010 de 7c 05 be 84 7c bd bd 5c 04 21 be 8a 9f 5a bc
       -0.13035914 -0.09252265 -0.15724319 -0.013343701
000020 dc 85 d8 bd a6 ab 42 be 53 8f 86 ba d8 6b 18 be
       -0.10572407 -0.19010791 -0.0010266103 -0.14884889
000030 c4 99 9f bd 6a a1 a9 be 59 7a 22 bd 08 b9 60 bd
       -0.07793 -0.33130962 -0.03966746 -0.05486396
000040 50 8e 2a bd 2d aa 4e bb 45 b6 1f be 8f 0f 5d bd
       -0.041639626 -0.0031534538 -0.15596874 -0.053969916
000050 af b1 66 be 3f af ad bd ae 3b 11 be 3d 25 c5 bd
       -0.22528718 -0.08480691 -0.14182922 -0.09626243
000060 50 b6 09 be 5b 78 16 bd 35 25 a5 bd f2 b7 0f bd
       -0.13448453 -0.036735874 -0.08063737 -0.035087533
000070 24 b1 0d be 50 9b 8f bd 3f e3 52 be f7 22 44 be
       -0.13837105 -0.070120454 -0.205945 -0.19153963

body.block2.norm.running_mean f4 [32]
000000 28 13 6a 3d 6a 4d cc 3e 3c e5 a5 bd 4f 78 9e be
       0.057147175 0.39902812 -0.081003636 -0.30951163
000010 17 b8 94 be 9e 08 6d bf 5c 69 a8 be a0 8b fb be
       -0.290467 -0.92591274 -0.32892883 -0.49129963
000020 9b 3b c7 be b5 a6 08 bd d6 d6 59 3e fa e1 3b 3e
       -0.38912663 -0.03336211 0.2127336 0.18347922
000030 27 8a 2e be 68 dc f1 3e f4 03 f9 be 69 65 cc bd
       -0.17044888 0.4723847 -0.48635828 -0.0998028
000040 18 fe 66 be 68 59 1f 3e 40 c7 fa be cf d1 f8 3d
       -0.22557867 0.1556145 -0.4898014 0.12149393
000050 13 54 97 3e d1 da 28 bf 00 3b 25 be 44 d8 d9 be
       0.2955633 -0.6595889 -0.16135788 -0.4254781
000060 3c 9c 32 bf 85 3d 19 be b6 0c 7e 3e 76 b5 1b bf
       -0.69769645 -0.14964874 0.24809536 -0.6082376
000070 71 b5 25 bf 3d 11 43 bf 6c c7 0c bf 53 d6 3c 3b
       -0.6472998 -0.7619818 -0.54991794 0.002881427

body.block2.norm.running_var f4 [32]
000000 03 ca 59 3f 13 97 a6 3e 11 18 d7 3e 5f 16 69 3e
       0.8507387 0.32537135 0.4201055 0.2276244
000010 eb eb fb 3e 01 94 a9 3f 64 4b 2e 3e 2f 96 f2 3e
       0.4920343 1.3248292 0.17020947 0.47380206
000020 bc fd 9a 3e b7 16 31 3e dc a7 b6 3f e8 e8 01 3e
       0.3027171 0.17293821 1.4269977 0.12686503
000030 21 5f da 3e 95 0c 13 3e ff af f8 3f 2b e9 82 3f
       0.42650703 0.14360268 1.942871 1.0227407
000040 5d e1 50 3f a2 3c 99 3e 7c 75 2b 3e 40 6f 6a 3f
       0.8159388 0.29929072 0.16744035 0.91576004
000050 b2 10 8b 3e 01 4a 2c 3e 1a 01 f0 3f d6 da de 3e
       0.27161175 0.16825105 1.8750336 0.43526334
000060 4d 92 ba 3e b0 b7 e6 3e 82 d5 b8 3e b0 17 4c 3f
       0.36439744 0.45062017 0.36100394 0.79723644
000070 cf bf c3 3e ca 44 3d 3f c8 b6 c8 3e b7 cc a9 3e
       0.38232276 0.7393309 0.3920195 0.33163998

body.block3.conv.weight f4 [32, 32, 3, 3]
000000 47 eb 66 3c 7a 56 b2 bc 3b 77 57 bd 84 36 a4 3c
       0.01409418 -0.02176975 -0.05260394 0.020045526
000010 6f 80 87 3c cb c1 80 ba c9 fd a1 3c 82 ac be bb
       0.016540734 -0.000982338 0.019774335 -0.0058189044
000020 0b 7c 93 ba 6d 21 90 3c 64 27 a5 3b b6 6e 00 bd
       -0.0011252178 0.017594064 0.005040096 -0.031355582
000030 f3 bb 8d bc 1a 98 15 3b c6 e2 0e bd 25 36 2a bd
       -0.017301535 0.0022826255 -0.034884237 -0.041555542
000040 4e 2d ec bc eb ad 19 3b 92 3b af bd 0e 90 a4 bb
       -0.028830197 0.002344961 -0.08556284 -0.0050220555
000050 79 c8 a2 bc 5e 9d 93 bd 15 3b 24 bd da af b1 bc
       -0.019870983 -0.0720775 -0.040095408 -0.021690298
000060 ac a1 b6 bd fb b2 60 bc 2a e8 11 bd 77 8c bd 3c
       -0.08917555 -0.013714547 -0.0356218 0.023138268
000070 5e 10 26 3d 36 d3 81 3a 21 b0 d4 3b 98 63 1e 3d
       0.040542953 0.0009904865 0.0064907228 0.0386692
000080 fe f9 8e 3b f6 fd 4f bd fc 24 0b bd ec 04 e9 bc
       0.0043632975 -0.050779305 -0.033970818 -0.02844473
000090 be f1 d7 3c d5 3c ab bc 20 f6 54 bc 2a 86 39 3d
       0.026360389 -0.02090303 -0.012998134 0.045293964
0000a0 54 7c e4 3c b9 ec 7d ba 97 a0 f0 3c 07 d9 b2 bb
       0.027891316 -0.00096864585 0.02937345 -0.0054580006
0000b0 5f 04 27 bd 57 87 26 bd 67 50 66 bc c9 14 c8 bc
       -0.040775653 -0.040656414 -0.014057255 -0.024423974
0000c0 5e c6 36 3d 6d 94 ad bd 6f 2c f6 bc ec f1 ee 3c
       0.04462277 -0.084755756 -0.030050484 0.029168092
0000d0 1c 78 3a 3b ec de 65 bb 76 3f 84 bc 4a 89 94 bb
       0.0028452938 -0.0035075499 -0.016143542 -0.0045329677
0000e0 a2 85 90 bd c2 4a 30 bc 56 b7 7a 3d b7 a6 0e bc
       -0.070567384 -0.010760011 0.06121 -0.00870674
0000f0 c1 f1 72 bc f3 e2 5d 3c f0 3a 16 bc 9e 9f e1 3b
       -0.014828146 0.013542878 -0.009169325 0.006885483
000100 49 23 0c 3c 69 5f 9c 3c 88 d1 3f 3b 98 30 03 bc
       0.0085533345 0.019088464 0.0029269177 -0.008007191
000110 51 0d bf ba ea e8 81 3b fe 85 63 3c 9d 53 02 3c
       -0.0014576112 0.003964533 0.013886927 0.007954505
000120 6f 06 e5 bd 3b ac 60 3c d3 62 55 bd c0 13 d5 3b
       -0.11182868 0.013712938 -0.0520962 0.0065025985
000130 b8 9a 9b 3b b9 98 8a 3b e1 1b 20 bd fa e4 18 bd
       0.0047486685 0.0042296317 -0.039089087 -0.037327744
000140 e6 f2 29 3d 97 53 12 bb 89 dc 74 bb 27 ea a2 bc
       0.04149141 -0.0022327655 -0.0037362895 -0.019887043
000150 67 d7 38 3d f6 04 e1 3c f2 ab 92 3c 70 cd 09 bd
       0.0451273 0.027468186 0.017904256 -0.033643186
000160 7a 4d 37 bd 97 0a ad 3c ad 71 1d bd 8b 65 ba bb
       -0.04475162 0.021123214 -0.038438488 -0.0056883744
000170 3f 7f 19 3d a2 69 d3 ba 88 c1 f6 3c 52 bf cb 3b
       0.037474867 -0.0016129503 0.03012158 0.0062178755
000180 a6 57 98 bd e3 fc 27 bc 35 a2 23 bd a5 dc 02 bd
       -0.074385926 -0.010253164 -0.039949615 -0.031948704
000190 ed 85 40 bc f5 e5 bf bb da 4b 64 bb d9 d8 45 bc
       -0.01175068 -0.0058562704 -0.003483525 -0.012075626
0001a0 50 f0 c7 3c 5d 2d 26 bd eb e1 ae bb 08 66 e8 ba
       0.024406582 -0.040570606 -0.00533699 -0.0017730603
0001b0 47 76 7e bb 63 d7 98 3a 8d 68 18 3d de a9 8d bd
       -0.0038827823 0.001166087 0.037209082 -0.06917165
0001c0 86 90 fd 3c fa 6e 1d bc 38 d5 a5 bd 71 e2 14 bd
       0.030952703 -0.009608978 -0.08097309 -0.036348764
0001d0 8f 4b 5d bd 74 1a a9 3d 86 bd db 3c 51 87 ba 3c
       -0.054027136 0.08256999 0.02682377 0.022769602
0001e0 41 19 2d 3d 52 78 2b bb ae 34 05 3c 73 7d ac 3c
       0.042260412 -0.0026164246 0.008130236 0.021055913
0001f0 84 26 98 3b 20 5a 5f bc a4 da 3e bd a5 3b 0c bc
       0.0046432633 -0.013632327 -0.04659523 -0.008559142
000200 e4 9f 76 3c cd 2e 5c bd f7 b0 ea 3b f5 d5 7d 3d
       0.015052769 -0.05375557 0.007162209 0.061971623
000210 c7 00 6a bb 3a 84 8a 3c ec 8a c1 3c 99 0e e9 bb
       -0.003570603 0.016908754 0.023625813 -0.007112336
000220 8f 72 e1 bc eb c8 e8 bc b0 d9 a0 3b 9f aa d5 bc
       -0.027520446 -0.028416118 0.004908763 -0.026082335
000230 ab 82 22 bd 6d b2 0e bc f6 8b 2d 3c e9 f9 a7 bc
       -0.039675396 -0.008709532 0.010592451 -0.020504909
000240 42 d0 a6 3c 8f e1 81 3c 6e 5e 6b 3d 4e 1c 24 3d
       0.020362977 0.015854625 0.057463102 0.040066056
000250 0b 67 e8 3c 63 fd 98 3a 70 86 14 3d cc ee c0 3c
       0.028369447 0.0011672195 0.036261022 0.023551367
000260 c4 0b 21 3d 09 c4 f2 3b b6 ff 0e bd 65 48 5b bd
       0.03931786 0.007408623 -0.034911834 -0.053535838
000270 82 46 41 bc be 0e 09 bc d6 93 38 bd c1 18 0d 3d
       -0.0117965955 -0.008365331 -0.045062862 0.034447435
000280 3f 07 55 3c 7a 3a 4a bd 04 eb 2f bd c2 6e 5b bd
       0.013002216 -0.049372174 -0.042948738 -0.053572424
000290 11 a5 0f bd 89 c9 85 bc 81 62 c1 bc 22 59 84 bc
       -0.03506953 -0.016331451 -0.02360654 -0.016155783
0002a0 e0 71 91 3d c2 53 d2 3b ed 64 3d 3c bd 8b 10 bb
       0.07101798 0.006418676 0.011559707 -0.0022055947
0002b0 0f 34 87 3c db 2a 9a 3b 92 65 8b bc 29 1d 08 3c
       0.016504316 0.004704816 -0.017016206 0.008307734
0002c0 49 a9 b0 bc b2 cf 51 bd 2f 79 f6 bc 68 2f 2b bd
       -0.021565096 -0.051223464 -0.030087082 -0.041793257
0002d0 5a 05 d2 3c 36 83 1d bd d1 2f 23 bd 03 44 93 bb
       0.025637317 -0.03845521 -0.039840523 -0.0044941916
0002e0 1c 13 11 bc 65 96 ac bc 6c 34 d4 bd ce f1 6d bd
       -0.008854654 -0.021067807 -0.10361561 -0.05809193
0002f0 46 97 2f bd 9c a2 71 3d 0d 5c c4 3c 99 7d c0 3c
       -0.042868875 0.058992967 0.023969674 0.02349739
000300 69 bd e5 3c 19 21 35 3b 76 a5 30 bd 87 6e a6 bc
       0.02804442 0.0027638136 -0.043126546 -0.020316375
000310 c9 c6 45 bd 71 6d 18 bd bb 1c db bc 37 a4 53 3d
       -0.04828528 -0.037213746 -0.026747098 0.05167028
000320 d0 4f 68 bc 70 20 76 3c 6e 42 b3 3c 61 7c 84 3c
       -0.014179185 0.015022382 0.021882262 0.01617259
000330 60 1c 95 3d 69 08 0a 3d 41 98 d1 3d eb 23 b3 3b
       0.07280803 0.033699427 0.10234118 0.0054669282
000340 7f 12 15 3d a2 9e b0 3c 6b 08 5a bc ce 2e a7 3c
       0.036394592 0.021560017 -0.013307671 0.02040806
000350 7c 4f a8 bc e8 b1 83 3c de 0a 20 3d 74 b1 15 bd
       -0.020545714 0.016076043 0.039072864 -0.036546186
000360 62 53 8b 3c 20 e0 b9 3b 2a 54 86 bb 11 94 b0 3b
       0.017007533 0.0056724697 -0.0040993886 0.0053887446
000370 68 2c 24 bc d5 fb 58 bd 9e 39 c2 bb 9f e8 ea 3c
       -0.010020353 -0.05297454 -0.0059272787 0.028675376
000380 69 80 90 3b d2 c8 ba ba 67 e7 4a bc 9b 0a 1d 3c
       0.004409839 -0.0014250523 -0.012384272 0.009585048
000390 b1 d7 89 bc 75 59 64 3c 0f 02 bb bc 21 74 e5 bd
       -0.016826482 0.013937344 -0.02282813 -0.112037905
0003a0 07 81 8c bd ee a7 12 bd 0e c7 ab bb 23 0f 19 3b
       -0.068605475 -0.03580468 -0.005242235 0.002335497
0003b0 d0 7c ee bc 12 d9 1c 3d d3 5d 89 3c e1 5f b6 bc
       -0.02911225 0.038292952 0.016768372 -0.022262516
0003c0 e9 c5 24 3d 32 f6 a1 bc 93 af b4 3c b8 21 9f 3c
       0.040227804 -0.019770715 0.022056377 0.019425258
0003d0 97 7c bd bc d3 b8 0a bc 2b 2b d7 3c 7b 5c 37 bd
       -0.023130698 -0.008466917 0.026265701 -0.04476593
0003e0 21 93 98 ba ed a8 4e 3d 86 62 82 bc 0a 59 65 bd
       -0.0011640528 0.05045407 -0.01591612 -0.055993117
0003f0 bc d8 49 bd 8e 4b 92 3b a2 29 f7 bc 46 5e 50 bd
       -0.04927896 0.004464573 -0.03017122 -0.050871156

body.block3.conv.bias f4 [32]
000000 ff 59 21 3d ca 4f e7 bc 61 f8 27 3d b1 3e 67 bd
       0.039392468 -0.028236289 0.041008357 -0.05645627
000010 e1 ff 6d 3b 2a 8e c5 bd b5 9d e0 bb 76 d8 fd 3c
       0.0036315846 -0.09646256 -0.0068547376 0.030987006
000020 c1 e6 93 bd a8 b6 e8 37 16 18 8b 3c 70 6d 9f 3c
       -0.07221747 2.7741611e-05 0.016979259 0.019461364
000030 28 16 84 bc 6a 8b 52 bc 8d e5 e2 3c 27 e4 19 bd
       -0.016123846 -0.012850622 0.027697349 -0.0375711
000040 0e ad f3 3b ef 58 0c 3d c4 61 34 3d a7 30 62 3c
       0.007436401 0.0342645 0.04403855 0.013805545
000050 3a 03 7a bd 82 e8 85 bd 74 a2 de bc 46 af 50 bd
       -0.061038233 -0.06538488 -0.027177073 -0.050948404
000060 ad a2 87 bd 99 6b 27 bd 18 3b 72 bd fa 5c 29 3d
       -0.06622825 -0.040874097 -0.059138387 0.041348435
000070 3f 8d 2c bd 25 8c d8 3c 6c 55 81 bd 20 89 8b ba
       -0.04212689 0.026434014 -0.06315121 -0.0010645725

body.block3.norm.weight f4 [32]
000000 34 eb 71 3f 38 af 8b 3f 0e 14 7a 3f 12 28 7b 3f
       0.94499516 1.0912848 0.9768685 0.9810802
000010 b8 31 71 3f f8 24 6e 3f fe af 83 3f 20 c2 79 3f
       0.9421649 0.9302516 1.0288084 0.97561836
000020 59 02 80 3f f8 68 70 3f 81 83 89 3f 6a 1f 83 3f
       1.0000716 0.9391017 1.0743257 1.0243962
000030 33 5e 7b 3f e2 11 75 3f 16 94 72 3f ad 81 6d 3f
       0.9819061 0.9573041 0.9475721 0.92775995
000040 40 c2 7c 3f ef 3f 7a 3f 0c 71 76 3f 64 a5 74 3f
       0.987339 0.97753805 0.96266246 0.95564866
000050 13 40 7b 3f 9a d2 67 3f 5b 1a 86 3f 5a fd 82 3f
       0.98144644 0.9055573 1.0476793 1.0233567
000060 1e e4 80 3f f2 44 6f 3f 7a 9c 73 3f 97 43 6f 3f
       1.0069616 0.9346458 0.9516064 0.9346251
000070 9b b2 61 3f 7a f8 74 3f 4b b6 6e 3f 16 5d 74 3f
       0.88163155 0.95691645 0.93246907 0.9545454

body.block3.norm.bias f4 [32]
000000 d5 6f 12 be 80 ea 84 be ae 3f e2 bc 0e 2a f7 bd
       -0.14300473 -0.2596016 -0.027618255 -0.12068568
000010 1f 6b 23 be 27 c1 f5 bc b0 ec ba bd eb 3d 36 be
       -0.15958832 -0.029999329 -0.09127176 -0.17797057
000020 46 e3 0d be 48 3e 45 bd ce 13 fa bd 7a 6e fc bd
       -0.13856229 -0.0481551 -0.12210809 -0.12325759
000030 cd 8f 96 bd 98 62 df bd c6 1a 13 be 85 42 8b bd
       -0.073516466 -0.10907477 -0.14365682 -0.06799797
000040 27 53 99 bd a6 59 6e bd 89 c9 dd bd 17 88 73 be
       -0.07486563 -0.058190964 -0.108294554 -0.23782383
000050 3d 62 12 3d 9c 98 a7 bc be bf 78 be dc 71 1f bd
       0.03573822 -0.020458512 -0.24291894 -0.038926944
000060 03 56 6a be 49 33 5d bd 79 bb 5c be 54 02 86 bb
       -0.22884373 -0.054003987 -0.2155589 -0.004089633
000070 aa 90 88 bd eb be 3a be 17 4b c3 bd 1e a8 b4 bd
       -0.066682175 -0.18236892 -0.095358066 -0.08821128

body.block3.norm.running_mean f4 [32]
000000 7a 78 f6 be 8a 26 e4 bb 8e d0 5d 3d 49 fc cf be
       -0.4813879 -0.006962602 0.05415397 -0.40622166
000010 4b 3c c6 be 27 e4 3e be 77 76 e6 be 95 5a 28 3e
       -0.38717875 -0.1864172 -0.45012257 0.16440804
000020 c8 87 ca be 2b cb fe bc ee 13 0c 3e 12 99 ff bd
       -0.39556718 -0.031102737 0.13679478 -0.12480368
000030 e6 02 0d bd b3 97 f9 be 57 37 b6 3d e8 ba 98 bf
       -0.034426592 -0.4874855 0.08897274 -1.1932039
000040 ed 5d bb 3e 10 60 89 be 1c 10 25 bf 18 25 d3 be
       0.36595097 -0.26831102 -0.64477706 -0.41239238
000050 4a 30 93 bf b4 ee 76 bf fe 7d db 3d 51 7c bf bd
       -1.1499112 -0.9645798 0.107173905 -0.09349883
000060 87 30 1f bc f4 d9 30 bf ed df 25 bf 59 1f e4 be
       -0.00971616 -0.6908257 -0.6479481 -0.44555166
000070 7b 40 b1 be c6 34 78 bf f7 1e 1e bf 03 b4 e2 bc
       -0.34619507 -0.96955526 -0.61766 -0.027673727

body.block3.norm.running_var f4 [32]
000000 60 d9 75 3e 2d 13 10 3e 31 20 23 3f cc 2e b4 3f
       0.24008703 0.14069815 0.63720995 1.4076781
000010 fa fc 8a 3e 51 a8 e2 3e 57 9a 4b 3f 53 7c eb 3e
       0.2714613 0.4426904 0.7953238 0.4599329
000020 0f 3c 9a 3f a7 0d 19 3f 6f c1 06 3f ab 40 97 3f
       1.2049578 0.59786457 0.52638906 1.181661
000030 18 0d e0 3f 99 54 d1 3e 8f 88 13 3f 91 f0 56 3f
       1.7503996 0.40884855 0.57630247 0.83960825
000040 5c fa a2 3f 7d 2a 8f 3e c3 b2 b3 3e ac f3 1f 3f
       1.2732654 0.27962103 0.35097322 0.6248119
000050 f3 97 01 40 6e fc b5 3e e6 77 35 3f 97 e9 67 3e
       2.0248992 0.3554415 0.70886075 0.22647701
000060 0f fe e4 3e 0e be 3e 40 a0 20 6c 3e c7 49 38 40
       0.4472508 2.98035 0.2305932 2.879503
000070 63 59 3f 3f e4 16 d9 3e 97 04 aa 3f c7 02 11 3f
       0.7474577 0.42400277 1.3282651 0.5664486
